config/results/temp0/PathFollowing/PathFollowing-0.onnx (onnx, 695646 bytes, 7 tensors)

action_model._continuous_distribution.log_sigma f4 [1, 3]
00000000: 0000 0000 0000 0000 0000 0000
0.0 0.0 0.0

action_model._continuous_distribution.mu.bias f4 [3]
00000000: 0000 0000 0000 0000 0000 0000
0.0 0.0 0.0

action_model._continuous_distribution.mu.weight f4 [3, 256]
00000000: 5ba5 f7ba 6831 8f3c 8313 aebc f163 c439
00000010: 383b 0dbb c2dd b83c 9d2f 5dbc d3fc 01bc
00000020: d5f2 673a 030a 9d3c 45e4 103b c0e0 0cbb
00000030: bbdf 2fbb 8854 fabb 174b 88bb 67b1 0ebc
00000040: 6f4f 4abc de57 aa3b 3a07 de3b ab06 de3b
00000050: d811 24ba a79f 09bc c821 613a ec02 9cbc
00000060: 7fb1 5c3c 1281 553b 1327 013c da6b 4b39
00000070: 7729 8fbb 2163 443b 41ec 8e3b 45c0 b6ba
00000080: 4b30 363a ef95 1ebc 6bf1 8b3c 387c 823b
00000090: 293a 36bc 624b 583c 3a06 5abc d1ef 25bb
000000a0: 95fd 0cbc 6503 1ebc 5b0f 5bbc c2c8 123c
000000b0: b761 adbc 77ee 2a3c 6a40 08bc 9fe3 513c
000000c0: 065d c83b bd09 623c 7421 c03b 999f 47ba
000000d0: 9504 943b f9bf 123c 30f9 a5bc b50b f03b
000000e0: 17d7 483c 1f4b ef3b 9871 20bc 4a39 153c
000000f0: af4d 6d3b 7f04 283c 3fd9 583b 11be 2abc
00000100: 43bf 653c 2358 dcbb c85b 70bc 2c23 273c
00000110: 67ea 77bc 1355 84bc 8093 2cbc 8348 d2bb
00000120: 7cf5 19bc 37f6 243c bf53 633c ea71 5fbc
00000130: 3abf 31bc 08e2 1cbb 5b71 2dbb 5255 a53b
00000140: 1fa7 98bb 7524 96bc e22a b3bb ca10 a7bb
00000150: 8b87 863b f58c 09ba e8f0 da3b fd9c 4e3c
00000160: d73a a03b 59ba 0e3a f5c2 863c 3e84 a0bb
00000170: 58ee e336 9f20 b73c aaa9 70bb 7945 963c
00000180: db27 173c f8eb 473c b818 1b3d 57ec a9ba
00000190: fe11 04bd 2ab7 0a3d 6598 583a 7310 0fbc
000001a0: bde6 3bbc 284e d5bc cd8f d83b 7f7c 5b3a
000001b0: 2248 5c3c 432b a6bc cbff b63c e8ee a0bc
000001c0: c815 4938 b4f4 433c 580b 573b e939 9b3b
000001d0: b6a9 133d d613 b4b8 b2ef 53bb ead2 573c
000001e0: 9d30 f33b e5c3 7fbb 50ba 133c 5a03 79bb
000001f0: b2cd ffbb 7988 c7bb 38f7 32bc 64db 97bc
00000200: f088 213a 2d6a a2ba 41cb 953c d5aa 73bc
00000210: 4b3e 983c 8caa 97bc b57b 83bc 1d72 11bc
00000220: eb81 43bc bfa7 6e3c ed9d 9ebb afea 87ba
00000230: 7269 13bc 55e0 653c 8815 b6bb 7773 103c
00000240: 5d4e f63b 1a1d c03b 6dde 1f3a 3790 4fbc
00000250: c312 0a3c 2476 443a 5d90 603b 35c3 cf3b
00000260: 3eee 2d3c 0ec4 c83a dbc6 ae3c adb8 0cbc
00000270: 1b8f 703c 8f1a d4bb 7d8d 2f3b 5d63 e9ba
00000280: ddbe 9e3a 40fe be3b b911 14bc 1a1d 5ebb
00000290: 73d6 b0bc 7980 a6ba 2506 e7bb b2c8 863c
000002a0: bc7c a43c da3e 8d3c 95cc 643c 211a a7bc
000002b0: 1741 8e3b 0775 98bc 5a89 6339 bd31 34bc
000002c0: c2db c23b 0f8b 1fba c2a0 dc3a b4af 013c
000002d0: ea30 d7bc ff81 8739 b2f5 eebb 8d3d 16bc
000002e0: 33fd 16bc e762 b53a 2dc0 473c a9b1 993b
000002f0: 779e 5c3b 307a 8d3b 73fa 8a3b 228d 0dbc
00000300: b2e4 d9bb 8708 a0bb 8fb7 16bb 25b6 503c
00000310: 35c5 e9bb af37 0e3a acb6 21bc 602c 223c
00000320: fbb3 ed3a 1b64 573c 4834 4d3c d90d b6bc
00000330: 6c6a 273c 15a2 8aba 1fb8 de3b a7c7 4bbb
00000340: f37a b8bb 3350 6b3a accb 33bc c015 6dbc
00000350: a8ad 9c3b a122 a03b 4d95 bd3c 037a 13bb
00000360: 070e 2ebb 716b 95bc 0358 8a3c afbd 663c
00000370: 576c 61bb 3b8c 35bb fe83 3ebb 475d b83c
00000380: d192 8638 8548 623c b8a9 7dbb 28f7 62bc
00000390: ca12 253c f748 263b 5fca 993a bf25 1e3a
000003a0: fa4b b63c 4b6e 2c3c 88cc 0c3b 33e6 c1bb
000003b0: f0b2 973c 6b5c 253c 5d96 6f3b 13de 823b
000003c0: 594d c93b 874d 90bc 29fe 21bd 2028 a73c
000003d0: 9753 143b a4e9 8a3c e2e5 653c cf44 10bc
000003e0: 5b78 1cbc 5bfa c53b 000c d4bb 4bce ed3a
000003f0: 983a 6abc 1c53 0e3c 2541 f939 8f8e a6bc
-0.0018893884 0.017479613 -0.021249538 0.00037458495 -0.002155019 0.02256668 -0.013500121 -0.007933813
0.00088481355 0.019169813 0.0022108715 -0.0021496266 -0.0026836235 -0.0076394714 -0.004159342 -0.008709288
-0.01234804 0.005198463 0.006775764 0.006775697 -0.00062587624 -0.0083998805 0.00085881026 -0.019044362
0.013470053 0.0032578153 0.007882851 0.00019399766 -0.0043689567 0.0029966312 0.0043616598 -0.0013942799
0.0006949945 -0.009679302 0.01708289 0.003982093 -0.011122265 0.013201566 -0.013307149 -0.0025319944
-0.008605381 -0.009644364 -0.01337036 0.008958997 -0.021164758 0.010432831 -0.008316139 0.012810617
0.006114605 0.013796267 0.005863363 -0.00076150295 0.004517148 0.008956903 -0.020260423 0.0073256143
0.012258313 0.0073026563 -0.009792708 0.009107897 0.0036209633 0.010254978 0.0033088473 -0.010421292
0.014022651 -0.006724374 -0.01467032 0.010201257 -0.0151315695 -0.016153848 -0.010533214 -0.0064173355
-0.009396907 0.010068468 0.013874947 -0.013637999 -0.010848815 -0.0023938436 -0.002646527 0.0050455714
-0.0046585943 -0.018327931 -0.0054677585 -0.005098437 0.0041055134 -0.00052471395 0.0066815503 0.012610671
0.0048898268 0.0005444638 0.016450385 -0.004898577 6.792874e-06 0.022354422 -0.0036722221 0.018343674
0.009225811 0.012202255 0.03786537 -0.0012964112 -0.03224372 0.033866085 0.00082624546 -0.008731949
-0.0114685865 -0.026038244 0.0066089393 0.00083727384 0.013444932 -0.0202843 0.022338768 -0.01964517
4.794242e-05 0.011960197 0.0032813158 0.004737128 0.03605052 -8.5867636e-05 -0.0032338914 0.013172844
0.0074215666 -0.0039026674 0.009016588 -0.0037996382 -0.007806503 -0.006089267 -0.010923199 -0.01853723
0.0006162068 -0.0012391262 0.018285396 -0.0148722725 0.018584391 -0.01851394 -0.016050199 -0.008877304
-0.01193283 0.014566361 -0.0048406036 -0.0010369624 -0.008997308 0.014030536 -0.005556766 0.008816591
0.007516666 0.005862844 0.00060985127 -0.012668661 0.008427325 0.0007494411 0.0034265735 0.006340409
0.010615883 0.0015317218 0.021335056 -0.008588952 0.0146825565 -0.0064728926 0.0026787214 -0.0017806102
0.0012111325 0.005828649 -0.009037429 -0.0033891858 -0.021586632 -0.0012703083 -0.007050293 0.01645312
0.02007901 0.017241884 0.013964792 -0.020398201 0.0043412554 -0.01861049 0.00021699574 -0.010998187
0.0059466073 -0.000608609 0.0016832578 0.007915426 -0.026268441 0.0002584606 -0.0072924728 -0.009169948
-0.009215641 0.0013838679 0.012191814 0.004690368 0.0033663788 0.0043175444 0.0042412817 -0.008639606
-0.006649577 -0.004883829 -0.0022997593 0.012738739 -0.0071341046 0.00054251676 -0.0098702125 0.009898275
0.0018135303 0.013146426 0.012524672 -0.0222234 0.010218244 -0.0010576869 0.0067968513 -0.0031094344
-0.005629891 0.0008976489 -0.010973852 -0.014470518 0.0047814436 0.0048869406 0.023142481 -0.0022503145
-0.0026558654 -0.018239709 0.01688767 0.01408331 -0.003439685 -0.0027701992 -0.0029070373 0.022505416
6.4169646e-05 0.013811235 -0.0038705897 -0.013852872 0.01007528 0.002537308 0.0011733285 0.0006032846
0.022253025 0.010524343 0.0021484215 -0.0059173345 0.018517941 0.010092835 0.003655813 0.0039937585
0.0061432538 -0.017615093 -0.039549027 0.020404875 0.0022632831 0.016957112 0.014031859 -0.008805468
-0.009550179 0.0060418076 -0.006471157 0.0018143145 -0.014296196 0.008686807 0.00047541517 -0.02033165

network_body.linear_encoder.seq_layers.0.bias f4 [256]
00000000: 0000 0000 0000 0000 0000 0000 0000 0000
00000010: 0000 0000 0000 0000 0000 0000 0000 0000
00000020: 0000 0000 0000 0000 0000 0000 0000 0000
00000030: 0000 0000 0000 0000 0000 0000 0000 0000
00000040: 0000 0000 0000 0000 0000 0000 0000 0000
00000050: 0000 0000 0000 0000 0000 0000 0000 0000
00000060: 0000 0000 0000 0000 0000 0000 0000 0000
00000070: 0000 0000 0000 0000 0000 0000 0000 0000
00000080: 0000 0000 0000 0000 0000 0000 0000 0000
00000090: 0000 0000 0000 0000 0000 0000 0000 0000
000000a0: 0000 0000 0000 0000 0000 0000 0000 0000
000000b0: 0000 0000 0000 0000 0000 0000 0000 0000
000000c0: 0000 0000 0000 0000 0000 0000 0000 0000
000000d0: 0000 0000 0000 0000 0000 0000 0000 0000
000000e0: 0000 0000 0000 0000 0000 0000 0000 0000
000000f0: 0000 0000 0000 0000 0000 0000 0000 0000
00000100: 0000 0000 0000 0000 0000 0000 0000 0000
00000110: 0000 0000 0000 0000 0000 0000 0000 0000
00000120: 0000 0000 0000 0000 0000 0000 0000 0000
00000130: 0000 0000 0000 0000 0000 0000 0000 0000
00000140: 0000 0000 0000 0000 0000 0000 0000 0000
00000150: 0000 0000 0000 0000 0000 0000 0000 0000
00000160: 0000 0000 0000 0000 0000 0000 0000 0000
00000170: 0000 0000 0000 0000 0000 0000 0000 0000
00000180: 0000 0000 0000 0000 0000 0000 0000 0000
00000190: 0000 0000 0000 0000 0000 0000 0000 0000
000001a0: 0000 0000 0000 0000 0000 0000 0000 0000
000001b0: 0000 0000 0000 0000 0000 0000 0000 0000
000001c0: 0000 0000 0000 0000 0000 0000 0000 0000
000001d0: 0000 0000 0000 0000 0000 0000 0000 0000
000001e0: 0000 0000 0000 0000 0000 0000 0000 0000
000001f0: 0000 0000 0000 0000 0000 0000 0000 0000
00000200: 0000 0000 0000 0000 0000 0000 0000 0000
00000210: 0000 0000 0000 0000 0000 0000 0000 0000
00000220: 0000 0000 0000 0000 0000 0000 0000 0000
00000230: 0000 0000 0000 0000 0000 0000 0000 0000
00000240: 0000 0000 0000 0000 0000 0000 0000 0000
00000250: 0000 0000 0000 0000 0000 0000 0000 0000
00000260: 0000 0000 0000 0000 0000 0000 0000 0000
00000270: 0000 0000 0000 0000 0000 0000 0000 0000
00000280: 0000 0000 0000 0000 0000 0000 0000 0000
00000290: 0000 0000 0000 0000 0000 0000 0000 0000
000002a0: 0000 0000 0000 0000 0000 0000 0000 0000
000002b0: 0000 0000 0000 0000 0000 0000 0000 0000
000002c0: 0000 0000 0000 0000 0000 0000 0000 0000
000002d0: 0000 0000 0000 0000 0000 0000 0000 0000
000002e0: 0000 0000 0000 0000 0000 0000 0000 0000
000002f0: 0000 0000 0000 0000 0000 0000 0000 0000
00000300: 0000 0000 0000 0000 0000 0000 0000 0000
00000310: 0000 0000 0000 0000 0000 0000 0000 0000
00000320: 0000 0000 0000 0000 0000 0000 0000 0000
00000330: 0000 0000 0000 0000 0000 0000 0000 0000
00000340: 0000 0000 0000 0000 0000 0000 0000 0000
00000350: 0000 0000 0000 0000 0000 0000 0000 0000
00000360: 0000 0000 0000 0000 0000 0000 0000 0000
00000370: 0000 0000 0000 0000 0000 0000 0000 0000
00000380: 0000 0000 0000 0000 0000 0000 0000 0000
00000390: 0000 0000 0000 0000 0000 0000 0000 0000
000003a0: 0000 0000 0000 0000 0000 0000 0000 0000
000003b0: 0000 0000 0000 0000 0000 0000 0000 0000
000003c0: 0000 0000 0000 0000 0000 0000 0000 0000
000003d0: 0000 0000 0000 0000 0000 0000 0000 0000
000003e0: 0000 0000 0000 0000 0000 0000 0000 0000
000003f0: 0000 0000 0000 0000 0000 0000 0000 0000
0.0 0.0 0.0 0.0 0.0 0.0 0.0 0.0
0.0 0.0 0.0 0.0 0.0 0.0 0.0 0.0
0.0 0.0 0.0 0.0 0.0 0.0 0.0 0.0
0.0 0.0 0.0 0.0 0.0 0.0 0.0 0.0
0.0 0.0 0.0 0.0 0.0 0.0 0.0 0.0
0.0 0.0 0.0 0.0 0.0 0.0 0.0 0.0
0.0 0.0 0.0 0.0 0.0 0.0 0.0 0.0
0.0 0.0 0.0 0.0 0.0 0.0 0.0 0.0
0.0 0.0 0.0 0.0 0.0 0.0 0.0 0.0
0.0 0.0 0.0 0.0 0.0 0.0 0.0 0.0
0.0 0.0 0.0 0.0 0.0 0.0 0.0 0.0
0.0 0.0 0.0 0.0 0.0 0.0 0.0 0.0
0.0 0.0 0.0 0.0 0.0 0.0 0.0 0.0
0.0 0.0 0.0 0.0 0.0 0.0 0.0 0.0
0.0 0.0 0.0 0.0 0.0 0.0 0.0 0.0
0.0 0.0 0.0 0.0 0.0 0.0 0.0 0.0
0.0 0.0 0.0 0.0 0.0 0.0 0.0 0.0
0.0 0.0 0.0 0.0 0.0 0.0 0.0 0.0
0.0 0.0 0.0 0.0 0.0 0.0 0.0 0.0
0.0 0.0 0.0 0.0 0.0 0.0 0.0 0.0
0.0 0.0 0.0 0.0 0.0 0.0 0.0 0.0
0.0 0.0 0.0 0.0 0.0 0.0 0.0 0.0
0.0 0.0 0.0 0.0 0.0 0.0 0.0 0.0
0.0 0.0 0.0 0.0 0.0 0.0 0.0 0.0
0.0 0.0 0.0 0.0 0.0 0.0 0.0 0.0
0.0 0.0 0.0 0.0 0.0 0.0 0.0 0.0
0.0 0.0 0.0 0.0 0.0 0.0 0.0 0.0
0.0 0.0 0.0 0.0 0.0 0.0 0.0 0.0
0.0 0.0 0.0 0.0 0.0 0.0 0.0 0.0
0.0 0.0 0.0 0.0 0.0 0.0 0.0 0.0
0.0 0.0 0.0 0.0 0.0 0.0 0.0 0.0
0.0 0.0 0.0 0.0 0.0 0.0 0.0 0.0

network_body.linear_encoder.seq_layers.0.weight f4 [256, 416]
00000000: 4bf7 913c f5d9 b3bc 51bc 5abd 9391 68bc
00000010: dcf1 bebb a653 463d bb34 26bd ece4 dd3c
00000020: 81cb 04bc aada 0abe 1fd0 a13d b78d 4e3d
00000030: d738 f23c 4323 9fbd 55b5 013d 46ef 62bd
00000040: 6751 c9bc eba3 84bd 3128 8bbd 087f b2bd
00000050: fdaa e43c ebc7 53ba 043d c0ba 2f59 31bd
00000060: 8378 ee3a 5a31 853c 4d92 0cbb 00b6 863c
00000070: 04b9 8f3c 0783 c33c 214f 67bd 2c74 573d
00000080: b369 7b3d cbdf 323a ab36 1fbd e73b 953d
00000090: e9bf 1b3d b727 433b ba16 653d dee0 fd3c
000000a0: 027c b73d 88b7 823d 6e2e 353d 2f4c fc3c
000000b0: 5a49 1a3d ad99 913c 639b b0ba 6bff 37be
000000c0: 62ee a73d b60f b7bc b83a ae3d 1262 623d
000000d0: 15bf 273c c04e 873d 41a1 e9bc 78bc 4e3d
000000e0: 48f6 11bd 8207 083c 4d03 cd3c fa56 823d
000000f0: 79c8 4abd 92d0 98bd 8fab 183d dd9d a9bb
00000100: db6d 61bd fcd2 263d 52a9 343d 873e d93d
00000110: 7895 33bd ca9f 9c3b 9432 4b3b 5874 11bd
00000120: e68c 003c 85d5 4b3d fe40 513d 5903 303c
00000130: 9c20 38bc 130d e53c e91a 89bc 6d9e 3cbd
00000140: abf6 613c 2dac b63d 700e 033c 5697 733d
00000150: fa70 0d3c 1a82 d23c 5dd1 ebbd 41b0 3a3b
00000160: 21ba 1abd 553d 083d 9ab7 c43c 36b9 1cbc
00000170: edeb 593c 599b a63d 54f4 0fbd ab32 ccbb
00000180: 05d1 d9bc 16df 7ebd dd7b 1abd f780 b63c
00000190: 2f57 6b3d 43d4 dabd 3fdb 513b 9e24 c3bd
000001a0: 4f6f 993b 4330 d9bb 8f09 da39 7bfa 303d
000001b0: 2d07 16bd 7299 7fbc 1f1e 193d 7c9d 9f3c
000001c0: d6f2 42bd 93ba 313d 0373 003d 15ce db3d
000001d0: 13e7 c93c ab92 65bd 8ff0 7cbd 5ebe 493c
000001e0: a035 94bd b23a 3bbc 9209 983c c013 3b3d
000001f0: a843 203d e845 bfbc 0472 7a3d 17ae 8a3d
00000200: 7800 ab3d 3a93 243d 23bd 863c 5e39 6bbc
00000210: 9d14 a23c 86c4 76bd c66c 823d 7e38 7abd
00000220: 11f1 853c 5b4b 72bc e453 773d b394 87bc
00000230: 6be9 353d 9126 5ebd 3585 95bd 84ef aabd
00000240: 01b0 203c 8a46 893d c93a 9dbd 4dbb debc
00000250: 74b6 813d 14db 4e3c 1711 b33d b46f 60bc
00000260: 9f14 933d 67ec f13c 8df6 a3bb b140 d83c
00000270: 4d9b dabc 4509 4f3d 0069 b1bd 2950 63bd
00000280: 05a4 833d 6df4 f8bd d8ef 55bd b544 b93d
00000290: 067a f73b c481 76bd a16f 6bbc f3f4 be3d
000002a0: 102e 99bc 324d 413c a365 5bbd 5b33 8a3d
000002b0: 6700 243d a95c 3cbd 93af 7e3b f729 49bd
000002c0: f73a fe37 01a1 fbbc d89e 743d af7c 4d3d
000002d0: 6032 103d 6076 e73c d443 b2bd ace0 94bc
000002e0: 4adf 15bd 0c4e 923d be7e f8bb d143 3bbc
000002f0: 997d 0ebd 7a1f 3c3d d6ea cdbc ba36 3bbc
00000300: 5775 0e3d 8cec 1abd d30c 4ebd 1a39 40bd
00000310: f5a6 8c3c c904 77bd 69ed 443b 67da 17bc
00000320: 6c3c a33c 580f 39bd cad7 edbc 42f3 a5bc
00000330: 8d48 24bd 4751 a9bc fcbb 803c 428b aebb
00000340: 93a5 403d 9abc 16bd f88b eabb 8745 15bd
00000350: 9aab 04bd 2670 06bd fad0 a339 f9d9 aebb
00000360: bff1 a93b 6935 f5bd 9f67 e8bc 7212 053d
00000370: 57aa bcbd 5925 d53c 92de 2bbd 6d31 9d3d
00000380: 077e 07bd b457 17bd dd6d 8a3c 829e 44bd
00000390: b7b9 e4bc dc66 8a3d 66ec c7bc aa36 ad3d
000003a0: 7f93 2d3d 1fc4 823d 0504 44bd bc90 15bd
000003b0: 1a1f 2d3d 11bc ae3d de7c db3d fadf d6bc
000003c0: ac1d 16bc e4d0 853c 3b41 72bd 1cc0 f8bc
000003d0: 38a6 e03c d627 303b 842c 7ebc 4ddc 83bd
000003e0: d70a 9b3c 62fe ae3c 45c4 d83d fb3b 4a3c
000003f0: cf8b 1a3b 4a28 d6bc f6e5 783c 5b6a c8bc
0.017818114 -0.021954516 -0.05340225 -0.014194864 -0.0058271717 0.048419617 -0.04057763 0.027086698
-0.00810516 -0.13559976 0.07901024 0.05042812 0.029568119 -0.077703975 0.031667072 -0.05540397
-0.024574948 -0.06476577 -0.06794775 -0.087156355 0.027913565 -0.00080788013 -0.0014666622 -0.043297943
0.0018193874 0.016258884 -0.0021449507 0.016444206 0.017544277 0.02386619 -0.056471948 0.052601025
0.0613801 0.0006823509 -0.038870495 0.07286816 0.038024817 0.002977831 0.055929877 0.030991014
0.089591995 0.06382662 0.044233732 0.030798046 0.03766761 0.017773474 -0.0013474043 -0.17968528
0.08199765 -0.022346359 0.085072935 0.05526931 0.010238429 0.06606817 -0.028519275 0.050472707
-0.035635263 0.008302571 0.025025988 0.06364246 -0.049507592 -0.07461657 0.037272986 -0.0051762895
-0.055036407 0.040728554 0.04410679 0.10607629 -0.043843716 0.0047797905 0.0031005489 -0.035511345
0.007846093 0.049764175 0.051087372 0.010742986 -0.011238243 0.027960336 -0.016736465 -0.046049524
0.01379172 0.08919559 0.007999048 0.059470497 0.008632893 0.025696803 -0.11514542 0.0028486403
-0.037775163 0.033261616 0.02401333 -0.009565642 0.013300878 0.08135099 -0.03514512 -0.006231626
-0.026588926 -0.06222447 -0.03771578 0.022278292 0.05745619 -0.10685017 0.003202155 -0.095284685
0.0046824585 -0.0066280677 0.00041587322 0.043207627 -0.036627937 -0.015600549 0.03738224 0.019484274
-0.047594868 0.04339082 0.031359684 0.107326664 0.024646318 -0.056048077 -0.061752852 0.0123134535
-0.07236791 -0.011427568 0.018559251 0.045673132 0.039127022 -0.023348764 0.06114389 0.06771486
0.08349699 0.04017947 0.01644761 -0.014356939 0.01978522 -0.060246013 0.06368403 -0.06108903
0.016350301 -0.014788474 0.06038274 -0.016550398 0.044412058 -0.054236 -0.07300798 -0.08346465
0.009807588 0.067029074 -0.07677228 -0.027188921 0.06333628 0.0126254745 0.08743494 -0.013698507
0.071816675 0.02953167 -0.0050037564 0.026398035 -0.026685381 0.05054595 -0.08662605 -0.05549637
0.064277686 -0.121559955 -0.052230686 0.09046308 0.007552388 -0.060182348 -0.014369876 0.09324064
-0.018698722 0.01179819 -0.053563725 0.067480765 0.040039446 -0.045986805 0.0038861975 -0.049112286
3.0306617e-05 -0.030716421 0.059721798 0.050167736 0.03520429 0.028254688 -0.087043434 -0.018173538
-0.0365899 0.071437925 -0.007583468 -0.011429743 -0.034787748 0.045928456 -0.025136393 -0.011426622
0.034779873 -0.037823245 -0.0503052 -0.046929456 0.017169455 -0.060307298 0.0030048734 -0.00926838
0.019926272 -0.04518065 -0.02903356 -0.020257596 -0.040108252 -0.020668639 0.015714638 -0.0053266594
0.047032904 -0.03680096 -0.007157799 -0.03644326 -0.032390215 -0.032821797 0.00031245482 -0.005336043
0.005186289 -0.11973078 -0.028369723 0.032488294 -0.09212177 0.026018785 -0.041960306 0.07675443
-0.033079173 -0.036948875 0.01689809 -0.048002727 -0.027920587 0.067579 -0.024404716 0.08457692
0.04237699 0.063850634 -0.047855396 -0.036514983 0.04226599 0.085319646 0.10717176 -0.026229847
-0.009162348 0.016334958 -0.05914424 -0.030365042 0.02742301 0.0026879213 -0.015513543 -0.064385034
0.018926067 0.021361534 0.105843104 0.012343402 0.0023581868 -0.026142258 0.015191546 -0.024464777

network_body.linear_encoder.seq_layers.2.bias f4 [256]
00000000: 0000 0000 0000 0000 0000 0000 0000 0000
00000010: 0000 0000 0000 0000 0000 0000 0000 0000
00000020: 0000 0000 0000 0000 0000 0000 0000 0000
00000030: 0000 0000 0000 0000 0000 0000 0000 0000
00000040: 0000 0000 0000 0000 0000 0000 0000 0000
00000050: 0000 0000 0000 0000 0000 0000 0000 0000
00000060: 0000 0000 0000 0000 0000 0000 0000 0000
00000070: 0000 0000 0000 0000 0000 0000 0000 0000
00000080: 0000 0000 0000 0000 0000 0000 0000 0000
00000090: 0000 0000 0000 0000 0000 0000 0000 0000
000000a0: 0000 0000 0000 0000 0000 0000 0000 0000
000000b0: 0000 0000 0000 0000 0000 0000 0000 0000
000000c0: 0000 0000 0000 0000 0000 0000 0000 0000
000000d0: 0000 0000 0000 0000 0000 0000 0000 0000
000000e0: 0000 0000 0000 0000 0000 0000 0000 0000
000000f0: 0000 0000 0000 0000 0000 0000 0000 0000
00000100: 0000 0000 0000 0000 0000 0000 0000 0000
00000110: 0000 0000 0000 0000 0000 0000 0000 0000
00000120: 0000 0000 0000 0000 0000 0000 0000 0000
00000130: 0000 0000 0000 0000 0000 0000 0000 0000
00000140: 0000 0000 0000 0000 0000 0000 0000 0000
00000150: 0000 0000 0000 0000 0000 0000 0000 0000
00000160: 0000 0000 0000 0000 0000 0000 0000 0000
00000170: 0000 0000 0000 0000 0000 0000 0000 0000
00000180: 0000 0000 0000 0000 0000 0000 0000 0000
00000190: 0000 0000 0000 0000 0000 0000 0000 0000
000001a0: 0000 0000 0000 0000 0000 0000 0000 0000
000001b0: 0000 0000 0000 0000 0000 0000 0000 0000
000001c0: 0000 0000 0000 0000 0000 0000 0000 0000
000001d0: 0000 0000 0000 0000 0000 0000 0000 0000
000001e0: 0000 0000 0000 0000 0000 0000 0000 0000
000001f0: 0000 0000 0000 0000 0000 0000 0000 0000
00000200: 0000 0000 0000 0000 0000 0000 0000 0000
00000210: 0000 0000 0000 0000 0000 0000 0000 0000
00000220: 0000 0000 0000 0000 0000 0000 0000 0000
00000230: 0000 0000 0000 0000 0000 0000 0000 0000
00000240: 0000 0000 0000 0000 0000 0000 0000 0000
00000250: 0000 0000 0000 0000 0000 0000 0000 0000
00000260: 0000 0000 0000 0000 0000 0000 0000 0000
00000270: 0000 0000 0000 0000 0000 0000 0000 0000
00000280: 0000 0000 0000 0000 0000 0000 0000 0000
00000290: 0000 0000 0000 0000 0000 0000 0000 0000
000002a0: 0000 0000 0000 0000 0000 0000 0000 0000
000002b0: 0000 0000 0000 0000 0000 0000 0000 0000
000002c0: 0000 0000 0000 0000 0000 0000 0000 0000
000002d0: 0000 0000 0000 0000 0000 0000 0000 0000
000002e0: 0000 0000 0000 0000 0000 0000 0000 0000
000002f0: 0000 0000 0000 0000 0000 0000 0000 0000
00000300: 0000 0000 0000 0000 0000 0000 0000 0000
00000310: 0000 0000 0000 0000 0000 0000 0000 0000
00000320: 0000 0000 0000 0000 0000 0000 0000 0000
00000330: 0000 0000 0000 0000 0000 0000 0000 0000
00000340: 0000 0000 0000 0000 0000 0000 0000 0000
00000350: 0000 0000 0000 0000 0000 0000 0000 0000
00000360: 0000 0000 0000 0000 0000 0000 0000 0000
00000370: 0000 0000 0000 0000 0000 0000 0000 0000
00000380: 0000 0000 0000 0000 0000 0000 0000 0000
00000390: 0000 0000 0000 0000 0000 0000 0000 0000
000003a0: 0000 0000 0000 0000 0000 0000 0000 0000
000003b0: 0000 0000 0000 0000 0000 0000 0000 0000
000003c0: 0000 0000 0000 0000 0000 0000 0000 0000
000003d0: 0000 0000 0000 0000 0000 0000 0000 0000
000003e0: 0000 0000 0000 0000 0000 0000 0000 0000
000003f0: 0000 0000 0000 0000 0000 0000 0000 0000
0.0 0.0 0.0 0.0 0.0 0.0 0.0 0.0
0.0 0.0 0.0 0.0 0.0 0.0 0.0 0.0
0.0 0.0 0.0 0.0 0.0 0.0 0.0 0.0
0.0 0.0 0.0 0.0 0.0 0.0 0.0 0.0
0.0 0.0 0.0 0.0 0.0 0.0 0.0 0.0
0.0 0.0 0.0 0.0 0.0 0.0 0.0 0.0
0.0 0.0 0.0 0.0 0.0 0.0 0.0 0.0
0.0 0.0 0.0 0.0 0.0 0.0 0.0 0.0
0.0 0.0 0.0 0.0 0.0 0.0 0.0 0.0
0.0 0.0 0.0 0.0 0.0 0.0 0.0 0.0
0.0 0.0 0.0 0.0 0.0 0.0 0.0 0.0
0.0 0.0 0.0 0.0 0.0 0.0 0.0 0.0
0.0 0.0 0.0 0.0 0.0 0.0 0.0 0.0
0.0 0.0 0.0 0.0 0.0 0.0 0.0 0.0
0.0 0.0 0.0 0.0 0.0 0.0 0.0 0.0
0.0 0.0 0.0 0.0 0.0 0.0 0.0 0.0
0.0 0.0 0.0 0.0 0.0 0.0 0.0 0.0
0.0 0.0 0.0 0.0 0.0 0.0 0.0 0.0
0.0 0.0 0.0 0.0 0.0 0.0 0.0 0.0
0.0 0.0 0.0 0.0 0.0 0.0 0.0 0.0
0.0 0.0 0.0 0.0 0.0 0.0 0.0 0.0
0.0 0.0 0.0 0.0 0.0 0.0 0.0 0.0
0.0 0.0 0.0 0.0 0.0 0.0 0.0 0.0
0.0 0.0 0.0 0.0 0.0 0.0 0.0 0.0
0.0 0.0 0.0 0.0 0.0 0.0 0.0 0.0
0.0 0.0 0.0 0.0 0.0 0.0 0.0 0.0
0.0 0.0 0.0 0.0 0.0 0.0 0.0 0.0
0.0 0.0 0.0 0.0 0.0 0.0 0.0 0.0
0.0 0.0 0.0 0.0 0.0 0.0 0.0 0.0
0.0 0.0 0.0 0.0 0.0 0.0 0.0 0.0
0.0 0.0 0.0 0.0 0.0 0.0 0.0 0.0
0.0 0.0 0.0 0.0 0.0 0.0 0.0 0.0

network_body.linear_encoder.seq_layers.2.weight f4 [256, 256]
00000000: a098 98bd d02c 7e3d bd84 cbbc f0f8 dabc
00000010: e869 973d f959 7a3d faef 32bb ae5a 86bc
00000020: aac5 263d 5ab4 b73b 341d d1bd 534e 543c
00000030: 8a28 05bd 6e88 0a3d 6b24 eabc e2bd aa3d
00000040: 7bc9 cbbd 85e0 d33c 0066 d73c 61c2 b33c
00000050: 9a5c 80bd 1ff1 6d3c ca4f c2bd f0d8 6a3d
00000060: 317d 98bb ac69 43bd e335 bb3d bc9f 173d
00000070: 08d3 f3bd 759e 62bd 5a1a 913c df5b 98bd
00000080: b246 613c 163f 423d 17a8 94bd 4ee0 b43c
00000090: 5555 c13d 7b90 203e eecc 72bd d23d 8abd
000000a0: 0568 a33c 51a1 fcbd 24e7 1d3d b418 c53b
000000b0: 4154 fabd 86f2 173c 0bab caba 517d 323d
000000c0: 0054 adbd 98ac 28bc 9da2 66bc e1e7 923d
000000d0: c24e 5fbc ab6a 9fbd 50bf 9abb 13f5 4e3d
000000e0: b0a5 643d 0071 8e3d f5a1 733d 13a8 94bd
000000f0: 708d 263d 3d89 523d 8d5a 9dbd 5793 07be
00000100: 00de 42bc 9a6a 9a3d 38ca e03c a319 8cbd
00000110: e87c 3fbc 627f 3b3d 4750 90bd b24f c93d
00000120: 4158 cc3c 3076 693d 5f24 debd 345e 843c
00000130: 6f78 64bd e7a6 cfbb 2f47 1e3d f736 7c3d
00000140: a539 5fbd 3974 bb3c db04 f8bd a899 6b3c
00000150: d6d8 27bd e444 e0bb 8c7b 64be 78a8 fbbd
00000160: 6946 03bd c497 7d3d 2379 83bd 6df2 4abc
00000170: 7e9b c8bc c2fe 06bd 1359 23be e834 a53d
00000180: a51c 4c3d d51f 393d a681 a83c fabe 503c
00000190: 15fe 513d 1d97 46bc fb7e 88bc cf98 ce3d
000001a0: a916 b13b 6c03 513c 00da 1c3d 517e ae3b
000001b0: 0b26 6fbd 9adb 40b9 397c a8bd 1516 8abb
000001c0: 2644 cc3d 9c97 a4bc 569d 4b3c fdd4 263c
000001d0: 2ac2 b5bd 0d71 2e3c c06f 4cbd 51f0 8fbd
000001e0: b9e9 96bd 66ec 9a3d 3b20 41be 7f64 71bd
000001f0: b19d bb3b 5f3e 2bbb a3cd 593d f7ea c4bb
00000200: 3206 c1bc 2a3f de3c e2cf 4c3d e695 d2ba
00000210: 9935 bd3d 9030 19bc 7052 d93c 78f6 ddbb
00000220: 90ec 6a3d 9287 5e3c 83b4 0b3d 9046 3abd
00000230: 22f9 fdbc b873 72bd 121a eebc f06d 60bd
00000240: b91b 6abd b2fb 963d 8d7c 21bd f908 863d
00000250: 4096 e4bd 788b 8fbc 81bb 42bc a07c bfbd
00000260: 6605 703d 8e52 46bd a167 0d3c d06b f6bd
00000270: 7c28 583d 55ce e13b 74a9 c1bd 43b0 7ebd
00000280: d336 183d 6825 b63d d356 073d dc9e 09bd
00000290: 4db2 c73c 2a35 f5bb ea37 253c cabf 3a3e
000002a0: f9d2 d8bb e133 c5bd a83f 893d 4c06 b73d
000002b0: 1459 b93d b50a 353d 3aa6 073d bf59 6cbd
000002c0: 8e52 173d 4bb5 933d 8d79 963c bd5f a03c
000002d0: dc9e 023c 395b 76bd f988 8e3c c641 7d3d
000002e0: a41e 09bd 3004 efbd 05ec 083e b6d6 a1bc
000002f0: 16e4 17bd 11d2 183c b7c1 b5bc cf0f 47bc
00000300: 38de c6bd a7d8 1ebd 30c7 93bd f56a 49bd
00000310: 4f0f 2d3c 9af2 ed3d 3ac2 563c 8222 3dbd
00000320: 366c aa3d 10d8 87bd dd1b 74bc c82e 8bbd
00000330: 5cd2 903b 1a37 81bc 1dcf 9abc dc2b 9ebc
00000340: be69 353c 7253 dd3c ac60 c33d 1459 ab3c
00000350: 7d65 833d c942 8fbd 2b0c 013d 7021 553d
00000360: d221 03be ce80 313c e19e d1bd 863a c83d
00000370: 7311 fcbc 4955 0c3d ecc2 653d 7240 14bd
00000380: 146f f7bc aacb 9f3d a803 993d ad64 053d
00000390: a394 b2bd 5ecd 83bc f5af ba3b 644b 2a3d
000003a0: e8c2 ff3d 2523 94bb a715 75bc 427c b3bd
000003b0: d343 0c3d facc f8bc c4e6 b33c 67d4 2abd
000003c0: 9c0d b7bc 598f 02be aaa6 993d 0879 3cbd
000003d0: 3e0f c03d e155 4dbd 21ea 823d fa47 cabc
000003e0: 397d 14bc 5887 5e3d 663f 83bd 2fcd 7dbd
000003f0: 6ba4 b0bc c8ed 98bd 325f fc3d 192f d83c
-0.07450986 0.062054455 -0.024843568 -0.02673003 0.07393247 0.06112096 -0.0027303682 -0.016400661
0.04071585 0.0056062164 -0.10210648 0.012958127 -0.032509364 0.033821516 -0.028581819 0.083369985
-0.09950539 0.025863895 0.026293755 0.021943273 -0.06267662 0.01452282 -0.09487875 0.057335794
-0.004653596 -0.0477082 0.091411375 0.03701757 -0.119054854 -0.055326898 0.01771276 -0.07439398
0.013749765 0.047423445 -0.07258623 0.022079613 0.09440104 0.15680115 -0.059277467 -0.067500725
0.019947061 -0.12335456 0.03855051 0.0060149077 -0.122231014 0.009274131 -0.0015462352 0.043576542
-0.08463287 -0.010295056 -0.014076856 0.07173134 -0.013629617 -0.07784017 -0.0047225133 0.05052669
0.055822074 0.06955147 0.059480626 -0.0725862 0.04066223 0.051400412 -0.07683287 -0.132398
-0.011893749 0.07539864 0.027440175 -0.06840827 -0.011687495 0.04577578 -0.07046562 0.09829654
0.024944426 0.056997478 -0.10846781 0.0161582 -0.055778917 -0.006337035 0.038642105 0.061575856
-0.054498333 0.022882568 -0.12110301 0.014379896 -0.040978275 -0.00684415 -0.22312754 -0.12287992
-0.03204957 0.061912313 -0.06419589 -0.0123869 -0.024488207 -0.0329578 -0.15951948 0.08066732
0.049832005 0.045196373 0.020569634 0.012740845 0.051267702 -0.012120989 -0.016662112 0.1008774
0.0054043126 0.0127571635 0.03829384 0.0053251167 -0.05838589 -0.00018392355 -0.082268186 -0.004214058
0.09973936 -0.020091824 0.0124276485 0.010182616 -0.088749245 0.010647071 -0.04991126 -0.070282586
-0.07368798 0.07564621 -0.18859951 -0.05893373 0.0057255854 -0.0026129705 0.053174626 -0.0060094553
-0.023562524 0.027129728 0.05000294 -0.0016066402 0.092387386 -0.009349957 0.026528567 -0.006773766
0.05735451 0.013582127 0.034107696 -0.04547745 -0.031002585 -0.05919239 -0.029065166 -0.054792345
-0.057155345 0.07372226 -0.03942542 0.0654468 -0.111614704 -0.017522559 -0.011885525 -0.09349942
0.0585989 -0.048418574 0.008630664 -0.12032282 0.052772984 0.006891052 -0.09456149 -0.062179815
0.03716166 0.088938534 0.033041786 -0.033598766 0.024377013 -0.0074831443 0.010084132 0.18237224
-0.006616947 -0.09629036 0.067015946 0.08936748 0.090501934 0.044199664 0.03311751 -0.057702776
0.036943965 0.07212313 0.018368507 0.019576902 0.007972445 -0.06014559 0.017399298 0.061830305
-0.033476487 -0.116707206 0.13371284 -0.019755702 -0.037082754 0.0093274275 -0.022187097 -0.012149765
-0.097103536 -0.038780835 -0.072157264 -0.049174268 0.010562732 0.11618538 0.013107831 -0.046175487
0.08321421 -0.066330075 -0.014899221 -0.06796032 0.004419608 -0.015773345 -0.018897587 -0.019308023
0.011072574 0.027017329 0.09539923 0.0209165 0.06415842 -0.0699516 0.031505745 0.05203384
-0.1280587 0.010833932 -0.10235382 0.097767875 -0.03077004 0.03426102 0.056094095 -0.036194272
-0.030204333 0.07802518 0.074714005 0.032566715 -0.087197565 -0.016089138 0.0056972452 0.041575804
0.12488347 -0.004520791 -0.014958776 -0.08763935 0.03424437 -0.030371178 0.021960624 -0.04170647
-0.022345357 -0.12749995 0.07502492 -0.046013862 0.09377907 -0.05013073 0.06392313 -0.024692524
-0.0090630585 0.054328293 -0.06408577 -0.061963256 -0.021562776 -0.07467228 0.123228446 0.026389645
