config/results/Reward_distance/PathFollowing/PathFollowing-10088075.onnx (onnx, 696091 bytes, 7 tensors)

network_body._body_endoder.seq_layers.0.weight f4 [256, 416]
00000000: c51e a5bd 94fd 47bd 8217 06bd 8ee2 8dbc
00000010: 52b4 5abc b9c1 a9bd ffcb 4cbc 0fb2 a9bd
00000020: 71a7 e7bd 5b73 80bd 58c8 61bd 8f33 a7bd
00000030: 0091 793c f4a5 ccbd c2ec 83bd 0024 9a38
00000040: 4a50 0cbd 0743 3cbc 2d2b 53bd 0146 8f3b
00000050: b78c abbc a77c c13a 52fd 07bb bdb5 f4bb
00000060: d2c8 08bd 4564 20bd 166c cebd 0264 8abd
00000070: e591 cabc 8d6e ffbc 11af 62bd 5275 23bd
00000080: 7774 90bd 9867 30bd 937f c6bc ac0b 133c
00000090: 4968 0dbd 3002 c9bd 333b 13bd ca7b d53c
000000a0: a2fb 2bbd af33 3b3d 4e50 473c 869f 78bc
000000b0: 3455 11bc 2f06 ecbd aef6 263d d88b 2f3d
000000c0: 0398 a63c 0648 6ebd 5bb0 903c d5d1 fa3c
000000d0: 1eb9 3cbd 6a28 123b d173 63bd ae66 253d
000000e0: 2b2b bfbd 8e34 76bd 2b52 733c 1133 273d
000000f0: 9131 62bd b503 21bd fedc 50bc bbd9 b2bc
00000100: 6ec8 16bc e1a0 883d eaf1 993b 8d63 bbbc
00000110: b107 52bd 627c ca3c c921 a6bd 78c6 e0bc
00000120: d349 873c 41ea 04bd 6ec4 33bc 86bc c2bd
00000130: 49f8 bfbd 7494 c23c b245 033d 43f4 89bc
00000140: 7ff5 26bd 1516 f2bd 9f64 a73d 8e07 b1bd
00000150: d841 5fbd 8e5b e3bc a6f1 0fbd 9746 98bd
00000160: 96bd e5bd 8f03 97bc 71a2 63bb 1629 0dbd
00000170: a7cb 29bb 4515 febd a0d4 a1bd 57fd b5bd
00000180: 0e3f 48bd 3b4f 233d 04f9 b5bd f7ca 13bd
00000190: 63a7 7bbc b1d6 46bd 347d b33b f133 b5bd
000001a0: 7b13 43bd efb6 43bc 1e8d a73c 5dcc 75bc
000001b0: 5604 26ba 7f18 a9bc 5ed4 30bd ce0f b2bd
000001c0: 7be1 a7bd c8db 413b 4231 403d 2016 0fbe
000001d0: 243e 48bd 57a8 49bd 95ae eabc 66ea d4bd
000001e0: 2d87 303c 8ead a0bc 1b28 87bb 4383 b8bd
000001f0: 4bd5 2c3c 7be1 00be da87 96bd 54bd 22be
00000200: 4cb9 74bd 8c31 fdbd 890d abbd 2616 4dbe
00000210: 8199 eebd 6a2c dabd cf26 3e3b 0d59 c93c
00000220: b593 f53c 853e 88bd 9c1e 30bd 83bb afbd
00000230: 7888 cc3b 7205 0bbe b012 f7bd 2e1c fbbc
00000240: bc2f 97bd e277 b1bd 357a 0fbd 9431 6dbd
00000250: 6f29 84bc 5fe1 89bd 3c9d efbd 0ac2 0cbd
00000260: 1977 21bd 8fc6 0bbd 4e63 8dbd 0f37 1dbd
00000270: a4d6 30bd b55f 4bbd f82d efbb 3ce1 7ebd
00000280: 0dc2 f1bd 0e5f d3bd 838b 99bc 2bf6 aebd
00000290: e462 d1bd 031f 803d 3495 39bd 0df5 18bd
000002a0: f576 a6bd aa40 98bc be6b 99bc 1438 28bd
000002b0: 5ed4 8cbd b464 163a fea6 5dbd a305 78bd
000002c0: e35c 2cbd 9c56 a23c 6e98 88bd 112c 77bd
000002d0: 5490 02be 4a43 8ebd 9ec9 193c 8d87 a6bd
000002e0: e846 2ebc 7a5c d93c 8b56 97bd 0e5f 20bc
000002f0: 675b e2bd 613a b4bd 3149 c1bd 21b7 443d
00000300: 6530 d6bd d1be 2cbc 6cb8 22be aa91 b0bd
00000310: d5d7 c0bd 415f aa3c 6bfd 0abe 21d1 a4bd
00000320: 108b 5c3c 7c2f 84bd 1a05 20bd 7f3e 0ebd
00000330: 9667 53bd cc96 d1bd 0c5a 26bd 0ec4 d4bc
00000340: 4da1 77bd a5ca b0bd 00af 97bd a8f2 9fbb
00000350: baf2 4b3c 650b a63c f49e 1dbd 10d4 1e3d
00000360: bce9 3ebd adab 00bd 5b3b d4bd 9003 223d
00000370: 9e91 f73b 02b1 3abd be87 97bd b319 863d
00000380: bcef 313c de4f 06bc c107 3cbd 9dd5 f2bd
00000390: 4ce7 613c 8cd1 ac3b 5a42 c2bd 4368 9539
000003a0: 250e 89bd 3534 12bd 3987 a1bc 47f7 ddbd
000003b0: 0855 02be 5edf e7bd b7a8 32bc 2f4b a7bb
000003c0: 0ebd 423d 592e 95bd 6a8a 52bb a7fa 88bc
000003d0: 4546 08be 7877 bb3b 8087 f8bd ee30 48bd
000003e0: 8657 6c3d b51f 3ebd 58fe 98bd aeff a1bd
000003f0: c7be 1ebd 44cb 75bd dab2 bd3b 5a16 21bd
-0.080625094 -0.048825815 -0.032737263 -0.017319944 -0.013348656 -0.08288903 -0.012499808 -0.08285915
-0.11311234 -0.06272002 -0.055122703 -0.08164131 0.015232325 -0.099925905 -0.06441642 7.349998e-05
-0.034256257 -0.01149059 -0.051554848 0.004372359 -0.020941122 0.0014761881 -0.0020750356 -0.007467954
-0.033394642 -0.039158124 -0.100792095 -0.06757356 -0.024727771 -0.031180644 -0.055342738 -0.039906807
-0.07053464 -0.043067545 -0.024230754 0.008974951 -0.034523282 -0.0981487 -0.03594513 0.026060004
-0.041988023 0.045703586 0.012165142 -0.015174752 -0.008870412 -0.11524617 0.040762596 0.042857975
0.020336157 -0.058174156 0.017662218 0.030617634 -0.04607498 0.002230192 -0.055530373 0.040381126
-0.093344055 -0.060108714 0.014851133 0.040820185 -0.05522305 -0.039310176 -0.012748001 -0.021832338
-0.00920306 0.0667131 0.004698028 -0.022874618 -0.051276866 0.024717513 -0.08111913 -0.027438387
0.016514694 -0.032449964 -0.010972125 -0.09508614 -0.093735285 0.023752429 0.03204889 -0.016840106
-0.040761467 -0.11820618 0.08173489 -0.08644019 -0.054506153 -0.027753618 -0.035142563 -0.07435339
-0.11217801 -0.018434314 -0.0034734274 -0.03446301 -0.002590874 -0.124064006 -0.07901883 -0.08886211
-0.04888826 0.039870482 -0.088853866 -0.036082234 -0.015359732 -0.04854459 0.005477572 -0.08847798
-0.047626 -0.01194547 0.020453032 -0.015002337 -0.00063330436 -0.020641563 -0.04317128 -0.08694421
-0.08197304 0.0029580463 0.046921976 -0.13973284 -0.048887387 -0.049232807 -0.0286477 -0.103962705
0.010774416 -0.019614007 -0.004124654 -0.09009411 0.0105489 -0.12586014 -0.073501304 -0.15892535
-0.059747025 -0.12362966 -0.08352191 -0.2002798 -0.11650372 -0.106530026 0.002901483 0.024578596
0.029977659 -0.0665255 -0.04299794 -0.08580687 0.0062418543 -0.13576296 -0.12064111 -0.030653086
-0.073821515 -0.08665444 -0.035028655 -0.05790861 -0.016133038 -0.06732439 -0.11699912 -0.034364738
-0.03942022 -0.034124907 -0.069037065 -0.038382586 -0.043173447 -0.04965182 -0.007299181 -0.06222652
-0.118045904 -0.103208646 -0.018743282 -0.085430466 -0.1022394 0.06255915 -0.045308307 -0.037343074
-0.08128158 -0.018585522 -0.018728133 -0.041069105 -0.06876443 0.0005737052 -0.054114334 -0.06055225
-0.04208077 0.01981669 -0.06669699 -0.06034476 -0.1275037 -0.06946428 0.009386448 -0.08131323
-0.010637023 0.026533354 -0.07389554 -0.009788288 -0.1105259 -0.088001974 -0.09437788 0.048026208
-0.10458449 -0.010543541 -0.15890664 -0.08621533 -0.09416167 0.020797374 -0.13573234 -0.08047701
0.013460889 -0.064543694 -0.039067365 -0.03472757 -0.05161246 -0.1023384 -0.04061322 -0.025972392
-0.060456563 -0.086324014 -0.074064255 -0.004881222 0.012448007 0.020269105 -0.038481668 0.038776457
-0.046609625 -0.031413723 -0.10362884 0.03955418 0.0075552007 -0.045578964 -0.07398938 0.065478705
0.01086038 -0.008197753 -0.045905832 -0.1185715 0.013788056 0.0052740034 -0.09485312 0.00028497176
-0.06692151 -0.03569432 -0.0197178 -0.1083818 -0.1272775 -0.11321901 -0.010904483 -0.005105398
0.047543578 -0.07284231 -0.0032125958 -0.016721083 -0.13308056 0.005721029 -0.121352196 -0.048874788
0.057700656 -0.046416957 -0.07470387 -0.07910095 -0.03875616 -0.060008302 0.005789143 -0.039327957

network_body._body_endoder.seq_layers.0.bias f4 [256]
00000000: 5789 ecbc ddee feba f590 31bb 82f6 9f3b
00000010: 1d30 a83a 6d25 0d3b 497a 873b 8c01 023c
00000020: abd6 22bc 9447 e0bb 610f ea3b f8b5 1fbc
00000030: a1a0 a93a cfe3 3abc b6dc 833b 7338 a1b9
00000040: c9b2 8a3b 0155 cfbc 0935 083b 23c3 7c3a
00000050: 6bfd 4e3a 074e f03b 11f8 2b3b fda4 cabb
00000060: 0363 933b 0dc3 32bd 17b6 06bc e8da 01bc
00000070: bb93 bc3b 2357 f7bb b397 2b3c 78cf cabb
00000080: 24dd 4c3b bc3f 7e3b cd11 fb3b 818a 91bc
00000090: 3171 993b 5303 aabb 0300 10bc 25f4 2fbb
000000a0: 3cca 8139 fae2 d4bb fc53 0a3a 90cf 553b
000000b0: c007 debb 9de6 313b 2f0a dcbc 2ddd 923a
000000c0: 2c08 ce3b 9ff8 55bc df9d 1f3c 0541 05bc
000000d0: 5bc2 543c 153c 613b 7181 9fbb 2548 0c3c
000000e0: c5a1 ea3a 6243 843b fb24 813a 049c 03bb
000000f0: 41b7 ef3b 3d3b 02bb a547 e0b9 6405 cdbb
00000100: 0c68 c4bb 454b a3bb da70 8aba d6d8 c43a
00000110: 2431 d2bc 696e 743b 86b8 6abb 96e2 723a
00000120: a2eb 8b3b b870 873b 1f1e c73a a0bd 06bb
00000130: f2e0 b93b 3838 a4bb f6dd 92ba 1f2c 263a
00000140: 25d6 79bc c184 8b3b 3bc1 ccbb 5728 87bc
00000150: 09fb 92ba d563 de3a 4943 19bb c601 98bb
00000160: 6b7c 683b a581 3b3b c9b2 053c f37c 9a3b
00000170: db29 cc39 4679 a339 a723 9bbc 4221 1fbb
00000180: a06d 073c 495e 183a 4eb0 df3b c26b bebc
00000190: b08e 1cbb f0f2 1a3b 0928 17bd 532a f23a
000001a0: 65d9 e4bb 2180 353b 4103 143b dc79 b6bb
000001b0: 8cd8 d9ba 7d45 c2bb 82eb c1b8 f8cd 46b9
000001c0: 2930 b9bb 928e 753b 7cde 253a 2d24 893b
000001d0: baee e6bc a044 e4bb 39d4 c33b a0f0 04bb
000001e0: 042e 34ba d2ec b8ba fd4e b7b9 e98e b4ba
000001f0: 85aa 903b 79b0 92bc d000 69bb eb04 43ba
00000200: 20b0 b33b 4c5d c13a 1c5b aa3b 40f4 0cbc
00000210: 93f3 ff3a 256b 203b ec3e 723a a14c 8abb
00000220: c7de 6c3a 1637 85bb 8663 01bb 4a48 cb3b
00000230: 38ab db3b 67b9 0c3a f0a0 abbc f325 fc3c
00000240: 2974 df3a 7fc1 0ebb 4a9e 2e3a fc81 12bb
00000250: d080 8dbb 4c9c 2bba 5962 a43a 6d45 ddbb
00000260: 5a00 3fb9 062a 8e3b f76b a43a 4aff 983a
00000270: d166 9a3b 88bb 55bc b56f 163c cb48 36bb
00000280: 50f0 e43a 59e6 5c3a 700f 40bb 47f1 32bc
00000290: 5f21 943b 668e 9d3c 2234 593b eb3d 4739
000002a0: bfa5 d83b 9a6c e2ba 3449 3fbb 097c 023b
000002b0: 3f14 f8ba 7c4e 8cb9 cb9a c1bb 19b9 003c
000002c0: cc35 4139 a455 bd3b 1a4a a83b 9ac4 88bc
000002d0: c0a1 2abb 1e60 27bb f1a6 09ba b6af 0fbd
000002e0: e90a 1eb9 9fa9 c23a a051 07bc 23c0 153a
000002f0: f2c0 bdbc 09d7 343b 2e86 6e3a 9fc7 ff39
00000300: f199 f23b 85b2 04bb 612a 133b 814d c9ba
00000310: e2ef 163b 5199 83bb fef6 093b f71d 023b
00000320: 2fb5 0d3b d987 5e3b 0c7e 07bc 32ed 7bbb
00000330: 12f5 493b 6b22 083c de5c 3cbb a7cd 03bb
00000340: b3dc 283c 222a 70bb ab77 7fbb 7916 d2bc
00000350: 68bc 7d3b 410e 9d3b 63a8 0a3b b34d 443b
00000360: 04c9 4e37 27b0 dbbc b642 2038 4f97 87b8
00000370: 9970 45bb 465a 0d3b 0e8e 893b 6a0b 96bb
00000380: 26bd 29b9 b14c c8bb d595 9fbb ed33 fbb8
00000390: 1a53 b43b d034 b8bb ecea be3a 930c 2a3b
000003a0: e5bd 153a 0d51 0c3b e1d7 043b d979 293a
000003b0: 9581 103b e656 09bc c2fd 813b a51c daba
000003c0: b4ea 3f3c a74c 08bb 06f9 883b 2cf8 dfbc
000003d0: 9387 283b 5aad 2cba 95b9 0c3b c694 053c
000003e0: f8bb 6dbc a479 203a b6b4 c23a 664a c03b
000003f0: 2fe6 993a 64fd 3a3a 64ec 283b fec4 933b
-0.028874082 -0.0019449849 -0.0027094458 0.004881681 0.0012831722 0.00215372 0.0041344506 0.007934939
-0.009938876 -0.0068444703 0.0071429466 -0.009747975 0.0012941548 -0.011406853 0.0040241135 -0.0003075037
0.0042327386 -0.025309088 0.0020783565 0.0009642115 0.00078960386 0.0073335203 0.0026240388 -0.006184219
0.004497887 -0.043643046 -0.008222125 -0.0079257265 0.0057549155 -0.0075482293 0.01047318 -0.006189283
0.003125974 0.0038795313 0.007662034 -0.01776624 0.004682683 -0.0051883846 -0.008789065 -0.0026848402
0.00024755474 -0.0064967843 0.0005276797 0.0032624938 -0.006775826 0.0027145513 -0.026860325 0.0011204832
0.0062875953 -0.013059764 0.009742229 -0.008133178 0.012985791 0.0034368087 -0.0048677255 0.0085621225
0.0017900994 0.004036353 0.000985294 -0.0020082006 0.0073155467 -0.0019871735 -0.0004277799 -0.006256746
-0.0059938487 -0.004983338 -0.0010562197 0.0015018235 -0.025658198 0.0037297255 -0.003581555 0.00092653313
0.004270033 0.00413331 0.0015191472 -0.0020559803 0.0056725675 -0.0050115846 -0.0011205066 0.0006338972
-0.01524881 0.004257769 -0.006248621 -0.016498728 -0.001121373 0.0016967008 -0.0023386052 -0.0046388833
0.003547455 0.002861121 0.0081603015 0.004714602 0.00038941097 0.00031180138 -0.018937899 -0.0024281298
0.008265883 0.00058123894 0.006826437 -0.023244742 -0.002388876 0.0023643337 -0.036903415 0.0018475748
-0.0069839233 0.002769478 0.0022584947 -0.005568726 -0.0016620322 -0.005928694 -9.246824e-05 -0.00018959481
-0.005651493 0.0037469012 0.0006327403 0.0041852207 -0.028190006 -0.0069661885 0.0059762266 -0.0020285025
-0.0006873312 -0.0014108664 -0.0003496333 -0.0013775501 0.0044148588 -0.017906414 -0.0035553463 -0.00074393925
0.005483642 0.0014752536 0.0051988494 -0.008603156 0.0019527547 0.0024477926 0.00092409435 -0.0042205607
0.0009035882 -0.0040654046 -0.0019743158 0.006203686 0.0067037605 0.0005368203 -0.020950764 0.030779814
0.0017048168 -0.0021782813 0.000666116 -0.0022355309 -0.004318334 -0.00065464224 0.0012541517 -0.006752661
-0.0001821531 0.0043385057 0.0012544383 0.0011672762 0.0047119637 -0.013045199 0.0091819065 -0.0027814384
0.0017466638 0.00084266585 -0.0029306076 -0.010921783 0.0045205797 0.01923294 0.0033142646 0.00019001185
0.0066115553 -0.0017274797 -0.002918792 0.0019910356 -0.0018926932 -0.00026761356 -0.0059083453 0.007856631
0.00018425955 0.0057780314 0.0051357867 -0.01669531 -0.0026036352 -0.0025539468 -0.00052510115 -0.03507968
-0.00015072119 0.0014851576 -0.008259207 0.00057125295 -0.023163293 0.0027593991 0.0009098974 0.0004878612
0.007403605 -0.0020248007 0.002245568 -0.0015358181 0.0023031165 -0.0040160795 0.002105176 0.0019854286
0.0021622886 0.0033955483 -0.008269798 -0.003844094 0.003081624 0.008308987 -0.0028741877 -0.0020111592
0.010306525 -0.0036646207 -0.003898124 -0.025645481 0.0038717035 0.004792959 0.0021157495 0.002995354
1.2325359e-05 -0.026817394 3.8209102e-05 -6.465485e-05 -0.0030126928 0.00215687 0.0041978424 -0.0045789974
-0.00016187559 -0.006112658 -0.0048701563 -0.000119782846 0.0055030705 -0.00562153 0.0014565862 0.0025947436
0.00057121954 0.0021410615 0.0020270275 0.0006464995 0.0022049893 -0.008382535 0.003967018 -0.0016640617
0.011713672 -0.0020797641 0.0041800765 -0.027340017 0.0025715574 -0.00065871107 0.002147292 0.008153146
-0.014510147 0.00061216415 0.0014854881 0.005868244 0.0011741574 0.0007133095 0.0025775665 0.0045095673

network_body._body_endoder.seq_layers.2.weight f4 [256, 256]
00000000: a4b9 793d d9a3 e1bd ad80 98bb a458 99bd
00000010: 26e9 2fbd 8ea6 e9bd 4b12 073e d3d3 743d
00000020: bd40 36bd 7ad8 4fbd 6ec7 47bd 1d52 523d
00000030: 8959 7c3d 3f4b d6bd 1e5e 3dbe 53c4 f63b
00000040: af3e d0bd de91 e5bd cde4 613c e9b3 f8bc
00000050: 2c4a 0bbd 27ef 89bc 837c b63d 567a bdbd
00000060: a410 92bc 2efe 70bd a624 83bd 6aad 6cbd
00000070: 7dd5 a23d 737e dc3a b138 12bd 1dac bd3d
00000080: db81 803d 320d 083e 44ba 45bd b141 be3c
00000090: d636 8abd 1585 803d 5827 b5bd cd41 5b3b
000000a0: 2274 233b 0262 9bbc efe9 47bd 0517 523d
000000b0: bf90 dcbc 7c64 dcbd 501a 843d 046b d9bd
000000c0: 7d87 58bd 36a1 6dbd fdeb 793d b557 9cbd
000000d0: ca1f 463c b6db 8f3c efbe 8b3b fdab bdbc
000000e0: 64c1 1ebe e1b6 1bbd cf82 5b3d d50f d3bd
000000f0: f7bb a23d f307 263c a186 fc3c dfc2 f63c
00000100: 711a 8db9 9d65 f2bd 27a1 e1bd ade7 09ba
00000110: f5b7 373d 6383 5d3d 0738 8abc fff4 0c3d
00000120: 59e8 f53d ddd3 8ebc a771 993c dd8d 06be
00000130: 38ae eabd 52e6 38bd 7313 dd3d 6e26 593c
00000140: 2293 e2bc 2d76 9fbd bc25 ad3c e8ac 54bd
00000150: 3760 1abd fe12 983d da02 deba 627a c93d
00000160: 0e6f f13c ae19 20bd b304 b6bc 0ea5 9fbd
00000170: 023c 2d3e e70c a0bd 4c82 33bd 73a5 f83d
00000180: c006 233e e9a8 29bc 9b18 433e 65c1 2a3d
00000190: cc06 b238 d990 a1bd bfe6 083c d62e 313d
000001a0: e941 cfbb 6da4 1dbd 544b 40bc 1d08 da3c
000001b0: bae0 1fbd ebc9 93bd b939 a53d 5b43 8f3c
000001c0: f340 62bc a59e 0cbd e9db 753c ccd8 4cbd
000001d0: 02a0 e3ba e49e 0d3e d28b ca3d 9172 a4bd
000001e0: efd7 4e3d c3e3 c93c 53e0 05be 75c2 343c
000001f0: 1d4f 243d 9ed5 c43d b65a 8f3b 35a3 f93d
00000200: 4723 4ebd 5193 74bd 6a4e 17bc 0155 18be
00000210: 80fd d5bc 20d1 743d 80d8 26bd 42f7 b6bc
00000220: a872 913d db44 233c dd40 d4bd 0569 e63d
00000230: eaa2 f6bd 37ec d93c 5354 72bd c859 db3d
00000240: 6f01 20be 7ee4 bbbd 9483 8c3d c89e 90bd
00000250: 101b 213d ada1 45be 6416 b63d d18a 39bd
00000260: b068 89bd 3a09 443d 72f4 c73d 3e58 6dbc
00000270: 425c 9e3d 41fc 16bc fb0f 11be 2a30 033c
00000280: 7c18 cd3d 7b07 29ba a108 adbd 67b9 2fbd
00000290: 76a7 673d 027f 49bc f1b6 febc 673c 67bd
000002a0: fe9f 22bd 8486 13bd ddf0 cabc 1956 b5bd
000002b0: 6a81 b63d 90d9 bcbd dc58 373d 6b63 2fbd
000002c0: 2ab8 b3bd b3e6 36bd 3735 c33c 8b28 e6bc
000002d0: 68a9 4a3d 8549 143c 8c39 17be 8bb2 b53d
000002e0: 2792 97bd eb60 ae3d da11 4d3d 0dd0 b43c
000002f0: 2a5f b03b 394a d43d a7cf 4b3d 7602 a0bd
00000300: 88dd ae3c 6d9a a2bd 34de 8bbd e4e3 9dbd
00000310: 14e9 31bb ca91 a13d bbba 493d 5c9a 39be
00000320: e5d6 743c 43a9 743d 4e0f 3ebd 0600 77bd
00000330: 02ac 41bd c898 03be cf0a 2ebe ad74 a8bd
00000340: afe2 773d 295a dd3c dc1f 3dbc 3f1f 603d
00000350: b9f6 05bd 38ea 95bc ec57 e3bc c91a fb3c
00000360: c1e0 6cbd 5252 d937 adbc f3bb 368a 113c
00000370: 6d22 9b3c 85de 5dbc 6fb6 8dbd 39c2 8ebd
00000380: 98ae 203e 9960 0d3c a453 6abd 81de b8bd
00000390: 016b 423e 9699 b3bd f206 77bd d3a6 62bc
000003a0: 6c39 b9bc 0ac4 193d 58f3 843c 521f f43c
000003b0: a157 213c 5f48 323b 54c7 c83c 2e4e cebd
000003c0: c608 9d3d 49f6 913d 8c62 be3c de51 12bc
000003d0: b85a 6b3c 03c8 593d 3631 3e3b 0dd1 a9bd
000003e0: 3b85 24bc 82c8 223d 7faa 17bd 9b27 073d
000003f0: c9b9 94bd ad18 7a3c 30f5 553b 682b 253d
0.060968056 -0.110175796 -0.004654011 -0.0748761 -0.042946957 -0.11408721 0.13190572 0.059772324
-0.044495333 -0.050743558 -0.048774175 0.05134784 0.061608825 -0.10463571 -0.18492934 0.007530728
-0.10168206 -0.112094626 0.0137874605 -0.030359225 -0.034006283 -0.01683767 0.089104675 -0.09251849
-0.0178302 -0.058836155 -0.064034745 -0.057782568 0.07950876 0.0016822353 -0.035698596 0.09261344
0.06274768 0.13286284 -0.04827334 0.023224683 -0.067487404 0.062753834 -0.08845395 0.0033455968
0.0024941047 -0.018967632 -0.04880708 0.051291484 -0.026924489 -0.107613534 0.06450331 -0.10616115
-0.052863587 -0.05801507 0.06101607 -0.07633916 0.01209254 0.017560821 0.0042647044 -0.0231533
-0.1550346 -0.038016204 0.053591546 -0.10305754 0.07946008 0.010133731 0.030825915 0.030122219
-0.00026913316 -0.118357874 -0.110170655 -0.00052606576 0.04485317 0.05408038 -0.016872419 0.034413334
0.120072074 -0.017435009 0.018730951 -0.13140054 -0.11459011 -0.045141526 0.10794725 0.013253791
-0.027658049 -0.07786212 0.021136157 -0.05192271 -0.037689414 0.074254975 -0.0016938106 0.09837796
0.0294719 -0.03908699 -0.022219038 -0.077951536 0.16917422 -0.07814961 -0.043825433 0.12140932
0.15920544 -0.010355213 0.19052355 0.04168834 8.4889674e-05 -0.078889556 0.008355795 0.043257557
-0.006324996 -0.038486887 -0.01173671 0.026615197 -0.039032675 -0.07216247 0.0806765 0.017488172
-0.01380943 -0.034330983 0.015006044 -0.05001144 -0.0017366412 0.13830143 0.0988995 -0.08029664
0.0504989 0.024644738 -0.13073854 0.01103269 0.04011451 0.09611057 0.0043748273 0.121893324
-0.05032661 -0.059710804 -0.009235004 -0.14876176 -0.026121855 0.05976975 -0.040733814 -0.022334699
0.07101947 0.009965147 -0.10363934 0.112505 -0.12042792 0.026601894 -0.05916245 0.10710484
-0.15625547 -0.09174441 0.06861034 -0.07061535 0.03933245 -0.19299956 0.088909894 -0.0452984
-0.06709421 0.04786036 0.09763421 -0.014486371 0.077324405 -0.009215415 -0.14166252 0.008007089
0.10014436 -0.0006447953 -0.084489115 -0.042901423 0.056556188 -0.012298347 -0.031093093 -0.05645409
-0.03970336 -0.036016956 -0.024773056 -0.088543124 0.089114025 -0.09221184 0.044762477 -0.04281942
-0.08775361 -0.044653606 0.023829086 -0.028095504 0.049477965 0.009050732 -0.14768046 0.08871945
-0.07400923 0.085145794 0.050065853 0.022071863 0.005382438 0.10365719 0.04975858 -0.078129694
0.021345869 -0.07939611 -0.06829491 -0.07709482 -0.0027146982 0.07889135 0.049250346 -0.1812529
0.014943813 0.059731733 -0.046401314 -0.060302757 -0.04728318 -0.1285125 -0.1699631 -0.08225379
0.060518917 0.02702053 -0.01154324 0.0547173 -0.032705996 -0.01830016 -0.027751885 0.03065242
-0.05783153 2.590675e-05 -0.0074382634 0.00888305 0.018937314 -0.013541822 -0.06919562 -0.06970639
0.15691602 0.008628988 -0.057208672 -0.09026814 0.18986131 -0.087695286 -0.060309358 -0.013833719
-0.022610389 0.037540473 0.016229317 0.029800091 0.0098475525 0.002720378 0.02450911 -0.10073505
0.07667689 0.07127053 0.02324035 -0.0089306515 0.014364891 0.05316926 0.0029021031 -0.082918264
-0.01004153 0.039742 -0.037027832 0.032996755 -0.07261998 0.015264672 0.0032647364 0.0403246

network_body._body_endoder.seq_layers.2.bias f4 [256]
00000000: a1d9 cd3c f969 0a3c 3a0f e53b ece1 a53c
00000010: 1315 69bb 4301 c43c 6f9e abbb cbff ac3c
00000020: c3f0 583c f8c7 34bb 3171 04bc ce3a 953b
00000030: b58a 673b a837 933c 4e71 293b 80f7 c33c
00000040: 2679 d43c 2a8a 0b3c 0252 c63a e97d 223d
00000050: 9f05 77bb ac6e 5eba ada6 86bb e558 6e3c
00000060: 7aea b93b 3ebd 013c 9d27 773c a1dc 2f3c
00000070: 18ef 26bc e731 483c 7611 a73c 8db2 7c3c
00000080: 5bed cd3b 60ad 9a3b fb06 9a3b 4d5c 403c
00000090: 0fb3 833c 1ba8 fb3b c094 103b e7f0 db3a
000000a0: a8ed 153c e4b3 603c 4ad2 30bc 9b78 8d3c
000000b0: 51a5 a33c 3ee7 2abb 9839 203c 0f28 4d3c
000000c0: e422 403c 5f98 373c 0ed9 bb3b bfee 023b
000000d0: 4726 07bc ace8 e33c 7a65 883a 4e70 de3c
000000e0: 15c6 543c 35e4 b03a b4d8 49ba 1ef5 c93b
000000f0: cb07 363b d522 5ebb e9f0 8b3b 2944 273c
00000100: 1059 32ba 9b08 ca3b 425d 9f3c fd1d bf3a
00000110: 0901 59ba 1fa6 a5bc 07e4 3f3c f18f 7e3c
00000120: 0121 17bb 7dcf b0bb 4165 00bc fd1b e2bc
00000130: ff29 c63b 90eb 5e3c 1ded 253c c0ea 4b3a
00000140: a4a9 c2b9 c037 12bc a2e6 5c3b 3695 f2bb
00000150: 273a c83a 78b3 b63b ed2f e33c 0a2d 3abb
00000160: dd41 803c 82b6 3ebc d1b8 80bb f9ec 183c
00000170: b8cb 353b 976b eaba 6d18 743a f070 94bc
00000180: 1adb 12ba c188 803c 2eca 82ba 45c4 fa3a
00000190: 5226 24bb 9b0a 093c e350 0f3c 3a57 1e3b
000001a0: 9a7c 5a3c f294 a7ba 16bc 373c 4cf3 be3b
000001b0: 8f84 c93c e4db 7ebc c3a9 143c c265 dc3b
000001c0: cb41 b1bb 9f26 db3a 9f6d 92bb bc0d 133c
000001d0: 2e9e 9d3a 43e6 2abb 0811 39bb e860 e539
000001e0: 16a8 c2bb 97e0 373c 9842 76bb bb82 9ebb
000001f0: 4583 09bd 6a7b 2f3b 0a7e 8e3c 0787 8b3b
00000200: ee39 6c3c 9cb4 9a3a 4afe 813c df38 81bc
00000210: d52f 2b3b 9094 da3b 78c8 90ba bc3e 143c
00000220: cf82 453c b691 913c 7b29 99bb d1e1 893c
00000230: 6b6e fd3b 173c 703c ce4f 2ebb 0d89 ef3c
00000240: 5c75 cc3c e193 d53b a8fa 503c a05f ce3b
00000250: f9dd 373c 93b1 413c 07c6 293d 84f2 773c
00000260: 952c 17bc 1e2c 95bb a2e8 dc3c e820 613c
00000270: e01a 0ebb b021 e43b 7fb2 9c3a 0575 c43a
00000280: 9924 b83c 79cc e5bb 65f7 5fbb c75a df3c
00000290: 9e38 13bc 03ee cfbb 2dba d9ba 1f89 863c
000002a0: 4145 f93b 6e8b b93a 39af aab9 b6b8 b93a
000002b0: c5e6 f13b 8c27 5f3c 24b8 c33b 4339 d33b
000002c0: bae1 6d3c 4579 f93b 78c9 803c befe debb
000002d0: efab 14bc 69a8 e53c 3f68 663c 832a 25bb
000002e0: e0e9 1c3c 9930 cab9 fd44 ea3c 4b36 8dbc
000002f0: 43d7 5c38 ee0b 2c3c 461c d43b 4d06 babb
00000300: c1e4 fa3b e5cd c1bc 59c0 6ebb a1d1 debb
00000310: 0534 763c 07dd 353c b735 a9bb f4b5 4e3c
00000320: 6bbc 68bb c5a8 823b e500 9a3c b377 b63c
00000330: 369e e23b 9bbb b43c 2e40 253d 7f70 af3c
00000340: 7fe6 933b 552f d53a 444e 20bb 8aee feba
00000350: bbe7 483a 1696 463a b7b7 2c3c fa8b c43c
00000360: 9dd8 cf3b a929 d4bb 567d 673a 5873 6abb
00000370: a030 d9bb 375f 30bc e7cb e63b 39ab 8a3c
00000380: f68b 5e3b 50dc b93b f0d8 083c 1a93 86bb
00000390: 3edc 4b3b 2e81 13bb 9a17 82bc dc0d 963b
000003a0: c685 093c f53c 093c 5c93 6fbb 929a 93ba
000003b0: 2877 073c c20d 30bc 665e 333c 0b1c 963c
000003c0: 539f 923c ce2e e53c 4ad4 ba3c c3ea c33c
000003d0: 2368 153c eb21 b83b 548d 9dbc 502f bc3b
000003e0: c721 84bc aa8c b43b dc09 ac3a 4de0 6c3c
000003f0: 9a12 093c fc83 8d3c d1f5 bf3c 78a6 073c
0.025128188 0.008448117 0.0069903405 0.02024933 -0.003556554 0.023926383 -0.0052373926 0.021118065
0.013240996 -0.002758501 -0.008083628 0.004554129 0.0035330479 0.017970875 0.0025854888 0.023921728
0.025936674 0.008516828 0.0015130641 0.03967086 -0.003769256 -0.00084851193 -0.004109225 0.014547561
0.0056737037 0.007918654 0.015085128 0.010733754 -0.01018884 0.012218929 0.020394068 0.015423429
0.0062843985 0.004720375 0.004700539 0.011740756 0.016076593 0.007679952 0.0022061318 0.0016780169
0.0091509 0.013714764 -0.010792324 0.017269423 0.01997629 -0.0026077772 0.009779356 0.012521758
0.011727069 0.011205762 0.005732662 0.001997873 -0.008248872 0.027820908 0.0010406219 0.02715316
0.01298668 0.0013495745 -0.0007699833 0.0061632534 0.002777564 -0.0033895273 0.004270662 0.010209122
-0.00068034325 0.0061655766 0.019453648 0.0014581081 -0.00082780473 -0.020220814 0.011712081 0.015537248
-0.0023060443 -0.0053958283 -0.007836641 -0.027601236 0.006047487 0.013605967 0.010127333 0.0007778816
-0.00037128956 -0.008924425 0.0033706804 -0.0074030412 0.001527612 0.0055755936 0.027732814 -0.0028408193
0.015656406 -0.011640193 -0.003928282 0.009333842 0.0027739834 -0.0017884847 0.0009311501 -0.018120259
-0.00056021067 0.01569021 -0.0009978467 0.0019131979 -0.0025047255 0.008364345 0.008747312 0.0024160878
0.013335371 -0.0012785478 0.011214277 0.005827343 0.024599342 -0.015555356 0.0090736775 0.0067259977
-0.0054094545 0.0016719884 -0.0044686343 0.0089754425 0.0012025291 -0.0026077188 -0.0028238911 0.00043750484
-0.0059404476 0.01122298 -0.0037576314 -0.0048373616 -0.033572454 0.0026776441 0.017394084 0.00425804
0.014418108 0.0011803093 0.015868325 -0.015774189 0.002612104 0.006670542 -0.0011046072 0.00904816
0.012055113 0.017769676 -0.0046741343 0.01683131 0.00773411 0.014662764 -0.002659786 0.029240156
0.024958305 0.0065178727 0.012755074 0.0062980205 0.011222356 0.011822122 0.04144862 0.015133504
-0.009226938 -0.0045523783 0.026966397 0.013740756 -0.00216835 0.0069620237 0.0011955051 0.0014988488
0.022478389 -0.0070129004 -0.0034174558 0.027264966 -0.008985667 -0.006345512 -0.0016611271 0.016422806
0.0076071327 0.0014155933 -0.00032555478 0.0014169428 0.007382246 0.013620269 0.005972879 0.006446035
0.014519149 0.0076133334 0.015721068 -0.00680527 -0.009074195 0.028034406 0.01406294 -0.002520234
0.0095772445 -0.0003856465 0.02859735 -0.017237803 5.2652566e-05 0.010500891 0.006473097 -0.0056770206
0.007656664 -0.023657748 -0.0036430566 -0.006799892 0.015027051 0.01110006 -0.005163874 0.012616623
-0.0035512696 0.003987404 0.018799255 0.022273874 0.006915833 0.022062114 0.04034441 0.021415947
0.0045135613 0.0016264716 -0.0024460712 -0.0019449752 0.0007663925 0.0007575465 0.010541848 0.023992527
0.006342961 -0.006474693 0.0008830627 -0.0035774317 -0.006628111 -0.0107648885 0.00704335 0.016927348
0.0033957935 0.0056720152 0.008352503 -0.0041068913 0.0031106616 -0.0022507417 -0.015880395 0.004579289
0.0083937105 0.00837635 -0.003655634 -0.0011261276 0.008268155 -0.010745468 0.010947799 0.018323919
0.017898237 0.02797642 0.022806305 0.023915654 0.009119066 0.0056192777 -0.01923243 0.005742945
-0.016129388 0.0055099325 0.0013125497 0.014457774 0.008366251 0.01727485 0.023432644 0.008279435

action_model._continuous_distribution.log_sigma f4 [1, 3]
00000000: efef 08bf 64e6 21be bc7f 09bc
-0.5349111 -0.15810543 -0.008392271

action_model._continuous_distribution.mu.weight f4 [3, 256]
00000000: f143 2b3d 2ec0 6339 1a2e a7bc 59d6 213d
00000010: f38a 233b b029 7d3a ed2f 72bd 3969 94bc
00000020: 7c68 a53c 408a 763c 7cb9 9abc e559 bf3b
00000030: 32bc 8dbd f21c adbc cefa 4f3d 7937 d3bd
00000040: fcea f53c 671a 603c d476 8c3d 6ec1 a93d
00000050: ab77 da3c 7604 703b 8944 bbbd 3cba b7bd
00000060: 6130 023d 70bd 6fbd e557 573b 40a0 94bc
00000070: 80c8 b4bc fd14 4cbd c1d9 043d 21a2 7f3d
00000080: b2ce 273d da18 7b3d 97d7 e33c 014f 163d
00000090: 28be 873d 3d42 353d 1fb8 513d 158f a0bd
000000a0: f494 0f3b 951f 5b3d b994 9ebb dc93 573d
000000b0: e307 cc3c 5703 a6bd 68d9 c33d 141f 99bd
000000c0: 4fb7 b53d 21d8 323d f630 8e3c 4390 2d3d
000000d0: 5dc7 8bbc e342 c63d 9ea9 ebbc 16db ad3d
000000e0: 06ee 5a3d c937 47bd b231 7bbd c010 f4bc
000000f0: 9686 45bd 8b6e ddbd 6a8e 8ebc f613 5e3d
00000100: 345b 41bd b011 0c3d bd49 4c3d 3fc7 bd3c
00000110: 2b03 68bd 484e 87bc c992 53bd ceee a2bd
00000120: 3788 143a 1c1f 55bd 2756 e83c acdc 96bc
00000130: 5e6e babd 27f0 22bd 425c 803b f5c1 643d
00000140: 3669 2f3c c79d a6bd aa58 c1bc 0d82 e1bc
00000150: 9860 d03b 138d 83bd 6955 5e3d 873c 533c
00000160: f3b1 5f3c 0fd8 1b3c 933b 9dbd d541 363d
00000170: 1ac1 96bd 4efb 7ebd a7da 80bd 1cb8 46bc
00000180: dbc9 4fbc 95fd 043c f09e 893c c8ad 19bd
00000190: cda8 51bb f04c f53c 7724 1a3d 02e5 1ebc
000001a0: 4452 8f3a e34c c3bd 660f b1bd 120e 3d3d
000001b0: dec8 843d 022b 9ebd cba5 c23c 3a3f 573a
000001c0: 930e 70bd 8371 973c 7464 58bd 5c4b 143d
000001d0: b396 00bc 39fc 94bc 7bac bebd d711 46bc
000001e0: 4530 cfba 6d62 4bbd 3d52 3e3c 3535 ca3c
000001f0: b981 aebb 4dc2 203d b36a 373d a3b4 98bb
00000200: 3851 7b3d 1ba2 bd3c c207 8dbd 496c cfbc
00000210: 80f6 bcbc 1766 99bd 98dc 013d 9a46 803d
00000220: f61a d83c 95f4 913d 2365 c9bd bfb2 83bd
00000230: 3a7f 553c ef29 53bd 5575 f43c 48c6 c03d
00000240: 03d7 a4bc 6312 e03c c206 763d 3e54 493d
00000250: 5173 82bb ba8c 0d3d 9502 023e f37d c9bc
00000260: db47 96bb 7883 88bd 6f40 263d d466 733d
00000270: f122 0a3c 4d74 bb3c 4a5f b1bd 1079 a0bd
00000280: abc9 5b3d 65e9 94bd e320 35bd 3ddf 423d
00000290: 1f6c 0bbc 33c5 9fbd 14f6 9dbd 4e56 03bd
000002a0: 809e 933d e78b 9dbd c3e0 0c3d 4e31 673c
000002b0: bb4d 59bb aa6a b6bd c467 e7bc 5570 8b3d
000002c0: 2432 27bd 2204 6c3d e76e b8bd 5cfc 48bd
000002d0: e952 37bc 0e19 fabc ab26 963d 9e0e 823d
000002e0: 6cc4 c6bb cc16 97bd e871 3abd 560f 92bc
000002f0: 914e a3bd 762c 09bc b38a 40bd c5d6 93bc
00000300: 2b45 b33b c85d 19bd b184 c3bd 6ff7 a0bc
00000310: dada 2abc 4b92 913d 28f9 99bd f27c 853d
00000320: 6011 19ba e95e 873d 1661 823d a876 48bd
00000330: bd3d 3b3d cd7f efbb 3889 8c3d d521 69bd
00000340: 7d55 8c3c 60a3 5dbd a5ba 40bc d0e8 84bd
00000350: 3e18 75bd 2e90 e33c c6ef 683d 3a90 443d
00000360: 4282 9cbd fba3 66bd c6a4 99bd b325 ddbc
00000370: c45e 92bd 394d c4bd c136 03ba b3aa adbd
00000380: c55f fe3c 21e9 483d 10e6 0dbc 8060 e2bc
00000390: b6dd 3c3c 2082 9cbd ac52 b73a eb80 233d
000003a0: 019f b8bd f02c 803c 0afd cdb9 eae4 72bc
000003b0: feb0 b53c 8f69 acbc e8c1 923d 4922 3e3d
000003c0: 9374 4f3d 42df 9b3d 4994 9abd 9266 eb3d
000003d0: e28f e33c 96f0 9a3c a80e 843c 2f82 8bbd
000003e0: 4018 9abc 8f1c adbd ec85 f8bc 4179 e3bc
000003f0: de43 bcbd 4e56 a2bd a674 6f3d cc4f 34bd
0.04181284 0.0002172 -0.020407725 0.03951106 0.0024954646 0.0009657396 -0.059127737 -0.01811658
0.020191424 0.01504761 -0.018887274 0.0058395737 -0.06920661 -0.021131966 0.050776295 -0.10313315
0.030019276 0.01367817 0.06858602 0.08288847 0.02666839 0.0036623753 -0.091439314 -0.08971068
0.03178442 -0.05853027 0.0032858786 -0.01814282 -0.022068262 -0.049824703 0.03243423 0.062410478
0.040968604 0.061302997 0.027812762 0.036696438 0.06628066 0.044252623 0.051200982 -0.07839791
0.0021908851 0.053496916 -0.0048395065 0.052631244 0.024906104 -0.08106106 0.09562951 -0.07476631
0.08872854 0.043663148 0.01735733 0.042373907 -0.017062837 0.096807264 -0.028767403 0.08489053
0.053449653 -0.048637185 -0.06132669 -0.029793143 -0.048224054 -0.108121 -0.017401893 0.054218255
-0.04720612 0.034196556 0.04987501 0.023166297 -0.056643646 -0.01651682 -0.051653657 -0.07955705
0.00056660495 -0.05203162 0.028361393 -0.018415771 -0.09103082 -0.03977981 0.003917248 0.055849034
0.010706237 -0.081355624 -0.023601849 -0.027527833 0.006359171 -0.06423392 0.054280672 0.012892849
0.013653266 0.009511962 -0.076773785 0.044496376 -0.0736105 -0.06225138 -0.062917046 -0.012128856
-0.012682403 0.008117099 0.01679942 -0.037519246 -0.0031991482 0.029943913 0.03763243 -0.009698154
0.0010934551 -0.09536149 -0.08645515 0.046155997 0.06483625 -0.07723047 0.023760697 0.00082110206
-0.05860765 0.018486744 -0.052830175 0.03620468 -0.0078484295 -0.018186675 -0.09310242 -0.012089214
-0.0015807232 -0.049654413 0.011616287 0.024683574 -0.0053255227 0.0392478 0.04477949 -0.0046602054
0.061356753 0.023148587 -0.06886245 -0.02532019 -0.02306676 -0.07490175 0.031704515 0.06263466
0.026380043 0.071267284 -0.098337434 -0.064305775 0.013030821 -0.051553663 0.029841105 0.09412819
-0.020122057 0.027352517 0.06006504 0.049152605 -0.003981032 0.034558035 0.12696297 -0.02459619
-0.0045862026 -0.06665701 0.040588792 0.059424236 0.008431182 0.022882605 -0.08660753 -0.07835591
0.053659122 -0.07271079 -0.044220816 0.047576178 -0.008509665 -0.07801285 -0.07712951 -0.03206473
0.07207966 -0.076927 0.034394037 0.014110876 -0.0033157903 -0.08907063 -0.028247721 0.06808535
-0.040819302 0.05762113 -0.09005528 -0.049068794 -0.011189201 -0.030529525 0.07331594 0.06350444
-0.006065896 -0.07377395 -0.045518786 -0.017829578 -0.0797397 -0.008372417 -0.047007274 -0.018046746
0.005470892 -0.037442952 -0.09546793 -0.019649236 -0.010428155 0.07107981 -0.07518226 0.06517972
-0.0005839076 0.066098996 0.06366174 -0.048941284 0.045713175 -0.007308936 0.0686211 -0.05691703
0.017130608 -0.054110885 -0.0117632495 -0.06489718 -0.059837572 0.027778711 0.05686929 0.047989108
-0.07642032 -0.056308728 -0.07502131 -0.026995515 -0.07146981 -0.095850416 -0.00050054124 -0.08479824
0.031051526 0.049050454 -0.008660808 -0.027633905 0.011527469 -0.07642007 0.001398643 0.039917868
-0.090147026 0.015646428 -0.00039289176 -0.014825085 0.022179123 -0.021046428 0.07165891 0.046419416
0.050648283 0.076109424 -0.075478144 0.11494173 0.02777857 0.018913548 0.01612027 -0.0681194
-0.018810391 -0.08452713 -0.030337296 -0.02776778 -0.09192632 -0.079266176 0.058460854 -0.044021413

action_model._continuous_distribution.mu.bias f4 [3]
00000000: 8b22 043d 5074 f73a 3137 bcbc
0.032259505 0.0018879268 -0.022975536
