config/results/Reward_distance/PathFollowing/PathFollowing-9499954.onnx (onnx, 696091 bytes, 7 tensors)

network_body._body_endoder.seq_layers.0.weight f4 [256, 416]
000000 49 44 a6 bd 67 c7 4d bd df 0e 11 bd 5b 50 9c bc
       -0.08118493 -0.050238993 -0.035414573 -0.019081285
000010 eb 35 2c bc a4 fa ab bd 8c ed 66 bc 54 0e ac bd
       -0.010510902 -0.08397415 -0.0140947215 -0.084011704
000020 f9 eb ec bd cd 3a 84 bd 32 96 5d bd 74 42 a8 bd
       -0.11568446 -0.06456528 -0.054098316 -0.082158
000030 e3 38 68 3c 38 9f d0 bd 41 17 83 bd 44 eb 69 b9
       0.014173719 -0.101866186 -0.0640092 -0.00022308255
000040 9b ac 16 bd 66 3b 5f bc 42 a1 54 bd f2 90 86 3b
       -0.036785703 -0.013625002 -0.0519116 0.0041066343
000050 97 8d be bc b0 cf 71 ba 00 96 0a bb a1 26 00 bc
       -0.023260875 -0.0009224368 -0.0021146536 -0.00782171
000060 da 18 1e bd 62 f9 2b bd 1f f2 cf bd a7 77 8b bd
       -0.03859792 -0.041985877 -0.10153603 -0.06809931
000070 ae f2 eb bc fc 29 0d bd 72 dc 64 bd 0c 76 25 bd
       -0.028802242 -0.034463868 -0.055874296 -0.04039578
000080 54 ea 97 bd 48 a2 3e bd 40 1e c9 bc 8e 54 0c 3c
       -0.074177414 -0.046541482 -0.024550557 0.008565081
000090 33 72 1a bd 95 eb cf bd 84 33 15 bd 7c 1d d3 3c
       -0.037706565 -0.101523556 -0.036426082 0.025770895
0000a0 2e c4 35 bd 01 73 2e 3d cb bd 34 3c 1c f9 7a bc
       -0.044376545 0.042590145 0.011031578 -0.015318181
0000b0 eb 26 33 bc 30 76 f2 bd d1 82 26 3d ff 4a 2f 3d
       -0.010934572 -0.11838949 0.0406521 0.04279613
0000c0 51 4e 97 3c 62 1c 7b bd 05 b5 a0 3c 71 62 f9 3c
       0.018469961 -0.061306365 0.019617567 0.030442448
0000d0 1a bd 43 bd cf 0b 79 ba 72 05 5e bd 7a ac 23 3d
       -0.047787763 -0.0009500356 -0.05420441 0.03995941
0000e0 8e 50 c3 bd 17 82 81 bd e2 8c 7a 3c 0a b6 24 3d
       -0.09536849 -0.06323641 0.015292378 0.04021267
0000f0 82 8d 6a bd 21 f9 2d bd 2d 0e 61 bc aa 07 b9 bc
       -0.05726386 -0.042473916 -0.01373629 -0.022586662
000100 b6 39 36 bc 50 f2 81 3d a1 6a 3a 3b 76 3d c1 bc
       -0.011122158 0.063450456 0.0028444903 -0.023588877
000110 0b ba 5c bd 87 a2 ae 3c 34 82 a8 bd 6e 58 e5 bc
       -0.053888362 0.021317733 -0.08227959 -0.027996268
000120 ae ed 6c 3c 97 bf 13 bd 9c 31 3e bc 26 1f c4 bd
       0.014460964 -0.036071386 -0.0116085075 -0.095762536
000130 06 e5 c5 bd 58 15 a3 3c 0c 5c 00 3d 80 a7 8f bc
       -0.096628234 0.019907638 0.031337783 -0.017535925
000140 0d 95 35 bd 1a c4 f9 bd 61 7c a7 3d 96 93 b2 bd
       -0.0443316 -0.121956065 0.0817802 -0.08719556
000150 ac d6 6d bd e9 40 01 bd ae b3 0d bd 71 36 9a bd
       -0.058066055 -0.031556044 -0.034595184 -0.07529915
000160 0b 92 ef bd 10 47 b5 bc b9 45 4b bb 0c 9d 11 bd
       -0.11697777 -0.022128612 -0.00310169 -0.035550162
000170 c3 5f 15 bc fc 5b 02 be 62 de a7 bd 0c 3a ba bd
       -0.00911707 -0.12730402 -0.08196713 -0.09093103
000180 93 56 4e bd d2 49 1c 3d 52 24 ba bd ea c8 1b bd
       -0.050375532 0.038156338 -0.09088959 -0.038033403
000190 31 81 8e bc a5 d4 4e bd 9d 0a 45 3c 55 30 a6 bd
       -0.017395588 -0.050495762 0.012026456 -0.08114687
0001a0 03 6f 25 bd 18 f6 a0 bb 69 66 f3 3c ce f2 f9 bb
       -0.040389072 -0.004912149 0.029711919 -0.0076278215
0001b0 0b 09 8c 3b 44 4b 69 bc 09 f1 21 bd 8e 71 a4 bd
       0.004273539 -0.014239136 -0.03953651 -0.08029471
0001c0 21 2a 9b bd bd a3 19 3c 1d 6c 52 3d 63 03 09 be
       -0.07576395 0.009377417 0.051372636 -0.13380198
0001d0 0f 42 32 bd d5 5f 2f bd ca 10 d8 bc e8 8f c9 bd
       -0.04352003 -0.042816002 -0.026375193 -0.09841901
0001e0 38 95 81 3c 73 2f 5c bc 7c 07 eb b9 13 ba ad bd
       0.015818223 -0.013439047 -0.0004482827 -0.084827565
0001f0 f6 14 7b 3c a6 6b f5 bd 56 8b 90 bd 72 1f 1d be
       0.015324822 -0.11983423 -0.07057826 -0.15344027
000200 64 37 64 bd 26 71 f1 bd 6c 93 a2 bd 82 6b 47 be
       -0.055716887 -0.117891595 -0.07938275 -0.19474605
000210 e6 fd e5 bd 5b 31 ce bd ad 9b 21 3c 04 ab f5 3c
       -0.11230068 -0.100680076 0.009863776 0.029988773
000220 ae 3a 0f 3d 48 ff 77 bd 85 96 19 bd 26 2b a5 bd
       0.03496807 -0.06054619 -0.037497062 -0.080648705
000230 10 7b 35 3c f8 ce 04 be c1 29 e9 bd 8f f8 d1 bc
       0.011076704 -0.12969577 -0.11384917 -0.025631217
000240 68 af 8f bd b9 d5 a4 bd 42 43 e7 bc c8 54 58 bd
       -0.07015878 -0.08048577 -0.028230313 -0.05281523
000250 d8 5e 4d bc 5e 2c 7a bd e9 49 e4 bd 8c 86 f1 bc
       -0.01253482 -0.061077468 -0.1114691 -0.029483102
000260 8d a5 07 bd 58 1b e5 bc a9 54 83 bd 89 88 09 bd
       -0.033116866 -0.02796714 -0.06412632 -0.033577476
000270 b3 1b 19 bd d2 93 32 bd 32 9c 07 bb 6d b4 6b bd
       -0.03737993 -0.043598004 -0.0020692465 -0.057545114
000280 f1 da e6 bd 6b 9c c7 bd 3f 81 5b bc 25 8e a5 bd
       -0.112722285 -0.09746631 -0.013397514 -0.080837525
000290 f6 cc c6 bd 39 98 8b 3d b1 d8 22 bd 43 5b 06 bd
       -0.09707062 0.068161435 -0.039757434 -0.032801878
0002a0 80 ae 9d bd 3b b4 56 bc 25 e9 5f bc c8 bc 14 bd
       -0.07699299 -0.013104494 -0.013666426 -0.03631285
0002b0 02 8d 84 bd db 42 c8 3b d4 e5 48 bd 64 cf 63 bd
       -0.064722076 0.0061114854 -0.049047306 -0.055617705
0002c0 59 32 1b bd c7 2c d0 3c d5 38 7b bd e0 c7 61 bd
       -0.037889812 0.025411977 -0.061333496 -0.055122256
0002d0 dc 7f fa bd ce 65 82 bd 33 b9 60 3c 6c 2e 9c bd
       -0.122314185 -0.06367074 0.01371603 -0.07626042
0002e0 e6 66 93 bb 18 f8 04 3d f3 34 8f bd a6 89 9c bb
       -0.0044983504 0.032463163 -0.06992521 -0.004777151
0002f0 18 61 d6 bd 50 ef a7 bd d4 08 bb bd af bd 58 3d
       -0.10467738 -0.08199942 -0.09132543 0.05291527
000300 f0 e9 c9 bd ef 85 90 bb a0 80 20 be 6b 24 a5 bd
       -0.09859073 -0.0044104974 -0.15674067 -0.08063587
000310 ea 92 b2 bd 95 d1 de 3c fd b5 02 be 67 74 97 bd
       -0.08719428 0.027199546 -0.12764736 -0.07395249
000320 d1 43 ae 3c fc b5 6d bd 01 06 00 bd 36 2b e7 bc
       0.021272572 -0.058034882 -0.031255726 -0.028218847
000330 09 80 46 bd 9b ad ca bd 58 63 10 bd 82 22 b9 bc
       -0.048461948 -0.09896394 -0.03525099 -0.022599462
000340 49 9c 69 bd 5e be aa bd e1 97 8d bd 9e 6a d6 ba
       -0.05703381 -0.08337091 -0.06913734 -0.0016358679
000350 4a eb 73 3c 33 d4 be 3c 05 39 0f bd 81 2b 2b 3d
       0.01488764 0.023294544 -0.034966487 0.041789535
000360 c4 4a 3c bd b2 2c e9 bc f2 7b cc bd 4b 88 2d 3d
       -0.04596974 -0.028463695 -0.09984578 0.042366307
000370 bb 64 30 3c cb 22 2d bd 1b fb 91 bd 0a ba 8b 3d
       0.0107662035 -0.04226951 -0.07127973 0.068225935
000380 ca 79 64 3c 86 d7 95 bb 59 7c 2d bd 4a 9b ec bd
       0.013945052 -0.0045728115 -0.042354915 -0.115530565
000390 09 84 92 3c 3b 28 14 3c a5 9f bb bd b3 0d 50 3b
       0.017885225 0.009042795 -0.09161309 0.0031746447
0003a0 f8 14 7c bd 8f e1 00 bd bc 0b 8d bc b6 66 d9 bd
       -0.061543435 -0.03146511 -0.01721751 -0.10615294
0003b0 98 e7 fb bd e4 63 df bd bb 6b 04 bc 4e 89 3c bb
       -0.123000324 -0.109077245 -0.008082326 -0.0028768363
0003c0 3c b2 52 3d 72 bc 8c bd 27 ea 91 b9 a0 9a 70 bc
       0.05143951 -0.068718806 -0.00027831012 -0.014685303
0003d0 ee a3 03 be d3 c7 21 3c 4a 1e f3 bd 4e 84 40 bd
       -0.12855503 0.009874302 -0.118710116 -0.047001176
0003e0 a3 4b 80 3d be 6b 2c bd 1b d0 95 bd 44 ed 9d bd
       0.062644266 -0.04209494 -0.073150836 -0.077112705
0003f0 9b 6b 08 bd 7e b6 63 bd 3e a0 db 3b bb 67 1a bd
       -0.033305746 -0.05559396 0.006702452 -0.03769658

network_body._body_endoder.seq_layers.0.bias f4 [256]
000000 ac b7 e5 bc 4d 14 b6 ba b9 d8 1a ba 08 6a 00 3b
       -0.028041683 -0.0013891548 -0.0005906928 0.001959445
000010 00 29 6f 3a 3b 36 02 3b 24 08 a0 3b 69 dc 00 3c
       0.0009123236 0.001986875 0.004883783 0.00786505
000020 9a 4f 71 bc ea 31 c5 bb 31 db b7 3b e1 4f 0c bc
       -0.014728451 -0.006017913 0.0056108464 -0.0085639665
000030 3b 4c 04 3b 58 b4 24 bc a6 84 91 3b 7a c0 3d b9
       0.0020187038 -0.010052763 0.0044408618 -0.00018096148
000040 63 cf 5f 3b 0a d1 c1 bc 1a 46 3b 3b e7 1c 8d 3a
       0.0034150712 -0.023659248 0.002857572 0.001076606
000050 f9 14 0e 3b 03 c5 01 3c d0 4f 3a 3b 08 9e bf bb
       0.002167998 0.007920506 0.002842892 -0.005847696
000060 7a dd 5b 3b 5c 39 39 bd c7 c2 e3 bb fb 65 a7 bb
       0.0033548758 -0.045220718 -0.0069507095 -0.0051085926
000070 60 62 87 3b 0a e7 dc bb 17 53 16 3c c8 c2 af bb
       0.0041316003 -0.006741409 0.009175084 -0.005363796
000080 19 b1 25 3b b2 7f 56 3b 6e e5 e6 3b d2 6f 5b bc
       0.002528256 0.003272992 0.007046393 -0.013393359
000090 89 5b 9b 3b a3 3c ab bb a4 b3 e5 bb fb 6d c4 ba
       0.0047411365 -0.0052257343 -0.00700994 -0.001498639
0000a0 29 f2 34 b9 63 2c a2 bb 26 0a 8b 39 34 34 2d 3b
       -0.0001725635 -0.004949139 0.00026519707 0.002642882
0000b0 de 83 aa bb 88 cf 48 3b ac 55 dd bc 26 44 05 3a
       -0.005203708 0.0030641276 -0.02701839 0.0005083702
0000c0 ec a2 74 3b da 1a 2a bc b2 51 fb 3b a3 ca bf bb
       0.0037328554 -0.0103823785 0.007669651 -0.0058530136
0000d0 85 f4 55 3c f9 1e 33 3b b0 67 72 bb 38 a9 f3 3b
       0.013058786 0.0027331694 -0.0036988072 0.007435944
0000e0 ef 64 ae 3a 55 ac 7e 3b 8e 84 07 ba 16 d0 19 bb
       0.0013305227 0.0038860042 -0.00051695935 -0.0023469976
0000f0 87 94 00 3c 52 57 1a ba 19 51 43 39 a9 72 b1 bb
       0.007847912 -0.00058876455 0.0001862686 -0.00541528
000100 53 9d f7 ba 5e 14 c2 bb ea 35 f3 38 ef e4 06 3a
       -0.0018891491 -0.005922838 0.00011597185 0.0005145808
000110 dc 65 bd bc 5d 12 76 3b 9c 2a 2f bb 6a 29 83 b8
       -0.02311986 0.0037547566 -0.0026728278 -6.254281e-05
000120 f2 c7 89 3b 32 78 9a 3b be 36 48 3a 4c 2b dd ba
       0.0042047435 0.0047140354 0.0007637552 -0.0016873865
000130 c5 f2 a7 3b f3 13 a9 bb 47 a0 58 bb de 6d 22 3a
       0.005125376 -0.005159849 -0.0033054517 0.0006196181
000140 4d e2 54 bc 75 e3 0e 3b 31 45 c5 bb bb fd 96 bc
       -0.012993407 0.0021803055 -0.006020211 -0.018431535
000150 58 7b 5f b6 12 f3 33 3a 42 0d 2b bb bd e3 71 bb
       -3.3301385e-06 0.00068645284 -0.0026100432 -0.0036909424
000160 f1 4d 60 3b 02 1d 18 3b f9 f3 0e 3c 8d 59 a3 3b
       0.0034226144 0.002321065 0.00872516 0.0049850405
000170 44 fc 7b 3a 10 e7 2c 3b 9b cc 92 bc d8 1d 83 bb
       0.00096124806 0.0026382841 -0.01791983 -0.0040013604
000180 38 d6 fc 3b 19 52 a9 39 1b c2 dc 3b 8e c0 cf bc
       0.0077159666 0.0003229536 0.0067370064 -0.025360372
000190 72 c6 33 bb 5c 2d ed 3a 96 e7 05 bd 36 81 21 3b
       -0.0027431515 0.0018095183 -0.03269156 0.0024643666
0001a0 65 b9 c2 bb af 60 b1 3a d0 79 33 3b 4f 56 a1 bb
       -0.005942511 0.0013532842 0.0027385838 -0.004923619
0001b0 2d e7 20 bb 72 0a dd bb 12 eb d4 b8 50 60 98 b9
       -0.0024551854 -0.00674563 -0.00010152733 -0.00029063458
0001c0 5d 14 8e bb 84 d3 7d 3b e6 e8 cf 3a 2e e7 6f 3b
       -0.0043359236 0.003873081 0.0015862256 0.00366063
0001d0 8c ee f8 bc f4 36 2e bb f9 5a cf 3b 70 fa 92 bb
       -0.030387186 -0.0026583048 0.0063279835 -0.004485421
0001e0 8f 7f 30 bb 0b 4f 08 bb 5a 19 42 3b 62 c5 df b9
       -0.00269315 -0.0020799066 0.0029617161 -0.00042680936
0001f0 01 29 91 3b 35 f6 8b bc 25 7e 50 bb cc 9d d1 ba
       0.004429937 -0.017085174 -0.003181347 -0.0015992462
000200 f3 ef bb 3b b6 d7 c7 3a 01 08 b0 3b 97 d6 13 bc
       0.0057353913 0.0015246782 0.005372048 -0.00902333
000210 3e ed aa 3a e7 a1 10 3b dd 22 99 3a 5e f2 aa bb
       0.0013040674 0.0022069158 0.0011683364 -0.0052168807
000220 84 5c 38 3a 92 36 d3 ba ba bc f7 ba 1e 70 df 3b
       0.0007032829 -0.0016114286 -0.0018900849 0.0068187853
000230 ff 94 bd 3b bd 21 b1 39 8c 2e a2 bc 78 dc 0a 3d
       0.005785584 0.00033785208 -0.019797586 0.03390166
000240 a6 be 02 3b 1e d0 0e bb 5e 22 05 ba dc f5 05 bb
       0.001995006 -0.0021791528 -0.00050786685 -0.0020440733
000250 fb b3 83 bb 9c 9f 71 38 55 20 41 3a 8b d7 90 bb
       -0.004019258 5.7607525e-05 0.00073671836 -0.004420226
000260 18 4c 9c 39 48 74 91 3b 26 62 c0 3a 3a 3b db 3a
       0.00029811333 0.0044389106 0.0014677688 0.0016726025
000270 a5 18 76 3b 0c 80 43 bc ec 5f 0c 3c cb cf 1e bb
       0.003755131 -0.011932384 0.008567791 -0.002423274
000280 ab c1 8d 3a 9c f1 53 b9 15 b2 88 bb b6 bf 3c bc
       0.0010815164 -0.00020212535 -0.0041716197 -0.011520317
000290 e8 16 90 3b 1a c9 8c 3c de 71 46 3b 6e 50 77 ba
       0.004397262 0.017185736 0.0030280272 -0.0009434287
0002a0 43 ea db 3b 57 b7 96 ba f7 56 6d bb 74 0f f8 3a
       0.006711276 -0.0011498731 -0.0036215165 0.0018925504
0002b0 8b 62 d5 ba b4 6f 25 bb 52 68 fb bb 8a 05 e7 3b
       -0.0016279978 -0.0025243582 -0.007672348 0.007050221
0002c0 68 82 9d 3a e6 4e b8 3b 35 cf 10 3b 6c 7e 6d bc
       0.0012017014 0.00562464 0.0022096161 -0.014495473
0002d0 4d 98 46 bb dd c3 b6 bb a4 90 13 bb 11 2d f8 bc
       -0.003030318 -0.005577548 -0.0022516632 -0.030294927
0002e0 bf 34 eb ba ef 1d 7f 39 7f e2 06 bc ab 8d b7 3b
       -0.0017944797 0.00024329846 -0.008232712 0.005601605
0002f0 b2 22 b0 bc 6f 0e 35 3b 57 1e 09 3a ac 37 d7 3a
       -0.021500919 0.0027627011 0.0005230656 0.001641979
000300 b5 dd f2 3b 80 bc df ba bf ef 8d 3b b2 d5 69 ba
       0.0074116834 -0.0017069727 0.0043315585 -0.0008920088
000310 71 ab 28 3b aa 8c 85 bb 33 98 0b 3b a7 06 ec 3a
       0.0025736953 -0.0040756064 0.0021300435 0.0018007354
000320 c6 ac 24 3b 93 a3 64 3b f4 1e 68 bc 89 42 1a bb
       0.0025127395 0.0034887537 -0.014167536 -0.0023538193
000330 c5 6e 32 3b 4e 03 04 3c f0 22 52 bb d4 25 93 ba
       0.0027226668 0.0080574285 -0.0032064281 -0.0011226484
000340 7c 8d 32 3c b7 f4 30 bb 7f ff 88 bb 07 b1 9f bc
       0.01089799 -0.002700133 -0.004180848 -0.019493593
000350 13 7a 78 3b 60 10 8c 3b 52 03 8e 3a 5b 8d 5e 3b
       0.0037914559 0.004274413 0.001083473 0.0033958766
000360 55 4d e3 bb 15 74 c0 bc 50 97 3f ba e7 b3 6d ba
       -0.006936709 -0.023492852 -0.0007308619 -0.000906764
000370 87 57 1b bb a7 23 06 3b 3e 2a 90 3b ee 51 67 bb
       -0.0023703293 0.0020468028 0.004399567 -0.0035296637
000380 c9 15 d5 ba af a1 d6 bb d8 f1 04 bc b8 af 24 ba
       -0.0016257103 -0.006550036 -0.008114301 -0.00062822876
000390 5c 53 a0 3b 54 48 b0 bb 6c 7f e6 3a f1 89 52 3b
       0.0048927497 -0.005379716 0.0017585582 0.0032125677
0003a0 68 ca d4 3a b7 b0 ee 3a ed 95 2c 3b 49 0b 4e 3a
       0.0016234638 0.0018210624 0.002633448 0.0007859958
0003b0 44 48 f4 3a 38 45 05 bc 41 38 38 3b 84 d4 cc ba
       0.001863726 -0.008134179 0.0028109702 -0.00156273
0003c0 f8 79 5d 3c 6f 1c ee ba f0 50 a0 3b 04 4a c8 bc
       0.013517849 -0.0018166433 0.004892461 -0.024449356
0003d0 4b 9d a5 3a e2 f8 ab ba e7 68 d7 3a 0d 02 1b 3c
       0.0012635378 -0.0013120438 0.0016434462 0.009460938
0003e0 ae 3a 89 bc fd bb 4b 39 7a 3b 7b 3a e7 07 c1 3b
       -0.016751613 0.0001942962 0.0009583753 0.0058908346
0003f0 91 63 d1 3a 70 a9 9b 3a db 87 40 3b 26 72 64 3b
       0.0015975108 0.0011876058 0.0029377851 0.0034858077

network_body._body_endoder.seq_layers.2.weight f4 [256, 256]
000000 63 ad 76 3d 68 52 d5 bd 8c f8 27 bc 54 08 a6 bd
       0.06022395 -0.10416108 -0.010252129 -0.08107057
000010 c2 30 17 bd 03 39 e5 bd af 02 05 3e c6 29 6d 3d
       -0.036911733 -0.11192515 0.12989305 0.057901166
000020 43 23 18 bd 26 dc 48 bd 32 ef 3d bd b8 f3 4c 3d
       -0.037143003 -0.049038075 -0.046370693 0.050037116
000030 87 c2 76 3d 5a 10 d4 bd 46 74 3a be 25 25 f2 3b
       0.06024411 -0.10354681 -0.18208417 0.007389682
000040 f7 dd d5 bd ea ee d7 bd 94 0a 42 3c 98 b8 e2 bc
       -0.10442727 -0.10543616 0.011843342 -0.027675912
000050 20 27 07 bd cd 76 92 bc de d3 bb 3d de 39 ba bd
       -0.032996297 -0.017878914 0.0917127 -0.090930685
000060 f3 55 b3 bc 50 68 66 bd 4a 2f 7c bd 86 b8 56 bd
       -0.02189157 -0.056251824 -0.061568536 -0.05242207
000070 a2 68 9f 3d 44 01 7a 39 47 e4 1e bd dd 9a c3 3d
       0.07783629 0.0002384233 -0.03879192 0.09551022
000080 04 96 79 3d f2 a9 05 3e 49 06 42 bd 30 45 ca 3c
       0.06093408 0.1305311 -0.047369275 0.024691194
000090 7e 62 91 bd 98 74 82 3d 36 1a b4 bd 3f 3c 01 3b
       -0.07098864 0.06369895 -0.08794062 0.0019719747
0000a0 c3 89 93 3b 3a ca 75 bc ee c6 2b bd c9 30 5b 3d
       0.0045025065 -0.015001828 -0.04193776 0.053513322
0000b0 27 a6 bf bc 5a 17 d3 bd 5a de 69 3d 30 36 dd bd
       -0.023394657 -0.10307188 0.057096817 -0.10801351
0000c0 f6 13 77 bd 84 45 78 bd e2 fd 77 3d 1c 8e 95 bd
       -0.06032177 -0.06061317 0.060544856 -0.07302496
0000d0 90 ce 36 3c 5c 52 8f 3c b5 12 10 3c 2c 6d c5 bc
       0.011157647 0.017495327 0.008793523 -0.024099909
0000e0 3e 63 1a be da fc 0d bd b3 a4 4e 3d a0 10 cd bd
       -0.1507692 -0.034664966 0.05045004 -0.100129366
0000f0 45 9b a0 3d e9 ce cc 3b 6d ff 03 3d 62 75 f4 3c
       0.07842115 0.0062502516 0.032226015 0.029841129
000100 44 17 59 3c 93 ba f1 bd 0e 4f ca bd ce cf 53 3b
       0.013250176 -0.11803164 -0.0987836 0.0032319906
000110 56 1c 44 3d b3 3b 53 3d 79 f0 74 bc 23 c9 ff 3c
       0.047878586 0.051570605 -0.014949911 0.03122384
000120 96 57 f7 3d fd a4 84 bc 6d 9e 8e 3c cc ee 05 be
       0.120772526 -0.016191954 0.017409528 -0.13079375
000130 8e 1b eb bd bd ff 2e bd d0 55 d7 3d 00 be 79 3c
       -0.11479865 -0.04272436 0.10514414 0.015243053
000140 22 3d c7 bc 87 a3 a7 bd 4c 93 b6 3c e5 f9 42 bd
       -0.024321143 -0.08185487 0.022287033 -0.0476016
000150 28 37 1f bd 9f 19 94 3d 7f 51 4d bb 8e 2d ca 3d
       -0.03887096 0.07231449 -0.0031329093 0.0987197
000160 e7 44 05 3d d2 6c 12 bd b8 78 ab bc 65 e4 a1 bd
       0.032536414 -0.03574831 -0.020931587 -0.07904891
000170 4e 48 2c 3e 46 27 a3 bd 7e 3d 2a bd fd 33 f6 3d
       0.16824457 -0.07966475 -0.04156255 0.12021635
000180 94 b8 20 3e 33 22 50 bc 92 ef 43 3e 5d 3e 2b 3d
       0.15695411 -0.012703466 0.19134358 0.04180752
000190 92 ee df 3a d2 38 a5 bd 84 33 36 3c 90 cb 35 3d
       0.0017084649 -0.08067478 0.011120681 0.044383585
0001a0 45 e0 1b bc a8 7f 2d bd ac 16 fe bb 26 d4 c7 3c
       -0.009513919 -0.04235807 -0.0077541675 0.024393152
0001b0 6c cd 26 bd 71 1e 88 bd 58 1c aa 3d 3e 57 81 3c
       -0.04072325 -0.06646431 0.083061874 0.01578867
0001c0 80 2d 79 bc 31 46 0a bd 88 a1 66 3c c8 c6 3e bd
       -0.015208602 -0.033758346 0.014076598 -0.04657629
0001d0 06 67 a0 39 21 2a 0c 3e bb ab ca 3d 7c bc a7 bd
       0.00030594337 0.13687946 0.09896036 -0.081902474
0001e0 c3 4c 72 3d 98 15 be 3c 9f 8a 07 be c1 28 5b 3c
       0.059155237 0.023203656 -0.13236474 0.013376416
0001f0 b2 8b 31 3d b4 e5 ca 3d aa 78 b9 3b fa e1 fd 3d
       0.043346114 0.09907094 0.005660136 0.12396617
000200 ac 27 4b bd 1a 9e 6f bd e3 9a 1b bc 46 2e 11 be
       -0.04959838 -0.058500387 -0.009497377 -0.14177808
000210 c4 34 ed bc 65 ed 6d 3d e3 e8 23 bd 80 18 ba bc
       -0.028955825 0.058087725 -0.04001702 -0.02271676
000220 8a b4 93 3d 3c 3b 12 3c 1e 59 d2 bd ab 69 e9 3d
       0.072121695 0.008925255 -0.10270904 0.11397108
000230 29 6f f0 bd 8f 64 e1 3c 49 d5 6a bd 2f 06 d4 3d
       -0.11739952 0.02751377 -0.05733231 0.10352742
000240 2a 48 1d be fa b9 c0 bd c6 ac 83 3d bb 05 92 bd
       -0.1535956 -0.09410472 0.06429438 -0.07129999
000250 04 8b 1e 3d d8 0c 43 be f0 b4 b8 3d 8f 1c 33 bd
       0.038706794 -0.19047868 0.09018886 -0.043728407
000260 fe 26 81 bd 5b 2a 42 3d 55 e7 c7 3d ca b6 82 bc
       -0.06306265 0.047403675 0.0976092 -0.015956301
000270 df 50 9b 3d 4f de 5a bb 64 a0 0c be 1d 8c ee 3b
       0.07583784 -0.0033396666 -0.13733059 0.0072798864
000280 db a9 cb 3d ce 9d 1d ba 62 c9 b1 bd 22 91 2c bd
       0.09944507 -0.00060125894 -0.08680989 -0.042130597
000290 dd 85 71 3d 73 af 57 bc 72 c4 fe bc 57 e7 6e bd
       0.058965553 -0.013164389 -0.031099532 -0.05832609
0002a0 2b 76 1e bd d8 ae 0c bd 76 51 c1 bc 09 c2 ba bd
       -0.038686913 -0.03434643 -0.023598414 -0.091190405
0002b0 9d 97 b7 3d 2d 1e c1 bd 0e 8d 49 3d 26 a9 44 bd
       0.08964465 -0.09429584 0.049206786 -0.048012875
0002c0 16 d5 b5 bd c2 f7 36 bd 3a ce db 3c 0e a1 d2 bc
       -0.088785335 -0.044669874 0.026831735 -0.025711562
0002d0 51 e2 40 3d 8d 1a b8 3a cf a8 18 be 23 14 be 3d
       0.047090832 0.0014045999 -0.14908145 0.092811845
0002e0 9a a6 9c bd 66 79 a9 3d 3f fe 54 3d a1 95 ab 3c
       -0.07648964 0.08275108 0.05200028 0.020945372
0002f0 3a 8e 6f 3b bf 81 d6 3d a4 3a 44 3d 3e de 99 bd
       0.003655328 0.10473966 0.047907487 -0.075130925
000300 1f bc bf 3c ea fc 9e bd a5 53 96 bd 16 4f 9a bd
       0.023405133 -0.07763083 -0.07340173 -0.07534616
000310 de 4e 89 bb 26 8c 97 3d 40 bd 42 3d dd 81 38 be
       -0.00419031 0.07399778 0.047543764 -0.18018289
000320 e9 59 6a 3c fe 54 6a 3d 38 b3 1f bd 62 29 5d bd
       0.014303663 0.05720996 -0.038989276 -0.053994544
000330 e4 84 33 bd 39 3c 04 be d1 18 2b be 70 44 ac bd
       -0.043827906 -0.12913598 -0.16708685 -0.08411491
000340 16 70 7a 3d 15 0a f0 3c bc fd 10 bc f7 26 71 3d
       0.06114205 0.029301682 -0.0088495575 0.05887505
000350 e0 8f 01 bd af ec 93 bc 54 da e5 bc 56 cf f5 3c
       -0.03163135 -0.018057195 -0.028058209 0.030006092
000360 67 7c 32 bd 1e bb 7c 38 d9 b5 2f bc 23 9f 2e 3c
       -0.04357567 6.025575e-05 -0.010724508 0.010658058
000370 df 7f 8b 3c 44 d1 4a bc 7f 5b 8e bd e2 04 8e bd
       0.017028747 -0.012378994 -0.06951045 -0.06934525
000380 60 f8 20 3e 19 19 0a 3c ae 53 54 bd 7e c0 bc bd
       0.15719748 0.008428835 -0.051837616 -0.092164025
000390 1c c4 40 3e 56 99 b3 bd cd 5f 7d bd 6b 5b 74 bc
       0.1882481 -0.08769481 -0.06185894 -0.014914374
0003a0 f8 63 b5 bc 34 af 13 3d 4c 2e 86 3c be fa fe 3c
       -0.022142395 0.03605576 0.016379498 0.031125423
0003b0 61 bb fe 3b 95 a3 7b 3b d6 8e b6 3c 2e 82 c9 bd
       0.007773802 0.0038397063 0.022284906 -0.09839283
0003c0 f4 8a a2 3d 7d 4e 92 3d 85 71 bb 3c 4a 11 76 bc
       0.079366595 0.07143877 0.022881279 -0.0150187705
0003d0 be 82 5d 3c 48 9f 55 3d d5 60 8a 3a dc 3d ae bd
       0.013519941 0.052153856 0.0010557423 -0.085078925
0003e0 b8 8d aa bb aa 6a 33 3d 8c 85 17 bd d0 33 1b 3d
       -0.0052048825 0.043802895 -0.036992595 0.03789121
0003f0 2b f1 95 bd 6a 63 75 3c 62 5d d5 3b cc 71 2a 3d
       -0.0732139 0.014977315 0.0065113762 0.04161243

network_body._body_endoder.seq_layers.2.bias f4 [256]
000000 a9 82 c3 3c b8 10 12 3c 8a cf 8f 3b 7b a5 b0 3c
       0.023866015 0.008915119 0.0043887543 0.021563282
000010 e1 40 40 bb d7 17 c6 3c da 19 8f bb d1 36 a2 3c
       -0.0029335546 0.02418129 -0.0043670954 0.01980153
000020 1a ba 35 3c ca e6 0a bb c3 36 da bb 39 93 39 3b
       0.011091733 -0.002119469 -0.00665936 0.0028316511
000030 7e 88 7a 3b a2 68 9f 3c 37 1a 2c 3b fd 12 c0 3c
       0.0038228328 0.019459073 0.0026260742 0.023446554
000040 b5 75 cf 3c 35 fc 01 3c 86 0a ee 39 e6 d2 21 3d
       0.025324682 0.007933666 0.00045402738 0.03950777
000050 dd 3a 95 bb 62 c3 e3 b8 b7 96 9c bb a1 de 71 3c
       -0.004554136 -0.000108605964 -0.004778709 0.0147625515
000060 01 96 8f 3b e2 cc e1 3b 57 4c 8e 39 ab bb 1e 3c
       0.0043818955 0.006890879 0.00027141228 0.009688298
000070 6a 73 2c bc e9 d1 46 3c 73 54 b3 3c 7f da 5a 3c
       -0.010525564 0.012135007 0.021890854 0.013357758
000080 d6 b5 d4 3b 0c ac 99 3b eb 86 8b 3b 9b 77 28 3c
       0.006491403 0.004689699 0.004258027 0.010282422
000090 f9 61 82 3c 62 96 10 3c 2a d3 60 3a 61 e7 47 3a
       0.015915858 0.008824917 0.0008576388 0.00076257257
0000a0 72 69 17 3c 97 c3 76 3c fe 21 39 bc 5a 31 8d 3c
       0.009241449 0.015061281 -0.011299608 0.017235447
0000b0 5d d6 83 3c 39 72 e5 ba 32 1b 36 3c db d7 3d 3c
       0.016093427 -0.0017505354 0.011114882 0.0115871085
0000c0 b7 96 47 3c 4b 20 23 3c ca 0a 93 3b 75 7b df 3a
       0.012181929 0.00995643 0.00448737 0.0017050343
0000d0 2f 4b dc bb 7c aa dd 3c 0e 45 ac 3a a2 e6 d5 3c
       -0.00672283 0.027058832 0.0013143138 0.02611095
0000e0 7b 3d 3c 3c 79 f3 03 3b ea a7 32 ba 48 34 d9 3b
       0.011489267 0.0020134135 -0.0006815182 0.006628547
0000f0 51 49 14 3b 8a 43 2e bb 4d 00 b1 3b 87 6d 1a 3c
       0.0022626708 -0.002659055 0.005401647 0.009425527
000100 bd f3 7e 3a c2 1e bc 3b b1 a7 a4 3c 2e 1f fe 3a
       0.0009725651 0.0057409713 0.020099493 0.0019387954
000110 90 b9 2b ba 36 df a6 bc f6 6a 33 3c c8 07 79 3c
       -0.00065507833 -0.020370107 0.010950794 0.015199609
000120 cd 3e f8 ba 47 ce f1 bb 9e 3f ff bb 7c 2d dd bc
       -0.0018939615 -0.0073793265 -0.007789566 -0.026999228
000130 40 df b6 3b 50 72 61 3c cf a9 bb 3b ec 30 d8 b9
       0.0055808127 0.013760164 0.00572703 -0.0004123518
000140 0c cd f1 bb 39 b5 2f bc 91 94 89 3b 82 c0 fc bb
       -0.00737918 -0.010724359 0.0041986187 -0.0077133784
000150 aa 24 c2 b9 43 9d ae 3b 74 86 d9 3c 60 07 1f ba
       -0.0003702988 0.0053288057 0.02655337 -0.00060664676
000160 92 da 97 3c c1 98 34 bc 44 4f 8f bb 33 e9 30 3c
       0.01853684 -0.0110227475 -0.004373463 0.0107977865
000170 26 46 95 3b a1 d1 0a bb d5 82 1c 3b 6b 6f 91 bc
       0.0045554815 -0.0021182077 0.0023881693 -0.017753324
000180 6d 0f f9 3a 1c 57 84 3c 5d 68 36 ba a6 02 08 3a
       0.001900179 0.016154818 -0.00069583004 0.0005188383
000190 9e ed 5d bb c7 21 00 3c d4 2d f6 3b 4f c8 6b 3b
       -0.0033863555 0.007820553 0.0075127874 0.0035977548
0001a0 9b 64 2b 3c 25 76 e3 b8 7e 0a 3b 3c a4 23 d4 3b
       0.010460998 -0.000108462096 0.011416076 0.0064739753
0001b0 af 03 bf 3c 88 43 81 bc 38 4d d2 3b cc 73 cb 3b
       0.023317186 -0.015779272 0.0064178966 0.0062088724
0001c0 1f 65 aa bb b2 de 14 3b 78 48 ae bb e1 38 f5 3b
       -0.005200043 0.0022715745 -0.0053186975 0.007483587
0001d0 1d e9 f2 3a 94 0c 0a bb 73 ac 03 bb d5 97 36 3b
       0.0018532608 -0.0021064626 -0.0020091801 0.0027861495
0001e0 40 b6 d3 bb 26 86 3f 3c 49 67 17 bb a5 de b8 bb
       -0.006460935 0.011689698 -0.0023102334 -0.0056417757
0001f0 a7 27 0c bd c8 9d 68 3a 7c 7b 82 3c e7 b3 6b 3b
       -0.034217503 0.0008873609 0.015928023 0.0035965384
000200 03 e5 68 3c da 40 8f ba d6 c4 87 3c 09 37 45 bc
       0.014214757 -0.0010929361 0.01657335 -0.012037047
000210 49 fb 01 bc c7 3c c3 3b 2f 71 04 bb c3 21 04 3c
       -0.007933446 0.005958173 -0.0020209064 0.00806469
000220 ed 1d 34 3c 14 6b 92 3c c2 33 92 bb f0 46 87 3c
       0.010993463 0.017873324 -0.0044617364 0.016513318
000230 6d 3c f7 3b c5 b9 73 3c 43 3d 0b bb 01 c8 f0 3c
       0.007545045 0.014875834 -0.0021246232 0.029392244
000240 e4 e9 c2 3c 35 72 cc 3b 5d 6e 1d 3c b3 0a a7 3b
       0.023793168 0.0062392005 0.009608832 0.005097711
000250 4e bf 2b 3c a5 00 f2 3b 18 7f 27 3d 6b 3c 81 3c
       0.010482622 0.0073853307 0.04089269 0.01577588
000260 ed 1a 3c bc a4 35 92 bb da bd dc 3c 94 be 7b 3c
       -0.011481029 -0.004461961 0.026945997 0.015365262
000270 69 5d c5 ba c7 fb df 3b ec d6 2e 3b fc 4d 7b b9
       -0.0015057746 0.006835434 0.0026678396 -0.00023966277
000280 fe c8 a8 3c 0b 3e e6 bb 5f fa a4 bb 45 f9 ce 3c
       0.020603653 -0.007026439 -0.0050347294 0.025265345
000290 9b da 51 bc 11 47 0f bc e6 03 d8 ba 32 dd 87 3c
       -0.012808467 -0.008744971 -0.0016480654 0.016584966
0002a0 77 a1 c5 3b 78 f4 13 38 bd 73 ca 3a fb bf 91 3a
       0.006031211 3.527521e-05 0.001544587 0.0011119837
0002b0 bb a5 ff 3b f1 36 4b 3c 5e 71 eb 3b e2 ae cd 3b
       0.007801739 0.012403236 0.0071851453 0.006276951
0002c0 9a 5c 8a 3c 07 e2 13 3c ba 07 5a 3c 6a b3 c0 bb
       0.016889859 0.009026057 0.013307506 -0.005880763
0002d0 18 5d f6 bb 2f af e3 3c 48 21 60 3c d2 83 8c bb
       -0.007518422 0.027793495 0.01367981 -0.004288175
0002e0 80 23 0e 3c ca 29 74 3a 2b e0 dc 3c a9 35 83 bc
       0.008675456 0.00093140884 0.02696236 -0.016016798
0002f0 76 08 8a 3a f8 0b 33 3c a0 bc a9 3b b0 67 94 bb
       0.0010531086 0.010928147 0.0051799566 -0.004528962
000300 b1 6e 0b 3c 04 5c c9 bc e4 6d ad bb c4 af 88 bb
       0.008510278 -0.02458001 -0.005292641 -0.0041713435
000310 a9 d5 80 3c a2 b5 51 3c 1b 4f ca bb 19 c7 6f 3c
       0.015726881 0.012799652 -0.006173981 0.014634871
000320 a3 b3 45 bb 45 b4 a0 3b b7 29 94 3c fb ae a9 3c
       -0.0030166886 0.0049043023 0.018086297 0.02071332
000330 d1 1e 01 3c 0c da b0 3c 2a 80 21 3d a3 4a b9 3c
       0.007880882 0.021588348 0.039428867 0.022618597
000340 6c 23 80 3b 41 53 dd 3a b7 af b9 bb 9d dd b3 39
       0.0039104726 0.0016885774 -0.005666699 0.00034306655
000350 df 76 00 3b a0 8e 3a 3a 7d ce 1d 3c 82 05 cc 3c
       0.0019602103 0.00071165897 0.00963175 0.02490497
000360 a2 6e a1 3b 4a 91 bb bb b6 42 ae b9 22 35 fd ba
       0.0049265185 -0.005724107 -0.0003323757 -0.0019318203
000370 50 78 f5 bb 3d ff 2a bc b0 01 8f 3b 66 f2 90 3c
       -0.007491149 -0.01043683 0.004364215 0.01769371
000380 f7 f5 6c 3b a4 3c 85 3b de 85 ee 3b f8 3e 84 bb
       0.0036157349 0.004066067 0.007279142 -0.004035827
000390 0e e8 42 3b 52 c0 3f bb b8 46 a6 bc ee 6c 14 3b
       0.0029740366 -0.002925892 -0.020297393 0.0022647935
0003a0 46 da 07 3c 70 3e b3 3b f7 c1 a1 bb f7 df f6 ba
       0.008291787 0.0054700896 -0.0049364525 -0.0018835057
0003b0 bc d1 19 3c e7 5e 19 bc 9a d9 1d 3c 4e dd 94 3c
       0.0093883835 -0.009361005 0.0096344 0.018171933
0003c0 be 82 8d 3c 6f 8d d3 3c dc 66 b9 3c 22 e8 ba 3c
       0.017274257 0.025824277 0.022632055 0.022815768
0003d0 54 37 ca 3b fb 97 9e 3b c0 26 8f bc 81 40 cb 3b
       0.0061711464 0.004839895 -0.017474532 0.006202758
0003e0 2b ce 78 bc 1e f4 bd 3b 85 bb 24 bb 2c f2 71 3c
       -0.015185873 0.0057969233 -0.0025136184 0.014767211
0003f0 1c 0b 14 3c 34 6d 85 3c cc 64 bb 3c 32 50 07 3c
       0.009035852 0.016287424 0.022875212 0.008258866

action_model._continuous_distribution.log_sigma f4 [1, 3]
000000 74 7e e7 be 0a fc 11 be 1b 92 31 bc
       -0.45213664 -0.14256302 -0.010838057

action_model._continuous_distribution.mu.weight f4 [3, 256]
000000 b0 be 29 3d d5 89 b5 3a a5 e3 9c bc 7d 66 24 3d
       0.04144162 0.0013850281 -0.019151518 0.040136803
000010 40 4e ca 3a 66 c8 f1 3a a0 91 6e bd d1 47 95 bc
       0.0015434697 0.0018446564 -0.058244348 -0.018222721
000020 f0 4a 94 3c 75 79 8c 3c b4 b5 93 bc 74 81 e8 3b
       0.01810214 0.017147759 -0.018030979 0.00709551
000030 e3 49 8a bd 71 4a 99 bc bd 12 52 3d aa eb ce bd
       -0.06752374 -0.018712254 0.0512874 -0.10103543
000040 34 71 f3 3c ed b0 83 3c 56 c3 89 3d c7 63 a8 3d
       0.029717065 0.016075576 0.067267105 0.08222156
000050 8a 70 e0 3c ad f3 48 3b d1 46 b2 bd 6e 0c b5 bd
       0.027397413 0.003066282 -0.087049134 -0.088402614
000060 fc 9d 06 3d fd 63 69 bd 5e 57 92 3a f8 b1 60 bc
       0.03286551 -0.056980122 0.0011164953 -0.013714306
000070 55 f5 a6 bc e6 da 4a bd 1a 0c 08 3d b1 7d 82 3d
       -0.020380655 -0.049525164 0.033214666 0.0637163
000080 a5 88 2d 3d 80 08 7b 3d 04 04 e1 3c 66 c8 09 3d
       0.042366643 0.061287403 0.027467735 0.03363838
000090 46 d5 80 3d 70 b9 37 3d cf 70 4e 3d fd 70 a0 bd
       0.06290679 0.04485458 0.05040055 -0.07834051
0000a0 90 ef dd 3a c9 36 5d 3d e8 6d ea ba 73 42 58 3d
       0.0016932357 0.054007325 -0.0017885538 0.052797746
0000b0 21 ff cb 3c 01 8c a0 bd 0a 8f c0 3d 01 51 94 bd
       0.024901928 -0.078392036 0.094022825 -0.07242013
0000c0 7d b5 ae 3d d1 8a 36 3d 61 28 9b 3c 68 be 34 3d
       0.0853071 0.04456598 0.018940153 0.044126898
0000d0 2d 00 8e bc f0 e7 c6 3d 77 c9 f8 bc bd 32 af 3d
       -0.017334068 0.09712207 -0.030369503 0.085545994
0000e0 63 f7 58 3d e6 17 43 bd cc 26 78 bd f3 90 e9 bc
       0.0529703 -0.047630213 -0.060583875 -0.0285115
0000f0 c3 4c 47 bd e1 01 dc bd 61 01 97 bc 78 b9 61 3d
       -0.04865719 -0.10742546 -0.018433275 0.055108517
000100 52 e9 3d bd 8f 34 0a 3d 73 95 57 3d 80 80 c6 3c
       -0.04636509 0.03374153 0.05263276 0.024231195
000110 71 45 60 bd b5 e7 70 bc fd 38 4e bd cc 22 a3 bd
       -0.054753724 -0.014703681 -0.050347317 -0.07965621
000120 ea 67 92 3a ff 4d 52 bd 4f c8 bf 3c da d6 92 bc
       0.0011169885 -0.051343914 0.023410944 -0.017924715
000130 73 97 b9 bd 70 4a 25 bd e9 56 e4 3b aa c9 6b 3d
       -0.0906209 -0.040354192 0.0069683683 0.05756537
000140 8b 2c 29 3c 30 ed 9f bd 5a 9d b7 bc 96 01 e1 bc
       0.010325561 -0.07808912 -0.022413898 -0.027466577
000150 ed ea dc 3b 1c 00 83 bd e9 a9 5d 3d 19 34 65 3c
       0.0067418725 -0.06396505 0.054117117 0.013989472
000160 45 15 4e 3c 43 01 22 3c 82 70 9b bd 0a 74 33 3d
       0.012578313 0.009887996 -0.075898185 0.043811835
000170 19 dd 90 bd e2 ed 7b bd 9f a8 80 bd a8 55 2a bc
       -0.07073421 -0.06150616 -0.06282162 -0.010396399
000180 1f 18 5d bc 85 01 1c 3c 11 12 88 3c 09 5d 14 bd
       -0.01349452 0.009521847 0.016610177 -0.036221538
000190 39 bf 72 bb f0 99 fd 3c e8 5a 10 3d 82 ab 1a bc
       -0.0037040247 0.030957192 0.035242945 -0.009440305
0001a0 e6 12 09 bb d4 59 c3 bd cc 53 a7 bd a8 05 40 3d
       -0.0020915805 -0.09538618 -0.0817028 0.046880394
0001b0 6c 92 82 3d 41 7e 9d bd 0e cb a9 3c 2d 07 67 ba
       0.06375584 -0.07690097 0.020726707 -0.000881302
0001c0 75 6a 6f bd 02 4d 8e 3c 0f f6 51 bd 32 14 14 3d
       -0.058451135 0.017370705 -0.05126005 0.036152072
0001d0 a9 48 02 bc e2 e1 72 bc fa 3d be bd 08 24 36 bc
       -0.007951894 -0.0148243625 -0.09289165 -0.011116989
0001e0 e0 d5 ae b8 bd c8 4b bd ce b5 3e 3c 70 d1 ca 3c
       -8.336804e-05 -0.049751986 0.011640025 0.02475807
0001f0 bb 7b e3 bb 91 a8 25 3d bf 35 36 3d c1 e0 93 bb
       -0.00694224 0.04044396 0.04448485 -0.0045128767
000200 bc 18 7f 3d 2b 6f bd 3c 1a ab 8b bd 29 12 d8 bc
       0.062279448 0.023124298 -0.068197444 -0.026375847
000210 bd 6d ae bc a1 08 99 bd d0 ea ff 3c 21 93 83 3d
       -0.021292562 -0.07472349 0.031239897 0.06424547
000220 8d 06 e1 3c 31 19 8e 3d ff 38 c5 bd 67 54 83 bd
       0.027468944 0.06938399 -0.09630012 -0.06412583
000230 23 bb 5e 3c c7 46 56 bd 59 9d fe 3c b4 ad bb 3d
       0.013594422 -0.052313592 0.031080889 0.091639906
000240 e7 b9 a0 bc fe 18 f2 3c 6a 78 68 3d 3e d7 48 3d
       -0.019619895 0.029552933 0.05675546 0.049033396
000250 1e 5f 86 bb 07 59 0e 3d 20 25 f1 3d ec 80 c9 bc
       -0.0041006943 0.03475287 0.11774659 -0.024597608
000260 3a 08 bb bb 26 2d 86 bd af d5 2a 3d 9d f8 74 3d
       -0.005707768 -0.0655158 0.04170769 0.05980741
000270 55 d7 1f 3c f8 b1 bc 3c 11 e0 b1 bd 61 fd 96 bd
       0.009755929 0.02303408 -0.086853154 -0.07372547
000280 aa 9d 5d 3d 3a f6 8a bd dc 40 41 bd 21 15 42 3d
       0.05410544 -0.06785245 -0.047180995 0.04738343
000290 89 e1 bc bb 35 91 96 bd 3e 12 92 bd 37 f2 f9 bc
       -0.0057641906 -0.07351915 -0.07132386 -0.030511005
0002a0 68 b7 89 3d 5f d5 9c bd 8c a7 0b 3d 96 30 86 3c
       0.06724435 -0.07657885 0.034095332 0.01638059
0002b0 04 d9 04 bb 21 2e b6 bd f9 ae dd bc 25 47 85 3d
       -0.0020270953 -0.08895517 -0.027060973 0.0650771
0002c0 51 b5 36 bd 63 aa 6e 3d be 66 b2 bd 5d f6 45 bd
       -0.04460651 0.058267962 -0.08711003 -0.048330653
0002d0 c5 7e 1d bc 20 61 f0 bc 19 78 98 3d ef c7 80 3d
       -0.009612744 -0.029343188 0.07444782 0.06288134
0002e0 ae 09 c9 bb a3 1f 95 bd 53 4a 3c bd 17 92 91 bc
       -0.006135187 -0.07281425 -0.04596932 -0.017769856
0002f0 2d 06 a3 bd 13 19 fb bb 87 5f 3b bd 70 e4 9d bc
       -0.07960162 -0.007662901 -0.0457454 -0.019273967
000300 43 a8 c5 3b d6 cd 14 bd 72 93 c1 bd 09 bd ad bc
       0.0060320213 -0.036329113 -0.09451951 -0.021208303
000310 cc 7a 1a bc 38 c1 8e 3d 86 d4 98 bd e1 f8 84 3d
       -0.009428691 0.06970447 -0.07462411 0.064927824
000320 4e 36 18 b8 f3 1b 83 3d 4a 96 8c 3d df 6e 4b bd
       -3.62902e-05 0.06401815 0.06864603 -0.04966628
000330 54 f6 3a 3d f8 38 de bb cd 09 8d 3d 3f 3d 6a bd
       0.045645073 -0.0067816935 0.06886635 -0.057187315
000340 05 b2 83 3c a5 da 58 bd cb 89 1e bc 31 73 82 bd
       0.016076097 -0.05294289 -0.009676407 -0.06369627
000350 84 7e 78 bd ae a0 0a 3d ae 37 6b 3d e3 79 43 3d
       -0.06066753 0.033844642 0.057426147 0.047723662
000360 6c c1 9c bd 8f a7 60 bd ef e7 9b bd 20 f0 d7 bc
       -0.0765408 -0.054847296 -0.07612597 -0.026359618
000370 6f 87 8f bd 23 64 bb bd c7 b3 20 3a dd 11 ad bd
       -0.07008254 -0.09149959 0.00061303045 -0.08450673
000380 d2 30 fd 3c ce 4f 4c 3d 1d 91 f4 bb 18 8c d6 bc
       0.030907068 0.049880795 -0.007463588 -0.026189849
000390 03 fd 41 3c 88 6e 96 bd 68 26 0a 3b 37 21 20 3d
       0.011840108 -0.07345301 0.002108002 0.039094176
0003a0 a6 a3 b3 bd 47 36 8c 3c 53 02 82 3a f2 22 3b bc
       -0.08771448 0.017115725 0.0009918906 -0.011421906
0003b0 96 87 c2 3c 81 23 ab bc 2d ab 8f 3d 98 a3 3f 3d
       0.023746293 -0.020890953 0.07015071 0.046786875
0003c0 54 ca 50 3d cd a4 97 3d 58 19 99 bd cd 8b e1 3d
       0.050974205 0.0740448 -0.07475537 0.11012993
0003d0 33 34 e4 3c 57 cf a3 3c 95 57 96 3c 20 01 89 bd
       0.027856922 0.019996328 0.01835231 -0.06689668
0003e0 9a 26 95 bc 4d a6 ad bd 9a a1 e1 bc 80 a1 ec bc
       -0.018206883 -0.08478985 -0.027542878 -0.028885603
0003f0 c5 f9 b8 bd 35 73 a1 bd 91 9d 71 3d 3e 5b 30 bd
       -0.09032015 -0.07883302 0.058988158 -0.043055765

action_model._continuous_distribution.mu.bias f4 [3]
000000 a1 c1 ff 3c e5 80 c2 3a 84 0e 9d bc
       0.03122026 0.0014839439 -0.01917196
