config/results/Reward_distance/PathFollowing/PathFollowing-3999910.onnx (onnx, 696091 bytes, 7 tensors)

network_body._body_endoder.seq_layers.0.weight f4 [256, 416]
000000 d0 e2 8f bd 2c 46 34 bd 60 46 bd bc 7d b7 33 bc
       -0.07025683 -0.044012234 -0.023104846 -0.01096904
000010 48 36 b5 3b 82 45 9d bd 3a cc 25 bc 6d da 9c bd
       0.0055301525 -0.07679273 -0.010119492 -0.07658849
000020 ba 3f d6 bd cd 4f 63 bd b5 8d 26 bd c3 17 98 bd
       -0.104613736 -0.055496026 -0.040662486 -0.07426407
000030 03 c0 cb 3c c4 17 bd bd a7 b5 59 bd 2d 61 e6 3b
       0.024871832 -0.092330486 -0.053151753 0.007030627
000040 92 e5 8a bc bb 3b 9c ba 5a eb 23 bd d8 60 36 3c
       -0.01695517 -0.0011919657 -0.04001937 0.011131488
000050 5f f4 17 bb 4d e4 56 3c 9b ea 83 3b e0 98 4b bb
       -0.0023186428 0.013115955 0.00402577 -0.0031066462
000060 a9 e3 71 bc 04 cb d1 bc b2 ab ce bd bc 20 85 bd
       -0.014763751 -0.0256095 -0.10091342 -0.06500384
000070 b7 30 3a ba 81 de 86 bc ea c7 66 bd b7 84 1b bd
       -0.0007102596 -0.01646352 -0.056342997 -0.037968364
000080 ec 80 2d bd 98 d8 e4 bc 2d f5 c1 bc cc 0a 2c 3c
       -0.042359278 -0.027935311 -0.02367648 0.010500621
000090 af d8 6f bc c9 0b ae bd 3b 2d 13 bd 4c 17 e6 3c
       -0.014639064 -0.084983416 -0.035931807 0.02808728
0000a0 56 68 b1 bc 74 cf 70 3d 88 39 45 3c ab 52 51 bc
       -0.021656197 0.058791593 0.012037642 -0.012776057
0000b0 4b be 0e 3c 93 7c d5 bd 08 28 2a 3d 3d 19 38 3d
       0.008712362 -0.10424151 0.041542083 0.044945944
0000c0 c8 25 1a 3d dd bb 40 bd e2 f3 a6 3c 93 89 04 3d
       0.037633687 -0.04705416 0.020379964 0.032357763
0000d0 af 06 04 bd b1 7b 55 3c ba 4c 69 bd e6 2b 2b 3d
       -0.032232936 0.013029979 -0.056957938 0.04178991
0000e0 7a 86 a0 bd 91 20 4c bd 58 83 22 3c a3 f7 27 3d
       -0.07838149 -0.049835745 0.00991901 0.04100765
0000f0 69 4e 2d bd 28 be f0 bc 86 16 b8 bc 49 48 bd bc
       -0.042311106 -0.029387549 -0.022471678 -0.023105757
000100 63 ad c7 3b 43 3b 9e 3d 5b 8c ad ba cc 3f ca bc
       0.0060936674 0.07726147 -0.0013240682 -0.024688624
000110 e4 eb 1d bd 0e b6 08 3d 0f a5 b2 bd b6 1b f3 bc
       -0.03855504 0.033376746 -0.08722889 -0.0296763
000120 42 f6 ac 3c 25 cb cd bc a5 2e 70 bc e3 b3 c8 bd
       0.021113519 -0.02512128 -0.014659558 -0.09799936
000130 73 71 92 bd 2e 66 f8 3c de b7 e6 3c aa 34 9f bc
       -0.07150545 0.03032216 0.028163847 -0.019434292
000140 e8 0f dd bc 85 e0 e5 bd b5 ef ac 3d 8c 5d b4 bd
       -0.026985124 -0.11224464 0.08444158 -0.08806905
000150 d0 20 33 bd f0 1f c1 bc 72 e7 e4 bc aa 6b 99 bd
       -0.043732464 -0.0235748 -0.027942393 -0.074912384
000160 6f 7d db bd 4b 07 87 bc ff 63 09 3b c9 06 0c bd
       -0.10717284 -0.01648297 0.0020964143 -0.03418616
000170 71 ab c9 bb 03 64 fc bd 17 5f a5 bd 29 4c b5 bd
       -0.0061544706 -0.12323763 -0.080747776 -0.08852417
000180 7c bb 2e bd b5 15 30 3d d9 2a a6 bd 31 c4 0b bd
       -0.042659268 0.04298945 -0.08113641 -0.03412265
000190 df 6d fa bb f4 cf 3e bd 15 5a 10 3d bd 17 63 bd
       -0.007642492 -0.04658504 0.03524216 -0.05544256
0001a0 c6 d2 6f bc 48 dc bb 3c d3 11 54 3d 61 15 96 3c
       -0.014637655 0.022932187 0.05177481 0.018320741
0001b0 28 a9 d0 3c 60 5b 69 3c d8 b5 49 bc 43 7d 50 bd
       0.025471285 0.014242977 -0.012311421 -0.05090071
0001c0 b0 96 30 bd 09 2b 1e 3d bb 9c 8b 3d 10 cc d4 bd
       -0.043112457 0.03861526 0.06817003 -0.10390484
0001d0 4a a5 87 bc 4b 7c 87 bc ed 4c 1c ba ee fe 87 bd
       -0.016558308 -0.01653876 -0.00059623906 -0.06640421
0001e0 56 e1 44 3d c2 ae 5b 3c 21 f7 aa 3c ca a3 56 bd
       0.04806646 0.013408365 0.020869793 -0.052402295
0001f0 b8 dd 2a 3d cc 41 c2 bd f4 57 3f bd 5f 9f f5 bd
       0.041715354 -0.09485206 -0.046714738 -0.11993288
000200 52 a8 10 bd e6 53 c1 bd 1d d3 5a bd 4d 63 26 be
       -0.035316773 -0.094398305 -0.05342399 -0.16248818
000210 35 dc bc bd fa 5f 9f bd f2 dd 11 3d 49 60 7f 3d
       -0.09221689 -0.07781978 0.035612054 0.062347684
000220 e2 8c 68 3d 6f 8b 19 bd 33 81 a2 bc 8b 74 51 bd
       0.05677498 -0.03748649 -0.019836998 -0.051136535
000230 99 6e 05 3d bb a7 d9 bd 49 97 c7 bd 83 59 3b 3b
       0.032576177 -0.10627695 -0.09745652 0.0028587289
000240 24 0f 43 bd c0 67 6b bd dd 83 85 bc 7d 4f d8 bc
       -0.04762186 -0.05747199 -0.016298229 -0.02640509
000250 b5 6d 40 3c ee 09 18 bd da f3 c3 bd 73 f6 92 bb
       0.011744906 -0.037118845 -0.09567995 -0.0044849454
000260 67 11 87 bb 43 a5 72 bb 0d ea 2a bd ca 9e 6b bb
       -0.0041219476 -0.0037024773 -0.041727114 -0.00359528
000270 92 51 28 bc f3 31 96 bc 98 73 74 3c 9d 0d ee bc
       -0.010273354 -0.018334365 0.014920138 -0.029059226
000280 d5 19 b5 bd a2 8a 94 bd 5b fd b8 3b 57 00 53 bd
       -0.08842818 -0.072530046 0.0056454367 -0.051513996
000290 67 c0 96 bd 66 f7 bb 3d 5c 51 86 bc 62 16 22 bb
       -0.073609166 0.09178047 -0.016396217 -0.002473258
0002a0 d8 66 42 bd 3d d7 36 3c 6f d4 ac 3b 19 21 ec bb
       -0.04746136 0.011159715 0.0052743475 -0.007206094
0002b0 17 af 0d bd 30 9a f6 3c a0 31 00 bd 93 e2 de bc
       -0.034590807 0.03010282 -0.031297326 -0.027207648
0002c0 06 55 1c bc 4a 77 49 3d 63 e5 02 bd 16 97 e3 bc
       -0.009541756 0.04918603 -0.03195704 -0.027782004
0002d0 a3 a2 bd bd e7 fc 21 bd 67 5c 35 3d 93 4f 48 bd
       -0.09259536 -0.039547827 0.044277575 -0.048904013
0002e0 08 66 e9 3c 33 79 69 3d 1b 4c 40 bd 42 db b6 3c
       0.028491035 0.05700035 -0.04694758 0.022321347
0002f0 fd a5 94 bd cb cd 69 bd 13 89 88 bd 97 d1 a0 3d
       -0.07258222 -0.057081025 -0.0666677 0.07852476
000300 41 f0 8d bd eb ba aa 3c 18 70 09 be 83 02 69 bd
       -0.069305904 0.020841083 -0.13421667 -0.05688716
000310 ff 81 80 bd 57 59 57 3d 0f 13 d1 bd 9b a0 4d bd
       -0.06274795 0.052575435 -0.10208713 -0.050201993
000320 f7 16 69 3d 85 d9 07 bd 16 77 8f 3b 1e 94 5b bb
       0.056906667 -0.033166427 0.00437821 -0.0033505033
000330 28 dd 34 bd c9 d9 bd bd 30 1a 04 bd 14 ca 79 bc
       -0.044156224 -0.09270055 -0.032251537 -0.015245933
000340 68 db 71 bd 65 6c 9f bd ba e9 83 bd 4f a2 dd 3b
       -0.059047133 -0.077843465 -0.06441064 0.0067637335
000350 c1 60 b4 3c 99 bc 04 3d 8e b7 a5 bc 6c 6f 4b 3d
       0.022018792 0.032406423 -0.020229127 0.049666807
000360 24 02 4d bd cf 8e a1 bc a5 6c b4 bd 87 10 4c 3d
       -0.05005087 -0.019721417 -0.08809785 0.04982045
000370 07 49 49 3c de db 04 bd 60 7b 74 bd db f9 9d 3d
       0.0122854775 -0.032436244 -0.059687972 0.07713672
000380 d2 fc 88 3c 69 3e e9 3b 42 df e2 bc f3 52 d9 bd
       0.016722117 0.0071180356 -0.027694348 -0.106115244
000390 62 47 e1 3c 3f 47 b7 3c 72 16 a7 bd ee 06 42 3c
       0.027499858 0.02237284 -0.08158578 0.0118424725
0003a0 30 54 5b bd d5 d3 af bc 12 a8 0c bc cc 55 c9 bd
       -0.053547084 -0.021463314 -0.008584993 -0.098308176
0003b0 3a 72 e0 bd 4d b4 c7 bd 78 0c 77 b9 7b e2 a7 3b
       -0.10959287 -0.097511865 -0.000235604 0.005123434
0003c0 67 5f 77 3d bc 2d 6a bd 8b c5 fd 3b 34 99 d6 bb
       0.060393717 -0.057172522 0.007744496 -0.006549025
0003d0 f5 48 fd bd 62 a3 aa 3c 92 e3 dd bd af 5a 1d bd
       -0.12367431 0.02082986 -0.10834421 -0.03841656
0003e0 a9 c9 87 3d 38 ef 02 bd 57 d8 76 bd dc c7 8b bd
       0.066302605 -0.031966418 -0.06026491 -0.068252295
0003f0 9a 57 f5 bc 25 d3 3e bd c8 69 d4 3c 94 f7 e6 bc
       -0.029948998 -0.046588082 0.025929347 -0.028194226

network_body._body_endoder.seq_layers.0.bias f4 [256]
000000 74 40 fd bb fb 62 11 bb 17 70 53 bb 2a 2d ad ba
       -0.0077286307 -0.002218424 -0.0032262856 -0.0013212312
000010 b8 d0 58 3a 85 3c 78 ba c5 9d 19 3a d4 84 87 3b
       0.00082708476 -0.00094694673 0.00058599963 0.0041357074
000020 73 fb bb bc 81 52 ee bb ad c6 91 3b 63 bf 3f bc
       -0.022947049 -0.007273019 0.004448733 -0.011703345
000030 1e 55 91 39 f4 87 c2 bb 79 ce 5e 3b d8 08 be 3a
       0.00027719972 -0.005936617 0.003399758 0.0014498485
000040 20 0a df 39 a1 58 60 bc 28 96 04 bc 5a b9 19 ba
       0.00042541418 -0.013693006 -0.008092441 -0.00058641064
000050 86 f2 ee b7 e5 12 60 3b 67 f6 c4 3a 7a dc c4 ba
       -2.8484745e-05 0.003419095 0.0015027047 -0.001501932
000060 50 91 a5 3a ca 97 4b bc 3b 31 45 bb f1 4f 6f bc
       0.0012631807 -0.012426326 -0.0030089158 -0.014606462
000070 c0 68 0e bb 5e 46 7c bb c8 1e 0f 3b c1 3c 97 bb
       -0.0021729916 -0.003849409 0.0021838415 -0.0046153967
000080 68 b2 27 ba b5 f4 e6 ba d1 f5 90 3b 20 10 8a bc
       -0.0006397129 -0.0017620536 0.004423835 -0.016853392
000090 fd 8a 76 3b 9f 26 fe ba ce 74 c0 bb 4f de cc ba
       0.0037619465 -0.0019390172 -0.005873299 -0.0015630218
0000a0 91 e6 88 ba 78 2d 96 bb 1e d0 9d 39 c0 77 06 bb
       -0.0010444691 -0.004583057 0.00030100433 -0.0020518154
0000b0 69 55 52 bb d8 8f c4 3a 57 f3 dd bb c9 89 6c bb
       -0.0032094365 0.0014996482 -0.006773393 -0.0036092869
0000c0 fa 1e 9f bc 09 0b ae bb 92 ce 04 3c 50 c8 9f bb
       -0.01942395 -0.005311374 0.008105891 -0.004876174
0000d0 ba 47 15 3c 8f a7 29 3b 30 4b 3a bc ef d9 8f 3b
       0.009111339 0.0025887226 -0.011370465 0.0043899934
0000e0 26 d0 1c 38 c6 47 6f 3b 1d b3 6f bb 5a 22 92 bb
       3.738715e-05 0.0036511286 -0.0036575266 -0.0044596614
0000f0 74 e3 b7 3b 56 73 28 38 0d 1a f4 bb af 72 f0 bb
       0.0056118313 4.0161736e-05 -0.0074493946 -0.00733789
000100 d7 b6 7d bc 1a b2 34 bb a1 e4 2a 39 1d 63 59 bb
       -0.015485487 -0.0027571977 0.00016297634 -0.0033170648
000110 c0 36 6e bc f8 a5 e7 ba 72 22 8e bb af d4 fa b9
       -0.014539421 -0.0017673364 -0.0043376023 -0.00047842177
000120 27 f7 72 3a d9 0e 1c 3b 6c 0f 45 bb 22 63 24 bb
       0.0009268396 0.002381256 -0.0030069007 -0.0025083502
000130 f2 a3 a5 b9 9c 42 6d bb c3 37 39 bb 8e e8 26 bb
       -0.000315934 -0.0036203032 -0.0028261996 -0.0025468203
000140 3b 91 96 bb f1 d2 b6 3a ad 35 a0 ba b8 53 28 bc
       -0.0045949495 0.0013948363 -0.0012223028 -0.010273866
000150 c0 7c 38 bb f4 30 57 bb 08 52 fa ba 8f f1 9c bb
       -0.0028150529 -0.0032835575 -0.0019097934 -0.004789538
000160 fc d0 2c 3b 98 94 da 39 5f 4a 5d 3b 26 30 2f 3b
       0.0026369682 0.0004169091 0.0033766252 0.002673158
000170 2a c9 2c bb 5e 61 b2 b8 61 fb 6b bb b9 b8 91 bb
       -0.002636502 -8.5058375e-05 -0.0036007988 -0.0044470695
000180 d2 03 b7 3a 45 a5 f7 3a df 7b af 3b a5 0d 5e bc
       0.001396293 0.0018893859 0.0053553428 -0.013553058
000190 e7 0c 4c 3a 38 44 d8 37 1f 70 c2 bb 52 6b 7b 3a
       0.0007783905 2.5780973e-05 -0.005933776 0.0009590882
0001a0 a9 22 23 bc 0c db 51 bb 97 8d 4c 3a 57 8a 61 bb
       -0.009956994 -0.0032021431 0.0007803081 -0.0034414732
0001b0 5a ea 0c bb f9 3c 62 bc eb ac 18 3a 93 23 c8 bb
       -0.002150199 -0.013808482 0.00058241066 -0.0061077564
0001c0 a2 89 26 bb 60 7e 60 3a 72 62 76 ba 8a ba 5b 3b
       -0.0025411625 0.0008563753 -0.0009398825 0.0033527934
0001d0 aa 14 4f bb b0 51 89 bc 14 ff ba 39 2a 14 1e bc
       -0.003159801 -0.016762584 0.00035666733 -0.009648362
0001e0 79 a9 e4 bb ea a2 86 ba cc a2 06 bc 0c 66 d6 ba
       -0.0069782105 -0.0010271941 -0.008217525 -0.0016357317
0001f0 cb be 4b 3b ed 7a 07 bc 92 e9 6a bb 69 95 18 bc
       0.0031089063 -0.008269054 -0.0035844785 -0.009312966
000200 ea 9b 4b 3b 28 ec 23 ba 37 dc 2c 39 27 20 ee bb
       0.0031068274 -0.00062531466 0.00016485235 -0.0072670165
000210 f7 7b a4 ba 92 d0 e8 3a f4 b3 9e 3a 83 eb c4 bb
       -0.0012549151 0.0017762354 0.0012108074 -0.0060095205
000220 62 44 27 3b bb 41 1f bb c7 37 0c bb f5 b8 c5 3b
       0.0025522937 -0.0024300653 -0.002139555 0.0060340115
000230 19 fb 0b 3b c6 4c 81 bb 23 ff 00 bc 0d 7e 65 bc
       0.0021359383 -0.0039459197 -0.007873329 -0.014007104
000240 02 e6 9b 3a b0 fa b8 bb f0 86 33 bb 56 d0 da ba
       0.0011894109 -0.0056451187 -0.0027393661 -0.0016694169
000250 bb b7 b3 bb 1b b1 f1 b8 40 2d 10 bb b6 a2 64 bb
       -0.005484549 -0.00011524764 -0.0021999627 -0.0034887022
000260 7e 9d 5a 3b e1 79 3f bb dd 09 ef 39 4f 6a ec 39
       0.0033358033 -0.0029216933 0.0004559298 0.00045092634
000270 f2 57 4c bb 1d 49 39 bc bb 5b bc 3b 3a 20 03 bb
       -0.003118035 -0.0113089355 0.00574824 -0.0020008222
000280 62 8d d4 3a 51 7c 8a bb ab bc 91 bb 20 7d 50 bb
       0.0016216452 -0.0042262455 -0.00444754 -0.0031812862
000290 de f0 4b 3b 7d 07 c3 3b 1f 4b d5 3a c5 70 31 ba
       0.003111891 0.0059518204 0.0016272998 -0.0006768818
0002a0 cf 39 b2 3b 34 19 bc bb f4 6f c4 bb 94 de 45 ba
       0.00543902 -0.005740309 -0.005994791 -0.00075481203
0002b0 9b a8 8c bb f3 db 4d bb bb e6 f8 bb f4 4f d3 3b
       -0.0042925603 -0.0031411618 -0.0075958646 0.00644874
0002c0 00 84 a5 3a 36 e1 5d 3b 2c 75 10 3c c0 75 7b bc
       0.001262784 0.003385616 0.008816998 -0.015347898
0002d0 89 d6 9b bb e6 69 8e bc be 4e ce ba 5b bf 4f bb
       -0.004755799 -0.01738448 -0.001574002 -0.003169975
0002e0 77 fc 6e bb 78 f4 b9 bb a4 2f 30 bb b8 e1 83 bb
       -0.0036466399 -0.005674895 -0.0026883865 -0.0040247105
0002f0 71 b1 d0 bb fe 0e b8 3a 64 99 98 bb ff 11 30 bb
       -0.006368809 0.0014042554 -0.0046569575 -0.0026866195
000300 1d 76 a0 3b a5 0d 1c bb c2 59 9c bc e5 b7 7e bb
       0.0048968927 -0.0023811844 -0.019085769 -0.0038866934
000310 aa 62 ee 3a e0 1d 26 bb a2 d4 04 ba 28 3e 67 ba
       0.0018187363 -0.0025347397 -0.0005067085 -0.00088212127
000320 af 4e 9f 38 cb f1 d8 ba d3 ae cf bb f6 8d 9e bb
       7.596367e-05 -0.0016551552 -0.0063379793 -0.0048387004
000330 08 1a 71 bc 11 1f 6a 3b f6 f8 74 bb ab 7e c6 b9
       -0.014715679 0.0035724083 -0.0037379838 -0.00037859878
000340 13 d5 a6 3b a6 c8 8f bb d8 e5 47 bc a4 94 28 bc
       0.0050913184 -0.004387933 -0.012200795 -0.010289345
000350 1c 7a 70 3a 49 0b 64 3b d0 f4 ab 3a 4a b0 9a 3a
       0.0009173469 0.0034796766 0.0013119224 0.0011801806
000360 e1 01 89 bc 0c 4e 71 bc 3f 18 fb ba e8 10 25 bc
       -0.016724529 -0.0147280805 -0.0019157006 -0.010074832
000370 42 f0 96 bb 99 c0 78 39 87 5c d7 3b cf e2 83 bb
       -0.0046062777 0.00023722871 0.0065723094 -0.0040248404
000380 24 bf fc 36 a1 63 51 bc a0 d2 1c bc 36 33 80 bb
       7.532437e-06 -0.012780101 -0.009571701 -0.003912355
000390 3f df 03 3b 16 b2 9b bb 50 6c e2 ba a3 0a 7a 3a
       0.0020122079 -0.004751454 -0.0017274711 0.0009538328
0003a0 b8 1a 0b ba 55 0e 2e 39 f7 25 d0 ba 2b c2 61 ba
       -0.00053064106 0.00016599272 -0.0015880455 -0.0008612002
0003b0 c7 b8 d9 ba bf bb 2e bc 7b a5 ad 39 d9 84 37 3b
       -0.0016610854 -0.010664879 0.00033120424 0.0028002767
0003c0 d3 85 6f 3c 76 92 a9 ba 64 7f d3 b8 9b 82 75 bc
       0.0146193085 -0.0012937326 -0.000100849924 -0.014984752
0003d0 67 68 93 ba 60 5d 59 ba a5 76 49 ba 3a 86 07 3c
       -0.0011246324 -0.0008291807 -0.0007685221 0.008271748
0003e0 68 ec 55 bc 1c bc dc bb 18 8a c2 ba 95 f0 80 3b
       -0.013056852 -0.0067362916 -0.001484218 0.0039349296
0003f0 54 43 e5 b9 51 73 93 b9 e1 e1 6d ba 60 2d ee 38
       -0.00043728447 -0.00028123942 -0.0009074491 0.00011357176

network_body._body_endoder.seq_layers.2.weight f4 [256, 256]
000000 30 d4 0d 3d 68 72 a6 bd 37 0a c7 39 4f da 84 bd
       0.034626186 -0.0812729 0.00037963848 -0.064869516
000010 6b 5c dc bc 70 b5 c6 bd a9 c6 0d 3e c1 c5 97 3d
       -0.026899537 -0.09702575 0.13845314 0.074107654
000020 df cb f3 bc cc 50 19 bd 46 b7 63 bd 68 da 5d 3d
       -0.0297603 -0.03743057 -0.055594705 0.054163367
000030 39 c2 53 3d b2 4f ff bd 9d 9f 2c be 61 e2 02 ba
       0.051698897 -0.124663725 -0.16857763 -0.00049928395
000040 47 2d 85 bd 44 89 d8 bd 45 89 88 3c 67 d0 94 bc
       -0.065027766 -0.10573056 0.016667018 -0.01816578
000050 46 88 14 bd 68 5d c7 bc f7 cc c2 3d 8d cc a8 bd
       -0.036262773 -0.024336532 0.0951175 -0.0824214
000060 f9 6a 82 bc 5d 7b 7e bd a0 03 a0 bd 35 cc 84 bd
       -0.01592015 -0.062129367 -0.078131914 -0.06484262
000070 a5 5a 68 3d a3 f5 a7 3b d9 7c 15 bd 8c 02 cc 3d
       0.05672707 0.0051257177 -0.036496017 0.09961423
000080 38 8d 85 3d fd f7 00 3e 30 5c 86 bd 27 c3 de ba
       0.06521076 0.125946 -0.06560552 -0.0016995416
000090 65 25 71 bd e5 dd 6e 3d c0 0b 85 bd 55 d7 df 3b
       -0.058873553 0.058317084 -0.06496382 0.0068310895
0000a0 fe f8 ec bc e4 e7 92 bc 48 7d 50 3a b5 2f a4 3d
       -0.028927322 -0.01793284 0.00079532387 0.08016912
0000b0 1c 6e 21 3c 35 06 ab bd 50 74 3a 3d a7 83 01 be
       0.009852912 -0.08350793 0.04552108 -0.12647878
0000c0 ac 72 6b bd 0e 3b 2e bd bf e4 15 3d e1 7e 81 bd
       -0.057482406 -0.042536788 0.036595102 -0.06323028
0000d0 cd e6 39 bc da 6b 1c bc 7a a3 b4 3c ae 20 52 bd
       -0.011346531 -0.009547198 0.022050608 -0.051300697
0000e0 c5 53 04 be c1 0e 00 bd f4 0d 5c 3d 30 81 72 bd
       -0.1292258 -0.03126407 0.053724244 -0.059205234
0000f0 62 54 87 3d b6 c8 8f bb 7e 03 ee 3c 23 77 0f 3d
       0.066078916 -0.0043879403 0.0290544 0.035025727
000100 e4 fa d9 bc 97 9f cc bd 34 29 05 bd 8c 50 99 3c
       -0.026608892 -0.09991377 -0.032509997 0.018715166
000110 08 fa 21 3d 45 6d 51 3d d4 0d e9 bb 7d e5 28 3d
       0.03954509 0.0511296 -0.007112244 0.041234482
000120 d1 50 c2 3d eb 6c 38 bc 83 de 1c 3d 2b d9 21 be
       0.09488071 -0.011256437 0.03829814 -0.158055
000130 38 de c1 bd 8d 06 89 bd f7 11 cc 3d bb 7d 28 3c
       -0.09466213 -0.066907026 0.09964364 0.010283883
000140 b7 30 75 bc 7e 78 c8 bd c3 1f 11 3d fc 13 6e bd
       -0.014965228 -0.09788607 0.03543068 -0.058124527
000150 66 6a 50 bd 85 c3 ab 3d f2 13 ed bb 51 95 c0 3d
       -0.05088272 0.08386902 -0.0072350437 0.0940348
000160 7f dc 9a 3c 3a 4a 82 bc 10 5e a6 bb ed d0 ca bd
       0.018903969 -0.015904535 -0.005077131 -0.09903131
000170 c4 93 3c 3e a2 2a 83 bd 88 1b fb bc f8 1b e0 3d
       0.18415743 -0.06404616 -0.030652776 0.109428346
000180 ff 14 25 3e e5 fc a1 39 04 ee 2f 3e 7a fa 1b 3d
       0.1612129 0.00030896734 0.1718064 0.03808067
000190 f5 3f 34 3d 7d c0 94 bd 8f 84 5d 3b e2 14 c2 3c
       0.044006307 -0.07263277 0.0033800935 0.023691598
0001a0 ee 06 21 3b 48 d2 22 bd 70 92 81 bb 0a 9c 3a 3d
       0.002457078 -0.03975132 -0.0039542243 0.045558967
0001b0 a9 52 06 bd e1 ac 34 bd 0d 82 93 3d d8 29 a1 bb
       -0.032793675 -0.044110183 0.072025396 -0.0049183182
0001c0 41 db 6b bc 5d d0 45 bd 3c 2b 63 3c a5 1a 51 bd
       -0.014395536 -0.048294414 0.013865288 -0.0510508
0001d0 05 e7 60 3b ec 6d e0 3d 45 07 99 3d 7b 97 a0 bd
       0.0034317386 0.10958466 0.0747209 -0.078413926
0001e0 83 69 2f 3d eb 5e c2 3c 99 6c f2 bd 2e dd 6e 3c
       0.042825233 0.023726901 -0.118371196 0.0145791005
0001f0 2b f0 d2 3c 73 e5 cb 3d b9 6e 26 bc 8a 24 01 3e
       0.025749287 0.09955873 -0.010158234 0.12611595
000200 5c 2f 52 bc 06 c6 a7 bd e2 0a 0d bc d0 67 c3 bd
       -0.012828674 -0.08192067 -0.008608552 -0.09541285
000210 e8 6f dc bc a7 4d 30 3d 09 66 87 bd ea b1 85 bc
       -0.02690883 0.043042805 -0.066112585 -0.016320188
000220 d1 f3 42 3d 78 a3 23 3c a9 d9 ba bd a3 05 bc 3d
       0.047595803 0.009987704 -0.09123547 0.091807626
000230 ed dc c5 bd 63 ab a8 3b c7 bc 6b bd 78 26 e5 3d
       -0.09661279 0.005147384 -0.05755308 0.11188978
000240 ed df 0a be 29 35 9a bd fe 25 ad 3d 18 f3 93 bd
       -0.13561983 -0.07529671 0.08454512 -0.07224101
000250 5c 75 de 3c 40 b0 3f be 9c 93 65 3d b8 91 b2 bc
       0.02715557 -0.18719578 0.056048974 -0.021798
000260 79 3b e9 bc d7 f0 2c 3d b3 a8 9a 3d 35 81 b3 3c
       -0.028470742 0.04222187 0.07551708 0.021912197
000270 28 6e 68 3d 04 a5 f2 3b 23 4e d2 bd 6a 4f 19 3c
       0.05674568 0.0074049253 -0.1026881 0.009357313
000280 01 8a b1 3d a4 9c 65 bc e9 99 d0 bd f7 e6 ee bc
       0.086689 -0.014014397 -0.10185606 -0.029162867
000290 7c 1f 47 3d 40 6c 8f 3c 61 53 6d bd 99 5e 8c bd
       0.04861401 0.017507672 -0.057940844 -0.068539806
0002a0 98 2a 37 bd 96 3b 46 bd 1f 64 fa bc 12 d2 ad bd
       -0.044718355 -0.04839667 -0.03056532 -0.08487333
0002b0 ff 28 a5 3d f8 17 87 bd b6 c8 2c 3d dd 2e 12 bd
       0.0806446 -0.065963686 0.0421836 -0.035689224
0002c0 a2 61 34 bd 56 87 83 bd 0f 2f d6 3c 2d a2 d0 bc
       -0.044038422 -0.06422298 0.026145486 -0.025467956
0002d0 1c 01 3d 3d 77 1f 05 3a d0 4a f4 bd 9e 0b d2 3d
       0.046143636 0.0005078236 -0.11928332 0.10256122
0002e0 d4 56 94 bd 61 9d 87 3d 85 30 66 3d b2 5d 0f 3d
       -0.07243124 0.066218145 0.056198616 0.035001464
0002f0 1e 93 31 ba b4 98 b0 3d 53 92 41 3d cc 9a 66 bd
       -0.00067739363 0.08622876 0.047258686 -0.05629997
000300 cf ad 4e 3d 6d ea ac bd e9 28 ac bd fc 77 aa bd
       0.050458726 -0.08443151 -0.084062405 -0.083236665
000310 0f 26 03 bd 1f 86 94 3d 84 63 9b 3c 60 04 4a be
       -0.032018717 0.07252144 0.018968351 -0.19728231
000320 e5 f5 50 3b 4b 00 7b 3d 1e a9 2b bd 03 32 51 bd
       0.0031884846 0.061279576 -0.04190933 -0.051073086
000330 4a f8 b0 bc 8b bc d8 bd c9 6f 27 be 27 bb 80 bd
       -0.021602768 -0.10582837 -0.16351236 -0.062856965
000340 f6 b9 5d 3d ca d0 32 3c 09 1c de 3a 04 4a 74 3d
       0.054132424 0.010914037 0.0016945611 0.0596409
000350 4f fd 62 bd cb 1a c7 bc bc 58 ad bb ec df 92 3b
       -0.055417355 -0.024304768 -0.005290119 0.00448226
000360 a4 d8 1f bd 81 12 32 bc 7c 3c 64 bc 38 8b 12 3d
       -0.039024964 -0.0108686695 -0.013930436 0.0357773
000370 f8 ec c0 bb 21 1e 14 bd bc 57 a8 bd e7 7f 87 bd
       -0.005887624 -0.036161546 -0.08219859 -0.06616192
000380 f6 d6 12 3e 3c cf 59 3c 01 01 31 bd 46 88 ca bd
       0.14339814 0.013294037 -0.043213848 -0.09889273
000390 21 d8 26 3e ff 67 90 bd 26 26 ab bc b8 2b 7d 3b
       0.16293384 -0.07051086 -0.020892214 0.0038630795
0003a0 0d d6 0a bd d5 b3 55 bb c7 3c 49 3c 6f fd 47 3c
       -0.03389554 -0.003260841 0.012282557 0.012206419
0003b0 ac 44 27 3c d2 13 91 3c ea f9 e1 3c 7f 26 e6 bd
       0.010209244 0.017709646 0.027584989 -0.11237811
0003c0 6a d3 bb 3d a0 06 50 3d a7 74 ee 3c c7 a3 0a bd
       0.091711834 0.050787568 0.029108359 -0.033847596
0003d0 c1 26 ee 3c 77 87 44 3d bb 7d 0e 3c 07 a1 2d bd
       0.029071214 0.04798075 0.008696969 -0.042389896
0003e0 e4 cd 9a bc 4e 5a 23 3d 18 7b 34 bd 56 da 66 3d
       -0.018897004 0.039881043 -0.044062704 0.056360565
0003f0 80 e6 b9 bd cb b2 15 3c 10 d8 3f 3d 98 b9 0b 3d
       -0.090771675 0.009136866 0.046836913 0.034112543

network_body._body_endoder.seq_layers.2.bias f4 [256]
000000 3a ce da 3a 32 cd 43 3c 17 c1 2f 3b 1e d2 a1 3b
       0.001669354 0.011950778 0.0026817971 0.004938378
000010 aa 4b a7 bb ea 40 3e 3c 68 f6 b0 bb e4 03 f7 3b
       -0.0051054554 0.011612156 -0.0054004677 0.0075383056
000020 3b 4d 63 3b 23 bf f6 ba 80 6e 68 3b 87 1c 25 3c
       0.0034683484 -0.0018825274 0.0035466254 0.010077602
000030 ca a6 5d bc c8 cf 56 3c bd 3a 87 bb ef d8 ad ba
       -0.013528535 0.013111062 -0.004126875 -0.0013263504
000040 4d 51 73 3c a9 4a 90 3c 0d 84 82 bc 50 40 71 3c
       0.014850927 0.017613726 -0.015932107 0.014724806
000050 94 cd a0 bb 75 31 20 bb 4d fa 2f bc 20 ef 01 bc
       -0.0049073193 -0.0024443541 -0.010740829 -0.007930547
000060 b7 36 0f bb 5e dd 70 bc be e3 38 3b cf 5c 45 3a
       -0.002185268 -0.014701216 0.0028211917 0.0007528783
000070 b8 ec b3 bb 54 1d 2f bc cd 7c 15 3c 75 e7 2e bb
       -0.0054908656 -0.010688145 0.009123993 -0.0026688252
000080 bc c0 0f bc 7b ef b5 bb 45 b7 02 3a 79 89 a2 3b
       -0.008773979 -0.00555223 0.0004986416 0.0049602357
000090 6a 07 85 3b fb 38 2d bc 94 65 b7 bb 32 b0 58 bc
       0.0040597217 -0.010572667 -0.005596826 -0.013225602
0000a0 a2 02 3f 3b 28 10 e4 3b 36 2c 08 bc a5 86 06 3b
       0.0029145856 0.006959934 -0.008311322 0.0020527032
0000b0 54 12 b1 3b 22 cc 73 bc 16 62 10 bb 4b eb 5f bb
       0.005403796 -0.014880212 -0.002203112 -0.0034167345
0000c0 ba 0d ad bb 76 ff 1a 3b c7 c6 1d 3c 8c 3f 50 bb
       -0.0052811773 0.0023650802 0.009629912 -0.0031776158
0000d0 9d 3b be bb 20 78 ec 3b b1 e8 80 ba 57 f9 21 3c
       -0.0058054463 0.0072164685 -0.0009834972 0.009886107
0000e0 f0 e5 13 3a 9a d5 1c bc da f9 78 bc 47 14 6a bc
       0.00056418683 -0.009572411 -0.015196288 -0.014287061
0000f0 95 66 78 bc 10 74 9a bc 38 66 9f bb 8e 87 18 3a
       -0.015161176 -0.018854171 -0.0048644803 0.0005818539
000100 16 e5 9c bb d6 d5 aa ba 20 b8 22 3c 81 c1 0a bc
       -0.0047880514 -0.0013033699 0.009931594 -0.0084689865
000110 68 c9 82 bb 2e 10 13 bc 2c 54 15 3b 4f 30 70 3b
       -0.0039912947 -0.0089760255 0.0022785766 0.0036649888
000120 09 3d 87 bb da 61 03 bc d7 1d 01 bc a8 59 5b bc
       -0.004127149 -0.008018935 -0.0078806495 -0.013388075
000130 15 85 b3 bb 16 63 e4 b9 a7 b5 e6 3b c9 e5 2d bc
       -0.005478511 -0.00043561374 0.0070406976 -0.010613867
000140 f4 7f da bb 53 e1 89 bc ac 95 47 3c 4a 57 41 bc
       -0.006668085 -0.016831076 0.012181681 -0.0118005965
000150 6d c7 b3 3a ac f5 11 bc 1d ee 0f 3c 73 03 a6 3a
       0.001371605 -0.00890867 0.008784798 0.0012665823
000160 16 51 54 3c 2f 93 91 ba bc c2 a6 bc b9 ee 4c 3b
       0.0129587855 -0.0011106486 -0.020356528 0.003127022
000170 c8 4d 95 bc 52 01 5d bc 47 61 ac bc 68 6c 8c 3b
       -0.018225566 -0.013489084 -0.02104248 0.004285384
000180 cf 59 c0 3b 00 16 51 3b 02 bd f8 bb ba c6 e6 bb
       0.005870081 0.0031903982 -0.007590891 -0.007042733
000190 84 51 29 bb 08 8c f3 bb de 22 33 bb b4 3f 12 3c
       -0.002583594 -0.0074324645 -0.0027334015 0.008926321
0001a0 8a 35 b7 3b 74 2d c3 bb 9e 07 b0 3a 7d ec 91 bb
       0.005591099 -0.005956346 0.0013430004 -0.0044532404
0001b0 0e 87 fb 3b c0 7b d5 bc 8c 79 c6 bb 39 4e 05 3c
       0.007676012 -0.026059985 -0.00605697 0.0081363255
0001c0 2f 5f 2e bc cc 5e 05 ba 8b 8c 59 bc 31 5b c2 ba
       -0.010642811 -0.0005087673 -0.013278137 -0.0014828203
0001d0 ac 04 7d bb be b1 a6 bc f9 27 76 bc ca 63 12 3c
       -0.003860752 -0.020348426 -0.015024179 0.008934924
0001e0 5e 9a 04 3a 54 76 25 bc 63 e2 c2 bb 6f f4 82 bc
       0.0005058403 -0.010099012 -0.0059473976 -0.015985696
0001f0 02 7d 62 bc 4e 72 ec 39 dc af 10 3b aa cd 0b 3c
       -0.0138237495 0.0004509859 0.0022077477 0.008532921
000200 78 0e ba 3b d6 5d 0a 3a f3 70 63 bc 9a bc 35 bc
       0.0056779943 0.0005278265 -0.01388191 -0.011092329
000210 da 5d 13 bc 70 a6 4e bc 0d 93 3a bc 49 55 9a 3a
       -0.008994544 -0.012612924 -0.011387599 0.0011774685
000220 bf e4 9a ba e2 86 09 3b f9 cf 92 bc 40 76 08 bc
       -0.0011817439 0.0020984937 -0.017921435 -0.008328974
000230 eb cb 2b 3c b9 48 21 bb dd e6 4e bb 39 a5 36 3c
       0.01048563 -0.0024609996 -0.003157071 0.011147791
000240 93 3a ba 3b 14 ef 80 3b c7 6a 37 ba ac 33 68 bb
       0.005683252 0.0039347503 -0.0006996807 -0.003543119
000250 31 52 1a 3b d1 16 08 bb c9 76 a0 3c e3 9a fb ba
       0.0023547525 -0.0020765553 0.019587891 -0.001919594
000260 94 a3 01 ba dc 2b a6 bc da 84 f1 3b 9d 09 f5 3b
       -0.00049453345 -0.020284586 0.0073705735 0.0074779526
000270 87 1e f4 bb 15 d9 89 3a 1d 43 49 3a 69 4b ac bb
       -0.007449928 0.0010516966 0.0007677542 -0.005258013
000280 82 a3 c9 3a e7 11 54 bc 88 aa 42 bc 50 1c 78 3c
       0.0015383812 -0.012943721 -0.011881478 0.015143469
000290 68 45 66 3a 9e 2c 52 bc 49 04 a0 bc 88 4e db 3b
       0.0008784146 -0.01282802 -0.019533293 0.0066927113
0002a0 e4 dc ee bb 63 60 4e bc c0 3a e8 ba 1a 6b 80 ba
       -0.007289516 -0.012596223 -0.0017717704 -0.0009797544
0002b0 7d 5e 15 bb 51 05 d4 bb 4f a4 98 bb 0f f4 b6 b9
       -0.0022791915 -0.0064703603 -0.004658259 -0.00034895583
0002c0 8a 8e 12 3c 73 c4 88 3a ef 38 0b 3a 17 f1 84 bc
       0.008945117 0.0010434523 0.0005310913 -0.016228242
0002d0 c1 b5 bf bb b8 ce 9a 3c 8c d0 45 bb 86 4b d8 bc
       -0.005850524 0.0188974 -0.0030184118 -0.0264032
0002e0 ce 33 09 3c 34 87 e6 bb b4 1b 96 3c 8c 9e dd bb
       0.008374168 -0.0070351604 0.018323757 -0.006763285
0002f0 ff 42 d2 bb 16 66 db 38 32 81 0a ba c0 88 bb b9
       -0.006416678 0.00010461749 -0.0005283534 -0.00035769306
000300 a5 32 99 3b 7a 2f 8c bc 50 43 a8 bc d9 eb 0b bc
       0.0046752268 -0.017112482 -0.02053991 -0.008540117
000310 35 da c2 3b a4 b1 6a 3a ce a0 58 bc e0 d2 e0 3b
       0.0059464225 0.0008952862 -0.013221933 0.0068610758
000320 01 66 57 bb 4c bd bc bb 20 1a 44 3c 92 97 a3 3b
       -0.0032867196 -0.0057598706 0.011969119 0.004992434
000330 19 ba db ba ff 5b b5 3b 96 ec 9a 3b 52 8f 00 3c
       -0.0016763835 0.0055346484 0.0047279103 0.00784667
000340 a4 6d 2b 3c 89 b4 93 bc 51 b6 9f ba b0 ae 18 bc
       0.010463152 -0.018030422 -0.0012185072 -0.0093189925
000350 e4 df 90 bb f4 4f 82 b9 08 f0 50 bb eb 8c 18 3c
       -0.004421221 -0.00024855102 -0.003188135 0.009310941
000360 74 5a 01 bc ad 24 1f bc 54 69 8b bc f7 75 19 3c
       -0.007895101 -0.009713334 -0.017017998 0.009366504
000370 c6 c6 af ba 7f 13 1f bc 59 0a ac bb 03 2e 82 bc
       -0.001341068 -0.009709238 -0.005250257 -0.01589108
000380 48 59 b0 3b 44 0f 4e bc f4 bf 94 37 32 ff 80 bb
       0.005381737 -0.012576882 1.773236e-05 -0.0039366717
000390 8d 99 d0 bb bf 7e bb bb 8d ae a6 bb 06 4e 01 bc
       -0.006365961 -0.0057218964 -0.005086726 -0.007892137
0003a0 17 16 03 bc c3 9b 1e 3b 44 a8 e3 ba d2 f9 10 bc
       -0.008000872 0.0024201728 -0.0017368873 -0.008848624
0003b0 d1 59 54 bb 33 b1 d3 3a 2c 17 dd bb 82 b3 80 bb
       -0.0032402168 0.0016150832 -0.006747147 -0.003927649
0003c0 ef 69 b2 ba d7 3d 29 3c 5a e6 8c 3b 8a f0 c3 3b
       -0.0013611893 0.010329685 0.004299921 0.005979602
0003d0 63 b5 0a bb 10 10 8f 3b 35 90 90 bc 41 77 9b bc
       -0.0021165244 0.0043659285 -0.017646888 -0.018977763
0003e0 33 4c 1d bc 6b fe 37 ba 04 93 39 bb 1e 5f 98 bb
       -0.009600687 -0.0007018807 -0.0028316388 -0.0046500107
0003f0 20 b0 3d bc 95 a1 07 bb 33 41 e1 3b 3c 74 23 3b
       -0.011577636 -0.0020695676 0.0068742274 0.0024941107

action_model._continuous_distribution.log_sigma f4 [1, 3]
000000 51 57 0c 3d 67 e7 85 bb c2 a3 5e 3d
       0.03426296 -0.004086423 0.05435539

action_model._continuous_distribution.mu.weight f4 [3, 256]
000000 de 6d d1 3b 83 f3 94 3a 7b 16 5f bc c7 7f a1 3c
       0.006391271 0.0011364076 -0.0136162 0.01971425
000010 6a 0d 43 3b 19 b3 8c bb 7f ff 5d bc 97 82 23 bc
       0.0029762634 -0.004293811 -0.013549685 -0.0099798655
000020 9a 6e 2c 3c ff aa 22 3c 63 01 29 bc 95 2e 66 3c
       0.010524416 0.009928464 -0.010315272 0.014049192
000030 0a 55 9c bc 3f 9d 80 bb 4d 85 5f 3c 37 e5 c9 bc
       -0.019083519 -0.003924995 0.013642621 -0.024645431
000040 1c 7f 0d 3c a0 74 9e 3c 85 d2 5c 3c 44 5f f5 3c
       0.008636262 0.01934272 0.013477926 0.029952653
000050 fa 9d cc 3b 64 3d b2 3b 01 5e 62 bc f4 8d db bc
       0.006244418 0.0054394472 -0.013816358 -0.026801087
000060 12 d0 1a 3c 5f 88 ab bc da 7e ba 3b 81 f8 42 3b
       0.009449022 -0.02093905 0.0056913914 0.002975017
000070 4f 83 16 3a 44 c8 86 bc c2 43 5b 3c f4 51 9c 3c
       0.00057416124 -0.016452916 0.013382854 0.019082047
000080 a4 22 9f 3b 7d 8f 53 3c 23 c4 1c 3c 5e 26 8d 3c
       0.0048564244 0.012912628 0.009568247 0.017230209
000090 f3 dd 8b 3b cf 13 0e 3c 24 61 2a 3c 09 58 02 bd
       0.004268402 0.008671715 0.010399137 -0.031822238
0000a0 a7 70 11 bb de 24 b7 3c 93 c8 08 3b 21 c0 33 3c
       -0.002219239 0.022356447 0.0020871505 0.0109711
0000b0 54 91 70 3c 71 6b 16 bc fe 7a 98 3c 5d 6f 60 bc
       0.014683086 -0.009180889 0.018613335 -0.013698426
0000c0 e9 96 9e 3c 87 62 15 3c ed 4d 2d 3a 9b 4a 78 3c
       0.019359069 0.009117729 0.0006611038 0.015154506
0000d0 44 86 aa bb c3 dc 12 3d b0 9a c0 bb 78 4b f5 3c
       -0.005203994 0.035855066 -0.005877815 0.029943213
0000e0 27 77 c5 3c 92 25 75 bc 9a ef bb bc 9a 26 79 ba
       0.024104668 -0.014962571 -0.0229414 -0.0009504348
0000f0 fa 0d 16 bc 31 39 19 bd 27 95 39 bb 57 41 9f 3c
       -0.009158606 -0.037408058 -0.0028317661 0.019440336
000100 1d 47 8b bc a1 32 34 3c b2 24 9e 3c 91 14 15 3c
       -0.017001683 0.010998399 0.019304607 0.009099142
000110 da 47 25 bc 86 de 42 bb db 11 93 bc 0d 36 c4 bc
       -0.0100879315 -0.0029734685 -0.01795285 -0.023951555
000120 b5 e9 75 3a be 9f 5b bc 3d 8f 09 3c 77 6d bb ba
       0.00093808334 -0.013404785 0.008395967 -0.0014299591
000130 86 82 96 bc 2a cf 2f bc 44 de 82 3a ff d6 39 3c
       -0.018372785 -0.010730544 0.0009984453 0.011342763
000140 3f a4 38 3c 9e f5 b7 bc 6a 4e ce bb 6f d4 0c bc
       0.011269628 -0.022455987 -0.006295969 -0.00859557
000150 85 a1 8f 3c 05 77 aa bc b4 7f f9 3c fc c6 08 3b
       0.017533073 -0.020808706 0.030456401 0.0020870557
000160 32 74 3a 3c 90 1c 67 3c 8f f3 0a bd aa 0a 13 3c
       0.011380242 0.014105931 -0.03392368 0.0089747105
000170 3e 7f ca bb c5 15 da bb 7e 96 6b bc 7f 85 8a b9
       -0.006179719 -0.006655427 -0.014379142 -0.00026420873
000180 2c 70 b9 bb b9 a1 94 3b 8c 29 71 bb a5 03 98 bc
       -0.005659124 0.0045358804 -0.0036798446 -0.018556425
000190 a0 40 b8 3b 80 0d fb 3b 58 80 17 3c ff fa 39 3c
       0.0056229383 0.0076615214 0.009246908 0.011351346
0001a0 95 95 7f 3c cd df 18 bd c2 7b 06 bc a1 39 1a 3c
       0.015599628 -0.037322808 -0.008208217 0.009413154
0001b0 c6 e3 e7 3c 3a 6a ba bc 35 a7 ff ba c2 a0 95 bb
       0.028306853 -0.02275573 -0.0019504788 -0.004566283
0001c0 9b 9d 6e bc 26 bb 50 3c 68 92 94 bc 78 e4 11 3c
       -0.014563943 0.012739932 -0.018136218 0.008904569
0001d0 97 7f da 3a 70 be b7 3b 1d bf 1d bd d7 96 51 ba
       0.0016670105 0.0056074187 -0.038512338 -0.0007995194
0001e0 83 88 e9 3a 25 06 68 bc d1 a7 9d 3a a4 53 75 3c
       0.0017817173 -0.014161621 0.0012028163 0.014973555
0001f0 33 4a 21 bc 20 38 8c 3c a7 59 57 3c cb 89 d0 3a
       -0.009844351 0.017116606 0.013143933 0.0015910206
000200 cf 92 d2 3c 2f 76 4b 3c 17 69 8a bc 58 30 b9 bb
       0.02570477 0.012418314 -0.016895814 -0.005651515
000210 2a c5 10 bc 37 08 46 bc 1e cd 1c 3c 4f cc 81 3c
       -0.00883607 -0.0120869195 0.009570388 0.015844492
000220 0f c0 ac 3c 04 d9 af 3c 1c 13 b6 bc 43 52 bf bc
       0.021087674 0.021465786 -0.022225909 -0.023354655
000230 f8 fc 2c 3c 47 e3 3e bc 59 87 29 3c 97 a9 1a 3d
       0.010558359 -0.011650867 0.010347211 0.03775939
000240 d3 7f aa 3b c8 bc d3 3b 30 48 2c 3c 23 75 84 3c
       0.005203226 0.0064617135 0.010515258 0.016169136
000250 06 37 40 ba fd 0f 83 3c 25 7b af 3c 5a e9 dc bb
       -0.0007332418 0.015998835 0.021421025 -0.006741685
000260 d2 9f 88 3b 27 8b 91 bc f1 18 8e 3c 8d 49 bd 3c
       0.0041694427 -0.017766548 0.017345877 0.02310636
000270 1f 72 ca 3b 59 ed 49 3c 61 62 b8 bc f0 34 39 3b
       0.006178155 0.0123246545 -0.022507848 0.0028260313
000280 d6 76 c7 3c 8b 32 52 ba 8d 7a 2e bc 84 4f 17 3c
       0.024348658 -0.0008018396 -0.010649336 0.009235267
000290 87 38 ea 3b 12 39 1b bc 77 2a fe bc 4b 93 14 bb
       0.007147852 -0.009474056 -0.031026108 -0.0022670801
0002a0 0d db 58 3b d4 c9 0b bd 4c 19 45 3c d8 a4 77 39
       0.0033089549 -0.034128025 0.012029957 0.00023617165
0002b0 68 35 a6 3a 77 19 88 bc 75 e8 a9 ba d5 33 6b 3c
       0.0012680711 -0.016613705 -0.0012962954 0.014355619
0002c0 f5 9e 92 bc a1 d4 ab 3c fe 16 63 bc 13 22 8f bc
       -0.017898062 0.020975413 -0.013860462 -0.017472303
0002d0 aa 73 2e 3b c5 63 6d bc 15 f7 97 3c 35 d6 6b 3c
       0.0026619234 -0.014489119 0.018550435 0.014394333
0002e0 05 6d c2 38 41 4d 8f bc ed 7e 95 bc 5a 3d 82 bc
       9.270947e-05 -0.017492892 -0.018249 -0.015898395
0002f0 e3 2c b0 bc 54 96 00 bc df 80 bb bc 6e 5a ee bb
       -0.021505779 -0.007848341 -0.022888599 -0.0072739637
000300 a9 a7 f5 3a ad 47 88 bc 19 78 96 bc 51 4a 97 39
       0.0018741983 -0.01663574 -0.018367814 0.00028856334
000310 9a 11 14 bc 09 6e fc 3c fa a5 b4 bc 08 e1 de 3c
       -0.0090374 0.030814188 -0.0220518 0.027206913
000320 a1 9a 26 3b 5f 30 0a 3c 73 6a 23 3d a2 b1 5b bc
       0.0025421756 0.008434384 0.03989644 -0.01340905
000330 8f 07 ca 3c f0 51 2a bc 8f 46 a7 3c 13 c6 c4 bc
       0.024661807 -0.010395512 0.020419387 -0.02402023
000340 18 40 06 3c ac e5 d0 bc ff 4c 03 bc 53 3c 7c bc
       0.008193992 -0.025500141 -0.008013963 -0.015395242
000350 08 22 53 bc 9b 80 60 3c a4 f9 6d 3c 17 19 05 3c
       -0.012886532 0.013702537 0.014524851 0.008123658
000360 71 42 85 bc d7 28 8e bc 80 d6 b1 bc 08 f0 43 bc
       -0.016267033 -0.017353458 -0.021708727 -0.011959083
000370 d9 9b 99 bc 12 7e 67 bc 0a 6a 7d 3b 25 aa 56 bc
       -0.018751072 -0.014129179 0.003866794 -0.013102089
000380 c2 ea a5 3b 92 4a 34 3c f5 a1 28 3c d0 79 a2 bc
       0.0050633857 0.011004107 0.01029252 -0.019833475
000390 49 a1 53 3a b6 19 35 3a 9a b7 18 3c 3c fc 3f 3c
       0.00080730446 0.0006908433 0.009321118 0.011717852
0003a0 6f 1d 94 bc 75 60 f9 3b 19 12 c7 3b aa dd 19 3b
       -0.018080441 0.0076103755 0.0060751555 0.002347807
0003b0 ad b4 0c 3c 43 b9 11 bc 18 64 82 3c 2a 18 ab 3c
       0.008587998 -0.0088942675 0.015916869 0.020885546
0003c0 85 a0 99 3c c2 9f 02 3d 17 12 b8 bc 44 62 f9 3b
       0.0187533 0.03189064 -0.022469563 0.007610591
0003d0 e9 e8 29 3c 7d bc 7f 3b c8 9f 89 3b 5c ea 0c bc
       0.0103704715 0.003902226 0.0041999556 -0.0086007975
0003e0 36 c0 c7 39 69 ae c5 bc 24 29 6d bb 34 48 40 bb
       0.00038099446 -0.024131017 -0.0036187852 -0.0029339911
0003f0 4a e5 8b bc 64 33 03 bd 1a ed c2 3c 8e ef 2a bc
       -0.017077107 -0.03203143 0.0237947 -0.010433091

action_model._continuous_distribution.mu.bias f4 [3]
000000 df 96 55 3c f8 59 e6 3b cb d2 d8 3b
       0.013036459 0.007029768 0.0066169254
