config/results/pippo_nn/PathFollowing.onnx (onnx, 695646 bytes, 7 tensors)

action_model._continuous_distribution.log_sigma f4 [1, 3]
000000 00 00 00 00 00 00 00 00 00 00 00 00
       0.0 0.0 0.0

action_model._continuous_distribution.mu.bias f4 [3]
000000 ae bc 3a 3a 5c 58 8c 3a ee dd 27 ba
       0.00071234524 0.0010707485 -0.00064036145

action_model._continuous_distribution.mu.weight f4 [3, 256]
000000 2b 89 8a bc 1a 6c 25 3b e0 8c 94 3b 0c 9e c7 bb
       -0.01691111 0.0025241436 0.004533395 -0.0060918387
000010 87 24 88 3b 1b 41 7f 3b 97 9c 29 bc f8 f6 5c 3b
       0.004154745 0.0038948718 -0.010352275 0.003371654
000020 f8 c3 77 3b 7f 72 cc ba a3 05 42 3c e7 7c 20 bc
       0.0037806015 -0.0015598087 0.011842164 -0.009795404
000030 ba b8 51 bb 32 42 91 bc e0 0f d5 bb aa 3b d2 3b
       -0.0032000975 -0.01773176 -0.0065021366 0.006415804
000040 e3 ae 9f 38 c4 29 cb bc 83 d4 91 bb d7 ba 47 3b
       7.614286e-05 -0.024800189 -0.004450382 0.0030476355
000050 f1 69 b2 3b d4 69 49 bb 41 15 c3 3b b7 c2 00 bc
       0.005444758 -0.0030733244 0.0059534614 -0.007858924
000060 aa 39 61 bc f2 ca e1 bb b7 e0 82 bb aa f3 9c bc
       -0.013746658 -0.006890648 -0.0039940733 -0.019159157
000070 15 ca 55 3c 66 be 3f 3c e5 13 08 bc f0 0f 56 bb
       0.013048668 0.011703109 -0.0083055245 -0.0032663308
000080 0a fc da 39 9e 6a 11 bc e7 7f 7f 3c 0a ba 5f 3c
       0.00041767984 -0.008875517 0.015594459 0.013655195
000090 fb e1 70 bc 86 7f 41 bb c7 c2 1b 3a 3b 4e a6 3c
       -0.014702315 -0.0029525473 0.0005941805 0.020300975
0000a0 9f 6d 00 3d d2 32 51 bc 15 32 b8 ba 95 4c 16 3c
       0.031354543 -0.012768464 -0.0014053012 0.009173532
0000b0 9c 2d 43 3b eb 4d 2e bb e3 d1 73 bc b4 f5 9c 3c
       0.0029781824 -0.0026596736 -0.014881584 0.01916013
0000c0 7d 48 39 bb c7 24 4c bc 27 71 3c 3c 90 c8 8c b8
       -0.0028271966 -0.01245994 0.011501587 -6.713078e-05
0000d0 37 31 87 3c 7f ba 05 3b fb 07 23 3c 13 fd 35 3c
       0.01650296 0.002040535 0.009950633 0.011107701
0000e0 c3 fe 13 bb e9 f5 8c bc aa de b1 bb 6f d3 f1 bb
       -0.002258227 -0.017207103 -0.005428155 -0.007379941
0000f0 56 68 cb 3c 73 9c 11 3c 91 37 35 3b df 80 1f b9
       0.024830025 0.008887398 0.0027651528 -0.0001521143
000100 b3 0c da 3a 39 8a 19 bc bd b3 fe 3b d8 b0 e9 bc
       0.0016635865 -0.009371334 0.0077728913 -0.028526708
000110 e2 55 c5 b8 fb da 01 3c ea ab 88 bb 87 a4 13 3c
       -9.409689e-05 0.007925744 -0.0041708844 0.009011394
000120 18 f3 4a bc ab 5c 06 39 0f 07 25 3b 0b be ac 3c
       -0.01238706 0.00012813757 0.002518121 0.021086713
000130 ff 00 a4 3c b9 28 03 3d 37 4e 40 3b 9b 53 45 3a
       0.020020006 0.032021258 0.0029343495 0.0007527412
000140 1a 6c 4f 3b 32 0a c2 3c 15 42 19 3c aa bd 02 bc
       0.0031650127 0.023686502 0.009354134 -0.00797979
000150 e5 a8 1b 3c 51 9b ab bc c7 35 27 bc 89 b0 0d 3c
       0.009500717 -0.020948084 -0.010205693 0.008648046
000160 f6 3a 17 3c 67 19 f0 3c 13 23 13 3d 1b ff a9 bb
       0.009230366 0.029308988 0.03592212 -0.0051878816
000170 ba 55 6e 3c a0 26 f5 bb 7d 6d cd bc eb 9e 03 bc
       0.014546806 -0.007481411 -0.025076622 -0.008033494
000180 d2 00 58 3b 9e 5d 8a bc b3 55 93 bc 10 64 60 ba
       0.0032959473 -0.016890343 -0.0179852 -0.00085598323
000190 f9 92 1c bc b5 2c c6 3a 0b f9 b1 3c 8b 18 2a 3b
       -0.009556525 0.0015119525 0.021725198 0.002595457
0001a0 32 f0 d3 bb d7 b6 5f bb df f2 14 3d 12 3c 46 bb
       -0.0064678425 -0.003413608 0.036364432 -0.0030248207
0001b0 38 e3 a6 bc c1 b7 cc 3a 25 7e 84 3b bc ed 8f bc
       -0.020372018 0.0015618728 0.004043358 -0.017569415
0001c0 5f 49 8f bc ee 5e 9c 3c 4d 96 27 bc 06 9b 24 3c
       -0.01749104 0.019088235 -0.010228706 0.010046726
0001d0 e4 e0 82 bc 80 aa 11 3b 8f e0 a5 3c a7 31 28 bc
       -0.015976377 0.002222687 0.02024868 -0.010265744
0001e0 87 1b 5e 3b 2b 64 56 3c 89 1f 4b bb 03 79 fb 3a
       0.003389092 0.013085405 -0.0030994138 0.0019185845
0001f0 85 89 72 3c 48 b6 9a 3b 05 ed 4a bb 12 84 cd bb
       0.014803295 0.0047214366 -0.0030964029 -0.0062718475
000200 cb d5 94 bc 5d ab 52 bc c9 d5 9c bc 98 07 16 bb
       -0.01816835 -0.012858239 -0.01914491 -0.002289271
000210 21 37 98 3c e8 91 a4 3c ff 7d 2a bc 63 bc 4b bc
       0.018580975 0.020089105 -0.010406016 -0.012435052
000220 c7 56 1a bc 50 6f 81 bc e9 fd 3b 3c 0d cf 38 bb
       -0.009420103 -0.015800148 0.011474111 -0.0028199584
000230 17 53 26 bc 9f 34 41 3c 24 18 bc 3a 40 bb 27 bb
       -0.010151646 0.011792331 0.0014350456 -0.0025593787
000240 43 14 02 bc da 6c 64 bb 15 c1 70 3b 8f 35 44 bc
       -0.007939401 -0.003485492 0.003673618 -0.01197566
000250 fb a1 60 3a 69 19 34 bc 5f 94 1d 3c 43 14 8c bb
       0.0008569059 -0.010992386 0.009617894 -0.0042748763
000260 08 c2 65 bc 5a 21 7f 3c b0 d1 85 bc 08 6b 95 3c
       -0.014023311 0.0155719165 -0.016335338 0.018239513
000270 69 87 06 bc 2c a3 41 3c ea 36 57 bc fd 73 58 3b
       -0.008210995 0.011818688 -0.013135651 0.0033028119
000280 f7 fe 2b bc cd ea 6d bc e7 ed 13 bb 93 f3 4a 3a
       -0.0104978 -0.014521313 -0.002257222 0.0007741984
000290 fb e1 ea bb ab a4 a3 bb 7d 54 7c bc 43 bd d2 ba
       -0.0071680523 -0.004993995 -0.015401003 -0.0016078133
0002a0 dd e6 9b bb 67 40 89 b5 66 82 ab bc c8 70 78 bc
       -0.0047577457 -1.0226039e-06 -0.020936202 -0.015163608
0002b0 46 51 b6 3c 11 60 bc 3a ec 23 13 bc b3 e9 28 bc
       0.022255551 0.0014371892 -0.008980732 -0.0103096245
0002c0 14 3c c9 bc 50 ba d0 3c 1f 54 99 bb 5f 80 76 bc
       -0.02456478 0.025479466 -0.0046792175 -0.0150452545
0002d0 d6 19 35 bb e3 53 01 bc 4b 54 24 bc d5 cc 8b bb
       -0.0027633808 -0.007893535 -0.010029863 -0.0042663612
0002e0 6f 46 0e 3c c0 d7 53 3c d5 c5 0c bb 97 94 16 3c
       0.008683785 0.012929857 -0.0021480222 0.0091907
0002f0 17 9b 43 bc 48 a2 69 3b 08 2a f3 bc 33 39 8a 3c
       -0.011938832 0.0035649706 -0.029683128 0.016872978
000300 0b 04 e1 bb 40 b4 88 b8 45 d2 6c 3c f6 63 1b bc
       -0.006866937 -6.5185595e-05 0.014454429 -0.009484282
000310 c7 e8 5c 3c c0 82 be 39 c6 c2 9a 3b 62 13 63 bc
       0.013483233 0.0003633704 0.004722926 -0.013859602
000320 6b 12 a9 bb 10 98 55 bc d7 c3 c4 bb 65 0a 41 3c
       -0.0051596663 -0.013036743 -0.0060047912 0.011782263
000330 78 9b e3 ba 10 0b 8d bc 15 50 2e bc c8 71 2d 3c
       -0.0017365059 -0.01721719 -0.01063921 0.01058621
000340 37 37 d0 3b e8 fb 79 3b 45 02 9f 3c 19 34 ab b7
       0.0063542384 0.0038144533 0.019410262 -2.0409048e-05
000350 7f 0f b2 3c 15 b5 40 bc bf 90 c8 bc 4f bc bf 3b
       0.021735905 -0.011761923 -0.024483083 0.0058513056
000360 80 1a 70 3c 9b eb 65 3b 4c 97 0d bd c1 bb 3e 3c
       0.014654756 0.0035083059 -0.034568116 0.011641444
000370 3a 9c 25 3c 4e d7 b0 3b d0 d3 7e 3c 2b 17 f5 3b
       0.010108048 0.00539676 0.01555343 0.0074795685
000380 3a 67 15 ba 9d c6 74 3b c8 a5 1c bb fd 27 4e bc
       -0.0005699281 0.0037349828 -0.0023902524 -0.012582776
000390 19 6e 04 bc 79 fe ca bc 60 72 5e 3a 2b 3d 52 3b
       -0.00808289 -0.024779545 0.0008485671 0.0032079916
0003a0 7f d0 bd bb e3 69 83 3a b5 e4 bc bc 47 a0 ed 3b
       -0.005792677 0.0010026064 -0.023058275 0.0072517726
0003b0 79 bf 49 bc 97 1e b0 3c ba fd 58 bc cf 21 70 bb
       -0.012313717 0.021498961 -0.013244087 -0.0036641245
0003c0 95 7b db 3a dd 27 57 3c bd b7 6b bb ba 02 22 3c
       0.0016745204 0.013132063 -0.003596767 0.009888345
0003d0 3f 64 57 3b eb 6d ab bb 5d 16 d5 3b dc 67 82 39
       0.0032866148 -0.005231609 0.00650291 0.00024872913
0003e0 ed 62 c1 3b 43 b4 8d 3b 13 65 89 bc bf 55 8b 3c
       0.0059016855 0.0043244674 -0.016771829 0.01700866
0003f0 53 70 c1 b5 f2 b2 a4 bc fe a2 04 3b 7c e4 0d bc
       -1.4412311e-06 -0.020104859 0.0020238752 -0.008660432

network_body.linear_encoder.seq_layers.0.bias f4 [256]
000000 00 00 00 00 00 00 00 00 00 00 00 00 00 00 00 00
       0.0 0.0 0.0 0.0
000010 00 00 00 00 00 00 00 00 00 00 00 00 00 00 00 00
       0.0 0.0 0.0 0.0
000020 00 00 00 00 00 00 00 00 00 00 00 00 00 00 00 00
       0.0 0.0 0.0 0.0
000030 00 00 00 00 00 00 00 00 00 00 00 00 00 00 00 00
       0.0 0.0 0.0 0.0
000040 00 00 00 00 00 00 00 00 00 00 00 00 00 00 00 00
       0.0 0.0 0.0 0.0
000050 00 00 00 00 00 00 00 00 00 00 00 00 00 00 00 00
       0.0 0.0 0.0 0.0
000060 00 00 00 00 00 00 00 00 00 00 00 00 00 00 00 00
       0.0 0.0 0.0 0.0
000070 00 00 00 00 00 00 00 00 00 00 00 00 00 00 00 00
       0.0 0.0 0.0 0.0
000080 00 00 00 00 00 00 00 00 00 00 00 00 00 00 00 00
       0.0 0.0 0.0 0.0
000090 00 00 00 00 00 00 00 00 00 00 00 00 00 00 00 00
       0.0 0.0 0.0 0.0
0000a0 00 00 00 00 00 00 00 00 00 00 00 00 00 00 00 00
       0.0 0.0 0.0 0.0
0000b0 00 00 00 00 00 00 00 00 00 00 00 00 00 00 00 00
       0.0 0.0 0.0 0.0
0000c0 00 00 00 00 00 00 00 00 00 00 00 00 00 00 00 00
       0.0 0.0 0.0 0.0
0000d0 00 00 00 00 00 00 00 00 00 00 00 00 00 00 00 00
       0.0 0.0 0.0 0.0
0000e0 00 00 00 00 00 00 00 00 00 00 00 00 00 00 00 00
       0.0 0.0 0.0 0.0
0000f0 00 00 00 00 00 00 00 00 00 00 00 00 00 00 00 00
       0.0 0.0 0.0 0.0
000100 00 00 00 00 00 00 00 00 00 00 00 00 00 00 00 00
       0.0 0.0 0.0 0.0
000110 00 00 00 00 00 00 00 00 00 00 00 00 00 00 00 00
       0.0 0.0 0.0 0.0
000120 00 00 00 00 00 00 00 00 00 00 00 00 00 00 00 00
       0.0 0.0 0.0 0.0
000130 00 00 00 00 00 00 00 00 00 00 00 00 00 00 00 00
       0.0 0.0 0.0 0.0
000140 00 00 00 00 00 00 00 00 00 00 00 00 00 00 00 00
       0.0 0.0 0.0 0.0
000150 00 00 00 00 00 00 00 00 00 00 00 00 00 00 00 00
       0.0 0.0 0.0 0.0
000160 00 00 00 00 00 00 00 00 00 00 00 00 00 00 00 00
       0.0 0.0 0.0 0.0
000170 00 00 00 00 00 00 00 00 00 00 00 00 00 00 00 00
       0.0 0.0 0.0 0.0
000180 00 00 00 00 00 00 00 00 00 00 00 00 00 00 00 00
       0.0 0.0 0.0 0.0
000190 00 00 00 00 00 00 00 00 00 00 00 00 00 00 00 00
       0.0 0.0 0.0 0.0
0001a0 00 00 00 00 00 00 00 00 00 00 00 00 00 00 00 00
       0.0 0.0 0.0 0.0
0001b0 00 00 00 00 00 00 00 00 00 00 00 00 00 00 00 00
       0.0 0.0 0.0 0.0
0001c0 00 00 00 00 00 00 00 00 00 00 00 00 00 00 00 00
       0.0 0.0 0.0 0.0
0001d0 00 00 00 00 00 00 00 00 00 00 00 00 00 00 00 00
       0.0 0.0 0.0 0.0
0001e0 00 00 00 00 00 00 00 00 00 00 00 00 00 00 00 00
       0.0 0.0 0.0 0.0
0001f0 00 00 00 00 00 00 00 00 00 00 00 00 00 00 00 00
       0.0 0.0 0.0 0.0
000200 00 00 00 00 00 00 00 00 00 00 00 00 00 00 00 00
       0.0 0.0 0.0 0.0
000210 00 00 00 00 00 00 00 00 00 00 00 00 00 00 00 00
       0.0 0.0 0.0 0.0
000220 00 00 00 00 00 00 00 00 00 00 00 00 00 00 00 00
       0.0 0.0 0.0 0.0
000230 00 00 00 00 00 00 00 00 00 00 00 00 00 00 00 00
       0.0 0.0 0.0 0.0
000240 00 00 00 00 00 00 00 00 00 00 00 00 00 00 00 00
       0.0 0.0 0.0 0.0
000250 00 00 00 00 00 00 00 00 00 00 00 00 00 00 00 00
       0.0 0.0 0.0 0.0
000260 00 00 00 00 00 00 00 00 00 00 00 00 00 00 00 00
       0.0 0.0 0.0 0.0
000270 00 00 00 00 00 00 00 00 00 00 00 00 00 00 00 00
       0.0 0.0 0.0 0.0
000280 00 00 00 00 00 00 00 00 00 00 00 00 00 00 00 00
       0.0 0.0 0.0 0.0
000290 00 00 00 00 00 00 00 00 00 00 00 00 00 00 00 00
       0.0 0.0 0.0 0.0
0002a0 00 00 00 00 00 00 00 00 00 00 00 00 00 00 00 00
       0.0 0.0 0.0 0.0
0002b0 00 00 00 00 00 00 00 00 00 00 00 00 00 00 00 00
       0.0 0.0 0.0 0.0
0002c0 00 00 00 00 00 00 00 00 00 00 00 00 00 00 00 00
       0.0 0.0 0.0 0.0
0002d0 00 00 00 00 00 00 00 00 00 00 00 00 00 00 00 00
       0.0 0.0 0.0 0.0
0002e0 00 00 00 00 00 00 00 00 00 00 00 00 00 00 00 00
       0.0 0.0 0.0 0.0
0002f0 00 00 00 00 00 00 00 00 00 00 00 00 00 00 00 00
       0.0 0.0 0.0 0.0
000300 00 00 00 00 00 00 00 00 00 00 00 00 00 00 00 00
       0.0 0.0 0.0 0.0
000310 00 00 00 00 00 00 00 00 00 00 00 00 00 00 00 00
       0.0 0.0 0.0 0.0
000320 00 00 00 00 00 00 00 00 00 00 00 00 00 00 00 00
       0.0 0.0 0.0 0.0
000330 00 00 00 00 00 00 00 00 00 00 00 00 00 00 00 00
       0.0 0.0 0.0 0.0
000340 00 00 00 00 00 00 00 00 00 00 00 00 00 00 00 00
       0.0 0.0 0.0 0.0
000350 00 00 00 00 00 00 00 00 00 00 00 00 00 00 00 00
       0.0 0.0 0.0 0.0
000360 00 00 00 00 00 00 00 00 00 00 00 00 00 00 00 00
       0.0 0.0 0.0 0.0
000370 00 00 00 00 00 00 00 00 00 00 00 00 00 00 00 00
       0.0 0.0 0.0 0.0
000380 00 00 00 00 00 00 00 00 00 00 00 00 00 00 00 00
       0.0 0.0 0.0 0.0
000390 00 00 00 00 00 00 00 00 00 00 00 00 00 00 00 00
       0.0 0.0 0.0 0.0
0003a0 00 00 00 00 00 00 00 00 00 00 00 00 00 00 00 00
       0.0 0.0 0.0 0.0
0003b0 00 00 00 00 00 00 00 00 00 00 00 00 00 00 00 00
       0.0 0.0 0.0 0.0
0003c0 00 00 00 00 00 00 00 00 00 00 00 00 00 00 00 00
       0.0 0.0 0.0 0.0
0003d0 00 00 00 00 00 00 00 00 00 00 00 00 00 00 00 00
       0.0 0.0 0.0 0.0
0003e0 00 00 00 00 00 00 00 00 00 00 00 00 00 00 00 00
       0.0 0.0 0.0 0.0
0003f0 00 00 00 00 00 00 00 00 00 00 00 00 00 00 00 00
       0.0 0.0 0.0 0.0

network_body.linear_encoder.seq_layers.0.weight f4 [256, 416]
000000 ac a3 61 bb f3 8b 07 3c 49 d4 4f bd 80 7b 9f 3c
       -0.0034429831 0.008273113 -0.05073956 0.01946807
000010 a5 be f4 3c 7d 2b c6 3c da 46 de bd b7 8d 0e bc
       0.029876063 0.024190659 -0.108533576 -0.00870078
000020 39 27 fb bc 4f 7b 97 3b 5a c3 b4 bc bc ff 58 bc
       -0.030658351 0.004622854 -0.022065807 -0.013244566
000030 fc fc 3f 3c 76 70 06 3b bc 05 8c bc ef bb 69 3d
       0.011718031 0.002051381 -0.017092578 0.057063993
000040 87 a9 a4 bc cb 23 37 3d 9a eb 12 3c 07 f4 e9 3c
       -0.020100368 0.04471187 0.008967305 0.028558744
000050 ef d7 6b bd f7 79 29 bd 51 fe 30 3d 9f e5 7f bc
       -0.057578977 -0.04137608 0.043211285 -0.015618711
000060 eb 8d c2 3c e0 96 85 3d a5 18 3d 3c 6e 90 64 3d
       0.023749312 0.06522918 0.01154152 0.0558018
000070 28 05 03 3d 50 ed 2f bd 11 53 08 bd b0 72 de 3c
       0.03198734 -0.04295093 -0.033282343 0.027154297
000080 df 5a b1 3a 22 80 1c 3d 6d d8 db bc ea 3b 00 bd
       0.001353111 0.038208134 -0.026836598 -0.03130714
000090 6f a7 9c 3c 6d d6 77 bc fe 53 a6 3d 47 b4 df bc
       0.019122807 -0.015126807 0.08121489 -0.027307643
0000a0 8e b7 1a bd 02 b2 7d bd 4d da 97 3d 53 eb 58 3b
       -0.037772708 -0.06193734 0.074146844 0.0033099249
0000b0 2a 98 e4 bd 55 e4 89 3d 67 f7 29 3d aa 21 17 bd
       -0.111618355 0.06733004 0.041495707 -0.03689734
0000c0 e5 b2 cc bd b7 3c 86 3c d5 e3 91 3d c6 04 64 bd
       -0.09995059 0.016386373 0.07123534 -0.055668615
0000d0 0d a3 ae 3b 52 b6 35 3d 90 17 5d bb d2 3d cf bb
       0.0053294958 0.044363327 -0.0033735968 -0.006324508
0000e0 a0 e1 a7 3c 9f 61 2f 3d 1d 7f 51 3b f2 0e 9c 3c
       0.020493329 0.042817708 0.0031966635 0.019050095
0000f0 ce 67 59 3d 16 91 7e 3d a5 78 05 bd eb d2 66 bd
       0.05307751 0.062150083 -0.03258576 -0.05635349
000100 f2 81 86 bd 81 41 cf 3c d4 60 19 3d 56 2a 87 3d
       -0.06567754 0.02529979 0.037445858 0.06599872
000110 71 1d 4c bd 4c 05 8c bc 1a 7a 50 3a af 11 ff bd
       -0.049832765 -0.01709237 0.0007952765 -0.12454545
000120 82 ad e1 bc 06 f5 c5 bc 18 cf ec bb 13 9b e6 bc
       -0.027548555 -0.024164688 -0.007226836 -0.028150117
000130 87 c4 9b bc bf e2 8c 3d 2f 55 b4 3c b3 a1 da 3c
       -0.01901461 0.06879186 0.022013275 0.026688432
000140 d4 ed f4 bd 32 aa e0 3c 24 33 f8 3a 54 18 3b bd
       -0.119594246 0.027424905 0.001893614 -0.045677498
000150 f9 01 04 bc 66 aa a9 bc fb 73 43 bc 3a b9 c3 bc
       -0.008057111 -0.020711135 -0.011929507 -0.023892034
000160 f4 df db 3c 80 12 c2 3c 5f 0c ba bb ad 6d a7 3c
       0.026840188 0.023690462 -0.0056777443 0.02043804
000170 b8 1c 25 bd c5 b5 3f 3d 86 4e d3 3c 1f a1 d6 3c
       -0.04031059 0.04680421 0.025794279 0.026199875
000180 17 08 b5 bb 4b 8d dd bd eb 13 31 bd d2 b0 9f 3d
       -0.005524646 -0.10817965 -0.043231886 0.07797398
000190 14 4c 65 bc 83 c4 8b 3c ef 96 90 bd c8 ae cd 3d
       -0.013995189 0.017061478 -0.07060038 0.100431025
0001a0 03 f5 8e 3d 46 10 a6 3c ee 9c 5d bd 4c 0f 1d bd
       0.06980326 0.020271432 -0.054104738 -0.038344666
0001b0 c3 65 1c bc 3d 91 0e 3c 05 03 c2 bc a6 4f 28 3d
       -0.009545746 0.00870162 -0.02368308 0.041091584
0001c0 aa d1 3c bc 79 32 d9 3c d2 45 22 bd ce 7d 1a 3d
       -0.011524597 0.026513325 -0.039617367 0.037717633
0001d0 f3 7b ba bc 6f 18 29 bd 9d 70 43 3d cb a1 f0 bb
       -0.022764182 -0.041283067 0.04771482 -0.007343506
0001e0 0a 0a 9e 3c a3 77 24 3c 7d a8 48 3d 84 0f 95 3c
       0.019291896 0.010038289 0.048988808 0.018195875
0001f0 3f 3a 0f bd a0 d6 23 bc 1e d7 87 bd e4 e6 c2 3a
       -0.034967657 -0.009999901 -0.06632827 0.0014869836
000200 83 83 03 3c 6b f5 a2 bd 5c ab 27 3c 3e 8f 04 bb
       0.00802696 -0.07956966 0.010233726 -0.002022698
000210 a5 e9 a4 3d 10 7a 03 bd 33 24 41 bd b4 eb 12 3d
       0.08052377 -0.03209883 -0.047153663 0.035869315
000220 38 a7 6f bc 09 dd ba bb 14 f0 ca bd 66 fd 1e bd
       -0.01462727 -0.005702619 -0.099090725 -0.03881588
000230 bf 0b 92 bd 5b 18 10 bd d1 90 c7 bd 54 97 a3 ba
       -0.07131147 -0.035179477 -0.097444184 -0.0012481012
000240 0d a1 3d 3d ac d0 fc bc d3 43 3d bc 76 94 8f 3d
       0.046296168 -0.030861221 -0.011551815 0.070107386
000250 97 d0 b8 bd 1c 49 74 bc 74 cb af bd 4e 29 39 bc
       -0.0902416 -0.014910009 -0.085837275 -0.011301352
000260 58 12 01 bc c3 23 c9 bc 06 b2 70 3d 56 ce ef bd
       -0.007877909 -0.024553185 0.058763526 -0.11709277
000270 36 7e c5 3c 75 a9 29 bd ea 7a b4 bb 37 1b 66 bd
       0.024108034 -0.041421372 -0.0055078166 -0.056178298
000280 3a c0 89 bc e6 ed 9a bd 4d 2a ba bd 37 cf a4 3c
       -0.016815294 -0.07564907 -0.090900995 0.020118339
000290 da a5 63 bd 23 2f f8 bc 4a 7b 2b bd 89 c8 cc 3c
       -0.05557809 -0.030295914 -0.041865624 0.024997966
0002a0 91 d0 43 3d a8 33 01 3d ff 12 87 3d 33 53 19 bd
       0.047806326 0.031543404 0.0659542 -0.03743286
0002b0 0c a2 4c bd 29 b3 5f 3d 6f b5 c6 3d 7f 24 40 bd
       -0.049959227 0.05461422 0.097025745 -0.046909805
0002c0 bc dc 05 bd 52 16 14 bd 02 e5 b3 3d 2f 7e b7 3c
       -0.03268121 -0.0361541 0.08783914 0.022399036
0002d0 d0 c3 0a bd c4 a7 1d bc c3 60 c4 bd a4 e3 bc bd
       -0.033878148 -0.009622518 -0.09588768 -0.092231065
0002e0 6d a1 13 bd 29 4a be bc 8b d0 32 bb 53 e1 b1 bc
       -0.03604262 -0.023228722 -0.0027284946 -0.021713888
0002f0 98 d6 c9 bc a6 c3 eb 3b 72 c6 5b 3b a3 3a e3 3d
       -0.02463846 0.007194954 0.003353503 0.110951684
000300 fc cb 70 bd ca f8 ad bb 0d 6c ea 3b 5a 81 80 bc
       -0.058788285 -0.005309199 0.007153994 -0.01568668
000310 f5 03 04 3d 37 39 17 be 29 c2 9b bd 7e d3 0a bc
       0.032230336 -0.1476792 -0.076053925 -0.008473275
000320 a6 ed 98 bc 8c f9 4e 3d 4d 8f 2c bd d0 bf 70 3c
       -0.018668007 0.050530955 -0.04212885 0.014694169
000330 1d f4 c7 3c 59 4d c2 bc 2b ee c7 bd ad 87 0d bd
       0.024408394 -0.023718523 -0.09762224 -0.03455322
000340 85 da be bc 91 fc c2 bd 07 6a 4a bb ec 43 7c bd
       -0.023297558 -0.095208295 -0.003088595 -0.061588213
000350 da 6c 61 bc 6b 47 69 3c cf 32 91 bb 3d 7c 71 bd
       -0.013758862 0.014238219 -0.0044311057 -0.058956373
000360 ab f0 83 3c 73 18 87 3d 52 4c f4 bd 89 18 a7 bd
       0.01610597 0.0659646 -0.119286194 -0.081589766
000370 0b e6 e8 3d b4 b0 28 bd bb b9 81 bd 48 63 10 bd
       0.11372002 -0.041184142 -0.063342534 -0.035250932
000380 2b d0 0e 3d 06 0c 88 bd c0 f6 be 3c e7 24 a9 3c
       0.034866493 -0.06642918 0.023311019 0.02064748
000390 b3 ae 21 bd 36 4c 5a bd 96 5b 46 3d ea da 57 bd
       -0.039473247 -0.053295337 0.048427187 -0.052699007
0003a0 81 0b 4a 3c 19 23 95 bc ff 95 9f bb 2b f3 aa bd
       0.012331844 -0.018205212 -0.004870176 -0.08347162
0003b0 ff e0 80 3d 66 0d 97 bb 46 e4 8a bc 27 c3 7c 3d
       0.062929146 -0.0046097515 -0.016954552 0.06170955
0003c0 e2 bf 38 bd b7 46 f3 3c 1f 5a 88 bc 16 53 e2 3d
       -0.04510487 0.029696805 -0.016644536 0.11051004
0003d0 6f 89 d7 3c f2 6c 0a bc 6b f7 12 3d de 2e 6e 3c
       0.02631065 -0.008448826 0.035880487 0.014537541
0003e0 b5 b0 79 3d 6d 80 11 bd fa ef 04 bc f7 69 5a 3c
       0.060959537 -0.035522867 -0.0081138555 0.013330928
0003f0 ca af 9c 3c 96 6f 2f 3d c9 e6 af bd 40 e2 25 be
       0.019126792 0.042831026 -0.08588941 -0.16199589

network_body.linear_encoder.seq_layers.2.bias f4 [256]
000000 00 00 00 00 00 00 00 00 00 00 00 00 00 00 00 00
       0.0 0.0 0.0 0.0
000010 00 00 00 00 00 00 00 00 00 00 00 00 00 00 00 00
       0.0 0.0 0.0 0.0
000020 00 00 00 00 00 00 00 00 00 00 00 00 00 00 00 00
       0.0 0.0 0.0 0.0
000030 00 00 00 00 00 00 00 00 00 00 00 00 00 00 00 00
       0.0 0.0 0.0 0.0
000040 00 00 00 00 00 00 00 00 00 00 00 00 00 00 00 00
       0.0 0.0 0.0 0.0
000050 00 00 00 00 00 00 00 00 00 00 00 00 00 00 00 00
       0.0 0.0 0.0 0.0
000060 00 00 00 00 00 00 00 00 00 00 00 00 00 00 00 00
       0.0 0.0 0.0 0.0
000070 00 00 00 00 00 00 00 00 00 00 00 00 00 00 00 00
       0.0 0.0 0.0 0.0
000080 00 00 00 00 00 00 00 00 00 00 00 00 00 00 00 00
       0.0 0.0 0.0 0.0
000090 00 00 00 00 00 00 00 00 00 00 00 00 00 00 00 00
       0.0 0.0 0.0 0.0
0000a0 00 00 00 00 00 00 00 00 00 00 00 00 00 00 00 00
       0.0 0.0 0.0 0.0
0000b0 00 00 00 00 00 00 00 00 00 00 00 00 00 00 00 00
       0.0 0.0 0.0 0.0
0000c0 00 00 00 00 00 00 00 00 00 00 00 00 00 00 00 00
       0.0 0.0 0.0 0.0
0000d0 00 00 00 00 00 00 00 00 00 00 00 00 00 00 00 00
       0.0 0.0 0.0 0.0
0000e0 00 00 00 00 00 00 00 00 00 00 00 00 00 00 00 00
       0.0 0.0 0.0 0.0
0000f0 00 00 00 00 00 00 00 00 00 00 00 00 00 00 00 00
       0.0 0.0 0.0 0.0
000100 00 00 00 00 00 00 00 00 00 00 00 00 00 00 00 00
       0.0 0.0 0.0 0.0
000110 00 00 00 00 00 00 00 00 00 00 00 00 00 00 00 00
       0.0 0.0 0.0 0.0
000120 00 00 00 00 00 00 00 00 00 00 00 00 00 00 00 00
       0.0 0.0 0.0 0.0
000130 00 00 00 00 00 00 00 00 00 00 00 00 00 00 00 00
       0.0 0.0 0.0 0.0
000140 00 00 00 00 00 00 00 00 00 00 00 00 00 00 00 00
       0.0 0.0 0.0 0.0
000150 00 00 00 00 00 00 00 00 00 00 00 00 00 00 00 00
       0.0 0.0 0.0 0.0
000160 00 00 00 00 00 00 00 00 00 00 00 00 00 00 00 00
       0.0 0.0 0.0 0.0
000170 00 00 00 00 00 00 00 00 00 00 00 00 00 00 00 00
       0.0 0.0 0.0 0.0
000180 00 00 00 00 00 00 00 00 00 00 00 00 00 00 00 00
       0.0 0.0 0.0 0.0
000190 00 00 00 00 00 00 00 00 00 00 00 00 00 00 00 00
       0.0 0.0 0.0 0.0
0001a0 00 00 00 00 00 00 00 00 00 00 00 00 00 00 00 00
       0.0 0.0 0.0 0.0
0001b0 00 00 00 00 00 00 00 00 00 00 00 00 00 00 00 00
       0.0 0.0 0.0 0.0
0001c0 00 00 00 00 00 00 00 00 00 00 00 00 00 00 00 00
       0.0 0.0 0.0 0.0
0001d0 00 00 00 00 00 00 00 00 00 00 00 00 00 00 00 00
       0.0 0.0 0.0 0.0
0001e0 00 00 00 00 00 00 00 00 00 00 00 00 00 00 00 00
       0.0 0.0 0.0 0.0
0001f0 00 00 00 00 00 00 00 00 00 00 00 00 00 00 00 00
       0.0 0.0 0.0 0.0
000200 00 00 00 00 00 00 00 00 00 00 00 00 00 00 00 00
       0.0 0.0 0.0 0.0
000210 00 00 00 00 00 00 00 00 00 00 00 00 00 00 00 00
       0.0 0.0 0.0 0.0
000220 00 00 00 00 00 00 00 00 00 00 00 00 00 00 00 00
       0.0 0.0 0.0 0.0
000230 00 00 00 00 00 00 00 00 00 00 00 00 00 00 00 00
       0.0 0.0 0.0 0.0
000240 00 00 00 00 00 00 00 00 00 00 00 00 00 00 00 00
       0.0 0.0 0.0 0.0
000250 00 00 00 00 00 00 00 00 00 00 00 00 00 00 00 00
       0.0 0.0 0.0 0.0
000260 00 00 00 00 00 00 00 00 00 00 00 00 00 00 00 00
       0.0 0.0 0.0 0.0
000270 00 00 00 00 00 00 00 00 00 00 00 00 00 00 00 00
       0.0 0.0 0.0 0.0
000280 00 00 00 00 00 00 00 00 00 00 00 00 00 00 00 00
       0.0 0.0 0.0 0.0
000290 00 00 00 00 00 00 00 00 00 00 00 00 00 00 00 00
       0.0 0.0 0.0 0.0
0002a0 00 00 00 00 00 00 00 00 00 00 00 00 00 00 00 00
       0.0 0.0 0.0 0.0
0002b0 00 00 00 00 00 00 00 00 00 00 00 00 00 00 00 00
       0.0 0.0 0.0 0.0
0002c0 00 00 00 00 00 00 00 00 00 00 00 00 00 00 00 00
       0.0 0.0 0.0 0.0
0002d0 00 00 00 00 00 00 00 00 00 00 00 00 00 00 00 00
       0.0 0.0 0.0 0.0
0002e0 00 00 00 00 00 00 00 00 00 00 00 00 00 00 00 00
       0.0 0.0 0.0 0.0
0002f0 00 00 00 00 00 00 00 00 00 00 00 00 00 00 00 00
       0.0 0.0 0.0 0.0
000300 00 00 00 00 00 00 00 00 00 00 00 00 00 00 00 00
       0.0 0.0 0.0 0.0
000310 00 00 00 00 00 00 00 00 00 00 00 00 00 00 00 00
       0.0 0.0 0.0 0.0
000320 00 00 00 00 00 00 00 00 00 00 00 00 00 00 00 00
       0.0 0.0 0.0 0.0
000330 00 00 00 00 00 00 00 00 00 00 00 00 00 00 00 00
       0.0 0.0 0.0 0.0
000340 00 00 00 00 00 00 00 00 00 00 00 00 00 00 00 00
       0.0 0.0 0.0 0.0
000350 00 00 00 00 00 00 00 00 00 00 00 00 00 00 00 00
       0.0 0.0 0.0 0.0
000360 00 00 00 00 00 00 00 00 00 00 00 00 00 00 00 00
       0.0 0.0 0.0 0.0
000370 00 00 00 00 00 00 00 00 00 00 00 00 00 00 00 00
       0.0 0.0 0.0 0.0
000380 00 00 00 00 00 00 00 00 00 00 00 00 00 00 00 00
       0.0 0.0 0.0 0.0
000390 00 00 00 00 00 00 00 00 00 00 00 00 00 00 00 00
       0.0 0.0 0.0 0.0
0003a0 00 00 00 00 00 00 00 00 00 00 00 00 00 00 00 00
       0.0 0.0 0.0 0.0
0003b0 00 00 00 00 00 00 00 00 00 00 00 00 00 00 00 00
       0.0 0.0 0.0 0.0
0003c0 00 00 00 00 00 00 00 00 00 00 00 00 00 00 00 00
       0.0 0.0 0.0 0.0
0003d0 00 00 00 00 00 00 00 00 00 00 00 00 00 00 00 00
       0.0 0.0 0.0 0.0
0003e0 00 00 00 00 00 00 00 00 00 00 00 00 00 00 00 00
       0.0 0.0 0.0 0.0
0003f0 00 00 00 00 00 00 00 00 00 00 00 00 00 00 00 00
       0.0 0.0 0.0 0.0

network_body.linear_encoder.seq_layers.2.weight f4 [256, 256]
000000 91 71 d0 bd 96 72 fc bb fa cd 6b bd 77 2d fe 3b
       -0.10177911 -0.0077040894 -0.05756948 0.0077568847
000010 72 24 a8 3d 72 6b c7 3c c4 bd 24 3c 20 2c 31 3d
       0.082100764 0.024343226 0.010055009 0.04325497
000020 51 bd 63 3d 7b fb 73 bd 19 43 15 be cc 61 0e 3d
       0.055600468 -0.059566002 -0.14576377 0.034761235
000030 e5 79 ff 3c ef a5 40 3d fa 70 5a bd be a5 08 be
       0.031186054 0.047033247 -0.0533304 -0.13344476
000040 a3 c8 b3 bb 9b 10 3e 3b b1 4c 70 bd 8d a7 f9 bd
       -0.0054865642 0.0029001597 -0.05866689 -0.12190161
000050 60 16 aa bd 7d 49 48 3d 5a e6 28 bc 61 c0 9b bd
       -0.08305049 0.04889821 -0.010308826 -0.07605053
000060 41 15 06 bd c2 95 17 3e 91 bd 0f 3d bd a5 d4 bc
       -0.032735113 0.14803222 0.035092894 -0.025957936
000070 eb 9c c1 bb c1 b1 9f 3d ca 3c b6 3d 9b bb 8c 3a
       -0.0059085987 0.07797576 0.08898313 0.0010737063
000080 19 a4 1c 3e 4d 6f eb 3c 3e 8f 13 3d de b1 c5 3b
       0.15296973 0.028739596 0.03602528 0.0060331663
000090 4e 65 f1 3b 84 61 fd bc 25 d0 96 3b bf 0e 18 bd
       0.007366813 -0.030930288 0.0046024495 -0.037123438
0000a0 d9 7d 49 bc d1 47 06 3e c3 28 53 bd 59 da 13 3d
       -0.012298071 0.13113333 -0.051552545 0.036096904
0000b0 96 c0 e9 bb 63 f5 f5 3d bb c5 99 3d 7c 2d 12 3e
       -0.0071335537 0.120096944 0.07508417 0.14275163
0000c0 06 08 50 3b d1 71 b4 bd 2c 86 b4 bc c3 09 83 3c
       0.0031743064 -0.08810771 -0.022036634 0.015995866
0000d0 e3 72 b9 bd 56 41 62 bd fe e8 bb 3d 6a 45 73 3c
       -0.09055116 -0.05523809 0.09175299 0.014848093
0000e0 41 8f 0a bd 77 4d af bc fb 0f 9c bc 01 e5 c6 bc
       -0.033828024 -0.021399243 -0.019050589 -0.02427912
0000f0 fd 1f 73 3d e1 fa de bc 66 5a d8 3c 93 a6 5e 3d
       0.05935668 -0.027219238 0.026410293 0.054358076
000100 db 8d 82 bd 0a ba ea 3d 64 90 69 bc 7a 3c f5 3c
       -0.06374713 0.114612654 -0.014255617 0.029936064
000110 18 4a 89 3d aa 4c a7 3b e3 82 3d 3e 2d a8 cc 3c
       0.067035854 0.0051055746 0.1850696 0.024982536
000120 cc 3e f6 3d 05 86 77 3d 83 6b 7a bd 1f 55 8b 3d
       0.12023696 0.060430545 -0.061137687 0.06803345
000130 d3 74 cb bc de a9 0b bd 17 47 c3 3d 12 7e e6 bc
       -0.02483598 -0.034097545 0.09535044 -0.028136287
000140 45 ca 35 3d ae c7 06 3e be ae 9d 3b 69 8e b0 bd
       0.044382352 0.1316211 0.0048120907 -0.086209126
000150 4d 76 72 bc 3e 1c b7 3d b9 c5 b3 bb 72 0f 84 bc
       -0.014798713 0.08940934 -0.005486217 -0.016120646
000160 32 04 4c bd d0 48 90 bd c6 b9 8a 3d 70 a8 0e bc
       -0.04980869 -0.07045138 0.06773715 -0.008707151
000170 97 3d b6 3d 96 d6 cd bd 8b 31 1a 3e 1b ff 89 3d
       0.08898466 -0.10050695 0.15057962 0.06738111
000180 34 e5 bc 3d 12 6a 16 bd 1c 48 1c be 06 cc 2d 3d
       0.092234045 -0.03672225 -0.15261883 0.0424309
000190 37 5a 2f bb 03 2c 51 bd e7 66 db bd e5 73 6c bd
       -0.0026756653 -0.051067363 -0.107129864 -0.057727713
0001a0 31 03 aa bc e2 86 20 bc 49 4c a5 3d dd b5 a8 3c
       -0.020753475 -0.009797784 0.08071191 0.020594532
0001b0 95 6c 73 bd 4e 22 15 3d 97 43 8a bd d5 f4 5f bc
       -0.059429724 0.03640967 -0.06751173 -0.013669212
0001c0 22 6f 60 3d 65 05 ba bc 76 49 0f bd 91 66 12 3b
       0.054793485 -0.02270765 -0.034982167 0.0022338966
0001d0 7b 8b bc bc 69 1b 13 3d ce 48 7b 3d 1c 10 5c bd
       -0.023015728 0.035914812 0.06134873 -0.0537263
0001e0 79 89 e8 3d 48 fe 6e bd 10 a1 17 3e a3 37 8f 3d
       0.11354346 -0.05834797 0.14807534 0.06993034
0001f0 40 56 20 3d b9 88 ed bd 04 cd 0a bd bc 32 c0 bc
       0.039144754 -0.115983434 -0.033886924 -0.023461692
000200 a5 8a 82 3d 86 c5 2f bd 7c 27 56 bc 54 6d fa 3d
       0.063741006 -0.042912982 -0.013070937 0.12227884
000210 95 d6 55 3d e4 da 9d bd 1d 6d 4a 3c 75 bf c4 3d
       0.052206594 -0.07707766 0.012355116 0.0960683
000220 77 22 12 bd cb b8 13 3b e1 ea ee bc 22 e2 b3 3d
       -0.0356774 0.0022540565 -0.029164733 0.08783366
000230 b8 26 c9 bd 40 99 81 bc f3 d6 cb 3d b4 85 68 bc
       -0.09821838 -0.015820146 0.09953108 -0.014192034
000240 4b fd 03 be e1 0b 88 bd 1f 5c 53 bd 7d 4f 45 bc
       -0.12889592 -0.06642891 -0.051601525 -0.012042877
000250 2c 6e 31 3d d4 d5 3d bd 8c f8 60 3d 36 5e ad 3d
       0.04331796 -0.0463465 0.054924533 0.08465235
000260 87 ee a9 3b 01 92 17 bb de 20 05 be 4a c0 a3 b9
       0.0051859054 -0.0023127797 -0.13000819 -0.0003123305
000270 fe e9 0f 3d 3f bc 04 3d e4 af 73 3c 5b ec b1 bc
       0.03513526 0.032406088 0.014873479 -0.021719148
000280 2d 3e d0 bd 06 42 9d 3c 76 5f e6 bd 12 f8 8b bd
       -0.10168109 0.019196521 -0.112486765 -0.06834425
000290 9a 74 90 bd 18 a9 d5 bc 1d f7 a9 3d 64 16 1b be
       -0.0705349 -0.026081607 0.08299086 -0.1514526
0002a0 ff 6a 14 bc c9 16 9d bd ee d0 79 bd d0 b1 44 3c
       -0.009058713 -0.076703615 -0.060990267 0.012005284
0002b0 dd 4d e8 3d 0b 00 96 bd 97 c3 a3 3d 3c 48 70 bd
       0.11342976 -0.07324227 0.0799629 -0.058662638
0002c0 3b cc 19 bd e9 f8 e1 3b 82 ff a9 bc f0 9b 05 3d
       -0.037548285 0.0068961275 -0.020751718 0.032619417
0002d0 69 d0 21 3d f2 f1 5b bd fb 6e a2 3d da 41 9c bd
       0.039505396 -0.053697534 0.07931324 -0.07629748
0002e0 42 a0 10 bd a6 96 6f 3d cf 13 7d bc df 3f e0 bd
       -0.035309084 0.05849328 -0.015446617 -0.109496824
0002f0 ba 53 3e 3d b1 38 a3 3d b5 68 de bc 2c 82 2a 3e
       0.046466567 0.079697974 -0.027149538 0.16651219
000300 08 14 26 bd 6f 4c de bc fe 63 37 3d 09 a0 81 bd
       -0.040546447 -0.027136056 0.044773094 -0.063293524
000310 4f 95 e1 3d 11 0e e8 3c a4 73 42 3d 25 11 98 3d
       0.110148065 0.02832702 0.047473565 0.07425145
000320 80 4a 3f 3d ab 2f 00 bc 5e b0 01 3d 0a 7a e4 3c
       0.046701908 -0.007823865 0.031662337 0.027890224
000330 0d 42 b6 b9 1a 0a 17 bc 75 b4 f3 bc f4 0a f6 bb
       -0.00034762957 -0.009218717 -0.029749135 -0.00750863
000340 3d df a0 bc f9 ba 12 3d b7 88 ab bc 3f 35 88 bc
       -0.019637698 0.035822842 -0.020939214 -0.016626952
000350 b9 e4 cb bc 25 6f 75 3d 74 ea b2 bd 1b 80 e8 bb
       -0.024889337 0.05992045 -0.08736125 -0.0070953495
000360 27 a9 13 bd 66 3c b0 bc 10 88 81 bd 7d 5f 4c bd
       -0.036049988 -0.021513175 -0.0632478 -0.049895752
000370 e6 03 ab bd 16 4d 6c bc 8d a5 cf 3a 38 a8 b1 3d
       -0.08350353 -0.014422676 0.0015842185 0.08674663
000380 67 58 6b bd 84 39 ac bc c6 04 d4 bb 09 b5 1f 3d
       -0.057457354 -0.02102352 -0.0064702956 0.038991008
000390 81 5d 95 bd 9e 03 6b bd 77 84 09 3d d4 f7 3e bc
       -0.07293225 -0.057376496 0.033573594 -0.0116557665
0003a0 b1 b6 87 3c aa dd 54 bc a8 7d cc 3c b1 74 cf bc
       0.016566606 -0.012992302 0.024962261 -0.025324197
0003b0 82 30 f9 3c ef dc 23 bd cd e4 59 bd ca 7a 4a bc
       0.030418638 -0.04000562 -0.053196717 -0.012358377
0003c0 38 23 6f 3d f3 1e 26 3e a9 47 41 bd 41 62 59 3d
       0.058383197 0.16222744 -0.04718748 0.053072218
0003d0 16 de 02 be f2 d1 5e 3d 6f 8d ba 3d c3 cd fe bc
       -0.12780032 0.05439944 0.091090076 -0.031103974
0003e0 77 43 09 bd c2 9a 3b bd 62 0b 67 3b 6d f2 53 3c
       -0.033511605 -0.045801885 0.0035254587 0.012936217
0003f0 02 0c 86 bd 23 05 86 bd 69 0c b3 3d c7 02 04 3d
       -0.06545259 -0.065439485 0.087426014 0.03222921
