config/results/Entry_reward03/PathFollowing/PathFollowing-1907281.onnx (onnx, 695646 bytes, 7 tensors)

action_model._continuous_distribution.log_sigma f4 [1, 3]
0	0x3d9fc47d	0.07801149
1	0x3a9c8d99	0.0011944055
2	0x3d80d857	0.062912636

action_model._continuous_distribution.mu.bias f4 [3]
0	0xbb611acb	-0.0034348245
1	0x3b9b04d2	0.0047307992
2	0xbb1e8993	-0.0024190887

action_model._continuous_distribution.mu.weight f4 [3, 256]
0	0xbc2caec3	-0.010539713
1	0xbb2940cc	-0.0025825975
2	0xbbc901ed	-0.006134263
3	0xbc53b137	-0.012920669
4	0xbbacbfdc	-0.005271895
5	0xbb67dc20	-0.0035379007
6	0x3b9c8b29	0.0047773314
7	0x3c2cc9f4	0.010546196
8	0x3abb4926	0.0014288768
9	0x3c4b6ed4	0.01241656
10	0xbb050c14	-0.0020301389
11	0xbc5c2146	-0.013435667
12	0x3c487d43	0.012236896
13	0x3a910de8	0.0011066766
14	0x3b112722	0.002214857
15	0x3b01ac1f	0.001978643
16	0x3bb4910d	0.0055104555
17	0xbc0ff40b	-0.008786212
18	0x3c2776d5	0.010221203
19	0x3b50aed2	0.0031842482
20	0x3ceac234	0.028657056
21	0xbc984ada	-0.01859038
22	0x3c8db916	0.01730017
23	0x3c7c53ab	0.015400807
24	0xbbb774c5	-0.005598637
25	0xbc6746e9	-0.014116027
26	0x3b349c00	0.0027558804
27	0x3c899f27	0.016799523
28	0x3ae92b13	0.0017789326
29	0xbbe76233	-0.007061267
30	0x3afdc845	0.0019362053
31	0xbc29ddcc	-0.010367822
32	0xbc5661cd	-0.013084841
33	0xbbafb0af	-0.0053616385
34	0x3a898178	0.0010490855
35	0x3a8e3177	0.0010848482
36	0x3c39123a	0.011295849
37	0xbad9748e	-0.0016590522
38	0xbc85f842	-0.01635373
39	0xbb3946d6	-0.0028270981
40	0x3bd89015	0.006608973
41	0xbb785787	-0.0037893967
42	0x3cacac7f	0.021078346
43	0xbc268149	-0.01016266
44	0x3aea8abc	0.0017894129
45	0x3c18436b	0.009293417
46	0x3b1ddb92	0.0024087173
47	0x3a1d5180	0.0006001219
48	0x3c104431	0.008805321
49	0x3ba20167	0.004944015
50	0x3a332c7d	0.00068349374
51	0x3a63856a	0.0008679243
52	0xbc1a7619	-0.009427571
53	0xbb931390	-0.004488416
54	0xbc874b97	-0.016515536
55	0x3bbaaabd	0.005696623
56	0xbaee6891	-0.0018189122
57	0x3bc092c1	0.0058768694
58	0xbc3e5194	-0.011616129
59	0xbc3e2c7a	-0.011607284
60	0xbc5ed7d5	-0.013601263
61	0xbbb5e68f	-0.0055511664
62	0x3c28c5f4	0.010301102
63	0xbc7b1a91	-0.015326158
64	0xbc43d4b7	-0.011952571
65	0x3c929719	0.017894315
66	0x3acdd757	0.0015704435
67	0x3b13f43a	0.002257599
68	0xbc5a61b6	-0.01332896
69	0xbc6178e2	-0.013761731
70	0xbc1163a0	-0.00887385
71	0x3c00f493	0.007870811
72	0xbb8cb129	-0.00429358
73	0xbb113257	-0.002215525
74	0x3917a912	0.00014463466
75	0x3af4f2cf	0.0018688085
76	0xbc1131cb	-0.008861969
77	0xbca87a57	-0.020566149
78	0xbc1ef669	-0.009702303
79	0x3ba4a354	0.005024353
80	0xbb89a72a	-0.0042008357
81	0xbbd1475d	-0.006386681
82	0xbbe205c7	-0.0068976614
83	0x3b37fc3f	0.0028073934
84	0x3b96cad7	0.004601817
85	0xbadfb5bc	-0.0017067711
86	0xbc734472	-0.014847862
87	0x3c1037f6	0.008802405
88	0x3b9b2378	0.004734453
89	0xbbc74738	-0.006081488
90	0xbb5f5ada	-0.0034081251
91	0x3bfaf3ae	0.0076584434
92	0xbadf98db	-0.0017059104
93	0xbc0c5040	-0.008564055
94	0xbc1f35ff	-0.0097174635
95	0xbb13ea0c	-0.0022569923
96	0xbc72be7b	-0.014815922
97	0xbb211cbf	-0.0024583784
98	0xbcaecb93	-0.021337306
99	0x3bd8d0d7	0.0066166925
100	0x3c733d86	0.014846211
101	0x3bbb3654	0.0057132635
102	0xbb8bb14b	-0.0042630783
103	0xbbc7bd08	-0.0060955323
104	0x3c08c60a	0.008347997
105	0x3b129310	0.0022365488
106	0xbc22d7fd	-0.009939191
107	0x3cbc4a98	0.022984788
108	0xba303da0	-0.000672305
109	0x3ce744fc	0.028231137
110	0x3bed35c9	0.0072390777
111	0xbae6356d	-0.001756353
112	0xbb2fc86d	-0.0026822344
113	0xbc439dba	-0.01193946
114	0xb8714bf6	-5.752962e-05
115	0xbab9303d	-0.0014128756
116	0xbb2f61d7	-0.0026761198
117	0xbc1f32b2	-0.009716677
118	0x3c0cce22	0.008594068
119	0x3ba9f60f	0.005186803
120	0x3c15c7c8	0.00914187
121	0xbb456247	-0.0030118392
122	0xb949b826	-0.00019237454
123	0x3ab4dea6	0.0013799265
124	0xbad2f93e	-0.0016096008
125	0x3b46e969	0.0030351526
126	0x3c284f64	0.010272834
127	0xbb89b608	-0.004202608
128	0x3c2a18aa	0.010381857
129	0xbac52137	-0.0015039806
130	0xbbd99448	-0.006639991
131	0x3b88b73b	0.0041722334
132	0x3c1d440e	0.009598745
133	0x3c6bccfc	0.014392134
134	0x3afa7d60	0.0019110851
135	0xbb11dd39	-0.0022257103
136	0xbb3199ae	-0.0027099657
137	0x3c83dfcc	0.016097926
138	0x3be91a37	0.0071137208
139	0xbb4391d7	-0.0029841566
140	0xbc8016da	-0.015635896
141	0x3c4b0dc7	0.0123934215
142	0x3c207e77	0.009795777
143	0x3baf485b	0.0053492016
144	0xbb954a16	-0.004555951
145	0xbac26cfa	-0.0014833503
146	0x3c60ee40	0.013728678
147	0x3ca8bac0	0.020596862
148	0x3bfa9d73	0.007648164
149	0xbc3972f3	-0.01131891
150	0x39bc768b	0.00035946476
151	0xbb8ca7be	-0.0042924574
152	0xbb96f697	-0.0046070325
153	0xba403896	-0.0007332651
154	0xbc1d936b	-0.009617667
155	0x3c856098	0.016281411
156	0xbc6d2247	-0.014473504
157	0x3bf5fca5	0.007506924
158	0x3ae152a2	0.0017190764
159	0x3b9b6545	0.004742297
160	0x3b7bdd61	0.0038431513
161	0x3ade6af3	0.0016969129
162	0xbc2682a5	-0.010162984
163	0xb9ba19cf	-0.00035495913
164	0x3abf3ea9	0.0014590818
165	0x3bf71778	0.0075406395
166	0xbbe67e0d	-0.0070340694
167	0x3be42f01	0.006963611
168	0x3c608fba	0.013706142
169	0x3bb1fee4	0.0054319967
170	0x3ab88a94	0.0014079385
171	0x3be8dd7f	0.0071064825
172	0xbac3a166	-0.001492542
173	0xbd144155	-0.036195118
174	0x3ca5c24f	0.020234255
175	0xbcbce534	-0.023058511
176	0xba6f8437	-0.0009136828
177	0xb8eceaa7	-0.00011297064
178	0x3a8e5bff	0.0010861157
179	0x3c270366	0.010193681
180	0x3c0cdfbc	0.008598264
181	0x3c9dbe52	0.01925579
182	0xbc6b42f7	-0.014359227
183	0x3a32c6ed	0.00068198034
184	0xbb910279	-0.0044253436
185	0x3ba1796a	0.0049278038
186	0xbb991ecc	-0.0046728607
187	0xb9e1d763	-0.0004307582
188	0x3c6b1a6f	0.014349564
189	0x3c49bac6	0.012312597
190	0x3c64f630	0.013974711
191	0xbbc47826	-0.005995768
192	0x3c0a173a	0.008428389
193	0x3c42bf10	0.011886373
194	0x3b25e704	0.0025314698
195	0x3a7af7c9	0.0009573666
196	0x3b552f6a	0.0032529482
197	0x3c155d1e	0.009116439
198	0x3c065c4a	0.008200714
199	0x3c0364f4	0.008019675
200	0x3a828a75	0.0009959476
201	0x3b60a153	0.0034275844
202	0x3b588bca	0.0033042305
203	0x3bb9ffb3	0.0056762337
204	0x3c123fad	0.008926314
205	0x3bd8e808	0.006619457
206	0xbc159a9a	-0.009131098
207	0x3b9534b6	0.004553403
208	0xbb4d7818	-0.00313521
209	0xbb694e84	-0.0035599777
210	0x3b905db7	0.004405703
211	0xbccf8e24	-0.025336333
212	0x3bbd003b	0.0057678497
213	0xbc6fcf73	-0.014636862
214	0xbc01d05e	-0.007923214
215	0x3abe8ea5	0.0014538361
216	0xbc586174	-0.013206828
217	0xbc3e3d36	-0.0116112735
218	0x3bdd08b3	0.006745422
219	0x3b3785e8	0.0028003398
220	0x3b949220	0.004534021
221	0xbb0eff9d	-0.0021819838
222	0xbd024fec	-0.0318145
223	0xbb0d326f	-0.0021544953
224	0x3bdbf49a	0.0067125084
225	0xbc9f048e	-0.019411352
226	0xbb213a52	-0.0024601412
227	0xbc2e67cf	-0.010644867
228	0x3ba8440b	0.0051350645
229	0xbc182b40	-0.009287655
230	0xbc56c8d9	-0.013109409
231	0x3c4b0a4a	0.01239259
232	0x3b9bc84f	0.0047541033
233	0xbc3d5354	-0.0115555115
234	0x3c176afa	0.009241814
235	0x3c8f78a0	0.017513573
236	0xbbce4fe8	-0.0062961467
237	0x3b86c630	0.0041129813
238	0x3c48af59	0.012248837
239	0x3a9ce868	0.0011971118
240	0x3bcd0e4e	0.006257809
241	0x3c633099	0.013866567
242	0xbb978a01	-0.0046246056
243	0xbbac8ce3	-0.0052658184
244	0xbc109094	-0.008823533
245	0x3c11deed	0.008903247
246	0x3bf5c1f6	0.0074999286
247	0xbcbdf89a	-0.023189832
248	0xbb9ab960	-0.0047218055
249	0xbc02e0fc	-0.007988211
250	0x3bb80c86	0.0056167273
251	0xbb9d5c15	-0.004802237
252	0xbcb14fc7	-0.021644486
253	0x3adf860c	0.0017053499
254	0x3c71ffa6	0.014770424
255	0xb846f1ce	-4.7432077e-05

network_body.linear_encoder.seq_layers.0.bias f4 [256]
0	0xbb8ba7b1	-0.0042619337
1	0xbc39b230	-0.011333987
2	0x3ab98d08	0.001415641
3	0xbaaa0bdb	-0.0012973504
4	0xbb0efe06	-0.002181889
5	0xbb56b029	-0.0032758808
6	0xbc781751	-0.015142278
7	0xbb2c7ed3	-0.002632071
8	0xbb0f4f30	-0.0021867268
9	0xbb115436	-0.0022175438
10	0xbc22388f	-0.00990118
11	0x3ad20535	0.001602328
12	0xbae8dcdb	-0.0017766015
13	0xbc281048	-0.010257788
14	0xbb3dc48e	-0.0028956267
15	0xba2fb139	-0.00067021284
16	0xbc80d208	-0.01572515
17	0x3b070e7d	0.0020608
18	0xbb7f6f5c	-0.0038976287
19	0xbae2042c	-0.0017243675
20	0x3b625a40	0.0034538656
21	0xbc1a1130	-0.009403512
22	0xbaac4d7e	-0.0013145653
23	0xbb42cc6e	-0.00297239
24	0xbbf01e4c	-0.0073278304
25	0xbbffb98f	-0.0078041027
26	0xbad430f2	-0.0016188903
27	0xbb39b909	-0.002833905
28	0xbbd9a8cc	-0.0066424366
29	0x3bafdb9d	0.005366756
30	0xbb8bcfb9	-0.004266706
31	0xbc0afc1f	-0.008482962
32	0xbb9b6e8a	-0.004743402
33	0xba45a10a	-0.00075389503
34	0xbbee37b7	-0.0072698253
35	0x392929f1	0.0001613272
36	0xbc311c20	-0.010809928
37	0xbc000ab5	-0.007815053
38	0xbb6c040b	-0.0036013152
39	0xbc064e8b	-0.008197437
40	0xbc249d5d	-0.010047284
41	0x3b6685c8	0.0035174955
42	0xbc49b104	-0.01231027
43	0xbb64bf24	-0.0034903968
44	0xbbd984a9	-0.006638129
45	0xbc1b1dbe	-0.00946754
46	0xbb63d483	-0.0034764118
47	0xbb4318dd	-0.0029769458
48	0xbc243672	-0.010022746
49	0x3ac27043	0.0014834482
50	0xba4b7feb	-0.0007762897
51	0xbb1ce0c3	-0.002393768
52	0x3adedbb6	0.0017002735
53	0xbba5d95c	-0.0050613116
54	0xbc236bfd	-0.009974477
55	0xbbadd231	-0.005304598
56	0xbc43e38c	-0.011956107
57	0xbb12f0bf	-0.0022421328
58	0x3aab9588	0.0013090828
59	0xbbc07883	-0.005873741
60	0xb992984d	-0.00027960763
61	0xbc3b20f6	-0.011421433
62	0xbbcc7cbf	-0.006240457
63	0xbb80062a	-0.003906985
64	0xbc286019	-0.010276818
65	0xb9867bf0	-0.00025650812
66	0xba7fc329	-0.0009756559
67	0xbacc7a68	-0.0015600445
68	0xb95202b8	-0.00020028173
69	0x3b1f6358	0.0024320688
70	0x3b88b74d	0.004172242
71	0xbb79ed20	-0.0038135722
72	0x39daa043	0.00041699604
73	0xbb7c422f	-0.0038491597
74	0xbc43d06c	-0.011951547
75	0xb95633ab	-0.00020427878
76	0x3af412c7	0.0018621319
77	0xbba9af96	-0.005178402
78	0x3b14f6fe	0.0022730227
79	0x3a76d158	0.000941535
80	0xbbdead32	-0.006795549
81	0xbadcb1ec	-0.0016837693
82	0xbc1a7009	-0.009426125
83	0xbb7ae319	-0.0038282333
84	0xba224abc	-0.0006190946
85	0xbabc02d2	-0.0014344102
86	0xbc98974b	-0.01862683
87	0xbb12ad96	-0.0022381297
88	0xba9a0a0b	-0.0011752261
89	0xbb564fa3	-0.0032701276
90	0xbb7cd936	-0.0038581616
91	0xbb5c55f1	-0.003362056
92	0x3b31de9b	0.002714074
93	0xbbf75614	-0.007548103
94	0xbc4262e4	-0.011864398
95	0xbb1959ff	-0.002339959
96	0xbbc6358c	-0.0060488638
97	0x3b8324cd	0.0040021897
98	0x3ab75dcc	0.0013989746
99	0xbad160b2	-0.0015974252
100	0xbbd7db16	-0.0065873964
101	0x3ad21f08	0.0016030977
102	0xbbb6e2a3	-0.0055812164
103	0xbb1bd987	-0.002378078
104	0xb9c85141	-0.00038207512
105	0xbbaec21c	-0.0053331982
106	0x39832d8a	0.00025020196
107	0x3aa457ff	0.0012538432
108	0xbaed3fc8	-0.0018100673
109	0xbba525a0	-0.0050398856
110	0xbbe845f6	-0.007088418
111	0xbc212ba8	-0.009837069
112	0xbc1da7b8	-0.009622507
113	0x39fc3cac	0.0004811039
114	0xbc4b47bb	-0.012407239
115	0xbb9f0f99	-0.0048541543
116	0xba9a46e8	-0.0011770399
117	0x3aa6d1dd	0.0012727339
118	0xbbee034b	-0.007263576
119	0xb9f2df58	-0.0004632424
120	0xbbb9e460	-0.0056729764
121	0xbac1cb78	-0.001478537
122	0xba13a0d7	-0.0005631572
123	0xbb5a6e7d	-0.0033330016
124	0xbc2f375d	-0.010694352
125	0xbb1ff8f2	-0.0024409858
126	0xbb8782b9	-0.0041354564
127	0xbb90dd2a	-0.004420896
128	0xbb9e9fd5	-0.004840831
129	0x389cbf82	7.474331e-05
130	0x3a82c3ac	0.0009976528
131	0xbb975d68	-0.004619289
132	0x3b3ea9d9	0.0029092936
133	0xbaadaff7	-0.0013251294
134	0xbc075122	-0.00825909
135	0xbb7ed266	-0.0038882731
136	0xbbcfca8b	-0.0063412837
137	0xbb31b6d2	-0.0027117026
138	0xbc1d1c35	-0.009589245
139	0xbc09b314	-0.008404512
140	0x3b425da3	0.0029657863
141	0xbc0959fb	-0.008383269
142	0xb99735e4	-0.00028841116
143	0xbb2f6853	-0.0026765063
144	0xbb38dd4e	-0.002820808
145	0x391bf06a	0.00014871513
146	0x3a8c56d1	0.0010707026
147	0x3a85e1b4	0.001021436
148	0xbc63d379	-0.0139053995
149	0xbb412460	-0.0029471144
150	0xba04e0da	-0.0005068906
151	0xb9ddb4b2	-0.00042287033
152	0x3b11df6c	0.0022258414
153	0xbb97ef42	-0.004636676
154	0x3b687f9d	0.0035476454
155	0xbc2b002a	-0.010437051
156	0x38f9740c	0.00011894861
157	0x3add0cf2	0.001686482
158	0x3b0dc654	0.0021633105
159	0xbbc51060	-0.006013915
160	0xbc057942	-0.008146586
161	0x39842de9	0.00025211208
162	0xbc6a01e3	-0.014282676
163	0xbc2f75e7	-0.010709262
164	0xbb1ac3f3	-0.002361533
165	0xbbcfb4b9	-0.0063386825
166	0xb9ad5209	-0.00033058252
167	0x3994cf9e	0.00028383447
168	0x38ae5774	8.313256e-05
169	0xb9ad5b6f	-0.00033065255
170	0xba95801f	-0.0011405981
171	0xbba963f9	-0.0051693884
172	0xba0c0e48	-0.0005342704
173	0xbb95b35b	-0.0045685
174	0xbc587986	-0.013212567
175	0x3acedc82	0.0015782269
176	0xbb6c3fc6	-0.0036048754
177	0xbba2e244	-0.0049708206
178	0xbbc5c951	-0.0060359617
179	0xba39f4db	-0.0007093676
180	0xbc14520e	-0.0090527665
181	0xbba16d86	-0.0049263863
182	0xbb9325b5	-0.004490579
183	0xbc10b796	-0.008832833
184	0xbadc938e	-0.0016828643
185	0xbb9d6a55	-0.0048039355
186	0xbc25392d	-0.010084433
187	0xba459e08	-0.0007538502
188	0xbb58c3f4	-0.0033075782
189	0xbbf5656b	-0.0074888966
190	0xbbaa6360	-0.0051998347
191	0xbad678e2	-0.001636293
192	0x3bab5cca	0.005229567
193	0x3a64ea01	0.0008732379
194	0xbae79234	-0.0017667473
195	0xbc68213e	-0.014168082
196	0xbbf9fd09	-0.007629041
197	0xbbddb004	-0.0067653675
198	0xba322274	-0.0006795295
199	0xbb63c7fd	-0.0034756653
200	0x3b8da2c9	0.004322384
201	0xbbb335c3	-0.0054690554
202	0xbb791035	-0.0038004045
203	0xbb37f5d8	-0.0028070118
204	0xbc620017	-0.013793967
205	0xb730b381	-1.05322115e-05
206	0x3a8658b1	0.0010249821
207	0xbace0416	-0.001571777
208	0xbbcf8417	-0.006332885
209	0xbbef6317	-0.0073055136
210	0x3a849562	0.001011532
211	0xbb8d14d5	-0.004305462
212	0xbaa50a8c	-0.0012591644
213	0xbb9aa5da	-0.004719478
214	0x3906d792	0.00012859542
215	0xbb9e068a	-0.004822557
216	0x3a1f8f8a	0.00060867576
217	0xbc965fe7	-0.018356277
218	0xbae58c9a	-0.0017513216
219	0xbc8373d1	-0.016046437
220	0xbb18a4b9	-0.0023291542
221	0xbba9f721	-0.0051869308
222	0xb9c92787	-0.00038367158
223	0xbb9ee027	-0.0048484984
224	0xbb879685	-0.0041378164
225	0xbba83070	-0.0051327273
226	0xbbb5d557	-0.0055491137
227	0xb9ca94a1	-0.0003863918
228	0xbb5d1555	-0.0033734639
229	0xbbd3a141	-0.006458432
230	0xbbba162f	-0.005678914
231	0xbbcbf295	-0.0062239864
232	0xbc40c68a	-0.011766085
233	0x3a00bd4a	0.0004911019
234	0x3a6a7d7d	0.0008945091
235	0x3aba5799	0.001421678
236	0xbc11fe21	-0.008910687
237	0xbc6e950a	-0.014561901
238	0xba4cf1f6	-0.00078180374
239	0xbb65b8eb	-0.0035052847
240	0xbb6d4b40	-0.0036208183
241	0xba0a21b7	-0.0005269306
242	0xbaa27cf8	-0.0012396863
243	0xbbfb55f8	-0.0076701604
244	0xbb451832	-0.0030074236
245	0xbb87433c	-0.004127888
246	0xbb6927a3	-0.0035576604
247	0xbb3e08bd	-0.0028996908
248	0xbbb02a16	-0.005376111
249	0xbac070fe	-0.0014682112
250	0x3af58974	0.0018732981
251	0xbc06bae0	-0.008223265
252	0x3aca9ba3	0.001545776
253	0xbbb22e43	-0.0054376437
254	0xbaf47e5c	-0.0018653381
255	0x3b42623f	0.002966061

network_body.linear_encoder.seq_layers.0.weight f4 [256, 416]
0	0x3c7821db	0.0151447905
1	0xbb01bf1c	-0.0019797748
2	0xbd1e9418	-0.038715452
3	0x3c44e776	0.012018075
4	0x3d0350f6	0.032059632
5	0x3dbe1e59	0.09283132
6	0x3d882adf	0.06648802
7	0x3c8f6fa5	0.017509291
8	0x3c113e40	0.008864939
9	0xbd732732	-0.05936355
10	0x3cc3f6dd	0.023921425
11	0x3d73fcc6	0.059567235
12	0x3d0b94e4	0.03407754
13	0xbd8eed54	-0.069788605
14	0xbd1ebbe2	-0.038753398
15	0xbd30c8cb	-0.04316024
16	0x3d813cd9	0.06310434
17	0x3be2add1	0.006917693
18	0xbca5f930	-0.020260423
19	0xbc6d3d2f	-0.014479919
20	0x3b0b0ddc	0.0021217978
21	0x3d4db73a	0.050223567
22	0x3d9fb3b9	0.07797951
23	0x3d1e760c	0.038686797
24	0xbc9ff712	-0.019526992
25	0x3c8040fe	0.01565599
26	0xbc27c4d5	-0.0102397995
27	0x3d994c43	0.07485249
28	0xbd4a3179	-0.049363587
29	0xbda1af1e	-0.07894729
30	0x3cdb541a	0.026773501
31	0xbdc64e33	-0.09682884
32	0x3b81f510	0.0039659813
33	0x3cfa5af1	0.030560942
34	0xbc0674d3	-0.008206564
35	0xbcb02dbd	-0.021506185
36	0xbd42d112	-0.047562666
37	0xbcb7df80	-0.02244544
38	0x3c98f499	0.01867132
39	0xbb80949b	-0.003923965
40	0xbccd6aa3	-0.025075262
41	0xbd9994c6	-0.074990794
42	0xbd518140	-0.051148653
43	0x3d21cb8c	0.039500758
44	0x3e15f4a7	0.14644109
45	0xbcf53d9d	-0.029936606
46	0xbbb41319	-0.0054954407
47	0x3b0d7e2b	0.0021590095
48	0xbdbe1932	-0.092821494
49	0xbd8abdd2	-0.067744866
50	0xbd74569a	-0.059652902
51	0x3d138cf7	0.036023106
52	0xbd08a468	-0.033359915
53	0xbd32c883	-0.043648254
54	0x3dd56bf6	0.104209825
55	0xbd98330c	-0.074316114
56	0xbd19ce7b	-0.03755043
57	0x3d404083	0.046936523
58	0x3d0b4972	0.03400559
59	0xbc87c224	-0.016572066
60	0x3d886983	0.0666075
61	0xbdae7c80	-0.0851984
62	0x3cacfb45	0.021115908
63	0xbd693a8a	-0.056940593
64	0x3bebe991	0.007199474
65	0x3da5c523	0.080942415
66	0xbda23115	-0.07919518
67	0x3c181e81	0.009284616
68	0xbd9e77fd	-0.0773773
69	0xbcca0850	-0.024662167
70	0x3bac2080	0.0052528977
71	0xbd9fa446	-0.077950045
72	0x3d118c3e	0.035534136
73	0x3daae3f4	0.0834426
74	0xbdb410a1	-0.08792234
75	0x3d9f6f8e	0.07784949
76	0xbcbb3f55	-0.022857348
77	0xbb84e65f	-0.0040557827
78	0x3d00439d	0.03131448
79	0xbb691e1b	-0.0035570923
80	0x3da504fb	0.080575906
81	0x3d2807a3	0.041022908
82	0xbdd15e5e	-0.10223077
83	0xbd9567f7	-0.0729522
84	0xbd4911f8	-0.049089402
85	0xbcbc5e45	-0.02299417
86	0x3d1f62da	0.03891263
87	0xbcd2c788	-0.02572991
88	0x3d0a47b5	0.03375979
89	0xbce4081f	-0.027835904
90	0xbd22bd75	-0.03973146
91	0xbd3d0ab4	-0.046152785
92	0xbd2b3e49	-0.041807447
93	0xbc2f1bda	-0.010687793
94	0xbd305216	-0.043047033
95	0x3ce67a7e	0.02813458
96	0xbd0456fd	-0.03230952
97	0xbd2be67f	-0.041967865
98	0x3ce0e1c6	0.027451407
99	0xbc809b16	-0.01569895
100	0xbd8ecef6	-0.069730684
101	0x3cb20a1f	0.021733342
102	0xbc80e078	-0.015732035
103	0x3cbfce19	0.023413705
104	0xbcf59ab3	-0.029980993
105	0x3d0c31af	0.03422707
106	0x3d1e1672	0.038595624
107	0x3d4315ed	0.047628332
108	0x3d8a1889	0.06742961
109	0xbda41a2b	-0.08012804
110	0x3ca9b515	0.02071623
111	0x3c70b9e9	0.014692762
112	0x3d83352b	0.06406625
113	0x3d32e255	0.04367288
114	0xbd3b2a60	-0.04569471
115	0x3c3f102c	0.0116615705
116	0xbc6303e3	-0.013855907
117	0xbb492b4c	-0.0030695973
118	0xbce02a46	-0.027363908
119	0xbd7cfc97	-0.061764326
120	0xbddaa2b6	-0.10675566
121	0xbd37242e	-0.044712238
122	0x3ccafb93	0.024778163
123	0x3d6381d1	0.055543724
124	0xbbddd64c	-0.006769931
125	0xbd2abc90	-0.041683733
126	0x3d493c35	0.049129684
127	0xbbddea45	-0.006772312
128	0xbaed07e0	-0.0018084012
129	0xbcb22a19	-0.02174859
130	0xb9bf8c98	-0.0003653511
131	0xbced0547	-0.02893318
132	0xbd824503	-0.06360819
133	0xbc99cb39	-0.018773662
134	0xbcef2ae8	-0.029195264
135	0xbcb2fd30	-0.021849245
136	0x3d61e294	0.055147722
137	0xbda46d17	-0.0802862
138	0xbd92cf7d	-0.071684815
139	0xbd0ebd4b	-0.034848493
140	0xb9d5bc50	-0.0004076683
141	0xbc8249c8	-0.015904322
142	0xbc015c1f	-0.007895499
143	0xbdab36c7	-0.08360057
144	0xbb8fc0d9	-0.004387003
145	0xbd223a60	-0.039606452
146	0x3cf160a4	0.029465027
147	0x3b43ec1a	0.0029895366
148	0x3c99b252	0.018761788
149	0xbce4f296	-0.027947705
150	0x3d82b6e6	0.06382541
151	0xbc4f1424	-0.012639079
152	0x3a00150d	0.00048859493
153	0xbd878b2b	-0.06618341
154	0x3c1f4e26	0.009723222
155	0x3d5ba794	0.05362661
156	0x3cc869a9	0.024464445
157	0xbc5d6892	-0.013513701
158	0xbd802428	-0.06256896
159	0xbd3bcc7e	-0.045849316
160	0xbb8334b5	-0.004004086
161	0xbc868f6f	-0.016425816
162	0xbdf504e5	-0.11963824
163	0x3d206a76	0.03916403
164	0x3c89c8a5	0.016819308
165	0x3a9d8b65	0.0012019692
166	0x3dada4e3	0.08478715
167	0x3d022167	0.031770136
168	0xbdab0eb2	-0.08352412
169	0x3db89b2b	0.09013971
170	0x3c659f73	0.014015066
171	0xbc0391a8	-0.008030333
172	0xbbc751e1	-0.006082759
173	0x3ddb02d9	0.106939025
174	0xbd757545	-0.05992629
175	0xbd132277	-0.03592154
176	0x3c81d14c	0.01584687
177	0x3d63ec35	0.055645186
178	0x3cefab5a	0.029256511
179	0x3c5bdb3d	0.01341897
180	0xbd71ea18	-0.05906114
181	0xbc374512	-0.011185901
182	0x3d2e087a	0.042488553
183	0xbc8d7d23	-0.017271584
184	0xbd9087d2	-0.07057156
185	0xbd250865	-0.04029121
186	0x3c298dfc	0.010348793
187	0xbd3f635d	-0.04672562
188	0xbd5346ea	-0.0515813
189	0x3d0bd211	0.03413588
190	0x3d05278c	0.032508418
191	0xbbaf2878	-0.0053454004
192	0xbda13db4	-0.07873097
193	0x3cbc3e9c	0.022979073
194	0x3c65ead1	0.014033035
195	0xbe01ca0a	-0.12674728
196	0xbbe104a4	-0.0068670083
197	0x3ce01d37	0.02735768
198	0xbdfc8fce	-0.12332116
199	0xbb94abb3	-0.0045370697
200	0x3c0c7625	0.00857309
201	0x3c14da43	0.009085241
202	0x3cdb09ec	0.02673813
203	0xbd5f66da	-0.054541446
204	0x3d031dbf	0.03201079
205	0x3cfdaef7	0.030967219
206	0xbd8c8003	-0.06860354
207	0x3da3b7a3	0.0799401
208	0x3d5f5bf7	0.054531064
209	0x3d278a14	0.040903166
210	0x3c8f3880	0.017482996
211	0xbdc3ec61	-0.0956657
212	0x3d84272f	0.06452786
213	0xbb7afaa2	-0.0038296361
214	0xbd6c9d89	-0.057767425
215	0xbce59143	-0.028023368
216	0x3d318480	0.043339252
217	0xbcb5153d	-0.022104854
218	0x3cacba69	0.021084981
219	0xbda28a3b	-0.079365216
220	0x3d2c9ab2	0.042139716
221	0x3d34a768	0.044104964
222	0x3d528aea	0.05140201
223	0x3abecc57	0.0014556748
224	0xbc84c9b7	-0.016209466
225	0xbbb2947e	-0.0054498306
226	0xbc10bf5f	-0.008834689
227	0xbcd52a4e	-0.026021149
228	0x3ce9e104	0.028549679
229	0x3cfe29fc	0.03102588
230	0xbd730059	-0.059326503
231	0x3ceb9d71	0.028761597
232	0x3c9312af	0.017953245
233	0x3d6aacc4	0.05729367
234	0xbc92f0d2	-0.017937098
235	0xbd0f26bf	-0.03494906
236	0xbcab32f1	-0.020898314
237	0x3ce06206	0.027390491
238	0xbba4b0d8	-0.005025964
239	0x3b07104e	0.0020609084
240	0xbcb14db0	-0.02164349
241	0xbda33319	-0.079687305
242	0x3c6762b1	0.014122651
243	0xbcc5624f	-0.024094729
244	0xbd023910	-0.0317927
245	0x3cf74cea	0.030188043
246	0x3ca013f2	0.01954076
247	0xbd57802b	-0.052612465
248	0xbd6b8265	-0.0574974
249	0x3c013d63	0.007888171
250	0xbc99efb8	-0.018791065
251	0xbcef99eb	-0.029248198
252	0xbd21b4db	-0.039479118
253	0xbd68f0b2	-0.05687017
254	0xbd06dafe	-0.03292369
255	0xba3123c1	-0.0006757342

network_body.linear_encoder.seq_layers.2.bias f4 [256]
0	0x3b65943f	0.0035030989
1	0xbbe2efa5	-0.0069255405
2	0xba6397c6	-0.0008681979
3	0x3b5ff8ce	0.0034175399
4	0xbab0b732	-0.0013482331
5	0xbbe2ea76	-0.0069249226
6	0xbb1a7101	-0.002356589
7	0xbc3b4543	-0.0114300875
8	0xbb824b29	-0.003976245
9	0x3b68af20	0.0035504773
10	0x3b18cb53	0.002331455
11	0x39529740	0.00020083506
12	0xbb9ee61a	-0.0048492076
13	0xbb7ed919	-0.0038886725
14	0xbbb17c0d	-0.0054163993
15	0xbb88e504	-0.0041776914
16	0xbc573096	-0.013134142
17	0xbaa98b54	-0.00129352
18	0x3b3c1ed3	0.0028704896
19	0xbb6e1d90	-0.0036333539
20	0xbbdaf976	-0.00668257
21	0xbbc080ff	-0.0058747525
22	0xbaf2a19a	-0.0018511296
23	0xbc85948f	-0.01630619
24	0xbc711d5a	-0.014716471
25	0xbb99ee3b	-0.0046975887
26	0xbbb11c9b	-0.0054050214
27	0xbba62e37	-0.005071427
28	0xbc6d1edf	-0.014472692
29	0xba908432	-0.0011025725
30	0x3a87133d	0.0010305416
31	0x3bba154d	0.005678809
32	0xbb437b2b	-0.0029828053
33	0xbaef074a	-0.0018236425
34	0x3c087a80	0.0083299875
35	0xbc0d4769	-0.008622983
36	0x3b41adb6	0.0029553003
37	0xbbfdcf30	-0.007745646
38	0xbad88d0c	-0.0016521527
39	0xba4c8954	-0.0007802446
40	0xbbd19073	-0.0063953935
41	0xbc204496	-0.009781977
42	0xbc877d41	-0.016539218
43	0x3bc3f5b2	0.005980217
44	0xbbc0698b	-0.0058719567
45	0xbb7464fa	-0.0037291632
46	0x3b4978d3	0.0030742183
47	0xbb546cc2	-0.0032413458
48	0xbc338f3a	-0.010959441
49	0x397bd89d	0.0002401792
50	0xbc0815c6	-0.008305972
51	0xbaa8f750	-0.0012891088
52	0xbbc34431	-0.005959057
53	0xbb91188f	-0.0044279764
54	0x3beedce5	0.0072895163
55	0xbc9225e1	-0.017840328
56	0x3a591144	0.0008280466
57	0xbc4087e4	-0.011751149
58	0x3b93a49e	0.004505708
59	0xbbd8e8b0	-0.0066195354
60	0x3b49c7ee	0.0030789333
61	0xbb02849a	-0.0019915462
62	0xbc32e5ca	-0.010919044
63	0x3a01b4d8	0.00049479073
64	0x3b0070a5	0.0019598391
65	0xbc32ddf0	-0.010917172
66	0xbb33dfa5	-0.0027446535
67	0xbbda9a79	-0.0066712466
68	0x3b383371	0.0028106833
69	0xbc5f7810	-0.013639465
70	0x3b90686b	0.004406979
71	0xbc3d4f27	-0.011554516
72	0xbbf0e645	-0.007351669
73	0xbb1521f5	-0.0022755836
74	0xba1b60ac	-0.0005927186
75	0xbc0d63e8	-0.008629777
76	0x3a1daa89	0.00060144864
77	0x3b91f9dd	0.004454835
78	0x3b6eba0e	0.0036426815
79	0xbbcb7950	-0.00620953
80	0xbbe5e7eb	-0.007016172
81	0xba1135d2	-0.0005539331
82	0xbc6a3591	-0.014294998
83	0xbb9a43fb	-0.004707811
84	0xbbac6a2d	-0.0052616806
85	0xbb976e80	-0.004621327
86	0xbc027b0c	-0.007963907
87	0xbbd57965	-0.0065147155
88	0xbc3b862d	-0.011445564
89	0xbab28b28	-0.0013621794
90	0xba5e2c0d	-0.0008475192
91	0xbbe2b694	-0.0069187377
92	0xbb69c803	-0.0035672195
93	0xbbe78548	-0.007065449
94	0xbba8755a	-0.0051409425
95	0xbc21ef63	-0.009883734
96	0x3bf72659	0.007542413
97	0x37b551d4	2.1614986e-05
98	0xbade366a	-0.0016953473
99	0xbad75bfa	-0.0016430609
100	0xbb6ef834	-0.0036463859
101	0xbc84e5c3	-0.01622284
102	0x3a1a7f07	0.00058935623
103	0xb9aac4f2	-0.00032571662
104	0x3ae6af89	0.0017599921
105	0xbc071223	-0.00824407
106	0xbb9f02a6	-0.0048526106
107	0xbb88dc1b	-0.0041766292
108	0xbb97f375	-0.0046371766
109	0xbba22552	-0.0049482966
110	0xbbd7c374	-0.006584579
111	0xbbf9e8db	-0.0076266355
112	0xbb8f17fb	-0.0043668724
113	0xbac4547a	-0.0014978789
114	0xbc3d0c41	-0.011538566
115	0x3c1a6c29	0.009425201
116	0xbba91050	-0.0051594153
117	0x3bb56cc9	0.00553665
118	0xbc9177cf	-0.017757325
119	0xbb55a6ee	-0.0032600719
120	0xbc29f83b	-0.010374124
121	0xbb39f95b	-0.0028377387
122	0xbb201f7b	-0.0024432826
123	0xbbfccde9	-0.007714976
124	0xbb4e7c0d	-0.0031507045
125	0xbbc3d367	-0.005976129
126	0xbbd3589a	-0.006449771
127	0xbb882853	-0.0041551976
128	0xbc4d7931	-0.012541101
129	0xbb135df1	-0.0022486413
130	0xbbf89d20	-0.00758709
131	0xba44d439	-0.000750843
132	0xbbe44ffd	-0.006967543
133	0xbb3da12a	-0.0028935173
134	0xb9b38024	-0.00034237013
135	0xbc532cfd	-0.012889144
136	0x3bc37a30	0.0059654936
137	0xbc063b30	-0.008192822
138	0xbb45d691	-0.0030187706
139	0x3bf8eeab	0.007596811
140	0xba393686	-0.00070653146
141	0x3a56e828	0.0008198046
142	0xbc21a6e3	-0.009866449
143	0x3b1a124e	0.0023509446
144	0x3b35c8c2	0.002773807
145	0x3afc1cc7	0.001923465
146	0x39cc1972	0.0003892887
147	0xbbd3786c	-0.0064535644
148	0xbb280345	-0.0025636714
149	0xbadc06e8	-0.0016786726
150	0xbb9c4412	-0.004768857
151	0xbbc2dc3b	-0.0059466637
152	0x3aac5b5b	0.0013149785
153	0x3ad6f939	0.0016401178
154	0xbbd0ec69	-0.0063758385
155	0xbbeff4ce	-0.007322884
156	0xbb573564	-0.003283822
157	0xbbe348ce	-0.006936169
158	0x3b1bc7e6	0.0023770272
159	0x3bd6c480	0.0065541863
160	0xbc069177	-0.008213392
161	0xbc65e995	-0.014032741
162	0x3b79b0f1	0.003809985
163	0x3b99cbbf	0.004693478
164	0xbbfac33b	-0.007652668
165	0x3bff7ef4	0.0077971164
166	0xbba35bdc	-0.0049853157
167	0xbc0bf431	-0.0085421065
168	0xbb9255b7	-0.0044657844
169	0x3a68b352	0.00088768185
170	0xb9ff6fd9	-0.00048720723
171	0xbb2e093e	-0.0026555802
172	0xbb6cfb6b	-0.00361606
173	0x3bde51e7	0.006784666
174	0xbb5ec3a0	-0.0033991113
175	0xbbe0596f	-0.006846599
176	0x3a5f102b	0.0008509184
177	0xbb3f4306	-0.0029184236
178	0xbba5f396	-0.005064438
179	0xbc0bfbe5	-0.008543943
180	0xbbafbf21	-0.0053633605
181	0x3a7dabf9	0.000967681
182	0xbb2138d6	-0.0024600527
183	0xbaa98b3b	-0.0012935171
184	0xbbf93172	-0.0076047713
185	0xbc0837bd	-0.00831407
186	0xb7d7857f	-2.5692161e-05
187	0xbc1b0ec6	-0.0094639715
188	0xbc3e5b8e	-0.011618508
189	0xbb4a038d	-0.003082487
190	0xbc087f2d	-0.008331102
191	0xbb6a425b	-0.0035745117
192	0xbc0db4bf	-0.00864905
193	0xbbc60c07	-0.0060439142
194	0xb9895299	-0.00026192216
195	0xba928996	-0.001117992
196	0xbbc31572	-0.005953484
197	0xbc8f08af	-0.017460195
198	0xbbe0fbd1	-0.0068659564
199	0xbb9e5082	-0.0048313746
200	0x3b49c244	0.0030785957
201	0x3b503c10	0.0031774081
202	0xbba20710	-0.0049446896
203	0x3c006435	0.007836391
204	0xbb953fdc	-0.004554732
205	0x3a48fe80	0.0007667318
206	0xbc1ebdd8	-0.009688817
207	0x3b38b6ec	0.0028185202
208	0xba85c98b	-0.0010207159
209	0xbbe06700	-0.006848216
210	0xbb83fdf5	-0.004028077
211	0x3b5d192e	0.0033736932
212	0xbbcb0e6e	-0.0061967885
213	0x3a832920	0.0010006763
214	0xbb282e74	-0.0025662454
215	0xb97ae9b9	-0.00023928926
216	0xb7818a8e	-1.5442518e-05
217	0xbb198ba1	-0.0023429173
218	0xb9cd37db	-0.00039142263
219	0xbad771d3	-0.001643712
220	0x3b506568	0.0031798724
221	0xbc259675	-0.0101066725
222	0x3ba3f417	0.005003463
223	0xbbfd727e	-0.007734596
224	0xbbeb36f9	-0.007178184
225	0xbb88c6ff	-0.004174113
226	0xbba07f3f	-0.0048979814
227	0xbb4a87c9	-0.0030903688
228	0xbc10919e	-0.00882378
229	0x3b7ae549	0.0038283637
230	0xbb374634	-0.0027965428
231	0xbc4652d2	-0.012104707
232	0xbb2d4be0	-0.002644293
233	0xbb8851e9	-0.004160155
234	0xbb832494	-0.004002163
235	0xbbe6c6d4	-0.007042745
236	0xb9f1d12b	-0.00046122944
237	0xbc08ad4a	-0.008342097
238	0xbac93fd5	-0.0015354106
239	0xbbce51db	-0.006296379
240	0xbc3a0017	-0.0113525605
241	0xbb99dc29	-0.0046954346
242	0xbaa7a2cb	-0.0012789605
243	0xba8c5f01	-0.0010709466
244	0xbb14c77a	-0.0022701905
245	0xbbd6b7a1	-0.006552652
246	0xbc00a814	-0.007852573
247	0x3baba243	0.005237849
248	0xbbbe9563	-0.005816148
249	0xbc110ecf	-0.008853628
250	0xbc01c883	-0.007921341
251	0xbb857605	-0.004072907
252	0x3bdb0eb9	0.0066851047
253	0xbaa66532	-0.0012694953
254	0xbb215cd1	-0.0024621973
255	0xbc069d75	-0.008216252

network_body.linear_encoder.seq_layers.2.weight f4 [256, 256]
0	0xbb4d71ed	-0.0031348423
1	0xbd2e92ef	-0.042620596
2	0x3a130f69	0.0005609901
3	0x3d8e941b	0.069618426
4	0x3d80051e	0.06250976
5	0x3dce8a44	0.10084966
6	0x3c01979e	0.0079096835
7	0x3c2c5a23	0.010519537
8	0xbcbf8e71	-0.023383351
9	0xbd130077	-0.035889115
10	0xbdd07a74	-0.10179606
11	0xbdba2c88	-0.09090525
12	0xbdb4986d	-0.088181354
13	0x3cb383c5	0.021913419
14	0x3d2867af	0.041114505
15	0xbcfe9164	-0.031075187
16	0x3c974a12	0.018467937
17	0x3d10b538	0.035329074
18	0xbc906fd3	-0.017631447
19	0xbda1c10f	-0.07898151
20	0x3de6b5b1	0.11265124
21	0xbd06257c	-0.03275059
22	0xbdae621c	-0.08514807
23	0xbd954fd4	-0.07290617
24	0x3dbf7176	0.09347813
25	0x3d2db8bc	0.042412505
26	0xbe0a4b4c	-0.13505286
27	0x3c832d5b	0.016012838
28	0x3ddf77aa	0.10911496
29	0xbc0d2858	-0.008615576
30	0xbd8aee4e	-0.06783734
31	0xbc923a18	-0.017849967
32	0x3d47176f	0.048606332
33	0x3d0f7ab2	0.03502912
34	0x3cf1a8f7	0.029499514
35	0xbdb6be43	-0.08923008
36	0xbcc78966	-0.024357509
37	0x3cd41489	0.025888698
38	0x3c44876b	0.011995177
39	0xbd5f86d6	-0.05457195
40	0x3c2487f2	0.0100421775
41	0x3baad67e	0.0052135577
42	0x3e3b10ed	0.18268175
43	0x3e08a567	0.13344346
44	0x3c2e5997	0.010641477
45	0x3db91ced	0.0903872
46	0x3e0672bc	0.13129705
47	0x3d2c2940	0.042031527
48	0xbda7dbb0	-0.08196199
49	0x3c25535b	0.010090674
50	0xbd4cdbef	-0.050014433
51	0x3c4bac67	0.012431241
52	0xbbf2488e	-0.007393903
53	0x3ddaca25	0.10683087
54	0x3dba2e0f	0.09090816
55	0x3c85d703	0.016337877
56	0xbdd37bb6	-0.1032633
57	0xbd8609ed	-0.06544862
58	0xbdb72f27	-0.089445405
59	0xbe0e838a	-0.13917366
60	0x3b613e7c	0.003436952
61	0x3d6ac064	0.057312384
62	0xbd79de21	-0.061002854
63	0xbba53975	-0.00504225
64	0xbc1ec4ca	-0.009690473
65	0x3d3d0961	0.046151523
66	0xbd4ce529	-0.05002323
67	0xbd462db8	-0.048383445
68	0x3d3931cf	0.045213517
69	0xbc2eb023	-0.010662111
70	0x3c2e121a	0.010624433
71	0x3e0bc913	0.13650922
72	0xbbbc77ad	-0.005751571
73	0x3c8f3112	0.017479453
74	0xbd85885d	-0.0652015
75	0x3de72c4e	0.11287747
76	0xbc82af57	-0.01595275
77	0x3d8cbbe3	0.06871774
78	0xbc3bde11	-0.011466519
79	0xbc0f12a6	-0.0087324735
80	0xbcb4e77b	-0.022083035
81	0x3b889a53	0.0041687875
82	0x3d627a64	0.055292502
83	0x3c471b48	0.0121525
84	0x3ce9ce27	0.028540684
85	0x3c0cdc73	0.008597481
86	0x3d0b7351	0.03404552
87	0xba4e24e3	-0.0007863773
88	0x3ca43520	0.020044863
89	0xbdb89f40	-0.090147495
90	0xbdaca0db	-0.08429118
91	0xbc9f01d2	-0.019410048
92	0xbd01e090	-0.0317083
93	0xbda8230a	-0.08209808
94	0xbd8026c5	-0.06257395
95	0x3d97c6a9	0.07410938
96	0xbd9d77c3	-0.07688858
97	0xbcc45064	-0.023964114
98	0xbb53c9da	-0.0032316358
99	0xbde58038	-0.112060964
100	0xbc705343	-0.014668289
101	0x3d57f667	0.052725222
102	0xbb8af318	-0.004240405
103	0x3d8211e0	0.06351066
104	0xbc8de663	-0.017321771
105	0x3da030bb	0.078217946
106	0x3d631f33	0.055449676
107	0xbcebbc77	-0.02877639
108	0xbd07d906	-0.033165954
109	0xbcdd646c	-0.027025424
110	0x3b1de131	0.0024090523
111	0x3d98b027	0.074554734
112	0x3cb91d80	0.022597075
113	0x3ba042e1	0.004890785
114	0x3cb0cc1e	0.021581706
115	0x3d5ea301	0.05435467
116	0x3d2c9594	0.042134836
117	0xbd83b4a7	-0.06430941
118	0xbc6e9918	-0.014562868
119	0xbd31a534	-0.04337044
120	0xbcede97e	-0.029042002
121	0x3cda5a5a	0.026654411
122	0xbdaf3ad1	-0.0855614
123	0x3c9862b7	0.018601758
124	0xbc8c838d	-0.017152572
125	0xbd80234a	-0.06256731
126	0x3d452f99	0.048141096
127	0xbcb8c59b	-0.022555163
128	0xbd0bda50	-0.034143746
129	0xbddd0b00	-0.10793114
130	0xbd0e35ac	-0.034719154
131	0x3d75153a	0.059834696
132	0xbddd6836	-0.10810892
133	0xbc2b44a1	-0.010453374
134	0x3cbf9ac5	0.02338923
135	0x3d141745	0.036155004
136	0xbe0ac6ea	-0.13552442
137	0x3cea8665	0.028628537
138	0xbd5dfc8d	-0.05419593
139	0xbe323a25	-0.17404993
140	0x3b0cab59	0.0021464436
141	0x3d9b8980	0.075945854
142	0x3d728cd4	0.059216335
143	0x3d0efe43	0.03491045
144	0xbd982532	-0.074289694
145	0xbd41108a	-0.047134914
146	0x3d1d39fa	0.03838537
147	0xbbe75f4e	-0.0070609218
148	0xbe01c0fe	-0.12671277
149	0x3daa9989	0.08330066
150	0x3defd948	0.11711365
151	0x3c06c90b	0.008226643
152	0xbd2f69b8	-0.04282543
153	0x3c4729b4	0.012155939
154	0xbc6a5a28	-0.0143037215
155	0xbdb007c1	-0.08595229
156	0xbdc9fa05	-0.098621406
157	0x3d46f5b0	0.04857415
158	0x3d9595a5	0.07303933
159	0xbc5fba03	-0.0136551885
160	0xbceca2c3	-0.028886205
161	0xbcebca2c	-0.028782926
162	0xbc65a298	-0.014015816
163	0xbcff1a1b	-0.031140378
164	0xbbc49b4b	-0.0059999577
165	0xbdcf845c	-0.101326674
166	0x3d7c1c77	0.061550584
167	0xbaaacab7	-0.0013030384
168	0xbd4d7af9	-0.050166104
169	0x3d10d68a	0.03536085
170	0xbc034c42	-0.008013787
171	0x3d9fe897	0.07808035
172	0x3cf904ca	0.030397791
173	0xbce78965	-0.028263757
174	0xbdba2ab3	-0.090901755
175	0xbe34d898	-0.17660749
176	0xbd881cb7	-0.06646102
177	0x3dd09af2	0.101858035
178	0xbe2407bd	-0.16018577
179	0xbd2b0621	-0.04175389
180	0xbd7bf5c9	-0.061513696
181	0x3d8eea9d	0.06978343
182	0x3cdb72b7	0.026788099
183	0x3ce6f0fc	0.028191082
184	0xbb621a64	-0.0034500593
185	0x3d517de4	0.05114545
186	0xbd8fd2ca	-0.07022627
187	0x3ded3325	0.11582021
188	0x3c874346	0.01651157
189	0xbba89946	-0.0051452247
190	0x3bf165e5	0.007366883
191	0x3d01279f	0.031531926
192	0xbc4b68ef	-0.012415155
193	0x3cac3b05	0.021024236
194	0x3d39a172	0.045319982
195	0xbd73788f	-0.059441146
196	0xbd7b8065	-0.061401743
197	0xbc2f83a4	-0.010712538
198	0x3b89ed71	0.0042092134
199	0x3d5a2459	0.05325732
200	0x3d62999c	0.055322275
201	0xbd956cd8	-0.07296151
202	0x3c44f101	0.01202035
203	0x3d68f91b	0.05687819
204	0xbd05dac5	-0.032679338
205	0xbd2664be	-0.04062342
206	0x3d808969	0.06276209
207	0xbc9bd095	-0.019020358
208	0xbd2e6437	-0.04257604
209	0x3d2eedde	0.042707317
210	0xbd5495cc	-0.05190067
211	0x3d0aa588	0.03384927
212	0xbd37c279	-0.044863198
213	0xbd9f622c	-0.07782397
214	0xbd8c7fe2	-0.06860329
215	0xbe24e1c2	-0.16101745
216	0x3dc10554	0.094248444
217	0xbb56a3de	-0.003275148
218	0xbbef5b0d	-0.0073045553
219	0xbda86b51	-0.08223594
220	0xbd2c66c9	-0.04209021
221	0xbba09c22	-0.004901425
222	0x3cd8a01f	0.02644354
223	0x3ccec6d3	0.025241291
224	0xbb0a6521	-0.0021117406
225	0xbda9fe8e	-0.083005056
226	0x3bab3559	0.0052248654
227	0xbd220395	-0.039554197
228	0x3d8ac23d	0.06775329
229	0xbc94bb93	-0.018155849
230	0x3b78eac5	0.003798173
231	0xbdbd0bfe	-0.09230803
232	0xbd35c4f6	-0.04437729
233	0x3d3e9d63	0.046536814
234	0xbca77b48	-0.020444527
235	0xbdd107d3	-0.102065705
236	0xbcb0b317	-0.021569772
237	0xbd2c4418	-0.042057127
238	0xbc384b3e	-0.011248408
239	0xbd3ae0d8	-0.045624584
240	0x3bda5dcb	0.006664013
241	0x3c39eafc	0.011347529
242	0xbc0e43d4	-0.008683164
243	0xbd5dd360	-0.05415666
244	0x3d3be8eb	0.045876425
245	0x3dda254f	0.10651647
246	0xbcd07734	-0.025447465
247	0xbd6b908c	-0.057510898
248	0x3b96d0d2	0.00460253
249	0x3c18da50	0.0093293935
250	0xbd99b6af	-0.07505547
251	0x3e01cbf5	0.1267546
252	0xbdb4c35f	-0.088263266
253	0xbceddb49	-0.029035227
254	0x3da4876f	0.080336444
255	0xbd1d55b6	-0.03841182
