config/results/basic_1M/PathFollowing/PathFollowing-499876.onnx (onnx, 695646 bytes, 7 tensors)

action_model._continuous_distribution.log_sigma f4 [1, 3]
000000 ca 3b 41 bd f5 84 d4 bd 5a a5 10 bd
       -0.04717616 -0.10376922 -0.03531394

action_model._continuous_distribution.mu.bias f4 [3]
000000 30 4b 10 3a 19 3d be 3b de 82 18 bb
       0.0005504368 0.0058056233 -0.0023271362

action_model._continuous_distribution.mu.weight f4 [3, 256]
000000 3a 30 09 3d ff 38 34 bc 0a 0b 89 3b 9c cb 91 3c
       0.033493258 -0.010999917 0.004182224 0.017797284
000010 d7 39 be bb dc fc cd bc d9 d7 82 3c 48 ed b5 ba
       -0.005805235 -0.025144987 0.015972065 -0.001387992
000020 9b 2a 8e 3b d2 14 85 3c 41 4d 00 3c 9f 7a e5 bb
       0.004338575 0.01624528 0.007830919 -0.007003143
000030 9b 16 1e bc 8a 97 96 bb 75 95 7a 3b e0 b2 3f bc
       -0.009648944 -0.0045957016 0.0038236056 -0.011700362
000040 9e 4b 43 3c 8f f3 51 bc d1 d5 21 3c 66 cb 21 bb
       0.011919884 -0.012814417 0.009877638 -0.0024687885
000050 3d 23 50 3c 61 ad dd bc 9d fd 15 3b b8 85 91 39
       0.012703714 -0.027060213 0.002288676 0.00027756183
000060 37 e8 b7 3b 65 ed c6 3a 19 bd 12 3c be 3c 47 bc
       0.005612399 0.001517695 0.008956217 -0.012160478
000070 cd d0 5f 3b 72 68 b4 bc 89 b0 4f bc 0c a3 48 bc
       0.0034151555 -0.02202246 -0.012676367 -0.012245905
000080 a5 ec 8c 3b dd 2b 63 bb c5 4b 85 3b ca 12 13 bd
       0.004300671 -0.0034663596 0.0040678703 -0.03590659
000090 95 54 b2 bc 38 f7 ff bb 82 2e fd 3b 45 76 b3 3b
       -0.021768847 -0.007811453 0.0077264914 0.0054767453
0000a0 cb b3 9d 3c b3 f1 5c 3a 7b 08 a4 bc d7 f7 19 3c
       0.019250771 0.000842835 -0.020023575 0.0093974685
0000b0 ca e2 94 3c f3 c1 0d 3c 24 02 40 3b 40 e6 c1 ba
       0.018174548 0.008652198 0.002929815 -0.0014793351
0000c0 04 40 e1 3b 75 5c 8c ba aa 9e a5 3b d7 2e 34 bb
       0.0068740863 -0.0010708707 0.0050543146 -0.002749374
0000d0 cc b3 8f bc cc 9c c4 bb 8e b0 97 3c 26 86 93 bb
       -0.017541789 -0.006000137 0.018516805 -0.0045020757
0000e0 57 18 b8 3b ff a8 50 3b d9 dd 6d bc b8 2e 33 bc
       0.005618136 0.003183901 -0.014518225 -0.010936432
0000f0 f0 bd 8c bc eb 7b cd 3c 94 b5 86 3c ce 07 70 3c
       -0.017180413 0.025083503 0.016444005 0.014650298
000100 db 03 c0 3a 64 4d 17 3c cf 3b d4 3c 0c d2 88 bc
       0.0014649587 0.00923476 0.025907425 -0.01670172
000110 45 98 77 bb d9 07 65 bc de 29 06 3c ca f4 38 3c
       -0.0037779969 -0.013978922 0.008188693 0.011288831
000120 b5 d8 41 bc 4a 80 9d ba 66 a0 89 bc 25 6f 2d 3c
       -0.011831452 -0.0012016383 -0.016800117 0.010585581
000130 85 8d c7 3a 1d 36 19 bc fc 41 7d 3c 31 2e db 3b
       0.0015224671 -0.0093512805 0.015457626 0.006688856
000140 b1 7d 43 3c 34 09 3b 3b 31 16 91 3c f1 3d 34 3c
       0.011931823 0.002853942 0.017710777 0.011001096
000150 85 ea f0 39 55 10 95 3b c0 5e a3 bb 8d ec 54 bc
       0.00045951098 0.004549066 -0.0049856603 -0.012995851
000160 af 5b 3a 3c cd 6a d9 bb a2 aa 8a bb 0a eb 07 bc
       0.011374398 -0.006635046 -0.004231767 -0.008295784
000170 18 ce b5 3b 3c 62 1e 3b 64 8b 13 3a 53 56 4a 3b
       0.00554825 0.002416744 0.0005628376 0.0030874207
000180 52 c8 2f 3a 45 6c fe 3b a1 21 8c bc fc 6e 9f bb
       0.000670557 0.0077643716 -0.01710588 -0.0048655253
000190 d4 ec 00 3d 07 a0 89 3b b9 4d 01 bc 0e eb 22 bc
       0.031475857 0.004199985 -0.007892066 -0.009943737
0001a0 2f 35 b9 3b 8f 79 c5 bb d9 88 db bb 2a 37 f8 3c
       0.005652092 -0.006026454 -0.006699663 0.030299742
0001b0 f5 de bc 3a 7c 21 33 bc b5 54 39 3c 1c 5b 5a bc
       0.0014409708 -0.010933276 0.0113117 -0.013327386
0001c0 01 2e 91 3c 4b ca 43 bc 23 95 07 3c 04 a5 2c 3c
       0.017722132 -0.011950086 0.008275303 0.01053739
0001d0 ab 06 72 3c b3 26 02 3c 71 6d a7 3a ca 03 82 bc
       0.014772098 0.007943797 0.0012773705 -0.015870947
0001e0 ec 1a c5 bb ce 99 33 bb 28 c4 29 bc ea db 6d 3c
       -0.006015172 -0.0027404907 -0.010361709 0.014517764
0001f0 92 1b d5 bc 7b e3 75 bc 43 34 10 3c d7 61 7f 3b
       -0.026014123 -0.015007849 0.008801523 0.003896823
000200 2e 2d 50 bc b7 62 0a 3c ce ea c3 3b d0 50 7c 3b
       -0.012706084 0.008446387 0.0059789186 0.0038500316
000210 c0 09 a7 3b dc 8e 76 bc 65 68 a8 3c a0 30 1e bc
       0.005097598 -0.015048709 0.020557592 -0.009655148
000220 6a 59 06 3c 30 ef 9d 3a da 21 e4 3c 69 4f 4c bc
       0.008200029 0.0012049433 0.027848173 -0.012470105
000230 fa 47 da 3c d0 36 22 bc f7 b8 ea 3b 1c 6e cb bb
       0.02664565 -0.009900764 0.007163163 -0.0062081944
000240 6e 3d 6e bb 37 3f ce bc 78 a5 5f bc 62 89 2d bd
       -0.0036352533 -0.025176628 -0.013650291 -0.042367347
000250 06 16 92 3c 92 4a 8c bb a7 78 a1 ba ef 9d 69 bc
       0.017832767 -0.0042813504 -0.0012319282 -0.014258846
000260 af 5b 9f 3a dc b8 4c bc cb ff f8 3b 60 0b 12 3c
       0.0012158061 -0.012495246 0.0075988523 0.008913845
000270 b9 f8 70 3b ae d4 29 bc 51 51 db bb d4 68 e6 bb
       0.0036769344 -0.010365648 -0.0066930433 -0.0070315395
000280 5d df ed bc b1 d7 d5 3b b0 6e f3 ba ea 59 8b ba
       -0.029037172 0.0065259566 -0.0018572416 -0.0010631655
000290 50 d7 c3 3c 71 1b 35 ba 9d 45 09 bc 09 48 e8 3b
       0.02390638 -0.0006908691 -0.0083784135 0.0070886654
0002a0 e3 79 53 bc 92 ba 07 3c b9 b8 9f bc 53 81 6a 3c
       -0.012907478 0.008284228 -0.019497262 0.01431306
0002b0 ce 6a 84 3c 6c ca e4 3b d6 ed 59 3c 3b 89 d0 3c
       0.01616421 0.0069821384 0.013301333 0.025456062
0002c0 36 8f 9e bb ee 4b 5e bb 48 e0 04 3c 03 e9 b8 3b
       -0.0048388494 -0.003391977 0.008110113 0.0056430115
0002d0 e0 12 78 bb 3c 55 8f 3c b1 fc ab 3c 39 58 a5 bb
       -0.0037853047 0.017496698 0.020994516 -0.0050459174
0002e0 3a b5 2f 3c 3b af 95 3c 38 fa 5b 3c e1 cb ae bb
       0.01072436 0.018272033 0.013426356 -0.005334363
0002f0 11 d5 8b 3c 28 05 47 bc b6 00 d7 ba de 7c a8 3c
       0.017069371 -0.012147225 -0.001640341 0.020567354
000300 4d a1 49 3b c0 49 52 39 87 20 ee 3b 65 b9 88 3c
       0.0030766309 0.00020054635 0.007267061 0.016689966
000310 9a c6 c0 3b b3 5e 45 bc 1e 0f bf ba 1c f2 1a bb
       0.00588305 -0.012046504 -0.0014576649 -0.0023642844
000320 f5 33 5f bc 9b 66 c7 3b 81 9b a9 bc 31 b0 dc 3c
       -0.013623227 0.0060852296 -0.020704033 0.026939483
000330 85 48 f8 bb c9 63 77 ba 49 b3 87 bb e1 ff a1 bb
       -0.0075770044 -0.00094371714 -0.0041412455 -0.004943833
000340 60 14 d5 3c 07 4f 21 3c e8 b2 ed 3c 1a c4 53 3c
       0.026010692 0.009845502 0.029015973 0.012925172
000350 5c ee 8e 3c ae 3e e7 3c 74 2a 72 3c 89 e0 1c 3c
       0.017447643 0.02822813 0.014780629 0.009575018
000360 68 67 f4 bb 6c d8 bc bc bb 49 1b bb 4a c9 aa 3a
       -0.007458616 -0.023052417 -0.002369507 0.001302996
000370 52 68 4f 3b ed 97 1b 3b 5c 81 6b 3a b2 d1 81 bc
       0.0031647873 0.0023741678 0.00089838146 -0.01584706
000380 99 96 d1 bc 7a 3b be 3b 93 d8 a1 bb e1 da 42 bb
       -0.025584506 0.00580543 -0.0049391477 -0.0029732513
000390 b6 e1 bb 3b ea de 15 bc ee 60 6a bc 5c 87 11 bc
       0.005733694 -0.009147385 -0.014305336 -0.00888237
0003a0 02 3d 91 bc 77 85 4c bc c2 2c cb ba fb 45 c7 b8
       -0.017729286 -0.012482992 -0.001550101 -9.502094e-05
0003b0 1b a8 20 3c 16 e1 60 3b 0c f8 5c 3b bc 97 bc 3b
       0.0098057045 0.003431385 0.0033717183 0.005755393
0003c0 17 49 02 bc 52 73 e8 ba 7e 98 a5 ba 12 c0 2e bc
       -0.007951996 -0.0017734563 -0.0012633947 -0.01066591
0003d0 a9 c9 43 bb 83 97 0a bc 8b c1 c7 bb 87 c2 f5 3b
       -0.0029874837 -0.008458975 -0.00609607 0.007499996
0003e0 15 9a 7f ba a7 5e b6 3c 0e d5 40 3c 50 d1 36 3b
       -0.0009750438 0.02226193 0.011769546 0.0027895756
0003f0 e3 e4 34 3b 02 73 99 bc b2 a9 27 ba 18 89 13 bc
       0.0027602247 -0.018731598 -0.0006395831 -0.009004854

network_body.linear_encoder.seq_layers.0.bias f4 [256]
000000 de 32 2f bb 49 f1 1c 3b 2e da d5 ba 16 40 05 3a
       -0.00267332 0.0023947528 -0.0016315633 0.0005083097
000010 a4 aa f3 3a 0a e1 8e bb e5 bf 8d bb 83 b3 e7 ba
       0.0018590284 -0.004360323 -0.004325854 -0.00176774
000020 29 2a 83 bb 83 6f 31 39 eb a0 9b bb 3b ce 66 bb
       -0.0040028286 0.00016921577 -0.0047494075 -0.0035218138
000030 ef b1 c5 bb 80 60 95 3b 37 fb 14 bb 08 ca ef 3a
       -0.006033174 0.004558623 -0.0022732744 0.0018294463
000040 75 76 69 bb 3c 47 51 b9 a3 58 3a bb 06 7e 95 bb
       -0.0035623584 -0.0001995833 -0.002843418 -0.0045621423
000050 15 8d ab bb 3f e7 42 bb 8b f7 ce ba 31 fe 58 bb
       -0.005235324 -0.0029739884 -0.0015790326 -0.0033110494
000060 40 92 2e bb 15 b8 98 ba d3 b1 f9 3a 29 b5 47 bb
       -0.0026637465 -0.001165154 0.0019050188 -0.003047297
000070 29 86 4a 3a 86 1e 68 3b 74 e9 03 3b f2 94 ff bb
       0.000772568 0.0035418584 0.0020128163 -0.007799738
000080 9e 9f 5a 3a e4 d5 c6 ba d8 8a 33 3a 78 28 28 bb
       0.0008339825 -0.0015169946 0.00068489974 -0.0025658887
000090 fd cd a6 bb 54 ac 6f bb b7 6f 1f 3b 0f ea 24 bb
       -0.0050904737 -0.0036571221 0.0024328062 -0.0025163924
0000a0 e6 0d 13 3c 34 46 b5 3a fe 00 b2 ba 5a 7e 1f bb
       0.008975482 0.0013830126 -0.0013580618 -0.0024336786
0000b0 75 74 31 3a 97 2f 81 bb 72 69 25 38 5b 73 d5 ba
       0.00067693676 -0.0039424407 3.943727e-05 -0.0016284989
0000c0 f2 e4 a0 ba b1 0a 86 bb ec 91 06 3b a2 0c 0b bb
       -0.0012275262 -0.00409063 0.0020533754 -0.0021217247
0000d0 0a 74 d6 bb c7 df e5 ba 9a cc a7 bb 65 6c 84 bb
       -0.0065445947 -0.0017538004 -0.005120826 -0.004041242
0000e0 38 a1 45 bb ca eb f1 ba 40 3f 96 bb 59 71 20 bb
       -0.0030155908 -0.0018457111 -0.0045851767 -0.0024481623
0000f0 6d 44 d9 ba f6 1b 8d 3b fd d5 45 3b 30 67 3f 3b
       -0.0016576179 0.0043063117 0.0030187361 0.0029205792
000100 71 d3 57 3b 01 c3 1d bb d0 22 09 b9 63 33 22 3c
       0.0032932425 -0.002407253 -0.00013078307 0.009899947
000110 61 7e af 3a ee 18 33 bb 16 a7 81 ba ca e9 af bb
       0.0013389104 -0.0027328092 -0.0009891714 -0.005368446
000120 54 af f8 ba 51 fb 88 ba 0f 79 99 ba 61 6f 7d bb
       -0.001897315 -0.0010450875 -0.0011709052 -0.0038671123
000130 c1 f1 20 bb 43 16 bb 3b 8a c1 5d bb 93 dd aa 3a
       -0.002455816 0.005709441 -0.0033837282 0.0013036005
000140 c1 b1 99 bb 97 62 56 bb c5 dd 87 bb 61 11 5d 3a
       -0.0046903794 -0.0032712573 -0.00414631 0.00084330706
000150 29 ad 84 bb a1 84 f3 b9 f4 22 84 bb f3 77 29 3b
       -0.0040489626 -0.00046447388 -0.004032487 0.0025858849
000160 3a 36 a6 bb 5b d4 34 ba f6 04 5e 3a a1 44 f4 3b
       -0.0050723823 -0.00068980985 0.0008469367 0.0074544703
000170 f8 19 0a 3b 16 e3 95 bb 25 99 b1 bb 73 97 22 b9
       0.0021072607 -0.00457419 -0.0054198676 -0.00015505943
000180 33 1e c7 36 67 46 34 ba cb 73 9d bb 0b b3 9c 3a
       5.934178e-06 -0.0006876946 -0.0048050634 0.0011955214
000190 e3 88 c3 bb 7f a5 da 3a 0b 4b 45 bb dd 1c aa 3a
       -0.005967246 0.0016681402 -0.0030104544 0.0012978573
0001a0 36 70 ca 3a 0d 04 97 bb b2 9e 94 bb 13 83 df b9
       0.0015444818 -0.004608637 -0.0045355195 -0.00042631532
0001b0 14 d0 ac 3a 35 20 64 ba c2 f4 1d 3b a9 24 65 bb
       0.0013184571 -0.0008702309 0.0024102186 -0.0034964478
0001c0 d7 88 3f 39 7f a8 8b 3b e0 b6 40 3b bb cc a2 39
       0.00018266156 0.0042620297 0.0029405877 0.00031051584
0001d0 2e 92 2f bb bb b2 cd ba f1 97 0c 3c 9e 07 9b bb
       -0.002679001 -0.0015693525 0.0085811475 -0.0047311326
0001e0 92 bc a7 bb 4e 18 4a bb 39 c2 d4 bb 36 a5 44 3b
       -0.005118915 -0.003083724 -0.0064928797 0.00300057
0001f0 71 d2 15 bb 47 4d 07 3b 69 38 bc b7 0e 58 e6 ba
       -0.0022861029 0.0020645426 -2.2437614e-05 -0.001757385
000200 94 52 89 3b ab 63 42 bb 71 52 3f 3b e0 5f 56 bb
       0.0041907523 -0.0029661458 0.0029193426 -0.0032710955
000210 cd b0 e2 b9 72 ae a0 ba b9 32 04 bb ca b1 aa 3a
       -0.00043237806 -0.001225902 -0.0020171835 0.0013022956
000220 17 bd 92 bb 54 d3 9d bb ae 3e 1e b9 23 2b f5 39
       -0.0044781077 -0.004816452 -0.00015091404 0.0004676218
000230 6e 02 58 ba 9e 7e a9 bb 4d 2b 43 bb 7a 68 8e bb
       -0.0008240108 -0.0051725646 -0.0029780448 -0.0043459507
000240 72 8b ac 3a a5 f2 40 bb 58 64 08 ba 24 97 cc bb
       0.0013164117 -0.0029441502 -0.00052029407 -0.0062436033
000250 2c 5c 90 3b d5 8d 59 3b 53 cf 1b bb de 65 69 bb
       0.004405519 0.003319611 -0.0023774698 -0.0035613696
000260 77 ab 24 bb fe 0b 7d 38 7a b4 ce 3b 12 3e b7 ba
       -0.0025126615 6.033107e-05 0.0063081356 -0.001398029
000270 70 8a fa ba 4a 0e a8 3a f8 12 59 bb d9 59 4e 3a
       -0.0019114744 0.0012821641 -0.0033122879 0.0007871665
000280 42 39 cd b8 ce 9c 97 bb 4a ef da bb 5d 36 90 bb
       -9.785827e-05 -0.004626847 -0.0066813575 -0.004401012
000290 5d 75 57 3b f5 b2 12 bb 2e 79 b7 bb 28 30 9f 3a
       0.003287635 -0.0022384499 -0.0055991625 0.0012145089
0002a0 ee f2 d7 bb 04 65 06 3a 8f 55 be 3a ab 26 10 bc
       -0.006590239 0.0005126747 0.0014521348 -0.008798282
0002b0 72 33 f4 3a 8a d5 4e bb a4 66 22 bb ec a3 1f ba
       0.0018631055 -0.0031560385 -0.0024780417 -0.0006089795
0002c0 1c 51 df ba 09 d4 ac bb 97 35 0f 3b 7d 5b 72 bb
       -0.0017037722 -0.0052743 0.002185201 -0.00369808
0002d0 d2 91 51 bb 39 f0 a0 ba 8a 22 63 3b 0f 69 1b ba
       -0.0031977785 -0.0012278623 0.0034658038 -0.0005928436
0002e0 1a b4 7f ba 1d ab 2d bb a8 91 7f ba 64 1e 8c 3b
       -0.0009754315 -0.0026499697 -0.00097491825 0.004276084
0002f0 db 96 99 3a 81 11 5e bb 78 cd 5e bb b1 47 85 bb
       0.0011717932 -0.0033884945 -0.003399698 -0.004067384
000300 72 f1 4c b9 19 f5 d2 39 26 25 9d bb f6 74 8e bb
       -0.00019544901 0.00040236933 -0.004795688 -0.004347439
000310 db 6d bd bb 54 d0 85 3b 5d 80 1e bb f8 56 3f 3b
       -0.005780918 0.0040836725 -0.0024185397 0.0029196125
000320 d2 fa 13 bb 8d 95 dc bb 35 3a 4a b9 cd 82 4d bb
       -0.002257992 -0.006731695 -0.00019285905 -0.003135848
000330 da 45 5e 3b bb 78 cc ba 4e e0 da 3a 96 de a7 b9
       0.0033916146 -0.0015599945 0.0016698928 -0.00032018562
000340 c8 16 85 bb e8 ad 36 bb c7 6b 0b 3b e6 93 35 3b
       -0.0040615536 -0.0027874652 0.0021273957 0.0027706563
000350 f4 87 9d 3a 8f 44 b1 3a 98 a8 8f bb 48 7b b7 3a
       0.0012018667 0.001352446 -0.0043841116 0.0013998533
000360 3d 31 83 ba 16 1f 05 ba 1b 5f 8e 3b 66 44 f5 3a
       -0.0010009181 -0.00050781795 0.0043448335 0.0018712401
000370 56 65 38 3b 23 6b c6 b9 55 2d c6 3b b9 d5 86 bb
       0.0028136573 -0.00037845326 0.0060478845 -0.004114833
000380 63 f1 0f bb 68 3e 64 ba 88 71 2b bb cc 18 f5 39
       -0.0021963946 -0.0008706809 -0.00261602 0.00046748517
000390 f8 9c f5 ba c7 73 84 3a 8f ce 17 bb b6 c3 43 bb
       -0.0018738797 0.0010105305 -0.002316389 -0.0029871291
0003a0 a2 1c 01 ba 12 c7 ce 3b 2e b5 5f bb a6 32 02 bb
       -0.0004925226 0.006310352 -0.003413509 -0.0019866615
0003b0 44 65 16 bb d8 f7 df ba 6f e5 fb bb c8 ce 4a bb
       -0.0022948543 -0.0017087413 -0.0076872627 -0.0030946005
0003c0 14 7a 92 3a c7 f1 db ba 4c 1e ce ba bc 55 04 3b
       0.0011175298 -0.0016780429 -0.0015725582 0.0020192703
0003d0 89 84 5b bb 5b 72 c6 bb ce d0 4c ba 5c fa b8 3a
       -0.0033495745 -0.0060561127 -0.0007813097 0.0014112699
0003e0 94 bb 55 bb 4e d0 59 bb 78 ae ab bb 78 88 93 3a
       -0.0032613026 -0.0033235732 -0.005239304 0.0011255881
0003f0 e0 7f 0c bb 2e 2a 9b bb 05 d0 98 b9 00 74 bb ba
       -0.0021438524 -0.004735253 -0.00029146686 -0.0014301538

network_body.linear_encoder.seq_layers.0.weight f4 [256, 416]
000000 46 b4 b6 3d 58 76 bb 3c fb 1b d5 bc 31 6b 49 3c
       0.08921103 0.02288358 -0.026014319 0.012293623
000010 1f 9d b0 bc 95 2e 77 bd 35 b1 ab 3c 79 15 03 3d
       -0.021559296 -0.06034716 0.020958522 0.0320029
000020 40 ad b0 bc 95 d0 77 bd 22 a8 b4 bc ac e9 c5 bd
       -0.021566987 -0.060501654 -0.022052828 -0.0966371
000030 63 f4 3d 3d a5 3b c4 3c 7d 54 35 3d a6 38 bd 3c
       0.046375643 0.023954222 0.044270027 0.023098301
000040 8b 35 34 bd e3 80 10 3d 8e 59 8b bc 1a f8 9e bd
       -0.043996375 0.035279166 -0.017010476 -0.07762165
000050 eb f3 8a 3d 61 e0 46 bc ab 62 90 3c a5 de 2a bd
       0.06784805 -0.012138457 0.017625174 -0.041716237
000060 78 84 cb 3c 5f aa 30 bd 69 43 ad 3c cf 81 6a 3d
       0.02484344 -0.04313123 0.021150308 0.0572527
000070 8a 9a 26 bb de db 33 bd 68 05 24 bd a2 c6 11 bd
       -0.0025421702 -0.043910854 -0.04004422 -0.03558982
000080 be ee 76 bc 74 8f 62 3d e7 d2 64 bd 87 10 f5 bc
       -0.015071569 0.05531259 -0.055865195 -0.029915107
000090 b4 c4 87 3c 49 74 63 3d 9a 16 19 bd f5 7e 54 bd
       0.016573288 0.05553082 -0.03737507 -0.05187889
0000a0 da d2 a2 bd f2 57 4e bd 06 5d 80 bd ed 37 75 3c
       -0.07950373 -0.05037684 -0.06267743 0.014966947
0000b0 15 fd 0d 3d 7e 77 aa bc 79 c1 ff bd 7c b9 ea bc
       0.034665186 -0.020808931 -0.12488074 -0.028652899
0000c0 20 59 98 bd 66 90 07 bc ef 63 7e 3c 22 db 49 bd
       -0.07438874 -0.008274173 0.015526756 -0.049281247
0000d0 83 1b 5e bb ac 47 fb bc 51 cd 5a bd b2 1c 47 3d
       -0.003389091 -0.030673824 -0.05341846 0.04861135
0000e0 79 44 a4 3c dd fb 60 3d 98 28 8c bc 6d e7 00 bd
       0.020052182 0.054927696 -0.0171092 -0.031470705
0000f0 4d f8 2b bd 6d 86 03 bd eb d0 3e bd e9 6a cf 3d
       -0.041984845 -0.03211062 -0.04658596 0.10127813
000100 91 61 19 3c 97 3e 90 bd 8e 7b 26 3d a2 f7 90 bd
       0.009361641 -0.07043188 0.040645175 -0.07078482
000110 53 1c bb 3c 87 d9 2e bb a7 9f 2e bd e1 48 09 bc
       0.022840654 -0.002667995 -0.042632725 -0.008379192
000120 2a 20 2a bd b3 4b 90 bd 90 84 62 bd 95 25 0b bc
       -0.04153458 -0.070456885 -0.055302203 -0.008492847
000130 ce e3 4b bd 05 c3 3e ba ac 54 ae bd 94 8a 18 bd
       -0.0497778 -0.0007276985 -0.08512244 -0.037241533
000140 c6 31 3f bd ab ec 0c bd 44 1f b2 bc 67 35 b4 3c
       -0.046678327 -0.03440539 -0.021743424 0.02199812
000150 c5 5b 32 3d 8a 46 43 bd 3a 84 39 3d 8e fc 32 3c
       0.04354455 -0.047674693 0.045292117 0.010924472
000160 c0 65 a6 3c 0f 85 06 bd b1 86 c7 bc 3f 3f 69 bc
       0.02031219 -0.03284174 -0.024356218 -0.01423627
000170 12 4f 89 bd f7 43 05 3d 88 81 6d 3d d7 e9 66 bc
       -0.067045346 0.03253552 0.05798486 -0.014093838
000180 61 86 97 bd 4c b4 7b 3b ed 9a 58 bd fd c4 7f bd
       -0.073986776 0.0038407026 -0.052882124 -0.062443722
000190 c6 82 5a 3b 8c 34 e5 bd c9 6c cb 3d 3d f7 20 3a
       0.0033342107 -0.11191663 0.099328585 0.0006140357
0001a0 99 57 ac bc 40 33 b7 3b 4d 35 74 3d a0 10 2c bc
       -0.021037864 0.0055908263 0.059621144 -0.010502011
0001b0 42 9a 5d bc 90 4c 04 bd 5e 5e 53 bd 67 2a 32 3d
       -0.013525547 -0.03229958 -0.051603667 0.04349747
0001c0 b3 4d 11 3a b6 8b 35 bd 79 c6 3f bc 1b 68 ae ba
       0.0005542889 -0.04432269 -0.011705034 -0.0013306172
0001d0 19 b0 4b 3b 3f cb b1 3d 6d 8d bc bd c6 54 21 3d
       0.0031080304 0.08681344 -0.09206662 0.039387487
0001e0 6e bb 49 bd 29 67 39 bc 5b 7a c8 3d 6b 49 00 bc
       -0.049251013 -0.011316099 0.097889625 -0.007830004
0001f0 ab 79 8e bd 9b 61 0e bd d1 1d 96 bd 8f 6f 68 bc
       -0.069568 -0.034761053 -0.07329906 -0.014186754
000200 e2 d2 15 bd 89 d6 59 bd 0b 08 ef bd b1 8e ac bd
       -0.036578067 -0.053183112 -0.11671456 -0.08425654
000210 e5 fe c7 bc b9 6b 15 3d d7 53 4f ba 2c 74 8a bd
       -0.024413535 0.036479685 -0.00079089165 -0.06760439
000220 77 34 fd 3c 0e 84 0d bb c3 8b 74 bd fe 15 0e bd
       0.030908806 -0.0021593603 -0.0597036 -0.034688942
000230 9f 12 b5 bb a5 af 6c bd 70 61 50 bb e6 31 19 bc
       -0.0055259014 -0.057784695 -0.0031796359 -0.009350276
000240 64 f3 57 3d 06 bf 5d 3c 88 ab 33 bc c8 4d 28 3d
       0.05272235 0.013534313 -0.010966189 0.041089803
000250 91 88 e9 bc c7 23 4b bd 1d 89 40 3c e0 b4 c0 bd
       -0.028507503 -0.049594667 0.01175144 -0.09409499
000260 46 20 96 bb 02 8a 34 bd 34 f5 5e bc 87 9d ab bd
       -0.004581484 -0.044076927 -0.013608266 -0.08379655
000270 6f fc 5c bd cd 68 64 bb 94 1e de bc 7b 4e 36 3d
       -0.053951677 -0.0034852505 -0.02711419 0.04450844
000280 c1 90 6b bd 2b f4 7a bd 07 fe 6a 3c 62 dd 93 bd
       -0.057511095 -0.061268013 0.014342791 -0.0721996
000290 c4 b3 2c bd c0 3b 30 bd 23 88 cd 3a b9 67 39 3d
       -0.042163625 -0.043025732 0.0015680831 0.045264933
0002a0 e3 9e 9a 3d 6d b0 21 bd 93 e3 67 3d 10 21 bb bb
       0.075498365 -0.039474893 0.056613516 -0.0057107285
0002b0 5b 51 29 3d 2f 3c 6e ba 32 d7 d7 3c d8 73 88 bd
       0.041337352 -0.00090879475 0.02634773 -0.066627204
0002c0 e8 65 13 bd f5 15 f6 b9 50 44 27 3c 78 63 e6 bb
       -0.035985857 -0.00046937136 0.010209158 -0.0070309006
0002d0 ac e6 19 bc 24 c9 1e bd d7 09 b0 3d e0 ee 8d bc
       -0.009393375 -0.03876604 0.08595627 -0.017325819
0002e0 09 26 c3 bd df d2 4d bd ee 9c ce bc 03 16 a1 ba
       -0.09528739 -0.05024993 -0.025221314 -0.0012289885
0002f0 70 06 7f bd 93 5f aa 3c ac 53 8d 3d 98 54 39 bd
       -0.062262 0.020797526 0.06900725 -0.04524669
000300 bb 5d 22 bd 5d 5b 25 bd 59 db 05 bd bb 71 88 bc
       -0.03964017 -0.040370334 -0.03267989 -0.016655793
000310 18 5c 55 bc cd 46 c8 bd a8 be 60 3c 82 22 85 bc
       -0.013022445 -0.09779129 0.013717331 -0.016251806
000320 14 82 43 bd b4 c0 06 bd 8a 8e e8 3c 37 29 4f bd
       -0.047731474 -0.03289862 0.02838828 -0.050576415
000330 3c 4c 81 3b d2 54 a8 bd 47 02 25 3d fa 01 53 3d
       0.0039458554 -0.08219303 0.040285375 0.051515557
000340 81 a7 00 bd 2e de 73 bd b9 92 65 bd a4 81 95 3d
       -0.031409744 -0.05953806 -0.05604813 0.073001176
000350 09 af c1 3d 59 b0 84 3d 91 d8 db 3c 46 11 84 3d
       0.094572134 0.06478948 0.026836665 0.06448607
000360 81 75 8d 3c 2a 10 74 bb 31 6f f3 bd bd 2c 35 3c
       0.017267944 -0.003724108 -0.118864425 0.01105803
000370 bb 3b 99 3d 9c ec 28 3b 37 90 49 bd 3f 13 e9 3d
       0.07482096 0.0025775796 -0.0492098 0.11380624
000380 09 fa ca bc 81 8f b6 bd 45 f1 8e bd f5 86 c9 3c
       -0.02477743 -0.0891409 -0.06979612 0.024600485
000390 ad 6e ca bc d4 a4 d2 3b 99 3d fa bc 8c 06 fb bc
       -0.024710977 0.0064283404 -0.03054695 -0.03064277
0003a0 96 4e 4f bd 15 0c 33 bd 34 eb 0a be f7 4e 60 3d
       -0.050612055 -0.043712694 -0.13566285 0.054762807
0003b0 de 7e 30 bd 8d 5c 6a b8 02 c4 40 3c 5b 6b 35 3d
       -0.04308974 -5.5876142e-05 0.011765482 0.044291835
0003c0 42 bd 2a 3d a5 91 3b 3d c2 ce 36 bd f4 0e e7 3d
       0.041684397 0.045793194 -0.044630773 0.11282149
0003d0 a7 7c be bc b5 c4 9e 3d ef b3 7c 3d a4 60 a0 3c
       -0.023252798 0.07752363 0.061695036 0.019577332
0003e0 ac 46 bc 3c c7 41 1b bd de 29 a1 bc eb 62 34 bd
       0.022982918 -0.037904527 -0.019673284 -0.044039648
0003f0 d1 1f e5 bc 88 dd c9 3d 5a d1 9b bc 17 6a 18 bd
       -0.027969273 0.09856707 -0.019020725 -0.03721055

network_body.linear_encoder.seq_layers.2.bias f4 [256]
000000 7a bb 73 bb 68 0a 7f bb bd e5 f7 ba 9f 01 c5 ba
       -0.0037190602 -0.0038916115 -0.0018913072 -0.001503039
000010 81 68 15 3b 40 cb 7a 3b c8 f1 46 3b 27 f2 12 3a
       0.0022797885 0.003826812 0.0030356515 0.00056055415
000020 53 2d 33 b8 63 29 0b bb ef 5b 73 bb 96 19 e3 bb
       -4.2719137e-05 -0.0021234385 -0.0037133654 -0.0069305403
000030 bb d3 af 3a 8e 5a bc bb 65 77 f6 bb 55 e8 ed b9
       0.0013414541 -0.0057480996 -0.007521557 -0.00045377263
000040 c5 ef 9e 3b 61 ce 5f bb 20 01 ea ba d4 7c 46 3b
       0.00485036 -0.003415011 -0.0017853118 0.0030286806
000050 04 bd 25 ba 95 b6 65 bb 32 44 f9 3b 89 d5 b9 3b
       -0.0006322416 -0.0035051454 0.0076070065 0.0056712073
000060 e4 7d ea 3a 1f c4 4e 3b 3f 2f 40 bb 79 1d 27 3b
       0.0017890302 0.0031550003 -0.0029325036 0.0025499745
000070 50 2f e4 3a cf ab 1f bb 90 35 6a b9 37 19 ba ba
       0.001740912 -0.002436388 -0.00022335933 -0.0014198188
000080 34 a8 93 3a 1e cd ca bb 2a e3 92 3b fc d6 aa 3a
       0.0011265338 -0.0061890027 0.0044826465 0.0013034041
000090 f5 37 60 3b e5 fe 14 bb 30 22 f4 3a ad 66 a2 bb
       0.003421304 -0.0022734937 0.0018625911 -0.0049560876
0000a0 f4 ba 15 ba b9 8f 3a bb 29 75 73 bb 61 b4 c7 bb
       -0.0005711757 -0.0028467013 -0.003714869 -0.006094501
0000b0 94 96 1e bb 9c 7d 58 3a 4b 24 c2 3b cb e5 0c 3b
       -0.0024198638 0.00082584633 0.0059247366 0.0021499272
0000c0 76 22 56 bb 37 43 6e 3a 9f 79 7f bb fe 4e e4 3a
       -0.003267435 0.0009088995 -0.0038982404 0.0017418561
0000d0 ea d7 94 3b ff 5c bc 3a 38 4b 0e 3b e9 54 a0 3b
       0.0045423405 0.0014370977 0.0021712314 0.0048929346
0000e0 4f 1f 64 bb ce 94 8a b6 2a 01 06 bb 50 9d 59 3b
       -0.00348087 -4.1300436e-06 -0.0020447471 0.0033205338
0000f0 51 3a ba 39 78 13 06 3b 60 c5 f8 3a 35 63 fb ba
       0.00035520134 0.0020458382 0.0018979721 -0.0019179346
000100 a8 5e 91 bb 2b 42 80 3b e5 4e 99 ba ea ad f9 ba
       -0.0044363327 0.003914138 -0.0011696486 -0.0019049023
000110 6b 34 9a bb 43 a2 43 3a ae b7 ba b9 45 f8 6e bb
       -0.0047059557 0.00074628385 -0.00035613537 -0.0036463898
000120 2f c0 a4 3b 65 99 20 bb 7c 7c 9e bb 29 91 ce ba
       0.005027793 -0.0024505493 -0.004836617 -0.0015759814
000130 4c 0f 99 bb 87 58 0a 3b bf 12 49 bb 2c b1 27 bb
       -0.004671013 0.0021109895 -0.003068134 -0.002558778
000140 61 3c 9e 3b 20 f0 85 3b 43 6b b2 bb ca d6 f3 ba
       0.004828975 0.004087463 -0.0054449155 -0.0018603441
000150 44 57 a7 bb 54 89 c8 b9 4b 83 5b bb 40 99 11 3c
       -0.0051068384 -0.0003824929 -0.0033495005 0.008886635
000160 6b 19 2c 3b ae b1 54 bb de 68 28 3c b5 d4 14 3a
       0.0026260267 -0.0032454538 0.010278909 0.0005677448
000170 1f 23 8a 3b c5 17 49 3a ff e2 d9 bb b7 d8 4a bb
       0.0042156125 0.00076710834 -0.0066493745 -0.0030951926
000180 f4 33 b8 ba c4 7d ae bb fa d0 84 bb c3 37 09 ba
       -0.0014053569 -0.005325051 -0.0040532323 -0.00052344444
000190 9c 53 48 b9 f4 83 01 bc 4c ec 84 3a 3d f4 90 bb
       -0.00019104633 -0.007904995 0.0010141223 -0.0044236467
0001a0 16 11 0c ba 1b 01 84 bb 05 e2 93 3b a9 eb c7 b9
       -0.0005343122 -0.004028452 0.0045130276 -0.00038131818
0001b0 46 84 2a 3a 05 0f 91 3b 5a e2 93 3b 80 1b 43 3b
       0.00065046956 0.0044268393 0.004513067 0.002977103
0001c0 d7 94 8f bb 23 f3 89 bb 52 d8 39 39 f6 0d 75 bb
       -0.0043817568 -0.0042098924 0.0001772356 -0.0037392355
0001d0 79 3a 66 3b 6a a3 ed ba 1b a4 a6 3b 1a ae a1 3b
       0.0035130067 -0.0018130366 0.005085481 0.0049340846
0001e0 2f 58 28 b9 e6 4a a1 3b 87 d7 3e 39 b2 69 26 ba
       -0.0001605458 0.0049222587 0.00018200102 -0.0006348147
0001f0 d2 e6 13 bb 6f 1d 7b bb 46 c1 91 ba b4 2a b4 bb
       -0.0022568 -0.0038317104 -0.0011120222 -0.0054982547
000200 e4 cb dc ba 46 ec 89 3b 04 af 48 bb ea 72 c8 3b
       -0.0016845432 0.004209074 -0.0030621896 0.0061172144
000210 43 81 9d bb 9e 87 9b bb e6 aa 15 bb bf a7 41 3b
       -0.004806669 -0.0047463914 -0.002283746 0.0029549447
000220 c2 2d 95 bb c2 ed e8 3a fc 0f 82 ba 6b ad 40 bb
       -0.004552574 0.0017771053 -0.0009922977 -0.002940024
000230 1d 98 f3 b9 37 79 b1 3a bc 26 9f b9 72 64 d3 3a
       -0.00046461905 0.0013540153 -0.00030355703 0.0016127957
000240 cf ff a4 3a 00 84 ed ba aa f7 cb b9 04 53 19 bb
       0.0012588444 -0.0018121004 -0.000389037 -0.0023395428
000250 e5 0d ee 3b f3 28 48 bb 92 f8 73 3a 15 be 83 3a
       0.00726484 -0.0030541986 0.0009306754 0.0010051156
000260 7d d4 97 bb 20 b6 63 bb 73 ef 16 bb 61 c7 89 3b
       -0.004633485 -0.0034746006 -0.0023030906 0.004204676
000270 30 ef ab 3b c5 2d 8b bb 53 f9 5a bb 2d da 91 bb
       0.005247019 -0.0042473995 -0.003341277 -0.0044510574
000280 24 b2 3b 3b 65 00 95 3b 52 5c b8 3a be 06 25 bb
       0.0028640116 0.004547166 0.00140656 -0.002518102
000290 74 a8 42 bb 56 05 88 ba 96 d9 93 bb 98 26 80 3b
       -0.0029702457 -0.0010377567 -0.0045120222 0.0039108507
0002a0 6f 47 d8 3a 06 fb a2 3b 38 73 9a ba 68 ce 6f 3a
       0.0016500781 0.004973772 -0.0011783605 0.00091478834
0002b0 8e ad fb 3a a9 ae 94 3a 7b 50 e9 bb 10 e0 9c 3b
       0.0019201504 0.0011343557 -0.0071201897 0.0047874525
0002c0 28 bd 7a bb bb bb 52 bb 6e d9 e4 3b 5a 26 b9 bb
       -0.0038259719 -0.0032155353 0.0069839275 -0.005650324
0002d0 85 b7 ca bb 4b 2b 9c 3a dc 10 37 3b 09 15 97 bb
       -0.006186428 0.0011914758 0.0027933633 -0.004610662
0002e0 8d 6b d5 ba 9c 81 5e 3a 59 0d ef 3a 0a d4 7d bb
       -0.0016282663 0.0008487941 0.0018238231 -0.0038731121
0002f0 f1 b9 3f 3b cf c5 71 bb 2c 2d c8 bb ee 6b a6 3a
       0.0029255117 -0.0036891585 -0.0061089005 0.001269696
000300 4c 2e c2 bb 6a 9f 8e bb 0d 3f 4d 39 2e 78 0e 3b
       -0.005925929 -0.0043524997 0.00019573812 0.0021739113
000310 1a 36 be 3b 1e 23 70 bb 3b d9 a8 3b 79 29 9c bb
       0.0058047893 -0.0036642025 0.005152849 -0.004765686
000320 96 93 c8 3a c3 3f 4b bb f6 37 52 ba 8d 2e cd 3b
       0.0015302773 -0.0031013347 -0.0008019203 0.006261653
000330 ac 1d a5 bb 02 c9 3a 3b 61 d1 6d bb 1a d9 e1 bb
       -0.0050389376 0.0028501158 -0.003628813 -0.0068923356
000340 c3 d3 70 3a bd 0b cb bb d2 cd 40 3b fd 0e 74 bb
       0.00091868284 -0.0061964677 0.0029419553 -0.003724038
000350 95 cd 00 3b ce 6d aa ba 5c 8b c5 3a 16 09 9e bb
       0.0019653786 -0.0013002695 0.001507144 -0.0048228605
000360 23 45 e9 bb 78 0c d4 ba 6a 17 b0 bb 7b 81 94 bb
       -0.0071188374 -0.0016178032 -0.005373885 -0.004532037
000370 af 92 28 bb 45 7c f4 3a 75 47 1c bb d6 43 9e bb
       -0.0025722196 0.0018652758 -0.0023846303 -0.004829864
000380 34 a2 1a 3b 92 64 b9 bb 29 4a 33 3b 95 36 b6 bb
       0.0023595216 -0.005657741 0.0027357435 -0.005560706
000390 4f 40 19 bb fe 23 2a 3b 5e 6c ca bb 62 e0 67 ba
       -0.0023384278 0.0025961394 -0.006177469 -0.00088453863
0003a0 fc c5 d9 ba fe 64 89 ba 34 71 79 3b c3 9b f4 39
       -0.001661479 -0.0010482369 0.003806186 0.00046655358
0003b0 f9 cd e9 ba 58 c3 cb 3b 8e c7 34 bb c3 a3 a6 bb
       -0.0017837874 0.006218355 -0.0027584764 -0.00508544
0003c0 13 82 0c bb a3 97 ad ba ef 25 93 bb dc 9a cd bb
       -0.0021439835 -0.0013244044 -0.004490606 -0.006274564
0003d0 a0 c6 90 bb 74 71 8c bb 4e 83 72 ba 67 0e b8 b7
       -0.004418209 -0.0042859856 -0.00092511333 -2.1941216e-05
0003e0 26 2c 83 ba 7a e1 f3 ba da ec d4 b9 f9 1b a6 bb
       -0.0010007664 -0.0018606626 -0.0004061226 -0.0050692526
0003f0 ac 83 f4 ba 15 f3 92 3a 8b e8 b8 bb 1f 74 cf b8
       -0.0018654964 0.001121136 -0.0056429557 -9.8921584e-05

network_body.linear_encoder.seq_layers.2.weight f4 [256, 256]
000000 a9 5a f8 3d a6 1f a4 bc c0 f8 0f 3e d4 44 a6 3c
       0.12126667 -0.020034622 0.14059734 0.020296492
000010 8a 00 c0 3a f3 d2 71 bd ba 55 b6 bc b2 92 7d bc
       0.0014648598 -0.059039067 -0.022257674 -0.015476869
000020 d3 a1 9a bc 7b 62 44 bd db 16 28 3c f9 6c 6d 3d
       -0.018875992 -0.04794548 0.010259355 0.057965253
000030 4e 04 a7 3d 85 d2 0b 3c 15 07 9a 3d 73 78 09 3d
       0.08155118 0.0085340785 0.07520882 0.033562135
000040 b3 39 4d 3d 13 19 a1 3d 60 23 28 bd f5 e1 63 bb
       0.050103854 0.07866111 -0.04104936 -0.0034772132
000050 6f 48 3c bd 9b 72 2f 3d 74 98 2b 3d 9c 97 69 3d
       -0.045967516 0.042833906 0.041893438 0.05702935
000060 75 61 e7 3d 48 78 91 3c 8f e7 95 3c a2 77 53 bd
       0.11297885 0.01775755 0.018298892 -0.051627763
000070 3d ad c5 3d c8 90 6c bb 69 26 3a 3d fe 81 eb 3b
       0.09652183 -0.0036097039 0.045446787 0.007187127
000080 d8 63 ae 3c 65 be ba bc 82 75 9b 3c 03 c6 d0 3c
       0.021287844 -0.022795865 0.01897693 0.025485044
000090 67 7e c5 3c 83 7d 4a 3d 30 d0 3d be 21 8e 09 bd
       0.024108125 0.049436104 -0.18536448 -0.03358281
0000a0 0e d0 c9 bc 0d cf 66 3b c2 67 c1 3b 32 c6 50 3d
       -0.024635341 0.0035218627 0.0059022615 0.050970264
0000b0 42 7e d2 bc e0 e2 dc 3d ad 9e 4f bd c2 7b 3c 3d
       -0.02569497 0.107854605 -0.050688434 0.046016462
0000c0 cc f9 9b bd 2e eb 24 3d d8 78 82 3c 91 b5 62 3c
       -0.07616004 0.040263347 0.015926763 0.013837234
0000d0 0c 70 0e 3d 92 60 ae bd c1 9c 83 3d bf 2d 84 bc
       0.034774825 -0.08514513 0.06426383 -0.016135095
0000e0 3c f8 55 3c 55 75 95 3d 05 9f f8 bd 7c ee c5 ba
       0.013059672 0.0729777 -0.121397056 -0.0015100981
0000f0 d0 8d bb bc 0b 87 91 3b 8f 8a ea bd b0 19 e2 3c
       -0.02289477 0.004441147 -0.11452209 0.02760014
000100 78 3a 4c bd 4c ad 08 3d da 2b a6 3c cc 38 86 bd
       -0.049860448 0.033368394 0.020284582 -0.06553802
000110 20 cd 59 3e 91 46 08 3d 16 24 9e bd cc 85 7a bc
       0.21269655 0.033270422 -0.077217266 -0.015290689
000120 20 2a d1 bd 41 d9 37 bd 38 7c 5d bd db 87 7f 3c
       -0.10213113 -0.044884924 -0.054073542 0.015596355
000130 7a de 1a 3d 3c 0b 70 bc 8a 2d c9 3c e6 b1 82 3d
       0.037809826 -0.014651116 0.024557848 0.06381588
000140 c9 de 2d 3d b0 82 83 bc 94 59 44 bd a4 6b 7f 3d
       0.042448793 -0.016053528 -0.04793699 0.062358513
000150 9c c8 b6 bc df f1 bf bd 5c 31 a8 bd 4d fe 5f 3d
       -0.022312455 -0.09372305 -0.082125396 0.05468588
000160 e9 6a 9b 3d 39 69 94 3c 07 d6 e8 3c 06 a3 12 bc
       0.07588751 0.01811658 0.028422369 -0.008950001
000170 ce ce bb bd a0 95 d1 3c d0 c3 c7 bb 9a b3 71 bd
       -0.09170304 0.025584042 -0.0060963407 -0.059009172
000180 04 1f 09 3d 47 5b ec 3c 57 b7 b2 3c dd aa 26 3e
       0.033476844 0.028852118 0.021815939 0.16276117
000190 60 1c 1a 3d fb d1 b3 bd 6b 09 61 bb 65 2d 98 bc
       0.037624717 -0.08780285 -0.003433789 -0.018576333
0001a0 92 b0 46 3d ed 0d 32 bd 07 7d 9d 3d df 92 f0 3b
       0.048508234 -0.043470312 0.07689863 0.007341727
0001b0 fa 96 fc bd 05 a9 25 3d ab ce d0 3c c7 34 ee bd
       -0.12333484 0.040444393 0.025489172 -0.1163116
0001c0 e7 20 18 be b7 b4 c2 bd 21 b2 83 3d eb d5 25 bd
       -0.14856301 -0.09507125 0.0643046 -0.04048721
0001d0 6d 8c cf 3b 9d 52 81 3d 6d ad 9b 3c f1 5e ad 3d
       0.0063338787 0.06314585 0.019003594 0.08465374
0001e0 0b c2 d5 bd f9 6f ce bd 5e 8a fb bd e0 fb a7 bd
       -0.104374014 -0.10079951 -0.12282251 -0.08202338
0001f0 e5 1b 57 3c 57 7b 8e 3d b7 c1 28 bd 01 4e 64 3d
       0.013129209 0.06957119 -0.041200366 0.055738453
000200 0a f6 5e 3d ea cf f6 3d 9e a2 04 3d d7 de 11 3d
       0.05443386 0.12051375 0.032381646 0.035612907
000210 fb e6 b0 3d 3e c5 7c 3d db c5 38 be 23 e5 5e bd
       0.08637806 0.061711542 -0.18044226 -0.05441774
000220 b8 fd 0d 3d d9 db 02 3c 95 ff 93 bb ce 8c b9 bd
       0.034665793 0.007986986 -0.0045165517 -0.090600595
000230 ed 7d 06 bc 6b 48 94 bb bf 6e 01 bd d6 88 9e 3c
       -0.008208734 -0.0045252345 -0.031599756 0.019352358
000240 87 b3 af bd 1b b7 d8 3c 88 06 77 3d 60 53 1f 3d
       -0.08579164 0.026454499 0.060308963 0.038897872
000250 65 9b 36 3d 96 74 ab 3c c0 29 1e bc 2e 4d e7 3b
       0.04458179 0.020929616 -0.009653509 0.007058761
000260 4f a6 0d bd 44 f8 cd 3d 64 64 87 bd 05 0e ac bc
       -0.034582432 0.100571185 -0.06610945 -0.021002779
000270 91 64 6d bd 32 e3 8e bd 59 4f 90 bd 49 32 65 bd
       -0.057957236 -0.06976928 -0.07046384 -0.05595616
000280 1c 81 a6 bd 72 c6 bb bc 99 86 ca 3d 21 1f ba bc
       -0.081300944 -0.022921775 0.09888954 -0.022719922
000290 3e e3 00 be 64 97 ac bd dc 2b 46 3d 31 4f 80 bd
       -0.12586686 -0.08427313 0.04838167 -0.062651046
0002a0 c8 25 24 3e f2 0f c9 bd 96 10 ef 3c 2f a4 c2 3d
       0.16030037 -0.098174945 0.029182713 0.09503972
0002b0 0a 67 8f 3d 76 6b 90 3d b3 01 1c 3d a2 58 f8 3c
       0.07002075 0.070517465 0.038087558 0.0303157
0002c0 24 cc d4 bd 1d 2b ed 3a db 8d 57 bd 03 26 48 3d
       -0.10390499 0.0018094514 -0.05262552 0.048864376
0002d0 1f 6d 29 3d 5b d5 1d 3e 26 0e b6 3d d1 a4 77 bd
       0.04136383 0.1541342 0.08889417 -0.060459916
0002e0 94 8f eb 3d 67 75 f6 ba 11 3c 03 3e 43 c6 7b 3d
       0.11501995 -0.0018803299 0.12815882 0.061468374
0002f0 d2 ab 6f bc 65 17 46 3c 79 8f 1a 3d 33 2a 88 bc
       -0.0146283675 0.012090539 0.037734482 -0.016621685
000300 b3 79 65 3c 5a ea 10 be c9 b0 8e 3c 3d e8 de bc
       0.014006066 -0.14151898 0.017418282 -0.02721035
000310 b8 f7 9d bc 53 6c 3b 3d d9 c6 9d bb ed 43 1b bd
       -0.01928316 0.045757603 -0.0048149643 -0.037906576
000320 04 7f 7b 3c ed e4 2e bd 30 0c b8 bc 60 9a ee 3c
       0.015350107 -0.04269879 -0.022466749 0.029126346
000330 07 e9 03 bb 03 e5 1c bd 43 ec d7 3d ca 3b c9 3d
       -0.0020127909 -0.03830434 0.1054311 0.09825857
000340 d1 4c 42 3d b0 cf 71 3d 96 a1 7d 3c 2d e6 1e be
       0.04743654 0.059035957 0.01548042 -0.15517493
000350 89 a8 42 3c 6d a1 73 bd de 51 38 3e 4a b0 f6 bd
       0.011881002 -0.05948012 0.1799998 -0.12045343
000360 3d bb 1d bd 68 bb 8a bb 55 77 1f 3c 2a fa ae bc
       -0.038508642 -0.0042337663 0.009733041 -0.021359522
000370 53 c5 b9 3c 44 18 7d 3d 75 93 c2 bc f2 3c 3c 3b
       0.0226771 0.06179072 -0.023751954 0.002872285
000380 67 6a 7a 3b 38 6d 82 3d 6f 80 61 3d 6b d3 26 3c
       0.0038210393 0.06368488 0.055054124 0.010182242
000390 be 33 8e bd e5 61 77 bd de 69 dd ba c7 69 c2 3c
       -0.06943463 -0.060396094 -0.0016892513 0.02373208
0003a0 a3 55 f0 3c 14 4e 26 3d b0 c5 c0 3d 3f 3b 36 3d
       0.02933771 0.040601805 0.09412706 0.044490095
0003b0 5f d3 86 3d 70 e5 44 3d e4 3e 08 bc dc 34 c0 3c
       0.065832846 0.04807037 -0.008315776 0.023462705
0003c0 7f ca 4d bd ab 81 cf bc 65 7b 25 bd d0 84 5e 3d
       -0.050241943 -0.025330385 -0.04040088 0.05432588
0003d0 bc c1 42 bd 72 81 b3 3c 66 0c f6 bc 0a 83 8e 3d
       -0.04754804 0.02191231 -0.030035209 0.069585875
0003e0 08 53 bc bb 26 23 b3 3c 1c bb 8f bd 78 ba dc 3c
       -0.005747203 0.021867346 -0.0701811 0.026944384
0003f0 9e 90 06 bb a1 78 5a 3d a8 67 0f 3c 50 5c 86 bd
       -0.0020532976 0.053337697 0.008752741 -0.06560576
