config/results/basic_1M/PathFollowing/PathFollowing-795498.onnx (onnx, 695646 bytes, 7 tensors)

action_model._continuous_distribution.log_sigma f4 [1, 3]
000000 c0 35 8c bd bc 2a f8 bd ed b5 29 bd
       -0.068461895 -0.12117526 -0.041433264

action_model._continuous_distribution.mu.bias f4 [3]
000000 e3 5f 32 39 be a0 cc 3b a1 ac 3a bb
       0.00017011123 0.006244748 -0.0028484243

action_model._continuous_distribution.mu.weight f4 [3, 256]
000000 47 fa 0b 3d 92 93 2e bc 54 01 b4 3b 23 a7 98 3c
       0.03417423 -0.010655301 0.0054933224 0.018634384
000010 f5 c0 79 bc ac 3f 05 bd ae 8e 9d 3c 89 fb c9 bb
       -0.015243758 -0.032531425 0.019233074 -0.0061640185
000020 97 f1 aa 3b 55 b8 fd 3c eb 01 f7 3b 52 a8 ef bb
       0.005216788 0.030971685 0.0075380704 -0.0073137665
000030 4c f7 27 bc 27 1a ca bb df 64 87 3b b9 2f a3 bc
       -0.010251831 -0.0061676684 0.004131898 -0.019920217
000040 23 f2 4e 3c 94 2e d4 bc 8e 8d 2b 3c c5 26 af bb
       0.012630972 -0.025901116 0.010470761 -0.005345198
000050 9b 1e a8 3c 0a b4 c7 bc cc 21 58 3b eb 9e 19 3b
       0.020522406 -0.024377842 0.003297913 0.002344067
000060 2f 01 3b 3b a1 41 8d 38 2d 41 5d 3c 6c cc 43 bc
       0.002853464 6.735628e-05 0.013504309 -0.011950593
000070 1d 56 5b 3b 80 c0 04 bd 1f 68 a5 bc 3e fb 50 bc
       0.0033468076 -0.032410145 -0.02019125 -0.012755213
000080 27 89 ce 3b e8 09 67 bb 1a 2c 87 ba c8 7d 34 bd
       0.006302971 -0.0035253707 -0.0010312826 -0.044065267
000090 46 3a 0d bd 66 68 16 bc 47 1b e7 3b a8 24 ee 3b
       -0.034479402 -0.009180164 0.0070528123 0.0072675534
0000a0 71 a6 f7 3c ae 9a 51 39 bc b3 ae bc ce 84 11 3c
       0.030230733 0.00019989416 -0.021325938 0.008881761
0000b0 82 4d a5 3c 56 ae 35 3c d6 f9 2b 3b a2 68 64 bb
       0.02017856 0.011088928 0.0026241443 -0.0034852405
0000c0 3e 81 4f 3c db 3c 22 bb 68 e9 e8 3b 8c 20 b7 bb
       0.012665091 -0.002475551 0.0071079023 -0.0055885967
0000d0 65 48 e7 bc ef c9 04 bc 72 a5 d0 3c 18 70 05 bc
       -0.028232763 -0.008104785 0.025469515 -0.008144401
0000e0 99 20 94 3b c1 a8 9b bb 56 ef e6 bc 66 14 83 bc
       0.0045204875 -0.0047503416 -0.028190296 -0.016000938
0000f0 43 bf b1 bc 54 47 14 3d 4b 64 bd 3c 2c 52 80 3c
       -0.021697646 0.036200836 0.023119112 0.015664183
000100 29 e1 b5 3b 6d fb 67 3c 27 65 33 3d b0 4a 9a bc
       0.005550523 0.014159066 0.04379764 -0.018834442
000110 e6 be 7f bb 1f b3 75 bc 4f c0 10 3c 89 21 86 3c
       -0.0039023696 -0.014996319 0.008834912 0.016373413
000120 76 02 85 bc 3d 49 c3 ba 23 42 7c bc a5 10 6a 3c
       -0.016236525 -0.0014899146 -0.015396628 0.014286195
000130 7b 7b 9f 3a 9d 1d 41 bc 47 e0 83 3c 01 8a cc 3b
       0.0012167537 -0.0117868455 0.016098155 0.0062420373
000140 d9 a7 60 3c 96 82 89 37 3d 76 b1 3c bc fb 5a 3c
       0.013711893 1.6392481e-05 0.021662826 0.013365682
000150 54 87 7d 3b 59 91 e2 3b 38 2a e8 bb 8c 9a a9 bc
       0.0038685398 0.0069142994 -0.007085111 -0.020703577
000160 bf f4 5c 3c 25 fc 4a bc 6a 7a 80 bb db c8 0f bc
       0.013486086 -0.0123892175 -0.003920843 -0.008775915
000170 7b bd c7 3b 07 b9 ab 3a ec 77 80 3b fb bb 14 3b
       0.006095586 0.0013101407 0.003920546 0.0022695053
000180 12 eb 0b 3a b2 09 01 3c 86 1c c7 bc c3 09 a1 bb
       0.00053374574 0.007875847 -0.024305593 -0.0049144938
000190 e8 3d 0e 3d 23 5f 8b 3b 6f d8 51 bc 75 15 1a bc
       0.034727007 0.0042532845 -0.012807949 -0.00940453
0001a0 5d 0a 4d 3b 09 63 69 bb 74 49 f7 bb da a4 20 3d
       0.0031286695 -0.0035612008 -0.007546598 0.039219715
0001b0 6d 14 8d 3b e0 cd 7e bc 1f 59 5c 3c f8 9c 8e bc
       0.0043054135 -0.015552014 0.0134489825 -0.017408833
0001c0 76 8f 94 3c 2b d4 43 bc 84 05 1d 3c dd e4 5f 3c
       0.018134814 -0.01195244 0.009583835 0.013665405
0001d0 5d 49 79 3c 40 c2 f5 3b 48 0a 41 bb 07 bd c1 bc
       0.015215245 0.007499963 -0.002945559 -0.023649706
0001e0 3d 8a c5 bb 82 5e c7 bb 51 28 32 bc 8a 68 94 3c
       -0.006028442 -0.0060842643 -0.01087387 0.018116254
0001f0 23 ad 2a bd 8d 90 72 bc 69 4f a0 3c 04 91 8c 3b
       -0.041669022 -0.014804971 0.019569116 0.004289748
000200 2d a3 97 bc be e4 15 3c 89 7e bc 3b 0a b1 02 3b
       -0.018510425 0.009148775 0.005752389 0.001994195
000210 91 8e e2 3b 4d a6 96 bc 18 cf fa 3c 54 72 40 bc
       0.006913968 -0.018389845 0.030616328 -0.011746008
000220 f1 b4 6d 3c 5c 15 85 39 2e 4c 13 3d 16 75 92 bc
       0.014508472 0.0002538365 0.035961322 -0.017878097
000230 29 8a fd 3c 30 72 e4 bb 46 33 1c 3c 55 66 a7 bb
       0.030949669 -0.00697162 0.009533709 -0.0051086345
000240 00 d6 a7 bb 5a 63 03 bd 70 9e a1 bc 86 12 43 bd
       -0.0051219463 -0.03207717 -0.01972887 -0.047625087
000250 57 c9 e8 3c 6f 49 f7 bb ea 59 81 3b bb da 97 bc
       0.028416319 -0.0075465958 0.003947486 -0.018536916
000260 e8 01 b8 3a 3c 49 93 bc 6d 28 76 3c 4f 21 3c 3c
       0.0014038654 -0.017979257 0.015024287 0.011482551
000270 56 8b 0f 3c f6 d5 56 bc 26 16 00 bc 74 37 ac bb
       0.008761248 -0.013112536 -0.007817781 -0.005255634
000280 cf 54 1f bd 6d 71 d1 3b 4e 3a 2f bb bd 1a d8 b9
       -0.03889924 0.0063916952 -0.0026737633 -0.00041218652
000290 2b 68 05 3d 28 74 ad ba 5c 53 05 bc b1 7d dc 3b
       0.032570045 -0.001323347 -0.00813755 0.006728851
0002a0 fe 6f 90 bc 54 cb b3 3b 21 24 c1 bc de e0 83 3c
       -0.017631527 0.005486885 -0.023576798 0.016098436
0002b0 18 88 95 3c 4d cb 32 3c d5 8c 61 3c 3b 72 1c 3d
       0.018253371 0.0109127285 0.013766487 0.038194876
0002c0 bf 59 9a bb 26 6d 61 bb 05 93 4f 3c e2 90 e9 3b
       -0.0047104056 -0.0034397333 0.0126693295 0.007127867
0002d0 c3 6d 7c bb 0f 94 91 3c e3 57 bd 3c 87 25 bc bb
       -0.0038517572 0.017770795 0.023113197 -0.0057417783
0002e0 5c 24 5c 3c 5a f9 bb 3c 15 40 94 3c 2b 03 df bb
       0.013436403 0.022946049 0.018096963 -0.0068057976
0002f0 c8 5f b7 3c 53 71 44 bc 96 d9 0a bb 5a 82 f9 3c
       0.02238454 -0.011989909 -0.002118682 0.030457664
000300 d9 6f a3 3b c1 5b 8b ba a9 f3 ce 3b b7 1e a7 3c
       0.0049876985 -0.0010632203 0.0063156676 0.020400388
000310 dc 77 8f 3c 8f 07 b3 bc 96 72 a2 ba 9b 64 02 bb
       0.017513208 -0.02185419 -0.0012393768 -0.0019896391
000320 57 e9 52 bc f7 f3 22 3c 68 3b b7 bc 87 32 23 3d
       -0.012873015 0.009945861 -0.022367194 0.03984311
000330 d6 af e8 bb 81 95 49 bb 1f 15 8c bb 6e 37 b5 bb
       -0.0071010394 -0.0030759277 -0.004274979 -0.0055302894
000340 c9 c5 02 3d 25 44 38 3c 52 75 1a 3d d4 ca 4f 3c
       0.031926904 0.011246716 0.03770954 0.012682635
000350 17 c0 9f 3c ab f4 0b 3d ed 08 95 3c 5b 76 36 3c
       0.019500775 0.03416888 0.018192733 0.011136617
000360 7f b1 10 bc a6 20 0c bd 2a 9f 9a ba fc 93 a2 38
       -0.008831381 -0.034210823 -0.0011796702 7.752326e-05
000370 c3 e2 0a 3b a3 cf 44 3c a9 58 cb bb 82 40 9d bc
       0.002119229 0.012012395 -0.0062056375 -0.019195799
000380 7a be f3 bc 98 89 28 3c 09 01 74 bb c1 dc 2b bb
       -0.029753912 0.010286711 -0.0037232062 -0.002622411
000390 0a 4d de 3b b0 3b 50 bc 1f 11 6b bc 0c 12 11 bc
       0.006784086 -0.012709543 -0.014347344 -0.0088544
0003a0 0b 6d 72 bc fa 75 bb bc f7 1b 1b 3b 9b 49 0e ba
       -0.014796506 -0.022883404 0.0023667791 -0.0005427838
0003b0 45 e8 29 3c ae 72 2d 3b 4a a2 27 3c d1 df 3f 3c
       0.010370319 0.002646606 0.010231564 0.011711077
0003c0 c8 48 2d bc b7 ee 44 ba b7 ec b0 39 fe 9e 24 bc
       -0.010576434 -0.0007512378 0.00033745702 -0.010047672
0003d0 6f 33 3e 3b ab a2 5e bc 61 cd bf bb df db f2 3b
       0.0029022356 -0.013588588 -0.0058533405 0.0074114646
0003e0 68 f7 5a bb f0 f8 b4 3c 52 87 b6 3c 94 e3 f7 3b
       -0.0033411626 0.022091359 0.022281323 0.007564971
0003f0 f7 01 47 3b b4 9d a0 bc a2 a0 b9 b9 42 bb 08 bc
       0.0030366161 -0.019606449 -0.0003540563 -0.008345427

network_body.linear_encoder.seq_layers.0.bias f4 [256]
000000 ec 04 2d 39 83 32 5d 3b 35 a9 85 b9 93 cf ff 3a
       0.00016500399 0.003375203 -0.00025493806 0.0019516818
000010 3d a0 5d 3b 99 e2 c8 ba 0a 3a b2 bb 04 03 9d ba
       0.0033817433 -0.001532632 -0.0054390477 -0.0011979048
000020 f0 ae 82 bb 98 3b 14 b9 9a 81 bd bb d1 27 5d bb
       -0.0039881393 -0.0001413658 -0.005783272 -0.0033745656
000030 4e 24 99 bb ff 31 b4 3b 5d 23 8e ba cf 15 56 3b
       -0.0046735173 0.005499124 -0.0010844279 0.0032666808
000040 75 3c 72 bb 0c 1d d0 ba 29 92 bf ba 65 3b 84 bb
       -0.0036962305 -0.0015877797 -0.0014615703 -0.0040354007
000050 20 61 f7 bb 6a f7 05 bb e2 b4 bd ba c1 e9 75 bb
       -0.00754942 -0.002044166 -0.0014473463 -0.0037523361
000060 09 fa 2b bb b2 9a e6 ba 43 b5 19 3b 25 a6 ee ba
       -0.0026241562 -0.001759371 0.0023453988 -0.0018207474
000070 8d 5a 9e 3a f9 d2 8e 3b 37 3b 45 3b 60 d3 22 bc
       0.001208143 0.004358646 0.003009511 -0.009938091
000080 0b 81 12 3b ef f5 92 ba 58 cb a6 39 73 c8 3d bb
       0.0022354748 -0.001121221 0.0003181349 -0.0028958588
000090 60 51 b6 bb e6 a1 b4 ba e0 18 9c 3b 5f a1 1f bb
       -0.0055639 -0.001378116 0.0047637075 -0.002435766
0000a0 08 fd 3e 3c a4 42 80 3b 2c 41 f0 39 d2 9a 15 bb
       0.011657007 0.003914194 0.00045824924 -0.0022827876
0000b0 00 cd 07 3b 83 20 2b bb 14 52 0b ba a9 47 a4 bb
       0.0020721555 -0.0026111908 -0.000531466 -0.0050134254
0000c0 49 b8 83 ba dc e8 40 bb 28 f0 7f 3b 24 07 d2 38
       -0.0010049428 -0.002943567 0.0039053056 0.000100149104
0000d0 b1 8a 0c bc 3d a3 25 b8 57 14 c0 bb fe 19 42 bb
       -0.0085779885 -3.9491093e-05 -0.0058617997 -0.0029617543
0000e0 a9 15 60 bb be 12 39 39 e6 bb d9 bb b2 37 1c bb
       -0.0034192598 0.00017649957 -0.0066447137 -0.0023836908
0000f0 cb ce 52 bb 5e b9 85 3b 4a 9c cf 3b c5 a1 92 3b
       -0.0032166715 0.0040809354 0.00633577 0.004474851
000100 1c 24 9d 3b 4a d4 0e bb 41 a7 13 38 bc 73 53 3c
       0.0047955643 -0.0021794015 3.52033e-05 0.012906011
000110 11 77 5c 3b a0 ae 47 bb e3 d1 e4 ba fb 9f c6 bb
       0.0033640305 -0.0030469075 -0.0017457571 -0.0060615516
000120 d1 39 01 ba 22 8a a9 b9 c8 94 ef ba d9 22 95 bb
       -0.0004929575 -0.0003233711 -0.0018278593 -0.0045512733
000130 39 6b 2e bb 16 53 ed 3b 66 48 95 b9 c5 fc 6b 3b
       -0.0026614203 0.0072425706 -0.00028473436 0.0036008817
000140 d4 51 a5 bb 02 c7 cf bb 04 a2 a9 bb 51 07 b2 3a
       -0.005045155 -0.0063408623 -0.0051767845 0.0013582503
000150 74 00 c5 bb 49 b7 1e bb 7d 09 c6 bb 41 d8 73 3b
       -0.006012017 -0.0024218133 -0.0060436116 0.0037207755
000160 94 11 b3 bb 0c e7 64 ba c2 91 2f 3a b2 5b 27 3c
       -0.005464742 -0.00087319384 0.000669744 0.010214733
000170 aa f7 88 3b be 78 bc bb a3 2b 39 bb 53 d9 86 ba
       0.0041799145 -0.0057516983 -0.002825477 -0.0010288156
000180 a0 84 90 3a 6e 83 84 3b 80 af 91 bb 3a 14 29 3b
       0.0011025853 0.004043988 -0.00444597 0.002579941
000190 ec 18 12 bc 66 c5 d0 b8 22 59 d3 ba cd 6c dc 3a
       -0.008917075 -9.954981e-05 -0.0016124586 0.0016817093
0001a0 1a f8 6d 3b a5 c2 17 bb 8a 26 70 bb 14 5c d0 3a
       0.003631121 -0.0023156789 -0.0036644065 0.0015896582
0001b0 6b 6e c2 3a 75 61 df ba 5e f0 c6 3b a5 1f f7 ba
       0.0014833933 -0.0017042594 0.0060711345 -0.0018854035
0001c0 d6 5c 91 3a ce 61 a0 3b bc 3a 4e 3b d9 ad be 3a
       0.0011090289 0.0048944717 0.0031468114 0.001454766
0001d0 7b 81 cb 3a 73 bf 39 bb 7c 97 40 3c e7 ec 99 bb
       0.0015526259 -0.0028342872 0.011754867 -0.0046974304
0001e0 f8 28 ae bb bb 43 2f ba 7b 01 fd bb 25 64 fc 39
       -0.0053149424 -0.0006685813 -0.0077211238 0.000481398
0001f0 d7 a5 66 3a ba 59 39 3b 9b b0 ab ba d5 12 04 ba
       0.0008798516 0.002828224 -0.0013098897 -0.00050382066
000200 16 f2 e3 3b 84 1c 95 ba 54 6d 7a 3b 3f 72 06 bb
       0.006956349 -0.0011376296 0.0038212137 -0.0020514873
000210 d2 ee db 39 2c 15 43 bb e0 f1 44 ba 72 3a f6 39
       0.0004194887 -0.0029767258 -0.0007512849 0.00046964322
000220 65 90 c1 bb 1c c7 b3 bb c7 e9 ac 3a 76 de 8e 3b
       -0.0059071057 -0.005486382 0.001319223 0.0043600155
000230 b2 67 c8 b9 36 97 8c bb ce 56 3f bb 14 58 86 bb
       -0.00038224232 -0.0042904867 -0.0029196027 -0.004099855
000240 b2 fc 2e 3b 02 8a 90 bb c9 d7 47 3a f4 a9 ff bb
       0.002670091 -0.004410983 0.0007623402 -0.0078022424
000250 59 cc cf 3b ee a6 96 3b 8a c6 fc ba 37 dc 60 bb
       0.006341499 0.0045975363 -0.0019285243 -0.0034310946
000260 28 bd 4e bb fb 94 d1 3a b3 0b 1f 3c 5c d1 9d 38
       -0.0031545851 0.0015989834 0.009707379 7.5253396e-05
000270 5c d9 c1 3a 07 62 1d 3b ac ab 84 bb f6 5c 13 3b
       0.001478951 0.0024014728 -0.004048785 0.002248583
000280 ea 03 7f 3b 2f 65 bd bb 15 bc 0c bc d2 d4 8a bb
       0.0038912245 -0.0057798843 -0.008589764 -0.004236796
000290 63 72 6f 3b e3 59 ad ba 70 53 c3 bb e4 d2 e4 3a
       0.0036536686 -0.0013225641 -0.0059608743 0.001745787
0002a0 48 a0 fc bb 8c 15 23 3b 2a 6b 44 3b 1e 03 27 bc
       -0.0077095367 0.002488467 0.0029971101 -0.010193614
0002b0 2b 75 3b 3b e3 54 a1 bb f6 96 06 bb 54 d4 fd b9
       0.0028603773 -0.0049234494 -0.0020536757 -0.00048414117
0002c0 e5 bd 92 ba f2 2e 8f bb e0 59 17 3b ff b5 a9 bb
       -0.0011195509 -0.00436961 0.002309434 -0.0051791663
0002d0 08 85 19 bb f7 3a e7 b9 7c 83 8d 3b 3b 0d e8 39
       -0.002342524 -0.00044103686 0.0043186527 0.00044260346
0002e0 d6 ba d9 ba 39 f1 c2 ba 0f d7 ad 39 41 83 a8 3b
       -0.0016611468 -0.0014872915 0.00033157362 0.0051426
0002f0 c7 a9 6d 3a 67 93 a0 bb 2c f4 dc ba 39 77 57 bb
       0.00090661313 -0.004900384 -0.0016857437 -0.0032877459
000300 06 7f 0b 3b 60 6c 49 3b 6f af bb bb 72 8f a8 bb
       0.0021285429 0.0030734763 -0.0057277004 -0.005144053
000310 35 0a ea bb 3b 63 c3 3b a7 70 9c 39 3d a0 ba 3b
       -0.00714233 0.005962757 0.0002983857 0.0056953714
000320 7f 3e 46 bb 35 4c 07 bc 37 5a 7a 3a 87 e6 49 ba
       -0.0030249653 -0.008257915 0.0009550186 -0.0007701893
000330 b5 94 b1 3b 00 a8 9e ba 2e 84 2f 3b 8c db 59 ba
       0.0054193386 -0.0012104511 0.0026781666 -0.0008310608
000340 98 8c 87 bb 61 78 7a bb 36 d2 f9 3a 88 4b b4 3b
       -0.004136633 -0.0038218724 0.001905984 0.005502168
000350 18 e1 bb 3a e5 1c 82 3a db e5 b7 bb d2 a6 19 3b
       0.0014334051 0.0009926824 -0.0056121177 0.002344538
000360 d9 7b 61 39 07 54 9a b8 45 3b ce 3b ea bd 70 3b
       0.00021503809 -7.3589435e-05 0.0062936866 0.0036734291
000370 f5 37 ff 3a f2 39 c4 39 b1 c8 16 3c 80 fe da bb
       0.0019471633 0.00037427206 0.009203122 -0.006683171
000380 7b 9b 14 bb eb b9 8e ba 2a 4f 50 bb 8b 32 2c 3b
       -0.0022675681 -0.0010889148 -0.0031785467 0.0026275243
000390 ee 8a 1e bb ca 49 26 3b 4a b1 da ba d2 7a 1c bb
       -0.0024191695 0.0025373572 -0.0016684916 -0.0023876918
0003a0 ea 5f 0e 3a 4b 1c ec 3b 35 95 89 bb 0a b3 42 3a
       0.00054311624 0.007205521 -0.004198695 0.00074271916
0003b0 41 6a 56 ba 78 bf 91 ba 76 62 20 bc 82 5d 39 bb
       -0.0008179285 -0.0011119684 -0.0097891 -0.0028284495
0003c0 8c 0a 57 3a 7c f7 24 bb a3 04 33 ba aa 88 86 3b
       0.0008203171 -0.0025171926 -0.0006828999 0.004105647
0003d0 7a fa bb bb 7f 04 11 bc a4 e0 2e 3b 92 51 22 3b
       -0.0057366462 -0.00885117 0.002668419 0.0024767858
0003e0 1f a2 17 bb 50 c6 1b bb 29 10 3d bb 0b 41 0f 3b
       -0.0023137403 -0.0023769327 -0.0028848744 0.0021858837
0003f0 31 32 03 ba 49 5d 45 bb 4a c4 84 3b c9 d1 4f b9
       -0.00050047325 -0.0030115417 0.00405172 -0.0001981921

network_body.linear_encoder.seq_layers.0.weight f4 [256, 416]
000000 06 dd bd 3d aa e7 d4 3c f7 b5 b2 bc 8d a6 7d 3c
       0.092706725 0.025989372 -0.021815283 0.015481603
000010 0f f5 91 bc 4b 74 6a bd c3 f3 c9 3c bb 9d 0f 3d
       -0.017817048 -0.057239812 0.024652367 0.035062533
000020 cb ac 98 bc ba d1 6b bd bc 2c 9e bc 66 f3 bf bd
       -0.018637082 -0.057573058 -0.01930844 -0.093725964
000030 bc b6 49 3d 89 5b dd 3c f6 25 42 3d d1 ff d3 3c
       0.049246535 0.027021186 0.047399484 0.025878819
000040 20 ab 25 bd b2 dd 1d 3d f5 6a 69 bc 47 71 99 bd
       -0.0404464 0.038541503 -0.014246692 -0.07492309
000050 9e cb 92 3d 31 c6 12 bc 8b ad a6 3c 69 a5 1f bd
       0.07167743 -0.008958385 0.020346424 -0.038976107
000060 c4 a7 e9 3c d4 84 24 bd 42 df c4 3c e1 bf 75 3d
       0.02852238 -0.040165737 0.024032239 0.059997443
000070 b5 03 c7 39 5c 56 28 bd c7 6c 19 bd 2d 2a 07 bd
       0.00037959 -0.041097984 -0.037457254 -0.032999206
000080 c3 4c 45 bc c3 06 6e 3d c6 19 5a bd 09 19 df bc
       -0.012042227 0.058111917 -0.053247236 -0.027233617
000090 35 43 a0 3c 94 cd 6e 3d 0f 17 0f bd 14 af 49 bd
       0.019563297 0.058301523 -0.0349341 -0.049239233
0000a0 9d f2 9c bd 67 c7 42 bd a0 90 75 bd fc f8 90 3c
       -0.07663462 -0.047553446 -0.05995238 0.01769685
0000b0 7e 7d 19 3d c3 72 93 bc 33 12 fa bd 57 94 d4 bc
       0.037473194 -0.017999059 -0.122105025 -0.02594964
0000c0 aa eb 92 bd dd e3 b6 bb 1d d2 95 3c fb bc 3e bd
       -0.071738556 -0.0055813626 0.018288666 -0.046566945
0000d0 da 15 24 ba c3 a3 e4 bc aa 5f 4f bd 5b 7b 52 3d
       -0.00062593597 -0.027910119 -0.05062834 0.051387172
0000e0 cc e1 ba 3c 8a 4c 6c 3d 25 6c 6f bc 58 c1 ec bc
       0.022812746 0.05769018 -0.014613186 -0.028900787
0000f0 a6 aa 20 bd cf 65 f0 bc 74 ed 34 bd 3f 87 d4 3d
       -0.039225243 -0.029345421 -0.044171765 0.10377359
000100 03 09 46 3c 07 9b 8a bd 7b 41 31 3d 24 8b 8b bd
       0.0120871095 -0.0676785 0.043275338 -0.06813648
000110 0d 83 d1 3c 7a 96 bb 38 f0 51 23 bd e3 20 b8 bb
       0.025575185 8.944883e-05 -0.039873064 -0.005619155
000120 2a c3 1e bd 9c 9a 8a bd 4d 2a 57 bd 06 8a b9 bb
       -0.03876034 -0.06767771 -0.052530576 -0.0056622056
000130 c5 5c 40 bd 71 d0 07 3b e5 4b a9 bd bd 8c 0d bd
       -0.046963472 0.0020723606 -0.08266429 -0.034558047
000140 52 a9 33 bd 42 7d 01 bd 0a d1 9d bc a7 fb c9 3c
       -0.04386265 -0.031613596 -0.019264717 0.02465613
000150 4a ed 3d 3d 63 ae 37 bd c3 d0 44 3d 68 23 60 3c
       0.046368875 -0.044844043 0.048050653 0.0136803165
000160 23 e2 bc 3c 3d ed f5 bc f8 28 b0 bc 08 19 3b bc
       0.02305705 -0.03002035 -0.02150391 -0.011419542
000170 e1 ea 83 bd f2 ab 10 3d 81 f3 78 3d 47 f4 38 bc
       -0.06441284 0.03532023 0.0607791 -0.011288709
000180 36 c6 91 bd 61 d4 d9 3b b6 19 4d bd a1 45 74 bd
       -0.07117884 0.006647632 -0.050073348 -0.059636716
000190 67 4b c9 3b b9 74 df bd c1 2b d1 3d b3 cc 62 3b
       0.006143022 -0.10910935 0.102134235 0.0034606874
0001a0 d6 bd 94 bc 59 56 0b 3c e7 46 7f 3d a0 6b fa bb
       -0.018156927 0.008504474 0.062323477 -0.0076422244
0001b0 24 95 21 bc e4 6d f0 bc dc f3 49 bd 3e 62 3d 3d
       -0.009862218 -0.029349275 -0.049304828 0.04623627
0001c0 eb 44 66 3b 6e 5c 2a bd 85 74 19 bc a3 b4 ba 3a
       0.0035136293 -0.041592054 -0.009366159 0.0014244508
0001d0 8f c7 bb 3b 85 04 b7 3d d9 05 b7 bd 1a 5b 2d 3d
       0.0057305763 0.08936409 -0.08936662 0.04232321
0001e0 6a b7 3e bd a2 70 11 bc c0 64 d0 3d 48 14 99 bb
       -0.046561636 -0.008876951 0.101754665 -0.004671607
0001f0 b2 10 8a bd 7b eb 04 bd 8c c3 8e bd 2e 8a 38 bc
       -0.06741466 -0.032451134 -0.06970891 -0.011263413
000200 31 f3 0a bd ad 6a 4f bd 97 f6 e8 bd 56 1a a7 bd
       -0.03392333 -0.050638843 -0.11375158 -0.0815932
000210 52 34 b3 bc 72 a1 1f 3d 71 7c 04 3b 36 3e 85 bd
       -0.021875534 0.038972326 0.0020215774 -0.065060064
000220 e8 ee 08 3d 82 5c b8 39 1e 12 69 bd fd 9c 03 bd
       0.033430964 0.00035164139 -0.056902044 -0.032132138
000230 5d 07 48 bb b0 72 62 bd 52 84 17 ba 12 df dd bb
       -0.0030521967 -0.055285156 -0.000577991 -0.006770977
000240 83 74 61 3d 0c 98 82 3c 1a a7 08 bc 27 02 33 3d
       0.055042755 0.015941642 -0.008340621 0.043703225
000250 92 6d d4 bc 91 e7 40 bd 9d 19 6b 3c 3b 69 bb bd
       -0.025931153 -0.04709584 0.014349368 -0.091509305
000260 77 aa 02 bb 07 32 2a bd c8 ab 35 bc 77 6c a6 bd
       -0.001993803 -0.041551616 -0.011088319 -0.08126157
000270 91 c2 52 bd 7c ca 82 ba 80 d8 c8 bc d2 ea 40 3d
       -0.051455084 -0.0009978558 -0.024517298 0.047098942
000280 f6 17 62 bd 5a 26 71 bd 78 2c 8a 3c f6 b0 8e bd
       -0.055198632 -0.058874466 0.016866907 -0.06967346
000290 4f d3 22 bd 03 0e 26 bd 47 67 85 3b 13 be 43 3d
       -0.0397523 -0.040540706 0.0040711495 0.04778869
0002a0 d2 88 9f 3d 20 ae 17 bd 96 93 71 3d ba 1a 57 bb
       0.07789768 -0.037031293 0.05897864 -0.0032822327
0002b0 fc 86 32 3d 6c d6 b9 3a 24 78 ec 3c 8c 43 83 bd
       0.043585762 0.0014178283 0.028865881 -0.06409368
0002c0 ff cc 09 bd dc a5 fe 3a 16 d6 4f 3c cf 00 94 bb
       -0.033642765 0.0019428092 0.012685319 -0.004516698
0002d0 a0 26 e2 bb 2e 37 14 bd 80 3a b5 3d ee 0f 72 bc
       -0.006901577 -0.036185436 0.088490486 -0.014774306
0002e0 9f 82 be bd b5 9f 43 bd 82 38 b9 bc ef 24 b2 3a
       -0.09302258 -0.04775973 -0.022609953 0.0013591329
0002f0 9a c6 75 bd 4d 5b be 3c fa b1 92 3d 4b b3 2e bd
       -0.060003854 0.023236895 0.071628526 -0.042651456
000300 c3 b3 17 bd f0 ce 1a bd 23 83 f6 bc 06 98 66 bc
       -0.03703667 -0.037795007 -0.030091828 -0.014074331
000310 52 d1 2a bc 55 fe c2 bd 94 83 85 3c 53 00 60 bc
       -0.010425882 -0.09521166 0.016298093 -0.013671952
000320 4e ef 38 bd fd 5e f8 bc 32 b4 fd 3c f8 97 44 bd
       -0.045150094 -0.030318731 0.030969713 -0.04799649
000330 e9 70 fe 3b d3 65 a1 bd c8 50 36 3d 59 66 61 3d
       0.007764925 -0.078807496 0.044510633 0.055029247
000340 62 e4 e6 bc 29 fa 65 bd 65 e1 53 bd 6a a9 9c 3d
       -0.028185073 -0.056146774 -0.051728625 0.07649501
000350 8f 43 c7 3d e3 59 8b 3d d6 1c f9 3c 8f b8 8a 3d
       0.09729683 0.06804254 0.030409258 0.06773483
000360 b5 ae 9e 3c eb d2 48 ba c4 0d ed bd 84 2f 67 3c
       0.019370416 -0.0007660824 -0.11574891 0.01411045
000370 de 53 9f 3d 05 a1 bd 3b f8 f1 3b bd 0c 57 ef 3d
       0.07779668 0.0057870173 -0.045885056 0.11686525
000380 38 b9 a8 bc f3 2f af bd e9 1c 89 bd a0 d5 e0 3c
       -0.020596132 -0.085540675 -0.06694967 0.027445614
000390 52 71 a6 bc ac b5 25 3c 3b d4 e2 bc 54 fb e3 bc
       -0.020317707 0.010114115 -0.02768909 -0.027829804
0003a0 98 e3 3e bd 4e db 24 bd 4f ed 07 be 1f 4a 6c 3d
       -0.04660377 -0.040248208 -0.1327412 0.057687875
0003b0 fc c0 21 bd 51 2e 4f 3b 7b 19 72 3c 31 ae 41 3d
       -0.039490685 0.00316133 0.014776583 0.047285262
0003c0 47 9b 38 3d c1 5b 48 3d 46 c2 2a bd db 48 ed 3d
       0.04506996 0.04891563 -0.04168918 0.11586162
0003d0 97 e6 a5 bc 77 e4 a4 3d 23 a0 84 3d 78 a6 b9 3c
       -0.020251555 0.08051389 0.06475856 0.022662386
0003e0 55 97 d4 3c 52 fe 0e bd 96 40 88 bc 2d 34 28 bd
       0.025951067 -0.034910508 -0.01663236 -0.041065384
0003f0 90 9f cb bc 34 2f d0 3d 85 55 83 bc 5a 58 0c bd
       -0.024856359 0.10165253 -0.01603199 -0.034263946

network_body.linear_encoder.seq_layers.2.bias f4 [256]
000000 01 e6 be bb f4 ff 3d bb 5d b3 0a bb 8b b4 3d bb
       -0.0058257584 -0.0028991671 -0.0021164038 -0.0028946723
000010 15 8f 7a 3b b5 77 d1 3b a7 0c 88 3b 78 32 7c 3a
       0.0038232256 0.006392444 0.004151899 0.00096205575
000020 50 47 85 b9 f5 9f 81 3a 8d 54 5b bb 70 10 08 bc
       -0.0002542087 0.000988959 -0.0033467144 -0.0083047
000030 d3 e0 cd 3a 35 99 b8 bb 59 90 02 bc a4 f1 84 3a
       0.0015707262 -0.005633498 -0.0079689855 0.0010142815
000040 2e fb ab 3b 3d c7 3f ba 5c 08 73 bb 3d 1c 63 3b
       0.005248449 -0.00073157606 -0.003708384 0.0034654282
000050 55 c4 09 3a e2 12 8f bb bb 41 0f 3c b8 2a d8 3b
       0.0005255391 -0.0043662647 0.008743699 0.0065968893
000060 ac f1 eb 3a ec c5 3b 3b c7 51 e1 ba 91 96 45 3b
       0.0018001101 0.0028651906 -0.0017190509 0.003014956
000070 cc e5 07 3b 5a 99 88 ba 9e ad d6 3a 26 be 70 39
       0.0020736335 -0.0010421679 0.0016378646 0.0002295902
000080 44 2f 1c 3b 27 a4 a9 bb bf 8e 8c 3b 1d ed 31 3b
       0.0023831883 -0.005177039 0.0042894776 0.0027149387
000090 81 1b de 3b 9b 0f 61 ba 7e 3b de 3a 2c 65 69 bb
       0.006778181 -0.0008585394 0.0016954986 -0.0035613282
0000a0 c2 11 3c 3b f5 13 35 bb 2d 59 8b bb 39 b5 10 bc
       0.0028697108 -0.0027630304 -0.004252574 -0.008832269
0000b0 e7 f8 9f ba b1 91 12 3b 95 c6 d2 3b 2b e7 39 3b
       -0.0012204916 0.002236467 0.006432364 0.0028366547
0000c0 e0 e9 1e ba 49 41 86 3a 8d 27 40 bb 50 40 28 3b
       -0.0006062072 0.0010242845 -0.002932045 0.00256731
0000d0 9f fa e3 3b ab 7f 11 3b d5 27 85 3b a1 29 b8 3b
       0.0069573666 0.002220134 0.0040635862 0.005620197
0000e0 c4 ee b2 bb 9f 89 13 3a 3f 24 97 3a 3f ab a4 3b
       -0.005460592 0.0005628112 0.0011531188 0.005025297
0000f0 c3 26 c0 3a a4 1d 71 3b 95 57 9c 3b 88 08 0d ba
       0.0014659989 0.0036791349 0.004771183 -0.00053799944
000100 2d b9 7e bb 31 fe 9a 3b 61 3c 0c 3b b1 d3 c6 b8
       -0.0038867698 0.004730009 0.0021398293 -9.480806e-05
000110 e9 76 d7 bb d9 d6 b7 3a b2 50 99 ba c2 8a 4d bb
       -0.0065754545 0.0014025822 -0.0011697023 -0.0031363224
000120 4b c1 b9 3b 3c b1 2c bb fc be c1 bb 9c ef c1 ba
       0.0056687943 -0.0026350757 -0.0059126597 -0.0014796141
000130 4f ce 7f bb bf 12 62 3b 2e 2f 7a bb 64 c3 62 bb
       -0.0039032882 0.0034496037 -0.0038175094 -0.0034601325
000140 98 19 b4 3b b0 0e 8f 3b ab 34 ba bb af a0 c1 b9
       0.005496215 0.0043657646 -0.005682548 -0.00036931547
000150 51 34 c5 bb 13 d9 86 b9 81 19 5a bb 3b a5 4c 3c
       -0.0060181995 -0.00025720205 -0.0033279362 0.012490566
000160 78 9d 4f 3b 0c 24 e3 ba 7c dc 55 3c 1c 7a dd 39
       0.0031679552 -0.0017329468 0.013053056 0.00042243383
000170 49 6b 9a 3b 41 f4 ab 3a 8a ef da bb e1 2f 57 bb
       0.0047124964 0.0013119058 -0.0066813873 -0.0032834935
000180 bb 7a 0e 3a 1c a9 de bb 22 4b 44 bb ec 5d cc ba
       0.00054351584 -0.0067950618 -0.002995201 -0.0015591956
000190 a1 d3 8b 39 28 76 22 bc 87 7e 0a 3b 38 4e a6 bb
       0.00026669822 -0.009915866 0.0021132545 -0.0050752424
0001a0 08 c3 86 ba 19 52 91 bb 63 2b e1 3b 59 24 f6 3a
       -0.0010281513 -0.0044348356 0.006871627 0.0018779143
0001b0 8d f5 f2 39 9b 10 cc 3b e0 73 a3 3b 93 cb 8a 3b
       0.00046340787 0.0062275655 0.0049881786 0.0042356937
0001c0 40 23 e6 bb f5 24 92 bb 8b 10 fc 39 02 89 63 bb
       -0.007023245 -0.004459972 0.0004807751 -0.0034719114
0001d0 c9 40 55 3b 35 c5 f0 ba 2f f5 b9 3b 18 75 ec 3b
       0.0032539836 -0.0018369319 0.00567498 0.007216107
0001e0 7f 86 6b 38 5d 66 aa 3b 2f 68 c7 3a 77 a2 ad 39
       5.6153625e-05 0.005200191 0.0015213544 0.00033118177
0001f0 fd 35 8b 3a 7c 14 6f bb dc ee 4a b8 93 a2 d6 bb
       0.0010620948 -0.0036480715 -4.8383008e-05 -0.006550142
000200 12 21 fe b9 53 f0 98 3b aa a8 6a bb d9 c5 ea 3b
       -0.00048471295 0.0046673208 -0.0035806098 0.0071646986
000210 00 65 a1 bb 0a 4f a3 ba ab 9e d8 38 fb ab 4d 3b
       -0.00492537 -0.0012459469 0.00010329237 0.0031383026
000220 4a b5 a3 bb 21 60 eb 3a 00 1f 8f 3a 7d 28 6c ba
       -0.0049959766 0.0017957726 0.0010919273 -0.0009008719
000230 26 b8 f5 3a 74 d7 d1 3a 8e 02 18 b9 f9 3b d3 3a
       0.0018746897 0.0016009645 -0.00014496801 0.0016115896
000240 f1 02 c2 3a b5 e8 07 3b 8a 58 6a 3a fe da 8c ba
       0.0014801902 0.002073807 0.0008939585 -0.0010746417
000250 30 89 1d 3c a5 18 35 bb 23 24 aa 3a bc 6e 0a 3b
       0.009615228 -0.0027633097 0.001298074 0.0021123132
000260 e4 47 a2 bb 01 b5 17 bb 30 4c 60 ba 8c 19 97 3b
       -0.0049524177 -0.0023148658 -0.00085562747 0.0046111997
000270 3d d3 ca 3b 5d 94 76 bb fc 5f 1b bb 97 d0 9e bb
       0.0061897323 -0.0037625053 -0.0023708334 -0.004846643
000280 d6 6f a1 3b 79 79 a6 3b 33 7d 1c 3b 14 5e 11 bb
       0.004926662 0.0050803986 0.0023878335 -0.002218132
000290 ea 5b 13 bb 89 31 48 ba fb 64 91 bb bc b9 8e 3b
       -0.0022485205 -0.0007636776 -0.0044370866 0.0043556374
0002a0 65 1a 3a 3b b6 2a aa 3b 64 66 66 3a 69 c4 19 3b
       0.002839708 0.00519308 0.0008789061 0.0023463017
0002b0 ef e4 73 3b 20 a1 44 3b a6 67 e5 bb 1c cb e4 3b
       0.0037215312 0.0030003265 -0.0070008812 0.0069822203
0002c0 9f ed 42 bb 8a b4 47 bb 11 cc 0f 3c a7 5e e1 bb
       -0.0029743684 -0.00304726 0.008776681 -0.0068777385
0002d0 07 d8 f5 bb ee 52 6d 3b ae 1b 62 3b fc 37 57 bb
       -0.007502559 0.003621276 0.0034501362 -0.0032839766
0002e0 93 99 9d ba 4f 63 c0 3a d7 bb 08 3b 19 9f 59 bb
       -0.0012023918 0.0014678034 0.0020863914 -0.0033206402
0002f0 e9 db 66 3b c8 33 19 bb c5 88 ef bb 28 58 71 3b
       0.0035226292 -0.0023376811 -0.0073100054 0.0036826227
000300 68 8c e6 bb 57 bb 9a bb d6 b2 f4 38 bc 76 34 3b
       -0.0070357807 -0.0047220397 0.000116681374 0.0027536592
000310 ea 34 01 3c 86 99 0f bb 5a 0b b2 3b 8c 6a d8 bb
       0.007886151 -0.0021911575 0.005433482 -0.0066044983
000320 fb de ec 3a 16 f5 f1 ba 1e 37 42 3a 5e e4 1e 3c
       0.0018071824 -0.0018459882 0.0007408726 0.009698002
000330 80 cd ac bb be 48 4a 3b a5 f3 d3 bb b1 c8 0b bc
       -0.005273521 0.0030866112 -0.0064682537 -0.008531735
000340 d6 c8 0a 3b ac 0b fb bb ba ae bd 3b e9 d6 a6 bb
       0.0021176836 -0.0076613035 0.0057886513 -0.0050915373
000350 61 89 18 3b 70 69 dc b9 5f 65 07 3b 27 98 99 bb
       0.0023275244 -0.00042040227 0.0020659787 -0.0046873274
000360 c2 0a 07 bc 01 2c e0 39 78 23 d9 bb b2 c8 a8 bb
       -0.008242311 0.00042757395 -0.0066265427 -0.005150878
000370 ed 62 66 bb e5 8d a0 3b e0 5e 17 bb fa 04 8e bb
       -0.003515418 0.0048997276 -0.0023097321 -0.0043340893
000380 2d ea 44 3b f0 f0 a1 bb 34 d9 3c 3b 7d c4 bb bb
       0.0030046806 -0.004942052 0.0028815987 -0.0057302103
000390 e5 d7 f7 ba e3 b3 6d 3b e4 0e ce bb ae 2f 19 b9
       -0.0018908946 0.003627055 -0.006288396 -0.00014608979
0003a0 cf ad 17 bb 84 f1 de 3a 37 f1 8a 3b 05 cd 2b 3a
       -0.002314437 0.0017009233 0.004240181 0.00065536826
0003b0 9e 85 09 bb 0d 73 dc 3b 94 42 1a bb 95 10 71 bb
       -0.0020984183 0.0067275823 -0.0023538219 -0.0036783565
0003c0 b4 3b 00 ba a3 9f 00 bb ce f6 9a bb 8b b9 f4 bb
       -0.0004891709 -0.00196264 -0.0047291284 -0.0074684075
0003d0 ee 4e a9 bb 8c 59 46 bb 90 bf 9c ba 55 e5 87 ba
       -0.00516688 -0.0030265776 -0.0011958946 -0.0010368029
0003e0 a0 de 4a ba 15 11 2b bb 52 a5 b0 3a 59 1c a1 bb
       -0.0007738862 -0.002610271 0.0013477004 -0.0049167094
0003f0 5c 2a d8 ba 92 1f ce 3a 23 cf bd bb bd 8c 9b 38
       -0.0016492116 0.0015725961 -0.005792515 7.4171905e-05

network_body.linear_encoder.seq_layers.2.weight f4 [256, 256]
000000 90 a2 fc 3d ad 7c ca bc 8e 30 0f 3e 1a 53 bf 3c
       0.12335694 -0.024717653 0.13983366 0.023355056
000010 df 0a 39 3b 3d cd 78 bd 56 b6 ab bc 71 a0 98 bc
       0.002823524 -0.060742605 -0.020960968 -0.018631192
000020 00 43 9e bc 45 02 40 bd 68 84 45 3c 65 c2 71 3d
       -0.019319057 -0.046877164 0.012055494 0.05902328
000030 48 24 ad 3d 1e 92 0b 3c 98 a8 9a 3d 19 73 11 3d
       0.08454186 0.008518724 0.07551688 0.035510156
000040 ff e1 57 3d f4 df a1 3d af ca 25 bd 92 52 93 b8
       0.05270576 0.07904044 -0.040476497 -7.024886e-05
000050 b4 85 39 bd 44 d1 3a 3d 69 87 33 3d 0f cb 6b 3d
       -0.045293525 0.045609728 0.04383031 0.0575667
000060 5d 07 ee 3d 2b ca 88 3c b4 14 99 3c f7 3b 48 bd
       0.11622498 0.016697964 0.01868663 -0.048885312
000070 fe f1 c2 3d 56 83 6e bb 8b f0 1d 3d dc f8 15 3c
       0.095188126 -0.00363942 0.038559478 0.009153571
000080 29 6e ac 3c 72 0e c2 bc 82 69 ab 3c 5b 04 d1 3c
       0.021048622 -0.023688529 0.020924333 0.025514772
000090 f8 51 cc 3c 40 4d 59 3d bb db 3a be 78 4c f8 bc
       0.02494143 0.053052187 -0.18247883 -0.0303099
0000a0 0b 99 ca bc 58 cb c4 ba e4 0f 50 3b 6e cc 4d 3d
       -0.02473118 -0.0015014214 0.0031747753 0.050243787
0000b0 ac 7a ea bc ed 3e dc 3d 6e 64 4e bd 48 4c 43 3d
       -0.028622948 0.1075419 -0.050388746 0.04768017
0000c0 e3 d8 97 bd 8a 48 24 3d 6c 0e 59 3c bf 17 87 3c
       -0.07414415 0.04010824 0.013248067 0.016490815
0000d0 fc e9 18 3d ba 5e ae bd 1b 1b 87 3d 91 e8 6c bc
       0.03733252 -0.085141614 0.06596967 -0.014459745
0000e0 cf 69 7a 3c 18 d6 9a 3d 5a 56 f7 bd 3d 27 21 bb
       0.015284016 0.075603664 -0.12077017 -0.0024590038
0000f0 2f 84 ab bc d0 ff c5 3b 76 12 f2 bd 28 6c ed 3c
       -0.020937053 0.006042458 -0.118199274 0.028982237
000100 f1 21 66 bd 1b 3d 0f 3d 1e 97 a8 3c 34 bc 84 bd
       -0.056184713 0.034970384 0.02057987 -0.064812094
000110 df be 57 3e 54 c4 0c 3d a6 23 9d bd 73 e1 5a bc
       0.21068905 0.03436692 -0.07672815 -0.013359415
000120 cc 0f cf bd 36 95 39 bd 5c 6a 54 bd f3 02 93 3c
       -0.10110435 -0.045308314 -0.051859245 0.017945742
000130 38 63 1a 3d 22 fd 5a bc 2a 41 8f 3c 78 e0 89 3d
       0.03769228 -0.013366016 0.017487127 0.06732267
000140 1c cb 29 3d af 43 7a bc 51 26 3c bd 34 8f 7c 3d
       0.041453466 -0.015274926 -0.04593498 0.061660007
000150 1b bf ae bc 48 b4 c3 bd 8f bf a3 bd 27 19 54 3d
       -0.02133136 -0.0955587 -0.07995521 0.0517818
000160 6f f9 9f 3d 7e c7 a8 3c 17 9f e5 3c 15 38 e2 bb
       0.078112476 0.020602938 0.028029962 -0.006903658
000170 e7 7f c4 bd cc 6b e5 3c 14 56 7c bb 68 3c 73 bd
       -0.09594708 0.028005503 -0.0038503455 -0.05938378
000180 a2 87 09 3d 02 5e c4 3c 99 7b b4 3c 21 f8 25 3e
       0.033576615 0.023970608 0.022031592 0.16207935
000190 22 c6 1c 3d 73 9d b8 bd bc b7 6e bb 81 d4 a8 bc
       0.03827489 -0.09014406 -0.0036425432 -0.020609142
0001a0 8f 6e 52 3d 86 52 25 bd a2 8a a0 3d d5 4d 28 3b
       0.05137497 -0.040361904 0.07838942 0.0025681157
0001b0 82 a4 00 be f5 9c 24 3d 5b 60 c9 3c d6 5d e9 bd
       -0.12562755 0.04018875 0.024582079 -0.11394851
0001c0 dd 70 1a be 64 6f c4 bd e1 f3 80 3d a0 8b 2a bd
       -0.15082116 -0.095915586 0.06296516 -0.041637063
0001d0 47 2f 08 3c 0e de 86 3d df 2c 5c 3c 9e d8 b1 3d
       0.008312053 0.06585322 0.0134384325 0.086838946
0001e0 35 fe cf bd 10 a9 cc bd 71 63 f5 bd 40 ee aa bd
       -0.10155908 -0.099931836 -0.119818576 -0.08346224
0001f0 b0 f4 61 3c a3 19 8f 3d 10 67 2e bd 82 2e 69 3d
       0.013791248 0.06987312 -0.042578757 0.05692912
000200 2a e2 40 3d 0d db f1 3d a1 9e f0 3c 88 2c 16 3d
       0.047090687 0.11809359 0.029372515 0.036663562
000210 1b cd b0 3d 62 3e 81 3d 7e df 36 be 87 e2 61 bd
       0.08632871 0.06310727 -0.17858693 -0.055147674
000220 c9 fd 11 3d 32 d8 23 3c 2e 59 02 b9 bb 05 bf bd
       0.03564242 0.010000275 -0.00012430988 -0.09327265
000230 6c 18 10 bc 1b d4 13 b9 0a 9b fa bc 71 70 b9 3c
       -0.008794885 -0.00014098028 -0.030591507 0.022636624
000240 cd 06 af bd 37 ab db 3c 04 a4 7b 3d c8 73 23 3d
       -0.08546219 0.02681504 0.061435714 0.03990534
000250 58 40 2c 3d 06 e9 b6 3c 30 5c ff bb 79 30 cd 3b
       0.04205355 0.022327911 -0.007792972 0.006261882
000260 6b be 09 bd 97 a3 d0 3d b7 12 8f bd e7 6c aa bc
       -0.033628862 0.10187452 -0.069859914 -0.020803882
000270 6b b8 66 bd 83 1f 93 bd 14 c3 8b bd ca ef 7d bd
       -0.05632822 -0.07183745 -0.068243176 -0.06199626
000280 8a 53 a1 bd 93 fa b3 bc ac 64 cc 3d 1e db b3 bc
       -0.07877262 -0.021970069 0.09980139 -0.02195507
000290 fc d7 01 be bf 33 a6 bd 29 13 4d 3d 0a e1 79 bd
       -0.12680048 -0.081153385 0.0500671 -0.06100563
0002a0 da 84 25 3e c4 5f d6 bd 99 8a f3 3c 85 58 c7 3d
       0.1616396 -0.104674846 0.029729174 0.09733681
0002b0 36 55 87 3d 6a 2f 94 3d f5 78 14 3d 84 f8 06 3d
       0.066080496 0.07235606 0.036248166 0.032951847
0002c0 3d 31 d4 bd 61 27 7a 3b 35 59 5a bd 1c af 4f 3d
       -0.10360954 0.0038170444 -0.05330773 0.050704107
0002d0 ce 3e 29 3d 0e 5d 1a 3e 99 96 b1 3d 62 34 70 bd
       0.04131966 0.1507456 0.08671302 -0.058643706
0002e0 57 c3 e9 3d 6a 20 8b ba 45 62 fe 3d f6 a3 80 3d
       0.11414211 -0.0010614519 0.12421087 0.06281273
0002f0 42 4b 88 bc e7 d0 5f 3c 66 41 09 3d 6a f8 81 bc
       -0.016637448 0.013660646 0.033509634 -0.015865523
000300 86 23 89 3c bd 82 12 be 23 66 98 3c 6e 25 d0 bc
       0.016740572 -0.14307685 0.01860339 -0.025408473
000310 f9 b5 94 bc b1 c4 34 3d b9 39 76 bb 88 51 25 bd
       -0.018153178 0.044132892 -0.0037571026 -0.040360957
000320 e5 f7 75 3c 9b 5f 2c bd a4 5c bc bc 28 84 ed 3c
       0.015012716 -0.042083364 -0.022993393 0.028993681
000330 9e 25 bd bb ba 3a 1f bd 5c 68 dd 3d 4f 86 ce 3d
       -0.0057723066 -0.038874365 0.108109206 0.10084211
000340 1d b4 4a 3d 18 41 71 3d 9b 5c 84 3c 0a ea 21 be
       0.049488176 0.05889997 0.016157439 -0.15811935
000350 25 5b 0f 3c 1f 07 75 bd 88 fd 39 3e f1 07 fa bd
       0.008749758 -0.059821244 0.18163121 -0.12208546
000360 02 07 20 bd 63 15 95 bb 8a f9 94 3b 44 be 83 bc
       -0.039069183 -0.0045496686 0.004546349 -0.016081937
000370 eb 82 ad 3c 96 87 7d 3d f3 ae cc bc 7f e7 ad 3b
       0.02118059 0.061896883 -0.024985766 0.0053071375
000380 bc 3e bc 3b 27 f6 75 3d 9e 9e 60 3d 35 ba 1f 3c
       0.005744783 0.060049202 0.05483877 0.009748985
000390 c7 4f 8b bd 6a 9f 7a bd de d0 0b bb 31 e8 bf 3c
       -0.06802326 -0.061187185 -0.0021334211 0.023426147
0003a0 01 54 e3 3c 65 89 20 3d c2 98 c1 3d 77 9d 33 3d
       0.027750017 0.03919353 0.09452964 0.043851342
0003b0 7b ba 87 3d 64 e7 54 3d 13 ec b8 bb a5 b2 ca 3c
       0.06627365 0.051978484 -0.0056433766 0.024743387
0003c0 6c 4b 50 bd d9 94 c9 bc a8 89 28 bd dc f9 65 3d
       -0.050853178 -0.024607109 -0.041146904 0.056146488
0003d0 c3 9c 3c bd 3e b6 c8 3c 89 4e 0c bd d8 b7 91 3d
       -0.046047937 0.024500962 -0.034254584 0.071151435
0003e0 ac 28 db bb 8e 48 b7 3c 83 09 94 bd 11 9d e0 3c
       -0.006688198 0.022373464 -0.07228377 0.027418645
0003f0 09 fe 08 b8 c9 eb 5f 3d 6d bf ed 3b b9 38 89 bd
       -3.2661515e-05 0.05466822 0.0072554857 -0.06700272
