results/firstrun/PathFollowing.onnx (onnx, 696067 bytes, 7 tensors)

network_body._body_endoder.seq_layers.0.weight f4 [256, 416]
000000 65 a6 a5 bd f8 0b 13 3d 63 75 4b 3d 2a 27 f1 3c
       -0.08088378 0.035900086 0.049672496 0.02943762
000010 23 9a b8 bb 17 ea 39 3c 1a e8 bd bd 98 2f e2 3c
       -0.005633609 0.011347315 -0.092727855 0.027610585
000020 ad 88 12 bd 1e eb b0 3c d9 4e 73 3b 3d 07 f2 3c
       -0.035774875 0.021596488 0.0037125854 0.029544467
000030 57 50 c3 bc b4 93 88 3b 16 ed 8b bb fc a5 97 bd
       -0.02384202 0.004167998 -0.004270206 -0.07404706
000040 0a 40 f2 3c f8 ea b1 3d 5b 5e b2 3d 51 c2 8e bd
       0.029571552 0.08687395 0.08709403 -0.06970657
000050 ad 82 6d bd d2 44 5a bd 45 e0 7a bd 32 ad 63 3d
       -0.05798595 -0.05328829 -0.061249036 0.055585094
000060 09 00 a0 3c 33 91 c7 bd 85 14 94 bc 88 50 8f bd
       0.019531267 -0.097444914 -0.01807619 -0.06997782
000070 8a 8d d9 38 2a b9 ad bd f9 d7 a8 bb d1 17 c9 bc
       0.0001037373 -0.08482583 -0.005152699 -0.02454749
000080 18 f7 86 bd 65 02 ea bb c3 1d c5 bc 4f 74 28 3c
       -0.06590098 -0.0071413987 -0.024062043 0.010281636
000090 09 9a 91 3c 30 87 49 3d cb ad 3a 3b 5c a9 d6 3c
       0.017773645 0.04920119 0.0028484936 0.026203804
0000a0 7f 8f 5b 3d c4 f4 a1 bc 8b 14 38 3d 37 86 6f 3c
       0.053603645 -0.019770034 0.044941466 0.014619402
0000b0 83 41 a2 39 fc 21 ab 3d d9 2a a0 bd 64 41 aa bd
       0.00030947858 0.083560914 -0.078206725 -0.083132535
0000c0 72 92 4f 3d 42 a4 fa bc 9f 83 6b 3c e9 19 5c bd
       0.05067677 -0.030595902 0.014374643 -0.053735647
0000d0 e0 d6 0f 3c 57 71 99 bd ce 8e 2c bd 9a 16 d3 3d
       0.008779258 -0.07492321 -0.042128377 0.10307045
0000e0 b1 5b 01 bd 39 14 26 3d 3a c2 51 bd 64 ea 77 3d
       -0.031581584 0.04054663 -0.05121062 0.060526267
0000f0 a2 77 d4 bc da 5a b2 3c 29 35 af 3d bb 00 e1 3c
       -0.025935952 0.021771837 0.08555061 0.027466169
000100 b8 24 eb 3c dd de 4f bd b1 cd 41 3b ac 38 8a bc
       0.028704032 -0.05074965 0.0029572065 -0.016872726
000110 65 62 86 bc 57 67 91 3d d6 c3 74 bd 1a 45 30 3d
       -0.01640434 0.07099789 -0.059757076 0.04303465
000120 50 b2 b3 bc 26 71 f3 3c 43 5c b6 b9 a8 ae 0c bc
       -0.021935612 0.02971704 -0.00034782485 -0.008586563
000130 7e 88 44 3b 6b 8d 21 3a 7e ab 92 3d 1d 21 89 3d
       0.0029988582 0.00061627355 0.07161616 0.06695769
000140 a9 ae 74 3d c5 21 0d bd 1a 86 f3 3d c1 06 6e bd
       0.05973688 -0.034456033 0.11890812 -0.05811191
000150 96 da f9 bb eb 3e 8b bd 1b 3c 91 bc 22 1a e1 bc
       -0.0076249344 -0.0679911 -0.017728856 -0.027478281
000160 28 e1 55 bd ad 94 0c bd 14 14 c8 bc 1a 9c a3 3c
       -0.05221668 -0.034321476 -0.024423636 0.019971896
000170 56 f4 6f bd 5d 53 09 bd f2 68 68 3d 30 f6 fe bc
       -0.058582626 -0.033526767 0.05674071 -0.03112325
000180 97 35 e7 3c cf 03 c6 3c fb e0 77 bd a7 ba 17 bd
       0.028223796 0.024171738 -0.060517292 -0.03704324
000190 2c ac e7 bc 25 96 74 bd 2f 06 92 3d 78 55 8f 3c
       -0.02828034 -0.0597135 0.07130086 0.01749681
0001a0 54 2c 05 3d b4 a3 78 3d c4 e1 d7 bc 7c 82 37 bd
       0.032512978 0.060702994 -0.02635277 -0.044802174
0001b0 60 fa 0a bd 02 f5 2e 3d fc 79 e2 3d d0 de 05 bd
       -0.033930182 0.042714126 0.11058423 -0.032683194
0001c0 3e cb 32 bc 5b b2 99 3c 16 3d fd 3c be 3c 83 bd
       -0.0109127145 0.018761804 0.030912917 -0.0640807
0001d0 ab 48 32 bd 8a ff 11 bb 06 ce 88 bd 71 94 dd bd
       -0.043526333 -0.0022277557 -0.06679921 -0.108193286
0001e0 bd 98 15 3d 04 1d ea 3c a4 d3 75 3d 0a 26 51 3d
       0.036522616 0.028578289 0.06001629 0.051061668
0001f0 c7 67 32 3d e8 39 4c 3d 98 0c b5 bc 10 d7 24 bd
       0.043556 0.04985991 -0.022100732 -0.040244162
000200 ae 1c 6a 3c ba 67 57 bd 09 b1 8d bd 1c 4c ce bd
       0.014289064 -0.052589156 -0.069185324 -0.100731105
000210 9f 30 47 bd 70 cb 51 bd 57 4d 8b bc c9 aa 3e bd
       -0.048630353 -0.051219404 -0.017004652 -0.046549592
000220 f5 d9 97 bc 28 86 60 3c a4 f3 82 bd cc 21 58 3d
       -0.018536547 0.01370386 -0.06394127 0.052766606
000230 71 c1 a1 bd ad d4 25 3d 36 c6 0b bd da 3c b3 3c
       -0.07898224 0.040486027 -0.034124576 0.021879602
000240 39 31 00 3c b5 b8 3e 3d bb ee a9 3d bf 0c d0 bb
       0.007824236 0.04656287 0.08297487 -0.0063491757
000250 24 43 eb bc b0 43 d8 3c 18 d2 95 3c 44 9f cf bc
       -0.028718539 0.026399463 0.018288657 -0.025344498
000260 34 1c 56 bd 82 a2 c2 3c b8 52 54 3d e3 38 8e 3b
       -0.05227299 0.02375913 0.0518367 0.0043402775
000270 9d c0 31 3d 71 ab 50 3c 59 7f 24 3d 26 01 7f bc
       0.04339658 0.012736187 0.04016051 -0.015564239
000280 d9 44 18 bd 04 39 1d 3d 87 a8 b5 3d f0 65 24 3d
       -0.037175033 0.038384452 0.08870035 0.040136278
000290 8f 74 bb bc 73 85 e5 3d f2 b8 94 3d 8e 89 42 bd
       -0.022882728 0.11207094 0.07261838 -0.047494464
0002a0 d5 d0 e8 bc 55 32 96 3d ac b0 8c bd be b2 79 3c
       -0.028419891 0.07333819 -0.06869635 0.015240369
0002b0 8e 0f db bd 09 14 63 bd d9 4d b2 3d aa 53 1d bd
       -0.10696326 -0.05543903 0.087062545 -0.038409866
0002c0 10 4a d4 bb 4d 45 69 bc b0 e5 35 bd b0 65 b5 3d
       -0.0064785555 -0.014237714 -0.0444085 0.08857286
0002d0 58 0a a3 3b bf 69 c9 3d c2 0b 4c bc ef 2f 42 bd
       0.0049755983 0.098346226 -0.012453975 -0.047408994
0002e0 fc a7 5f 3c b6 91 f6 3b f3 7b 3c bd 3c 1c 76 3d
       0.01365089 0.0075246943 -0.046016645 0.06008552
0002f0 cc d9 99 3c c4 3d 7e bd 3b e8 9e 3b fb c7 06 be
       0.018780611 -0.062070623 0.0048494614 -0.13162224
000300 01 59 19 bd 18 f7 46 3d 50 2e 85 bc 0e 54 73 bd
       -0.037438396 0.04857549 -0.016257435 -0.059406333
000310 85 80 29 3d f7 af b3 bc df 8c b9 3b d2 7c 69 bd
       0.04138233 -0.021934493 0.005662545 -0.057003804
000320 6a 64 08 3d 15 90 0b 3d 96 83 a9 3c 2b c7 05 bd
       0.033298887 0.034072954 0.020692628 -0.032660645
000330 11 1d 44 3d 88 dc 42 3c db 7b 18 bd 2e 3f 02 3d
       0.047879282 0.011893399 -0.037227493 0.031798534
000340 0a 6d a7 bd 37 57 06 3d c2 5e 97 3d 5d ee 27 3c
       -0.081750944 0.03279802 0.073911205 0.010249701
000350 f4 87 28 3c ad 33 a1 3c 1b 0c b0 bc ba 9a fe 3c
       0.01028632 0.019677961 -0.021490147 0.031079639
000360 7d ae a3 bd 7b 1e a5 3d 47 87 8f bb f4 8b cc bc
       -0.079922654 0.08062454 -0.00438014 -0.024969079
000370 e5 7b 18 bd 5b 6b ae 3c 0e 46 83 bc b6 65 10 bd
       -0.03722753 0.021291425 -0.016024616 -0.03525325
000380 08 26 c0 bd 58 05 9a bd 2c 24 ce 3d f7 4b 68 bd
       -0.09382254 -0.075205505 0.10065493 -0.05671307
000390 dc 70 c1 3d ca ef 2c 3d bc ef 4e 3d 58 ea c0 bb
       0.09445354 0.04222087 0.050521597 -0.005887311
0003a0 e5 8a 9e 3b ed dd c9 3d 0e f4 b5 3b e9 4f 36 3d
       0.004838335 0.09856782 0.005552775 0.044509802
0003b0 16 00 56 3d a7 7c b3 bd 41 b2 31 3d af 65 04 3c
       0.052246176 -0.0876401 0.043382887 0.008080884
0003c0 9f da 82 b8 f9 68 35 bd 26 3a c4 3c 1c 09 80 3c
       -6.2396044e-05 -0.044289563 0.023953509 0.015629344
0003d0 09 01 be bc e8 ab a7 3c 44 f8 c0 bd 13 1e 89 3c
       -0.023193853 0.020467713 -0.09422353 0.016737973
0003e0 ac ab bb bd 40 2b 37 3d 32 a6 6a 3d 4b 12 63 bc
       -0.09163603 0.04471898 0.057287402 -0.013859342
0003f0 c9 09 26 3d 42 2a aa 3c bf 7b 91 3d a3 c8 83 bd
       0.040536676 0.020772103 0.07103681 -0.06434753

network_body._body_endoder.seq_layers.0.bias f4 [256]
000000 00 00 00 00 00 00 00 00 00 00 00 00 00 00 00 00
       0.0 0.0 0.0 0.0
000010 00 00 00 00 00 00 00 00 00 00 00 00 00 00 00 00
       0.0 0.0 0.0 0.0
000020 00 00 00 00 00 00 00 00 00 00 00 00 00 00 00 00
       0.0 0.0 0.0 0.0
000030 00 00 00 00 00 00 00 00 00 00 00 00 00 00 00 00
       0.0 0.0 0.0 0.0
000040 00 00 00 00 00 00 00 00 00 00 00 00 00 00 00 00
       0.0 0.0 0.0 0.0
000050 00 00 00 00 00 00 00 00 00 00 00 00 00 00 00 00
       0.0 0.0 0.0 0.0
000060 00 00 00 00 00 00 00 00 00 00 00 00 00 00 00 00
       0.0 0.0 0.0 0.0
000070 00 00 00 00 00 00 00 00 00 00 00 00 00 00 00 00
       0.0 0.0 0.0 0.0
000080 00 00 00 00 00 00 00 00 00 00 00 00 00 00 00 00
       0.0 0.0 0.0 0.0
000090 00 00 00 00 00 00 00 00 00 00 00 00 00 00 00 00
       0.0 0.0 0.0 0.0
0000a0 00 00 00 00 00 00 00 00 00 00 00 00 00 00 00 00
       0.0 0.0 0.0 0.0
0000b0 00 00 00 00 00 00 00 00 00 00 00 00 00 00 00 00
       0.0 0.0 0.0 0.0
0000c0 00 00 00 00 00 00 00 00 00 00 00 00 00 00 00 00
       0.0 0.0 0.0 0.0
0000d0 00 00 00 00 00 00 00 00 00 00 00 00 00 00 00 00
       0.0 0.0 0.0 0.0
0000e0 00 00 00 00 00 00 00 00 00 00 00 00 00 00 00 00
       0.0 0.0 0.0 0.0
0000f0 00 00 00 00 00 00 00 00 00 00 00 00 00 00 00 00
       0.0 0.0 0.0 0.0
000100 00 00 00 00 00 00 00 00 00 00 00 00 00 00 00 00
       0.0 0.0 0.0 0.0
000110 00 00 00 00 00 00 00 00 00 00 00 00 00 00 00 00
       0.0 0.0 0.0 0.0
000120 00 00 00 00 00 00 00 00 00 00 00 00 00 00 00 00
       0.0 0.0 0.0 0.0
000130 00 00 00 00 00 00 00 00 00 00 00 00 00 00 00 00
       0.0 0.0 0.0 0.0
000140 00 00 00 00 00 00 00 00 00 00 00 00 00 00 00 00
       0.0 0.0 0.0 0.0
000150 00 00 00 00 00 00 00 00 00 00 00 00 00 00 00 00
       0.0 0.0 0.0 0.0
000160 00 00 00 00 00 00 00 00 00 00 00 00 00 00 00 00
       0.0 0.0 0.0 0.0
000170 00 00 00 00 00 00 00 00 00 00 00 00 00 00 00 00
       0.0 0.0 0.0 0.0
000180 00 00 00 00 00 00 00 00 00 00 00 00 00 00 00 00
       0.0 0.0 0.0 0.0
000190 00 00 00 00 00 00 00 00 00 00 00 00 00 00 00 00
       0.0 0.0 0.0 0.0
0001a0 00 00 00 00 00 00 00 00 00 00 00 00 00 00 00 00
       0.0 0.0 0.0 0.0
0001b0 00 00 00 00 00 00 00 00 00 00 00 00 00 00 00 00
       0.0 0.0 0.0 0.0
0001c0 00 00 00 00 00 00 00 00 00 00 00 00 00 00 00 00
       0.0 0.0 0.0 0.0
0001d0 00 00 00 00 00 00 00 00 00 00 00 00 00 00 00 00
       0.0 0.0 0.0 0.0
0001e0 00 00 00 00 00 00 00 00 00 00 00 00 00 00 00 00
       0.0 0.0 0.0 0.0
0001f0 00 00 00 00 00 00 00 00 00 00 00 00 00 00 00 00
       0.0 0.0 0.0 0.0
000200 00 00 00 00 00 00 00 00 00 00 00 00 00 00 00 00
       0.0 0.0 0.0 0.0
000210 00 00 00 00 00 00 00 00 00 00 00 00 00 00 00 00
       0.0 0.0 0.0 0.0
000220 00 00 00 00 00 00 00 00 00 00 00 00 00 00 00 00
       0.0 0.0 0.0 0.0
000230 00 00 00 00 00 00 00 00 00 00 00 00 00 00 00 00
       0.0 0.0 0.0 0.0
000240 00 00 00 00 00 00 00 00 00 00 00 00 00 00 00 00
       0.0 0.0 0.0 0.0
000250 00 00 00 00 00 00 00 00 00 00 00 00 00 00 00 00
       0.0 0.0 0.0 0.0
000260 00 00 00 00 00 00 00 00 00 00 00 00 00 00 00 00
       0.0 0.0 0.0 0.0
000270 00 00 00 00 00 00 00 00 00 00 00 00 00 00 00 00
       0.0 0.0 0.0 0.0
000280 00 00 00 00 00 00 00 00 00 00 00 00 00 00 00 00
       0.0 0.0 0.0 0.0
000290 00 00 00 00 00 00 00 00 00 00 00 00 00 00 00 00
       0.0 0.0 0.0 0.0
0002a0 00 00 00 00 00 00 00 00 00 00 00 00 00 00 00 00
       0.0 0.0 0.0 0.0
0002b0 00 00 00 00 00 00 00 00 00 00 00 00 00 00 00 00
       0.0 0.0 0.0 0.0
0002c0 00 00 00 00 00 00 00 00 00 00 00 00 00 00 00 00
       0.0 0.0 0.0 0.0
0002d0 00 00 00 00 00 00 00 00 00 00 00 00 00 00 00 00
       0.0 0.0 0.0 0.0
0002e0 00 00 00 00 00 00 00 00 00 00 00 00 00 00 00 00
       0.0 0.0 0.0 0.0
0002f0 00 00 00 00 00 00 00 00 00 00 00 00 00 00 00 00
       0.0 0.0 0.0 0.0
000300 00 00 00 00 00 00 00 00 00 00 00 00 00 00 00 00
       0.0 0.0 0.0 0.0
000310 00 00 00 00 00 00 00 00 00 00 00 00 00 00 00 00
       0.0 0.0 0.0 0.0
000320 00 00 00 00 00 00 00 00 00 00 00 00 00 00 00 00
       0.0 0.0 0.0 0.0
000330 00 00 00 00 00 00 00 00 00 00 00 00 00 00 00 00
       0.0 0.0 0.0 0.0
000340 00 00 00 00 00 00 00 00 00 00 00 00 00 00 00 00
       0.0 0.0 0.0 0.0
000350 00 00 00 00 00 00 00 00 00 00 00 00 00 00 00 00
       0.0 0.0 0.0 0.0
000360 00 00 00 00 00 00 00 00 00 00 00 00 00 00 00 00
       0.0 0.0 0.0 0.0
000370 00 00 00 00 00 00 00 00 00 00 00 00 00 00 00 00
       0.0 0.0 0.0 0.0
000380 00 00 00 00 00 00 00 00 00 00 00 00 00 00 00 00
       0.0 0.0 0.0 0.0
000390 00 00 00 00 00 00 00 00 00 00 00 00 00 00 00 00
       0.0 0.0 0.0 0.0
0003a0 00 00 00 00 00 00 00 00 00 00 00 00 00 00 00 00
       0.0 0.0 0.0 0.0
0003b0 00 00 00 00 00 00 00 00 00 00 00 00 00 00 00 00
       0.0 0.0 0.0 0.0
0003c0 00 00 00 00 00 00 00 00 00 00 00 00 00 00 00 00
       0.0 0.0 0.0 0.0
0003d0 00 00 00 00 00 00 00 00 00 00 00 00 00 00 00 00
       0.0 0.0 0.0 0.0
0003e0 00 00 00 00 00 00 00 00 00 00 00 00 00 00 00 00
       0.0 0.0 0.0 0.0
0003f0 00 00 00 00 00 00 00 00 00 00 00 00 00 00 00 00
       0.0 0.0 0.0 0.0

network_body._body_endoder.seq_layers.2.weight f4 [256, 256]
000000 15 eb 83 bc 0e a4 4b bd e7 88 3d bb a1 33 0d bc
       -0.016103307 -0.049717 -0.0028920711 -0.008618266
000010 02 2f b6 bd db 6d 8c ba 1a aa b0 3c 3b d6 61 3a
       -0.08895685 -0.0010713892 0.021565486 0.00086149917
000020 99 c7 c1 b9 d7 00 e3 bc bc dc b9 3d d9 c9 e3 bd
       -0.0003696054 -0.027710361 0.09075305 -0.11122484
000030 07 86 63 3d 72 5b a9 3d 71 e2 da 3c 73 65 3b bd
       0.05554774 0.08269395 0.026719304 -0.045751046
000040 94 03 44 3d 95 f5 05 3c ad de f3 bc 82 59 ca 3d
       0.047854975 0.008176227 -0.029769266 0.098803535
000050 24 05 8d bd d5 f8 4f 3e 5e 58 1d bd b5 35 96 3c
       -0.06885746 0.20309766 -0.03841435 0.018336156
000060 8d a5 e7 3d 4b 6e 0e bd 5e 43 5c bd 76 2c ae bc
       0.11310873 -0.034773152 -0.053775184 -0.021261435
000070 b5 ba d8 3b c2 54 66 bd 8f 47 60 bd 96 47 31 3d
       0.006614054 -0.056233175 -0.054755744 0.04328116
000080 46 4d 77 3d 66 9b f7 bd 99 80 2e ba 0f bf 1c bd
       0.060376428 -0.12090187 -0.0006656736 -0.038268145
000090 cc 24 4a 3c fc 01 f2 3d 80 dc 05 bc bc a5 7b bd
       0.012337875 0.11816785 -0.008170247 -0.061437353
0000a0 a6 ab dd 3b 0d af 11 bc 8d 96 5d bc fb 8a 7e bd
       0.006764847 -0.008891833 -0.013524664 -0.06214426
0000b0 19 45 6e 3d 44 4c 44 3c e8 d9 c0 3d 77 a4 2a bc
       0.058171365 0.011981074 0.09416562 -0.010415188
0000c0 97 63 ce 3d a5 49 3d bd 5d 02 06 3d 39 5d e7 bc
       0.10077589 -0.04621281 0.032717098 -0.028242694
0000d0 df b8 e9 3d e9 1d b7 bd be 56 53 3d 74 c4 92 bd
       0.114122145 -0.08941252 0.051596396 -0.07166377
0000e0 55 99 33 3d 1d e4 33 bd 61 85 08 be b7 5f 86 3d
       0.0438474 -0.043918718 -0.1333213 0.06561225
0000f0 bf 2a 26 3d d9 d4 a9 bc a7 e7 2f bd 01 77 07 3d
       0.04056811 -0.020731376 -0.04294553 0.033072475
000100 c3 00 23 bc 53 5f 99 3d 97 2c 23 bc 60 12 65 3d
       -0.009948912 0.07488885 -0.0099593615 0.055925727
000110 60 86 fd 3c e1 f7 43 bc 26 d6 9e 3d e1 97 61 3c
       0.030947864 -0.011960954 0.07755689 0.013769121
000120 3a c5 89 bb a4 0f 9d bd d0 77 c0 bd c9 d3 4e bd
       -0.0042044194 -0.07668999 -0.093978524 -0.050494943
000130 4a 13 41 3d cd 72 ea bd cf 61 99 bb b8 ae d5 bd
       0.047137536 -0.11447678 -0.004680849 -0.104337156
000140 f2 b4 d9 3d 3f 06 22 bd a4 a7 b9 bd c3 a2 91 3c
       0.10630216 -0.039556738 -0.09065178 0.017777806
000150 46 1e d3 ba 39 89 ef bd 3a 7b 09 3c 0b 9d 9b 3d
       -0.0016107045 -0.11696095 0.008391196 0.07598313
000160 16 5a cf 3b fc d8 e2 bd 6e 3b 9f bc df be 73 3d
       0.0063278778 -0.11076543 -0.019437518 0.0595082
000170 31 cc 4a 3d 1b 08 07 3d dc 30 2e 3d 12 94 76 3c
       0.04951114 0.032966714 0.042527065 0.015049951
000180 83 fb e0 3b c9 28 68 3d f1 b2 d4 bc c8 5e 99 bd
       0.00686592 0.05667952 -0.025964232 -0.07488781
000190 0b 5d dc bc 56 08 20 3e dd 7c 87 3d c2 7b 6b bd
       -0.026899835 0.1562818 0.06615613 -0.05749107
0001a0 b4 ee 8d 3d 8b 5c 02 bd 08 95 24 3c a4 23 92 3d
       0.06930295 -0.031826537 0.010045297 0.07135704
0001b0 67 71 e1 3b ec 9a 93 bd 83 c8 eb bd 6f e4 89 3d
       0.0068799737 -0.072072834 -0.11512854 0.067330234
0001c0 24 e9 11 bd 01 84 10 bd 19 92 19 bc 6a 22 4c 3d
       -0.03562273 -0.03528214 -0.009373211 0.049837507
0001d0 a3 cf a5 bd ca 6e 1b bd 21 97 0d 3d 76 3e 3c bd
       -0.08096244 -0.037947454 0.034567956 -0.045958005
0001e0 d7 65 3e 3c 9e 94 3e 3c 55 1b 1f ba 34 64 b5 bd
       0.01162096 0.011632113 -0.00060694414 -0.08857003
0001f0 31 93 2f 3c af 90 43 3d ec a3 23 bd ae 30 03 3e
       0.0107162455 0.047745403 -0.03995125 0.12811539
000200 0f 97 c5 bc e2 5b 11 bd 78 ba cb 3c c0 a8 84 3c
       -0.024119882 -0.035488017 0.024869189 0.016193748
000210 a4 7c 84 bd d2 6e 03 bd 52 93 9e bd 93 c1 83 bd
       -0.06469086 -0.03208811 -0.07742943 -0.06433406
000220 1c c9 ad bd 23 89 cf bc 39 cb cb bd fd 85 23 3d
       -0.08485624 -0.025333947 -0.09950871 0.039922703
000230 a0 08 d6 bd cc c6 3b bd 9f 33 1e 3c 5b fa fb 3c
       -0.10450864 -0.045843884 0.009655862 0.030759027
000240 e9 06 9f 3d 0f 5b 89 3c 6d b3 0f 3d c0 e9 49 3b
       0.0776499 0.016767053 0.035083223 0.0030809492
000250 c2 1f ed bc 4e 20 09 3c ed 22 a1 3d cc 8e 8a 3d
       -0.028945807 0.008369518 0.0786799 0.067655176
000260 03 84 5d 3c 8e ac a7 bd 6d 05 76 bd d5 08 1d 3d
       0.013520244 -0.08187209 -0.06006377 0.0383385
000270 6c e3 f5 bc 5c 73 cb bc a4 60 bc bc b8 1e d7 bd
       -0.03001567 -0.024835281 -0.0229953 -0.10503906
000280 54 d1 28 3d eb 25 7a 3d e8 5e 3b bc a2 d5 05 bd
       0.041215256 0.061071318 -0.011436202 -0.03267444
000290 62 45 c7 bb 45 1b c4 3d e5 6e f6 bc 1f c5 6c 3d
       -0.006081269 0.09575514 -0.030082176 0.057805177
0002a0 f3 cb 26 bb d1 4d 46 bd fe 4e 7d bc f1 5a 32 3d
       -0.0025451153 -0.048414055 -0.015460728 0.04354376
0002b0 0b 49 7f 3d 97 15 a3 3c 69 b1 3e 3d 1a b1 1b bd
       0.06232552 0.019907756 0.04655591 -0.038010694
0002c0 12 06 98 3c eb be 80 bc 51 46 7f b9 79 5c 4c 3d
       0.018557582 -0.015716037 -0.0002434489 0.049892876
0002d0 c3 14 65 bb fe ac ab bc d2 98 a0 3d 76 38 7d 3d
       -0.0034955002 -0.020956513 0.07841648 0.061821423
0002e0 b9 4e 49 3d 65 6e 26 3d 49 64 4f bb af 91 79 3c
       0.04914734 0.040632624 -0.0031645468 0.015232488
0002f0 8c e9 57 bd 79 66 c2 3b 90 0e 21 3d d7 80 94 bd
       -0.052712962 0.005932626 0.03932053 -0.07251137
000300 b9 51 09 bd df 40 e4 bd d8 7e 29 3c ff d2 f9 3d
       -0.033525202 -0.11145186 0.010345183 0.121984474
000310 ca 4a 0a 3c 3d cb 9d bd e8 b9 8a bb 13 ba 5c 3c
       0.008440683 -0.0770478 -0.0042335875 0.013472098
000320 a9 93 76 3d fc ac a7 3c de 12 f3 3d f1 5c 82 bd
       0.060199413 0.020468228 0.11868833 -0.063653834
000330 8b 4f a4 3d 0e cf 4a 3d 21 0d 95 3c b3 66 73 bd
       0.08022984 0.04951387 0.018194737 -0.059424113
000340 90 a8 20 bc 56 20 a9 bd 92 2a 8e 3d 5c fa ac bd
       -0.009805813 -0.08258121 0.069417134 -0.0844619
000350 eb a8 2f bd 5e 09 c0 3b 22 04 60 3a a5 2a bd bd
       -0.042885702 0.0058604917 0.0008545538 -0.092366494
000360 3a 01 89 ba 10 0d bf bc 90 97 9f 3c f0 64 67 3e
       -0.0010452636 -0.023321658 0.01948145 0.22597098
000370 d5 ab 05 bd 74 61 e5 3c d5 10 28 3d ce 93 81 3c
       -0.032634575 0.02800057 0.041031677 0.01581755
000380 c5 04 ab ba 15 5e 2f bd 38 80 7e bc 50 8e 01 3e
       -0.0013047686 -0.042814333 -0.015533499 0.12651944
000390 73 9c cd 3d 22 94 35 3c 5a f9 0c bd 37 c8 0d 3d
       0.10039606 0.011082681 -0.034417488 0.034614768
0003a0 9c a4 76 3d 36 ac 19 3d 51 c2 96 3d 81 94 e7 3a
       0.060215577 0.03751775 0.07361282 0.0017668159
0003b0 db 49 1c bd e7 42 cf bd c5 18 43 3c e1 34 3e bd
       -0.03815637 -0.101201825 0.011907761 -0.046437148
0003c0 64 f0 76 3c 87 f4 4a 3c 30 5b b9 bd 47 3e d6 bd
       0.015071962 0.012387401 -0.09050596 -0.10461097
0003d0 55 85 9e bc 6d 1e 58 bc 63 1d 60 3d 94 da 9a 3d
       -0.019350687 -0.013190848 0.054715525 0.07561222
0003e0 68 c3 a1 3d 39 74 9f bd 3b 69 08 be 12 31 df 3d
       0.07898599 -0.077858396 -0.13321392 0.10898031
0003f0 e0 fd 42 3d 3c e1 ef bc a6 61 5e 3d 69 12 d6 bc
       0.047605395 -0.029282205 0.054292344 -0.026131826

network_body._body_endoder.seq_layers.2.bias f4 [256]
000000 00 00 00 00 00 00 00 00 00 00 00 00 00 00 00 00
       0.0 0.0 0.0 0.0
000010 00 00 00 00 00 00 00 00 00 00 00 00 00 00 00 00
       0.0 0.0 0.0 0.0
000020 00 00 00 00 00 00 00 00 00 00 00 00 00 00 00 00
       0.0 0.0 0.0 0.0
000030 00 00 00 00 00 00 00 00 00 00 00 00 00 00 00 00
       0.0 0.0 0.0 0.0
000040 00 00 00 00 00 00 00 00 00 00 00 00 00 00 00 00
       0.0 0.0 0.0 0.0
000050 00 00 00 00 00 00 00 00 00 00 00 00 00 00 00 00
       0.0 0.0 0.0 0.0
000060 00 00 00 00 00 00 00 00 00 00 00 00 00 00 00 00
       0.0 0.0 0.0 0.0
000070 00 00 00 00 00 00 00 00 00 00 00 00 00 00 00 00
       0.0 0.0 0.0 0.0
000080 00 00 00 00 00 00 00 00 00 00 00 00 00 00 00 00
       0.0 0.0 0.0 0.0
000090 00 00 00 00 00 00 00 00 00 00 00 00 00 00 00 00
       0.0 0.0 0.0 0.0
0000a0 00 00 00 00 00 00 00 00 00 00 00 00 00 00 00 00
       0.0 0.0 0.0 0.0
0000b0 00 00 00 00 00 00 00 00 00 00 00 00 00 00 00 00
       0.0 0.0 0.0 0.0
0000c0 00 00 00 00 00 00 00 00 00 00 00 00 00 00 00 00
       0.0 0.0 0.0 0.0
0000d0 00 00 00 00 00 00 00 00 00 00 00 00 00 00 00 00
       0.0 0.0 0.0 0.0
0000e0 00 00 00 00 00 00 00 00 00 00 00 00 00 00 00 00
       0.0 0.0 0.0 0.0
0000f0 00 00 00 00 00 00 00 00 00 00 00 00 00 00 00 00
       0.0 0.0 0.0 0.0
000100 00 00 00 00 00 00 00 00 00 00 00 00 00 00 00 00
       0.0 0.0 0.0 0.0
000110 00 00 00 00 00 00 00 00 00 00 00 00 00 00 00 00
       0.0 0.0 0.0 0.0
000120 00 00 00 00 00 00 00 00 00 00 00 00 00 00 00 00
       0.0 0.0 0.0 0.0
000130 00 00 00 00 00 00 00 00 00 00 00 00 00 00 00 00
       0.0 0.0 0.0 0.0
000140 00 00 00 00 00 00 00 00 00 00 00 00 00 00 00 00
       0.0 0.0 0.0 0.0
000150 00 00 00 00 00 00 00 00 00 00 00 00 00 00 00 00
       0.0 0.0 0.0 0.0
000160 00 00 00 00 00 00 00 00 00 00 00 00 00 00 00 00
       0.0 0.0 0.0 0.0
000170 00 00 00 00 00 00 00 00 00 00 00 00 00 00 00 00
       0.0 0.0 0.0 0.0
000180 00 00 00 00 00 00 00 00 00 00 00 00 00 00 00 00
       0.0 0.0 0.0 0.0
000190 00 00 00 00 00 00 00 00 00 00 00 00 00 00 00 00
       0.0 0.0 0.0 0.0
0001a0 00 00 00 00 00 00 00 00 00 00 00 00 00 00 00 00
       0.0 0.0 0.0 0.0
0001b0 00 00 00 00 00 00 00 00 00 00 00 00 00 00 00 00
       0.0 0.0 0.0 0.0
0001c0 00 00 00 00 00 00 00 00 00 00 00 00 00 00 00 00
       0.0 0.0 0.0 0.0
0001d0 00 00 00 00 00 00 00 00 00 00 00 00 00 00 00 00
       0.0 0.0 0.0 0.0
0001e0 00 00 00 00 00 00 00 00 00 00 00 00 00 00 00 00
       0.0 0.0 0.0 0.0
0001f0 00 00 00 00 00 00 00 00 00 00 00 00 00 00 00 00
       0.0 0.0 0.0 0.0
000200 00 00 00 00 00 00 00 00 00 00 00 00 00 00 00 00
       0.0 0.0 0.0 0.0
000210 00 00 00 00 00 00 00 00 00 00 00 00 00 00 00 00
       0.0 0.0 0.0 0.0
000220 00 00 00 00 00 00 00 00 00 00 00 00 00 00 00 00
       0.0 0.0 0.0 0.0
000230 00 00 00 00 00 00 00 00 00 00 00 00 00 00 00 00
       0.0 0.0 0.0 0.0
000240 00 00 00 00 00 00 00 00 00 00 00 00 00 00 00 00
       0.0 0.0 0.0 0.0
000250 00 00 00 00 00 00 00 00 00 00 00 00 00 00 00 00
       0.0 0.0 0.0 0.0
000260 00 00 00 00 00 00 00 00 00 00 00 00 00 00 00 00
       0.0 0.0 0.0 0.0
000270 00 00 00 00 00 00 00 00 00 00 00 00 00 00 00 00
       0.0 0.0 0.0 0.0
000280 00 00 00 00 00 00 00 00 00 00 00 00 00 00 00 00
       0.0 0.0 0.0 0.0
000290 00 00 00 00 00 00 00 00 00 00 00 00 00 00 00 00
       0.0 0.0 0.0 0.0
0002a0 00 00 00 00 00 00 00 00 00 00 00 00 00 00 00 00
       0.0 0.0 0.0 0.0
0002b0 00 00 00 00 00 00 00 00 00 00 00 00 00 00 00 00
       0.0 0.0 0.0 0.0
0002c0 00 00 00 00 00 00 00 00 00 00 00 00 00 00 00 00
       0.0 0.0 0.0 0.0
0002d0 00 00 00 00 00 00 00 00 00 00 00 00 00 00 00 00
       0.0 0.0 0.0 0.0
0002e0 00 00 00 00 00 00 00 00 00 00 00 00 00 00 00 00
       0.0 0.0 0.0 0.0
0002f0 00 00 00 00 00 00 00 00 00 00 00 00 00 00 00 00
       0.0 0.0 0.0 0.0
000300 00 00 00 00 00 00 00 00 00 00 00 00 00 00 00 00
       0.0 0.0 0.0 0.0
000310 00 00 00 00 00 00 00 00 00 00 00 00 00 00 00 00
       0.0 0.0 0.0 0.0
000320 00 00 00 00 00 00 00 00 00 00 00 00 00 00 00 00
       0.0 0.0 0.0 0.0
000330 00 00 00 00 00 00 00 00 00 00 00 00 00 00 00 00
       0.0 0.0 0.0 0.0
000340 00 00 00 00 00 00 00 00 00 00 00 00 00 00 00 00
       0.0 0.0 0.0 0.0
000350 00 00 00 00 00 00 00 00 00 00 00 00 00 00 00 00
       0.0 0.0 0.0 0.0
000360 00 00 00 00 00 00 00 00 00 00 00 00 00 00 00 00
       0.0 0.0 0.0 0.0
000370 00 00 00 00 00 00 00 00 00 00 00 00 00 00 00 00
       0.0 0.0 0.0 0.0
000380 00 00 00 00 00 00 00 00 00 00 00 00 00 00 00 00
       0.0 0.0 0.0 0.0
000390 00 00 00 00 00 00 00 00 00 00 00 00 00 00 00 00
       0.0 0.0 0.0 0.0
0003a0 00 00 00 00 00 00 00 00 00 00 00 00 00 00 00 00
       0.0 0.0 0.0 0.0
0003b0 00 00 00 00 00 00 00 00 00 00 00 00 00 00 00 00
       0.0 0.0 0.0 0.0
0003c0 00 00 00 00 00 00 00 00 00 00 00 00 00 00 00 00
       0.0 0.0 0.0 0.0
0003d0 00 00 00 00 00 00 00 00 00 00 00 00 00 00 00 00
       0.0 0.0 0.0 0.0
0003e0 00 00 00 00 00 00 00 00 00 00 00 00 00 00 00 00
       0.0 0.0 0.0 0.0
0003f0 00 00 00 00 00 00 00 00 00 00 00 00 00 00 00 00
       0.0 0.0 0.0 0.0

action_model._continuous_distribution.log_sigma f4 [1, 3]
000000 00 00 00 00 00 00 00 00 00 00 00 00
       0.0 0.0 0.0

action_model._continuous_distribution.mu.weight f4 [3, 256]
000000 18 ad 3e b9 9b 59 32 3c 13 29 06 3c d8 ab 83 bc
       -0.00018184294 0.010885621 0.008188504 -0.016073152
000010 78 3c e1 3b 3f 8f 17 3c 62 7a a9 bb ff c6 30 bc
       0.0068736635 0.009250461 -0.00517206 -0.010789632
000020 07 e1 02 3c 3f a7 2e 3b a0 ef a8 3b 7a f7 5d bc
       0.007988221 0.002664998 0.0051555187 -0.013547773
000030 94 9f 08 bc 3f 01 c0 3b 90 5c 69 3c d1 a2 89 3c
       -0.008338828 0.0058595235 0.01424326 0.01680127
000040 10 ba f6 3a 9d 0b 09 3c 13 de b6 3a 1d 6c 6a bc
       0.0018823761 0.008364585 0.0013951681 -0.014308003
000050 67 86 ba bc 25 c0 51 3c 40 47 77 3b 4f 71 b0 bb
       -0.022769166 0.0128021585 0.0037731677 -0.005384601
000060 c1 7e af bb 76 a1 a4 3c e0 7f 9b bc 93 eb 21 3c
       -0.0053556864 0.020096522 -0.018981874 0.009882825
000070 1d 54 ca bb c3 35 65 3a 87 50 9a 3a e4 95 40 3c
       -0.006174578 0.0008743668 0.0011773267 0.011754487
000080 89 26 a6 3b 4b 7d 9c bb 5f cd 9e bb 18 68 43 bc
       0.0050705117 -0.0047756783 -0.0048462595 -0.011926673
000090 a0 3e a7 bc 02 14 aa bb f2 35 cc 3c d2 b7 36 3c
       -0.020415604 -0.0051903734 0.024928067 0.011152225
0000a0 14 93 02 bc c8 3b bf 3b bf a8 06 3b bb 38 c2 bb
       -0.0079696365 0.005835984 0.0020547358 -0.005927173
0000b0 40 b1 8d 3c 2b 93 bd 3c 24 b5 3b bc 74 fa 3a 3c
       0.017296433 0.023141464 -0.0114567615 0.011412252
0000c0 62 e4 8e 3a 8a c3 1f bc 92 14 f5 bc 3a fe 90 ba
       0.0010901804 -0.00975121 -0.029917035 -0.0011062094
0000d0 9b f5 3a 3c e8 28 ec 3a 31 fe 1b bc 27 50 42 bb
       0.011411096 0.0018017562 -0.009521053 -0.0029649825
0000e0 6f a6 92 3c 9b b6 b7 ba b2 42 ec 3b af c2 48 3a
       0.017901627 -0.0014016213 0.007210099 0.00076584046
0000f0 58 06 6c bb 23 cb a5 bb d2 0a 02 bc 07 41 56 39
       -0.0036014523 -0.005059616 -0.00793715 0.00020432855
000100 a5 55 13 bc 77 8d e7 bb 72 e3 97 3c 7f f2 38 bc
       -0.008992587 -0.0070664245 0.018541072 -0.011288284
000110 c3 13 07 3b 72 f3 23 bb 43 98 66 3c ea 8b c3 3b
       0.0020611144 -0.002501693 0.014074388 0.005967607
000120 b2 94 74 3c 82 d5 ea 3b 41 85 04 bc 26 7c 35 3b
       0.01492803 0.0071665654 -0.008088411 0.0027692406
000130 57 7d 0b 3b 73 6b 73 bc ce 1a a7 bb 5b 0a 12 bc
       0.0021284425 -0.014857161 -0.005099631 -0.008913602
000140 cf 3e e4 3a 43 30 2f bc 68 46 3e bc 27 ae 22 3b
       0.0017413738 -0.010692659 -0.011613466 0.0024823041
000150 77 a3 48 bc db b1 0e bc 3f ac 2e bb 8c d7 8f bc
       -0.012246004 -0.008709396 -0.002665296 -0.017558835
000160 7f ce e6 bb b7 76 56 3b 6d b9 a4 3b 44 66 97 3c
       -0.007043659 0.0032724568 0.0050269873 0.018481381
000170 99 c2 a6 39 00 a4 e6 bb 43 07 d4 3a 76 5d 26 3c
       0.00031806974 -0.0070385933 0.001617648 0.010154119
000180 9b 31 38 bc af bf c3 3b df 04 e5 3b fc f3 2a 3c
       -0.011242296 0.005973778 0.006989106 0.010434147
000190 22 6e b0 3c 29 2f 41 3b 77 d9 fa 3c eb 0c bc 3b
       0.02153689 0.0029477573 0.030621273 0.0057388446
0001a0 ac 3a 8a bb 27 3e 02 3c 51 77 ac bb 9d 84 6f 3c
       -0.00421842 0.007949389 -0.005263247 0.01461902
0001b0 3f 04 44 bc c2 96 5b 3c 9d d1 74 ba c8 0e da 3b
       -0.011963903 0.013402643 -0.0009339096 0.006654594
0001c0 99 e2 ba 3b 0d 8a 3f 3c 2b 66 2b 3c e5 c9 5c 3b
       0.005703282 0.011690629 0.01046137 0.0033689674
0001d0 39 2d 93 bc da 97 ef 3b 7b eb 37 bb cb 21 39 bc
       -0.0179659 0.0073118033 -0.0028063941 -0.011299561
0001e0 ad e3 c5 bb fa ad 04 3b 79 52 9f 3b e5 bf 29 bc
       -0.006039104 0.00202453 0.0048621264 -0.010360693
0001f0 c2 d4 40 3c 8f c2 08 3c 7b 27 79 3c 55 f4 d0 ba
       0.011769475 0.008347168 0.015207167 -0.0015941957
000200 f7 8e 80 bb ea d0 17 bc 7d 4f f3 bb af 2d 98 3c
       -0.0039232927 -0.009266118 -0.007425247 0.018576471
000210 4d bf 46 3b a9 fa 01 3d e0 f1 60 3b 6d f8 3d b8
       0.0030326426 0.03173319 0.0034323856 -4.5292476e-05
000220 ff f8 81 3b c0 69 b9 3b 51 87 80 3c 13 41 e7 ba
       0.00396645 0.0056583583 0.015689524 -0.0017643295
000230 f7 91 87 3c 3d 80 d2 bc f6 eb 97 ba f3 ab 89 bc
       0.016549094 -0.025695914 -0.0011590708 -0.016805625
000240 5f ca e8 bb f7 7e 7e bb 72 56 42 3c 0a 96 0f bc
       -0.0071042026 -0.0038833 0.0118614305 -0.008763799
000250 0b 58 d0 3c 9f d3 e6 bb 4e 27 91 bc 36 59 09 3c
       0.025432607 -0.00704427 -0.017718937 0.008383086
000260 cd 15 a4 bc 13 6d 5a bb 57 18 30 3a 95 f4 2f 3b
       -0.020029927 -0.0033329173 0.0006717494 0.0026848663
000270 df e2 87 3b 4b 75 02 3b d7 3c 94 3c 25 d8 e9 3c
       0.004146918 0.0019906338 0.018095417 0.028545449
000280 d8 d7 71 3b 93 57 89 bb f9 6b c8 ba f0 33 34 3c
       0.0036902335 -0.004191348 -0.0015290967 0.010998711
000290 1f a8 9d bc 33 8b c9 38 f7 a8 25 bc 7d 68 9f bc
       -0.019245205 9.610355e-05 -0.010111085 -0.019459004
0002a0 df ec b5 3c 95 71 85 3b 87 43 c6 bb d7 ed 43 3b
       0.022207676 0.004072378 -0.0060505304 0.0029896402
0002b0 99 35 08 bc 9b bb fd ba a7 5c ef bb cb 60 3c bc
       -0.00831356 -0.0019358279 -0.007304746 -0.011497687
0002c0 77 9a fb 3a 63 42 ce bb 7e 2e 43 bb 18 a5 d5 ba
       0.0019195814 -0.006294535 -0.002978235 -0.0016299812
0002d0 22 3e 2b bc 2b 1e 6c 3c 17 6a 8d bc 74 bb 12 3d
       -0.010451825 0.0144114895 -0.017262502 0.0358233
0002e0 db 11 cc 3c 35 6e 8b bc 10 4c fd 3b aa d9 b2 bb
       0.024910858 -0.017020324 0.0077300146 -0.0054580765
0002f0 79 5c a9 bc 32 0f bc bc ef 83 a8 bc 8a 3e 67 3c
       -0.020673977 -0.022956464 -0.020570723 0.014114032
000300 9a b1 20 bc d6 1a a5 3c 23 b5 33 3a d1 f5 0f bc
       -0.0098079685 0.020154398 0.00068552996 -0.008786635
000310 d0 cf ec 3a 9f 1c 61 bc 48 34 1d bc 03 e3 0a 3a
       0.0018067304 -0.013739734 -0.009594984 0.00052981096
000320 83 20 a3 bb 08 33 2b 3c e2 92 7c bc 03 00 57 3b
       -0.004978241 0.0104491785 -0.015415879 0.0032806403
000330 cd 90 98 3a 8d 55 99 bb d9 b9 b9 bc 19 4a 43 bc
       0.0011639834 -0.004679388 -0.022671627 -0.011919522
000340 a7 5f ec 3a 92 ec e5 3c 16 ef 98 bb 62 8c 17 3b
       0.0018033878 0.028066907 -0.004667173 0.0023124446
000350 88 9d b3 bc 88 82 63 bc a4 ea 18 3c 44 77 48 bc
       -0.021925703 -0.013886102 0.009333286 -0.012235466
000360 f0 3f 02 3c 72 08 06 3c 78 49 57 3c 4d 49 00 bc
       0.007949814 0.008180724 0.013140075 -0.007829976
000370 5a 43 d8 3a 8d f1 77 bc 97 88 45 3c a0 c1 66 bc
       0.0016499565 -0.015133274 0.012056491 -0.01408425
000380 9d 83 7a 3a 47 c5 1a 3c 8b 6e 8c 3b 0b b2 ac 3b
       0.0009556355 0.009446449 0.0042856387 0.005270248
000390 db 2c 6e 3c 53 58 ea bc bb 35 4f bc 8f f3 fc 3b
       0.014537062 -0.02860657 -0.012647088 0.007719464
0003a0 f3 97 d9 3c 5d 58 a0 bb 8d dd 7f 3c 3b c5 39 3b
       0.026561713 -0.004893346 0.015616787 0.0028346318
0003b0 9c 1a 08 bc 78 04 1e bc 40 c8 e1 ba ff e5 92 bc
       -0.008307125 -0.00964462 -0.0017225817 -0.017931936
0003c0 28 fb 25 3c 4c ab 16 ba 4f 9c bb 3b c7 5f b6 bc
       0.010130681 -0.0005747571 0.0057254205 -0.022262467
0003d0 e7 b7 76 3c d6 bf 20 3c 4b 2d 0c 3a 88 3c 0e 3a
       0.015058494 0.009811362 0.00053473254 0.000542589
0003e0 f6 64 ba 3c 6a 97 55 bb e4 3e 2b 3a ce 42 3b bb
       0.02275322 -0.003259147 0.0006532504 -0.0028573754
0003f0 67 3e 77 3c 11 6b a7 3c 4b b6 c7 bc 1b e2 ea 39
       0.0150905615 0.020436795 -0.024378916 0.0004480042

action_model._continuous_distribution.mu.bias f4 [3]
000000 00 00 00 00 00 00 00 00 00 00 00 00
       0.0 0.0 0.0
