Assets/NNModels/GaragePPO.onnx (onnx, 695646 bytes, 7 tensors)

network_body.linear_encoder.seq_layers.0.weight f4 [256, 416]
0.09135107 -0.00465174 0.08443208 -0.07633432 0.15027775 -0.08795874 0.0341888 -0.031943586
0.069330126 0.014006183 -0.032237135 0.051164698 -0.05442693 -0.05376234 -0.0021177765 -0.12016068
-0.029472888 -0.0458904 -0.07394104 -0.05800333 0.059094306 -0.055658676 0.006421154 0.0709977
-0.096435495 -0.036548674 -0.04997532 -0.0060223876 -0.1404466 -0.100586794 0.115347825 -0.13668156
-0.12689269 -0.025490839 0.029042581 -0.06431306 0.0642402 -0.1723071 0.038476072 0.046285782
-0.15798107 -0.04167469 -0.013852229 -0.011993218 -0.03977373 -0.13630953 0.1013383 0.06384557
-0.17319344 -0.04237167 0.065274924 0.025155067 -0.10801903 -0.04347416 0.0376192 0.049177546
-0.077457406 -0.009899479 0.038054265 -0.05586397 0.024192186 -0.0004095488 -0.030221956 0.09573043
0.06516278 -0.05875243 -0.009170898 0.12390825 0.078970306 -0.013360227 0.037768837 0.010051486
0.053428017 0.014981442 0.12512584 0.0997519 0.083201304 -0.018150501 0.09009279 0.0605067
-0.0037444592 -0.055521198 0.077298805 -0.021988623 -0.061719105 0.03614298 0.14185208 -0.00069219613
-0.09863134 0.0046536056 0.08269355 -0.018869778 -0.12864535 -0.034219883 0.0015612721 -0.03913157
0.1060865 -0.0012109561 0.02626022 0.053299345 0.07413129 0.10577437 0.06780915 0.08810944
-0.0043608095 -0.028645094 0.0378589 0.013795433 -0.0089103235 -0.041136477 0.080153085 -0.026930682
-0.05395711 -0.018338274 0.011071984 -0.02038675 -0.12476631 0.025320355 -0.023997167 -0.06810103
-0.13179272 0.062136814 -0.018907556 0.0023058557 0.011905575 -0.087386526 0.031505935 0.016806943
0.114335634 -0.019465521 -0.13788581 -0.08636839 0.013285634 0.008323633 -0.12051889 0.010440414
0.054915782 0.061675157 -0.13429374 -0.09953834 0.03127211 -0.009190549 0.040004198 -0.033045724
0.012399618 -0.020829244 -0.11141537 -0.1042972 0.049332984 0.026506966 -0.058671523 -0.029033149
0.021362603 -0.022518951 -0.089108996 -0.0067098015 0.08644842 0.10382963 -0.083899714 -0.03331329
0.056432556 0.06426331 -0.0055429875 -0.12200642 0.11994491 -0.04645903 0.04892056 -0.10057643
0.017858181 -0.032680042 0.07274501 0.03294817 0.023895904 0.007821846 0.15159737 0.03421658
-0.00014763548 0.056291606 0.058266543 -0.09012096 0.00076264027 -0.015922308 0.028891865 -0.016488314
0.063779764 -0.024856944 -0.007603503 0.0151584735 0.0708447 0.0042654998 -0.19972773 -0.049846858
-0.02023774 0.021655874 -0.020898858 -0.005614183 0.049205553 -0.077157855 -0.08148419 0.009811555
0.020320587 -0.032014098 0.0326674 0.0147027075 0.03294445 -0.016919402 0.048586726 -0.03417313
-0.017599097 0.029425446 -0.0034741883 -0.056718953 0.14622283 0.06837675 -0.018598475 0.018979786
0.025492335 -0.045852367 -0.13459526 -0.07806305 0.083906494 0.009382492 -0.071014814 -0.023821091
0.05102932 0.13369577 -0.0025098284 0.07621138 -0.043941014 -0.018783582 0.076419 -0.007991681
-0.16467479 -0.15406977 0.055057164 0.019812185 -0.065974176 -0.15325278 0.015293687 -0.062494554
-0.07405261 -0.029445454 0.13324375 0.06317381 -0.058171682 -0.021372845 -0.05287777 0.014173156
-0.043965414 0.041141823 0.07091162 -0.053656492 -0.06947316 -0.0021743053 0.004552889 0.06924158
00000000: 4516 bb3d a06d 98bb baea ac3d 2b55 9cbd
00000010: 69e2 193e b623 b4bd 8e09 0c3d 47d7 02bd
00000020: f4fc 8d3d 307a 653c 160b 04bd 1392 513d
00000030: c6ee 5ebd e635 5cbd 65ca 0abb cd16 f6bd
00000040: 2071 f1bc 92f7 3bbd 666e 97bd e694 6dbd
00000050: df0c 723d 5afa 63bd 8b68 d23b 3e67 913d
00000060: f97f c5bd 10b4 15bd ecb2 4cbd 7357 c5bb
00000070: 3cd1 0fbe 7300 cebd 7b3b ec3d 40f6 0bbe
00000080: 28f0 01be 2ad2 d0bc b5ea ed3c 91b6 83bd
00000090: 5e90 833d 4671 30be 1699 1d3d 2996 3d3d
000000a0: cac5 21be 14b3 2abd 76f4 62bc 347f 44bc
000000b0: c7e9 22bd ba94 0bbe 748a cf3d 77c1 823d
000000c0: 9f59 31be eb8d 2dbd dcae 853d 0012 ce3c
000000d0: 1539 ddbd f611 32bd 9716 1a3d 656e 493d
000000e0: fda1 9ebd 6d31 22bc cade 1b3d 9ed1 64bd
000000f0: b12e c63c b6b8 d6b9 0994 f7bc 510e c43d
00000100: 1074 853d 63a6 70bd 8941 16bc 9cc3 fd3d
00000110: 2fbb a13d dbe4 5abc 7fb3 1a3d fdae 243c
00000120: 56d7 5a3d b974 753c fd20 003e b94a cc3d
00000130: 7265 aa3d 5cb0 94bc 9282 b83d e0d5 773d
00000140: 9a65 75bb 326a 63bd d64e 9e3d 7c21 b4bc
00000150: 2ccd 7cbd a90a 143d ac41 113e 7f74 35ba
00000160: 3aff c9bd 467d 983b 3c5b a93d cb94 9abc
00000170: 9bbb 03be 262a 0cbd 99a3 cc3a 6d48 20bd
00000180: e143 d93d f2b8 9eba ac1f d73c 6a50 5a3d
00000190: 25d2 973d 3ca0 d83d 86df 8a3d b972 b43d
000001a0: 1fe5 8ebb 1ea9 eabc ef11 1b3d 3d06 623c
000001b0: 9bfc 11bc b97e 28bd 4d27 a43d bc9d dcbc
000001c0: 2102 5dbd 263a 96bc 4467 353c 1d02 a7bc
000001d0: 7b85 ffbd a26c cf3c b595 c4bc 8e78 8bbd
000001e0: acf4 06be 2c83 7e3d 05e4 9abc d71d 173b
000001f0: 9a0f 433c b5f7 b2bd 5e0c 013d b7ae 893c
00000200: cd28 ea3d 2876 9fbc f031 0dbe e9e1 b0bd
00000210: fdab 593c d95f 083c 9cd2 f6bd 450e 2b3c
00000220: 5fef 603d 179f 7c3d 4c84 09be c2da cbbd
00000230: 2f17 003d f593 16bc 71db 233d f45a 07bd
00000240: c427 4b3c 17a2 aabc be2d e4bd c599 d5bd
00000250: 6211 4a3d 2325 d93c 8d51 70bd edd6 edbc
00000260: a000 af3c aa79 b8bc c77e b6bd e5dd dbbb
00000270: df0b b13d a1a4 d43d 9dd3 abbd 8473 08bd
00000280: d325 673d 7b9c 833d f3a1 b5bb 80de f9bd
00000290: ada5 f53d d34b 3ebd ed60 483d 04fb cdbd
000002a0: 524b 923c 82db 05bd 56fb 943d a9f4 063d
000002b0: 58c1 c33c 3327 003c 573c 1b3e af26 0c3d
000002c0: 99ce 1ab9 0792 663d e6a8 6e3d 5691 b8bd
000002d0: eceb 473a 806f 82bc a2ae ec3c 8012 87bc
000002e0: f79e 823d caa0 cbbc ce26 f9bb 3f5b 783c
000002f0: 0717 913d 9bc5 8b3b 6d85 4cbe 382c 4cbd
00000300: 9ec9 a5bc a967 b13c 1534 abbc 2ef7 b7bb
00000310: c38b 493d f004 9ebd 2fe1 a6bd a5c0 203c
00000320: 5c77 a63c 3721 03bd 40ce 053d a0e3 703c
00000330: c2f0 063d 8f9a 8abc e002 473d 20f9 0bbd
00000340: fb2b 90bc a20d f13c 35af 63bb 2252 68bd
00000350: 70bb 153e 1c09 8c3d d45b 98bc 7f7b 9b3c
00000360: 4dd5 d03c b1cf 3bbd 57d3 09be 85df 9fbd
00000370: 2bd7 ab3d 06b9 193c 3770 91bd 7324 c3bc
00000380: 1f04 513d 8be7 083e ef7b 24bb b614 9c3d
00000390: 7efb 33bd 07e0 99bc 9181 9c3d 8aef 02bc
000003a0: 82a0 28be 77c4 1dbe 9f83 613d 2a4d a23c
000003b0: 781d 87bd 4cee 1cbe 5f92 7a3c 4afa 7fbd
000003c0: e5a8 97bd 9837 f1bc 0d71 083e 4561 813d
000003d0: 6e45 6ebd 1b16 afbc 5c96 58bd 8636 683c
000003e0: 1415 34bd 5484 283d 1d3a 913d e9c6 5bbd
000003f0: f247 8ebd ca7e 0ebb 6730 953b 88ce 8d3d

network_body.linear_encoder.seq_layers.0.bias f4 [256]
-0.01118158 -0.003900926 -0.012353841 0.021691795 -0.0062869787 -0.019907212 -0.012702201 0.012413071
-0.012845251 0.001618268 0.03711687 -0.022485081 -0.0015256786 -0.017160231 0.0017238023 0.0051019075
-0.016894646 0.008105083 -0.0017431697 -0.008794204 0.016720155 -0.00013686118 0.005708881 -0.004076757
0.006204096 -0.0017901089 -0.020979578 -0.0100418925 -0.0154829975 -0.015129572 -0.012704817 0.03195013
-0.0034364914 0.0007282222 0.005783423 -0.025757274 -0.03463064 -0.020415599 -0.007097375 -0.0032078705
0.012126756 0.0075020487 -0.008433697 0.004584159 0.00011328408 -0.011295778 -0.0031567798 -0.010623393
4.9055663e-05 0.010567988 -0.056723993 -0.0051318766 0.0019696092 0.0077257473 -0.0069755786 -0.004595424
-0.003467144 0.030827671 -0.0014124938 -8.641273e-06 0.053572323 -0.0014615249 0.0077087097 -0.031202156
-0.008878184 -0.0059708655 -0.008236277 0.001344822 -0.0070473286 0.0363357 0.022847831 0.006314008
-0.011577734 0.00951615 0.009551279 -0.002702177 0.009358955 0.0057322606 -0.006153827 0.0042647673
0.020581467 0.014793569 -0.017394431 0.006714952 0.006649583 0.0065302537 0.006742493 -0.008280179
-0.008752536 -0.013159424 0.0027162607 0.0053872974 0.017228546 -0.0015721963 -0.02041606 -0.012546446
0.00580929 0.034238704 -0.0031184985 0.0018992716 3.0445877e-05 -0.0014881219 0.006264224 0.00088314066
-0.014807051 -0.011457081 0.0050740084 -0.023761442 -0.0058912593 -0.015043595 -0.006273359 -0.024265716
-0.01206267 -0.0006727664 -0.0025451542 -0.016485684 0.0058543864 -0.003337499 0.00759536 0.013272627
-0.005898335 -0.0036745565 -0.010412622 0.013670559 -0.006793743 -0.02276995 -0.032585833 -0.014536483
-0.009410396 -0.011390726 -0.0036209247 -0.0055695847 0.017503569 -0.013386332 -0.015875986 -0.0069333813
0.007508757 -0.0014527394 0.010070066 0.013214299 -0.008199951 0.0060998844 0.0023396835 0.0029544055
0.011520528 -0.006623471 -0.003353167 -0.002973967 -0.009490562 0.015215626 0.0020279256 -0.00087081495
-0.008710278 0.024792366 -0.025908696 -0.007121927 -0.005834491 -0.024036799 -0.0012319781 -0.0015963966
0.013314264 -0.001999597 0.012285091 -0.009077657 -0.005779641 -0.019827468 -0.0126179885 0.011606747
0.004415651 0.050576657 0.006385958 0.008967716 -0.020637197 0.020029886 0.0017348183 -0.011924321
0.0430509 -0.01743908 -0.0086507425 0.031531915 0.041784693 -0.019681906 -0.0144203445 0.003928358
-0.0021367176 0.013111029 0.006720151 0.004867964 0.014505315 0.014888819 0.0068236864 -0.0030807573
0.048543293 -0.021151604 0.007378945 0.0015551837 0.022316765 -0.0094484985 -0.010769868 -0.0015865149
0.0017184276 0.0028055108 0.0070080375 -0.0033590822 0.0014331228 0.04758629 -0.020266123 -0.020775242
0.016878612 0.0005527685 -0.0035588024 -0.010509118 -0.017383285 0.002844234 0.0012672246 0.012236171
-0.0033536532 -0.002630161 -0.011909273 -0.012663976 0.009820698 0.015945366 0.004859398 -0.0071434723
0.022907598 -0.0015756071 -0.0084027285 -0.0073831487 0.0069176895 -0.019552356 0.009858886 -0.015577687
-0.028847437 0.03738648 -0.00047410128 0.00562291 -0.025782349 0.0145462435 -0.0057038614 -0.00078006834
0.019033723 -0.0006798709 0.04863606 0.019061038 -0.0028439185 -0.0209622 0.0088622235 0.012363198
-0.009906063 0.0031311791 -0.010813399 0.008901384 -0.014459283 -0.015426904 0.021586653 0.003946884
00000000: f232 37bc aea6 7fbb c467 4abc feb2 b13c
00000010: 0003 cebb 7314 a3bc e41c 50bc 3160 4b3c
00000020: e374 52bc 101c d43a dc07 183d a232 b8bc
00000030: 47f9 c7ba 9d93 8cbc 35f1 e13a e72d a73b
00000040: a466 8abc 2fcb 043c 127b e4ba 9115 10bc
00000050: b5f8 883c 6582 0fb9 9111 bb3b 5196 85bb
00000060: bb4b cb3b 16a2 eaba 5ddd abbc c086 24bc
00000070: 66ac 7dbc 06e2 77bc dd27 50bc 24de 023d
00000080: c236 61bb 2ae6 3e3a de82 bd3b eb00 d3bc
00000090: dcd8 0dbd 9d3e a7bc 1991 e8bb 233b 52bb
000000a0: 4daf 463c bfd3 f53b 7d2d 0abc b636 963b
000000b0: ed92 ed38 ed11 39bc fae1 4ebb bd0d 2ebc
000000c0: 1ec1 4d38 5b25 2d3c 6b57 68bd 4d29 a8bb
000000d0: 8f14 013b 4428 fd3b 6593 e4bb 3695 96bb
000000e0: 0639 63bb 508a fc3c 6d23 b9ba fcf9 10b7
000000f0: a76e 5b3d a390 bfba 5899 fc3b aa9b ffbc
00000100: cd75 11bc 40a7 c3bb 73f1 06bc bd44 b03a
00000110: 47ed e6bb bed4 143d 602b bb3c bde5 ce3b
00000120: 89b0 3dbc a0e9 1b3c f87c 1c3c 0217 31bb
00000130: 4d56 193c b0d5 bb3b 0ba6 c9bb 76bf 8b3b
00000140: 779a a83c ba60 723c c47e 8ebc 1a09 dc3b
00000150: bfe4 d93b bdfb d53b 21f0 dc3b 97a9 07bc
00000160: cc66 0fbc a09a 57bc 4b03 323b ed87 b03b
00000170: e122 8d3c 2712 ceba 953f a7bc 9c8f 4dbc
00000180: db5b be3b e23d 0c3d b95f 4cbb fbf0 f83a
00000190: 0666 ff37 160d c3ba 1f44 cd3b 9182 673a
000001a0: 4699 72bc 7bb6 3bbc de43 a63b 5ba7 c2bc
000001b0: 770b c1bb 6979 76bc c090 cdbb e5c8 c6bc
000001c0: 81a2 45bc 975c 30ba 9acc 26bb fc0c 87bc
000001d0: 27d6 bf3b f1b9 5abb 7fe2 f83b 6f75 593c
000001e0: d246 c1bb d4d0 70bb b499 2abc 7bfa 5f3c
000001f0: 0c9e debb 0c88 babc b978 05bd 6e2a 6ebc
00000200: 102e 1abc 2ba0 3abc 094d 6dbb 1081 b6bb
00000210: a563 8f3c 5952 5bbc 5b0e 82bc 6b31 e3bb
00000220: 050c f63b d869 beba ebfc 243c ca80 583c
00000230: 1659 06bc 8ae1 c73b 6055 193b b39e 413b
00000240: 99c0 3c3c b409 d9bb cfc0 5bbb e3e6 42bb
00000250: 4d7e 1bbc f64a 793c f2e6 043b 6747 64ba
00000260: 8eb5 0ebc 5c19 cb3c 793e d4bc 0e5f e9bb
00000270: 422f bfbb d2e8 c4bc 537a a1ba 2e3e d1ba
00000280: 1224 5a3c ac0b 03bb 6847 493c 74ba 14bc
00000290: 2563 bdbb 376d a2bc aebb 4ebc 3a2a 3e3c
000002a0: 2ab1 903b 7829 4f3d 4c41 d13b 54ed 123c
000002b0: 570f a9bc b715 a43c d862 e33a 3a5e 43bc
000002c0: 2456 303d 67dc 8ebc d8bb 0dbc 9c27 013d
000002d0: 6d26 2b3d f33b a1bc 4f43 6cbc 75b9 803b
000002e0: 2c08 0cbb a4cf 563c b634 dc3b 7183 9f3b
000002f0: b3a7 6d3c 3cf0 733c 3b99 df3b 88e6 49bb
00000300: 55d5 463d 2146 adbc 14cb f13b 4ed7 cb3a
00000310: a6d1 b63c e0cd 1abc 1a74 30bc 9bf2 cfba
00000320: dd3c e13a a9dc 373b aea3 e53b 0c24 5cbb
00000330: 9fd7 bb3a d7e9 423d 2405 a6bc d730 aabc
00000340: 0445 8a3c abe7 103a cc3a 69bb 702e 2cbc
00000350: 6467 8ebc 5466 3a3b 0019 a63a 397a 483c
00000360: f7c8 5bbb c75e 2cbb 1d1f 43bc 917c 4fbc
00000370: fee6 203c db9f 823c 963b 9f3b ca13 eabb
00000380: b7a8 bb3c 9a84 ceba 99ab 09bc 57ee f1bb
00000390: c9ad e23b 432c a0bc 2a87 213c 8e39 7fbc
000003a0: 7651 ecbc 9122 193d cc90 f8b9 6340 b83b
000003b0: 8135 d3bc 5e53 6e3c 75e7 babb 807d 4cba
000003c0: 9cec 9b3c 5d39 32ba 9b36 473d e525 9c3c
000003d0: 0961 3abb ebb8 abbc dc32 113c 038f 4a3c
000003e0: 0a4d 22bc 7834 4d3b af2a 31bc 1cd7 113c
000003f0: a1e6 6cbc 20c1 7cbc 7ed6 b03c dd54 813b

network_body.linear_encoder.seq_layers.2.weight f4 [256, 256]
0.05401595 -0.051441535 -0.042855535 0.034885004 0.010134753 -0.083612375 -0.024755053 0.08996135
0.0063249217 0.17589177 -0.09401474 0.030017534 -0.061606377 -0.17388147 -0.04541538 0.13886547
-0.04707182 0.12633353 0.030224184 0.031338353 0.08135089 -0.042273123 -0.15893108 -0.050509103
0.042500198 0.11647247 -0.0009588909 -0.08884224 -0.0024096284 -0.07521028 -0.020442821 0.02797936
0.013115127 -0.067123696 -0.11064577 -0.0051539307 0.019577716 -0.004405144 -0.013604888 -0.11176914
0.009192034 0.053016607 0.15875871 0.038009904 -0.17421001 -0.1866738 -0.055276945 0.037375096
-0.14868374 -0.08791139 0.09771336 -0.0095058 -0.0649569 -0.03517144 -0.055818077 0.0110671045
-0.14729898 -0.045249265 0.078720614 0.04747399 -0.007678496 -0.09426521 -0.062574744 -0.07558381
0.0067239613 -0.078239486 0.010555491 -0.029256867 -0.046891406 -0.07450808 -0.008604006 -0.12278906
0.027527677 -0.13297223 -0.08524017 -0.1211123 -0.13329646 0.1574874 -0.05353367 0.019856052
-0.06814977 -0.03246927 0.08513358 -0.07683773 -0.021687359 0.052287217 0.02121145 0.031754605
-0.013846753 -0.029922456 -0.057303406 -0.11901969 -0.031225538 0.01972279 -0.07496552 -0.041639853
-0.11749623 0.08082852 -0.110848546 -0.09818573 0.12051293 -0.021952868 -0.022612868 -0.12668166
0.13635856 0.084627256 0.06179751 -0.07833162 0.113470815 -0.025111703 -0.09268417 -0.083868906
-0.12095548 -0.14649652 0.038135096 0.070014395 0.11954084 -0.19247414 -0.03861234 0.038525753
0.034877934 0.053879097 -0.08024416 0.11364055 -0.04579891 -0.09543007 -0.035335183 -0.021165527
0.07897317 0.058289725 -0.026582818 -0.037643656 0.08028852 -0.072081715 -0.1319517 -0.028326169
0.14555438 0.050684754 -0.07066314 -0.05160643 0.11830388 -0.03784187 -0.13894396 0.0735445
0.020969318 -0.02256692 0.0016332417 -0.005193442 -0.10533934 -0.03876888 0.02332894 -0.05847894
-0.054785244 0.14750059 -0.055128954 0.004255591 0.022552777 -0.062597916 -0.08062369 -0.07986106
0.08747132 -0.12870015 -0.070773676 -0.059655104 -0.05744199 0.014444155 -0.12521322 0.06078808
-0.23624328 0.022065684 0.08194493 -0.1391658 0.06584419 -0.081588514 -0.05538917 0.015437472
0.011243897 -0.05334764 -0.21689753 0.0066561303 -0.12526882 -0.089134164 -0.026047051 -0.090609625
-0.13465156 -0.17445569 -0.099983476 -0.21531996 0.06003532 -0.22003686 -0.12340868 0.010101298
-0.038559716 0.052008647 -0.123068795 0.048700713 0.05641729 -0.13284442 -0.04327115 -0.09447241
-0.0009790008 -0.069661014 -0.014284231 0.038142443 -0.06533286 -0.009495022 0.032720882 0.08163427
0.053292353 0.0058397693 -0.082201496 -0.0692967 0.01683571 0.028067505 0.023226688 0.00095382956
-0.03881289 0.06419887 -0.044065706 -0.11055084 0.10258838 0.050810423 -0.12739268 -0.090046614
-0.041681707 0.005811524 0.15372264 -0.14047462 -0.07532438 0.032774456 0.047729 -0.12216177
0.17811224 -0.034548257 -0.17419924 -0.051998258 -0.05116409 -0.008582575 0.057583537 -0.015755108
-0.019773202 -0.16991332 0.034503177 0.04612426 -0.051514264 -0.06500611 0.08311257 -0.11091893
-0.07285277 0.030080201 -0.13055326 0.06448943 0.007871356 -0.19932376 -0.10560604 -0.10164342
00000000: d43f 5d3d 5cb4 52bd 4989 2fbd 94e3 0e3d
00000010: 3c0c 263c f73c abbd 1ccb cabc a83d b83d
00000020: 4a41 cf3b f91c 343e cd8a c0bd 55e7 f53c
00000030: f856 7cbd fc0d 32be 7a05 3abd c032 0e3e
00000040: 61ce 40bd 945d 013e b598 f73c a55c 003d
00000050: 4c9b a63d 9526 2dbd d4be 22be a2e2 4ebd
00000060: b014 2e3d 1e89 ee3d 145e 7bba ecf2 b5bd
00000070: dbea 1dbb d907 9abd b477 a7bc f934 e53c
00000080: d4e0 563c 2678 89bd 409a e2bd 4ee2 a8bb
00000090: 7261 a03c 0759 90bb 09e7 5ebc 38e7 e4bd
000000a0: 2f9a 163c f127 593d a591 223e 46b0 1b3d
000000b0: 1c64 32be 6b27 3fbe 146a 62bd a116 193d
000000c0: 8d40 18be e30a b4bd f11d c83d 37be 1bbc
000000d0: 2008 85bd ee0f 10bd 7fa1 64bd cd52 353c
000000e0: 8bd5 16be 4b57 39bd 4638 a13d 1674 423d
000000f0: e59b fbbb 1e0e c1bd 3027 80bd afcb 9abd
00000100: ad54 dc3b 063c a0bd f0f0 2c3c 19ac efbc
00000110: 3411 40bd b197 98bd d1f7 0cbc d578 fbbd
00000120: b981 e13c df29 08be 6692 aebd ba09 f8bd
00000130: de7e 08be 6144 213e 1f46 5bbd 29a9 a23c
00000140: 1b92 8bbd 7ffe 04bd 845a ae3d 1a5d 9dbd
00000150: b0a9 b1bc 1f2b 563d a3c3 ad3c 1e11 023d
00000160: 7edd 62bc f01f f5bc fab6 6abd 98c0 f3bd
00000170: b3cc ffbc b091 a13c 8687 99bd 8d8e 2abd
00000180: dda1 f0bd 6c89 a53d 9004 e3bd 9a15 c9bd
00000190: 7ccf f63d 80d6 b3bc 9f3e b9bc d6b8 01be
000001a0: 94a1 0b3e 0e51 ad3d 631f 7d3d 546c a0bd
000001b0: 6363 e83d 0fb7 cdbc 33d1 bdbd 76c3 abbd
000001c0: 82b7 f7bd 2f03 16be 8c33 1c3d b563 8f3d
000001d0: d4d1 f43d f117 45be f927 1ebd 2ecd 1d3d
000001e0: 2adc 0e3d 54b0 5c3d 0d57 a4bd 60bc e83d
000001f0: a397 3bbd d770 c3bd a0bb 10bd 5463 adbc
00000200: afbc a13d 35c1 6e3d 36c4 d9bc 3c30 1abd
00000210: 4f6e a43d 949f 93bd 591e 07be 480c e8bc
00000220: 350c 153e d19a 4f3d d6b7 90bd 4461 53bd
00000230: 4e49 f23d 1400 1bbd 5347 0ebe 809e 963d
00000240: d9c7 ab3c 43de b8bc 7f12 d63a c02d aabb
00000250: 27bc d7bd 1ecc 1ebd 551c bf3c 9d87 6fbd
00000260: 7e66 60bd 650a 173e e6ce 61bd 7c72 8b3b
00000270: 9ac0 b83c 5633 80bd 081e a5bd 328e a3bd
00000280: 2a24 b33d f9c9 03be caf1 90bd e958 74bd
00000290: 4b48 6bbd 2da7 6c3c e537 00be ecfc 783d
000002a0: c2e9 71be 18c3 b43c bed2 a73d 7b81 0ebe
000002b0: 52d9 863d e117 a7bd c1df 62bd 73ed 7c3c
000002c0: 5238 383c 0e83 5abd 631a 5ebe ab1b da3b
000002d0: 7846 00be f98b b6bd a060 d5bc 8a91 b9bd
000002e0: 19e2 09be 83a4 32be 23c4 ccbd d67c 5cbe
000002f0: 99e7 753d 5851 61be b1bd fcbd ea7f 253c
00000300: cbf0 1dbd 0507 553d 7e0b fcbd 667a 473d
00000310: d115 673d 5e08 08be 173d 31bd c07a c1bd
00000320: d151 80ba 6faa 8ebd 6808 6abc 403b 1c3d
00000330: 3ccd 85bd 0291 1bbc 5506 063d de2f a73d
00000340: 1549 5a3d 895b bf3b 4259 a8bd 6eeb 8dbd
00000350: 0beb 893c d3ed e53c e545 be3c 6b0a 7a3a
00000360: 44fa 1ebd b27a 833d 3e7e 34bd 7b68 e2bd
00000370: db19 d23d 971e 503d 3a73 02be 5c6a b8bd
00000380: 70ba 2abd 996e be3b 7869 1d3e 94d8 0fbe
00000390: ab43 9abd 823e 063d 7c7f 433d f32f fabd
000003a0: 0e63 363e 7982 0dbd 4961 32be 20fc 54bd
000003b0: 7091 51bd ee9d 0cbc b7dc 6b3d db10 81bc
000003c0: 69fb a1bc c2fd 2dbe 3453 0d3d cbec 3c3d
000003d0: 9f00 53bd ec21 85bd ec36 aa3d 7729 e3bd
000003e0: d533 95bd c16a f63c c1af 05be 0913 843d
000003f0: dcf6 003c 871b 4cbe fb47 d8bd 6d2a d0bd

network_body.linear_encoder.seq_layers.2.bias f4 [256]
-0.058911294 -0.023042498 0.013474792 -0.056297928 0.0013344301 -0.012849119 0.024115156 -0.08843722
-0.03853276 -0.013925593 -0.004371431 -0.046607547 0.008456295 -0.025413608 0.0035844406 0.051308434
0.013893849 0.006020102 -0.022631288 -0.008891052 0.03654495 -0.010539266 0.030211916 -0.06064487
0.016205002 -0.003539273 -0.034682177 0.029260652 -0.07250239 0.001308536 -0.026462179 -0.016249266
-0.022863936 -0.036311623 0.010009563 -0.012844739 0.039490275 -0.058147952 -0.02436438 0.024161845
0.01559118 0.024304044 -0.020185893 -0.003821075 0.024487687 -0.05379014 -0.07925848 -0.066982575
-0.024351856 0.0035443301 -0.06884503 0.010678502 0.040968202 0.0058961036 -0.027268546 0.019685857
0.056341186 -0.0016752667 0.0038407966 0.03984783 -0.024807025 -0.06764488 -0.024058847 -0.054856066
-0.042231183 0.013045069 0.012310365 -0.07134131 0.041373305 0.013622102 0.02773502 0.06460341
-0.0016018425 0.001486387 -0.009161858 -0.009732882 -0.012127056 -0.069297336 -0.03697587 -0.01065256
0.026244842 -0.07578493 0.011058574 0.048103657 0.027560817 0.005711498 0.035333306 -0.06329051
-0.019274667 0.010924443 0.039791297 -0.010359693 -0.023011284 0.07454706 -0.027951358 -0.09030286
-0.05757325 0.017820185 -0.013858259 0.01747546 -0.050348997 -0.035677936 0.034733035 0.0008295275
-0.043755103 -0.020040864 -0.01841231 -0.010224311 0.0022782655 0.030454865 -0.0009012014 0.02615654
-0.06545146 -0.006254983 0.032710005 -0.060094997 0.023367522 0.0019024572 0.042839345 0.025563244
-0.10066467 -0.003478233 -0.011218079 -0.022480438 -0.028595667 -0.0017838452 0.012985358 -0.025954513
-0.024044896 -0.014601152 -0.013428049 -0.009705648 0.0033455808 -0.012753858 0.016093899 0.042888988
-0.09792358 -0.07959642 -0.021018673 0.014878655 0.03621338 -0.00030136382 0.05204899 0.042061478
-0.019360842 0.008157413 0.019230634 0.028592829 0.029276878 -0.018669236 -0.061247885 0.004955725
-0.010205703 0.003890033 -0.0009909911 0.021736443 0.007890806 -0.09856482 -0.008672632 -0.029449135
-0.035009757 0.036843497 -0.04975515 -0.0043654935 -0.013535571 -0.036200665 -0.03071386 -0.03976706
-0.0022919285 -0.07414568 -0.073620684 -0.012380657 0.0012375333 -0.020870695 -0.037576545 -0.05620064
-0.0070717526 -0.0098149795 -0.02567847 -0.0041827485 -0.012545667 -0.08177743 -0.017354403 -0.006533076
-0.042365637 0.021380013 -0.00014135338 -0.042899016 0.02495244 -0.05600964 -0.004578388 -0.007625016
0.019207912 -0.020560853 -0.02702259 -0.029262153 0.0108906645 -0.02827424 0.0028856301 -0.0023014967
-0.03739881 0.046770226 -0.001278316 -0.0031421212 -0.006463206 0.00701205 0.020860195 -0.085255384
0.0357648 -0.060645066 -0.02335397 -0.01641075 -0.066122964 0.046613295 0.00012270818 -0.018064268
-0.022156598 -0.057004146 0.0076326774 -0.015616805 0.017067028 -0.050730195 0.0048979805 0.032188028
0.00977673 0.036950625 -0.03279453 -0.0072370027 -0.083022475 0.021848584 0.05573096 0.018058324
-0.027195206 0.0072922395 -0.06421304 0.034913946 0.012631513 -0.06222674 -0.10772018 -0.018351281
0.0018294688 0.015158201 -0.009756764 -0.090565324 -0.019217124 -0.044082113 -0.03668639 -0.045351926
0.03768024 -0.009646144 -0.06833292 -0.00021120721 0.012777667 -0.023712983 0.05049507 0.0061158133
00000000: f84c 71bd 9fc3 bcbc 60c5 5c3c a898 66bd
00000010: 0be8 ae3a 1c85 52bc 268d c53c 931e b5bd
00000020: 87d4 1dbd 2c28 64bc 393e 8fbb 8ee7 3ebd
00000030: 468c 0a3c 3330 d0bc efe8 6a3b cb28 523d
00000040: 07a3 633c 4744 c53b 4065 b9bc c6ab 11bc
00000050: 28b0 153d e3ac 2cbc fb7e f73c c166 78bd
00000060: 5ac0 843c 26f3 67bb e60e 0ebd 09b4 ef3c
00000070: 227c 94bd 2f83 ab3a 36c7 d8bc 2e1d 85bc
00000080: 264d bbbc 7fbb 14bd 26ff 233c bd72 52bc
00000090: 8ec0 213d 8c2c 6ebd cf97 c7bc 10ef c53c
000000a0: 2672 7f3c 4619 c73c e35c a5bc 006b 7abb
000000b0: 679a c83c 0d53 5cbd 4552 a2bd 292e 89bd
000000c0: 8b7d c7bc fe47 683b a0fe 8cbd e2f4 2e3c
000000d0: 46ce 273d 1a34 c13b 4962 dfbc 3c44 a13c
000000e0: 04c6 663d 9f94 dbba e0b5 7b3b 7a37 233d
000000f0: 1a38 cbbc 6689 8abd 0f17 c5bc c1b0 60bd
00000100: 9bfa 2cbd fcba 553c 6ab1 493c 651b 92bd
00000110: 0e77 293d 3d2f 5f3c 8d34 e33c cb4e 843d
00000120: eaf4 d1ba dfd2 c23a 9e1b 16bc aa76 1fbc
00000130: 8fb0 46bc c3eb 8dbd 0374 17bd 1388 2ebc
00000140: 6cff d63c 2135 9bbd 052f 353c 5708 453d
00000150: 39c7 e13c 8527 bb3b a8b9 103d 749e 81bd
00000160: e8e5 9dbc 6ffc 323c 33fc 223d b4bb 29bc
00000170: 2982 bcbc 21ac 983d 3ffa e4bc b5f0 b8bd
00000180: eed1 6bbd a3fb 913c c00d 63bc b228 8f3c
00000190: c03a 4ebd 0723 12bd 3a44 0e3d a674 593a
000001a0: 8d38 33bd bd2c a4bc 6ad5 96bc de83 27bc
000001b0: f44e 153b 7b7c f93c 9a3e 6cba 3d46 d63c
000001c0: 6a0b 86bd 9af6 ccbb edfa 053d 2c26 76bd
000001d0: 3f6d bf3c df5b f93a 4f78 2f3d 026a d13c
000001e0: 4729 cebd 11f3 63bb 09cc 37bc e528 b8bc
000001f0: 7641 eabc eacf e9ba 8ac0 543c 8f9e d4bc
00000200: cdf9 c4bc ac39 6fbc 5201 5cbc 7004 1fbc
00000210: 8841 5b3b 8ff5 50bc 5ad7 833c 5dac 2f3d
00000220: 288c c8bd 7303 a3bd 5a2f acbc 9ac5 733c
00000230: 7b54 143d 5e00 9eb9 5231 553d a848 2c3d
00000240: a19a 9ebc aca6 053c 9089 9d3c 823b ea3c
00000250: 10d6 ef3c 3af0 98bc 10df 7abd a263 a23b
00000260: d235 27bc edef 7e3b 25e4 81ba a010 b23c
00000270: 7048 013c 5adc c9bd a817 0ebc 503f f1bc
00000280: 6466 0fbd 35e9 163d 0ecc 4bbd 6a0c 8fbb
00000290: 4dc4 5dbc 2647 14bd a29b fbbc c9e2 22bd
000002a0: 2e34 16bb b1d9 97bd 71c6 96bd 3dd8 4abc
000002b0: ba34 a23a 05f9 aabc dde9 19bd a432 66bd
000002c0: 29ba e7bb 02cf 20bc a85b d2bc 700f 89bb
000002d0: 578c 4dbc ed7a a7bd d22a 8ebc 6a13 d6bb
000002e0: 9787 2dbd 2325 af3c 4238 14b9 e1b6 2fbd
000002f0: 0f69 cc3c 5d6a 65bd 4d06 96bb 45db f9bb
00000300: e959 9d3c 3c6f a8bc 7b5e ddbc 2fb7 efbc
00000310: c26e 323c 619f e7bc d71c 3d3b b5d4 16bb
00000320: 7f2f 19bd 2392 3f3d 2b8d a7ba 0cec 4dbb
00000330: 4dc9 d3bb 57c5 e53b 00e3 aa3c 609a aebd
00000340: 1c7e 123d f666 78bd d350 bfbc d66f 86bc
00000350: 7a6b 87bd 95ed 3e3d 3aab 0039 84fb 93bc
00000360: c181 b5bc 2e7d 69bd 8a1b fa3b a1dd 7fbc
00000370: 27d0 8b3c 77ca 4fbd 3d7f a03b 98d7 033d
00000380: 942e 203c 8a59 173d 8f53 06bd 6124 edbb
00000390: b007 aabd cdfb b23c 2646 643d 0def 933c
000003a0: 7bc8 debc bdf3 ee3b 2082 83bd ed01 0f3d
000003b0: 68f4 4e3c 77e1 7ebd 669c dcbd 6d55 96bc
000003c0: c9ca ef3a 1a5a 783c d6da 1fbc 507a b9bd
000003d0: 3b6d 9dbc 728f 34bd 7844 16bd f1c2 39bd
000003e0: 9856 1a3d dc0a 1ebc 21f2 8bbd 8177 5db9
000003f0: 6b59 513c bb41 c2bc ebd3 4e3d 2967 c83b

action_model._continuous_distribution.log_sigma f4 [1, 3]
-1.2679607 -0.83704555 -0.59374183
00000000: 894c a2bf 9e48 56bf 77ff 17bf

action_model._continuous_distribution.mu.weight f4 [3, 256]
0.048131675 0.024219615 -0.03031432 0.033343285 -0.0855985 -0.10542504 0.07869086 0.044653237
0.006068557 -0.019965883 -0.00074136764 0.085976526 0.20880319 -0.042981293 0.056117494 -0.12907377
0.05037888 -0.019234477 0.056264378 -0.029337924 -0.09048392 -0.04046845 -0.07495568 0.02642574
-0.040559772 -0.023868252 0.1446028 0.050626766 0.0026775596 0.0779939 0.012198158 -0.0067193797
0.11681941 0.10228565 -0.026954547 -0.06902924 -0.090282895 0.053952444 0.08462307 0.1925861
0.1320024 0.050941277 0.1019769 -0.107415654 0.05808158 -0.038442377 0.09687632 -0.028007912
0.17819491 -0.05686736 -0.055118013 -0.08367172 -0.23329094 0.06814236 0.054027278 0.09643873
-0.08177869 -0.11583414 0.059279002 -0.031093718 -0.025125407 -0.01835235 0.04536441 0.030071866
0.15305401 0.031179635 0.022429528 0.045192912 -0.001109648 0.07977112 0.0073454464 -0.16848436
0.12937364 -0.06944258 0.0030344026 0.15468906 -0.0046393257 -0.0028453907 -0.09722963 0.16890386
-0.036599576 0.041314837 0.06720952 0.046846826 -0.028073052 0.07960168 0.040992558 -0.089894
0.017123908 0.121816 -0.101362415 0.06525321 -0.010303861 -0.089700006 -0.026865138 0.103494376
0.004528153 -0.0005664009 0.20226347 -0.036037173 -0.009005292 0.12771654 -0.08385585 0.013251163
0.12573422 0.046022683 0.095806465 -0.15174964 0.045933526 0.006986507 0.056734953 -0.120334916
-0.00070182007 0.09627907 -0.0066082287 0.12875383 0.05820641 -0.10667159 0.06531677 -0.104817845
0.005377285 0.02765599 -0.01515769 0.038284834 -0.04715772 0.035030734 -0.026093032 0.09455207
-0.08891871 0.02244921 0.013279713 -0.024604637 0.060362775 0.09860267 -0.08877981 -0.13217239
0.2496663 0.09004545 0.09037476 0.060645223 0.08453356 -0.062989846 -0.104629345 0.034565628
-0.1367879 -0.013915772 0.07148575 -0.11240125 0.17077714 0.1132225 0.043901112 0.0475668
0.08764812 -0.056773953 -0.064575344 0.0061197686 0.05417248 -0.022022659 -0.028561609 0.040343635
-0.019621724 -0.10117459 0.0771065 -0.09583647 -0.008960508 0.005254352 -0.03985538 -0.037355263
-0.10534667 -0.031927686 -0.015689781 -0.036051564 0.05368877 0.12536716 0.022686346 0.08337171
-0.09151072 0.0016660414 -0.03791256 -0.078366786 0.16533868 0.04786765 -0.022128873 -0.11481758
-0.007030636 0.12981828 -0.055580784 0.07495029 0.03382391 -0.03771254 0.06345388 0.11066345
-0.10170525 -0.0013715369 0.0061553996 0.090973265 -0.08808187 -0.052361276 0.16927598 -0.039687432
0.00234695 -0.12661007 0.09757482 -0.09735869 -0.006223875 0.03751652 0.028554423 0.03506938
0.07024691 0.06507629 0.115087785 0.11101756 0.034165774 0.0023655395 -0.06286027 0.09492677
0.07762391 0.04974843 -0.10458846 -0.049360063 0.009355194 -0.12407605 -0.0363619 -0.05320872
-0.063066304 0.13617407 0.020981438 -0.040297717 0.032393064 -0.020764124 -0.04977461 -0.16225192
-0.04031298 -0.055137567 0.03551816 -0.11070516 0.044467315 0.0066055413 0.014527145 0.02292571
0.11035445 -0.0019801832 -0.1548354 0.021539269 -0.032078054 0.10098814 0.058125418 0.07500148
0.009174923 0.055951443 0.005286459 -0.07070088 0.096230924 0.11646418 -0.07638195 -0.056352478
00000000: b825 453d 3768 c63c bd55 f8bc f892 083d
00000010: 444e afbd 15e9 d7bd ac28 a13d 50e6 363d
00000020: bfda c63b 7e8f a3bc 5758 42ba 7614 b03d
00000030: 81d0 553e 270d 30bd 75db 653d ea2b 04be
00000040: 165a 4e3d 9f91 9dbc 7a75 663d 1656 f0bc
00000050: a24f b9bd 3fc2 25bd 5d82 99bd cb7a d83c
00000060: 0122 26bd 5a87 c3bc c212 143e 035e 4f3d
00000070: ff79 2f3b 44bb 9f3d c8da 473c 3e2e dcbb
00000080: 043f ef3d 247b d13d c8cf dcbc 345f 8dbd
00000090: 3de6 b8bd 3dfd 5c3d dc4e ad3d 4a35 453e
000000a0: a32b 073e cda7 503d 44d9 d03d bdfc dbbd
000000b0: f3e6 6d3d c175 1dbd 1867 c63d d970 e5bc
000000c0: ba78 363e c0ed 68bd 6dc3 61bd 145c abbd
000000d0: d2e3 6ebe 398e 8b3d b54b 5d3d ab81 c53d
000000e0: 967b a7bd 733a edbd 8ace 723d 41b8 febc
000000f0: ccd3 cdbc ab57 96bc 08d0 393d 4659 f63c
00000100: 31ba 1c3e 6f6c ff3c 21be b73c 341c 393d
00000110: 9c71 91ba 0a5f a33d 12b2 f03b 2a87 2cbe
00000120: 867a 043e e937 8ebd d4dc 463b cf66 1e3e
00000130: 7c05 98bb bc79 3abb 5420 c7bd 22f5 2c3e
00000140: 70e9 15bd bf39 293d 25a5 893d 75e2 3f3d
00000150: 75f9 e5bc 3506 a33d d0e7 273d 581a b8bd
00000160: 7047 8c3c ab7a f93d 1997 cfbd 7aa3 853d
00000170: 87d1 28bc a3b4 b7bd 4714 dcbc dcf4 d33d
00000180: e760 943b 857a 14ba 281e 4f3e b79b 13bd
00000190: ef8a 13bc 20c8 023e 9ebc abbd 681b 593c
000001a0: 79c0 003e 4882 3c3d 2e36 c43d 4264 1bbe
000001b0: cb24 3c3d 12ef e43b e962 683d 2772 f6bd
000001c0: 59fa 37ba f62d c53d d789 d8bb 0bd8 033e
000001d0: d869 6e3d a276 dabd ccc4 853d bdaa d6bd
000001e0: f033 b03b d18e e23c f657 78bc 8fd0 1c3d
000001f0: 7428 41bd 637c 0f3d 0ec1 d5bc 84a4 c13d
00000200: 031b b6bd 68e7 b73c 2793 593c aa8f c9bc
00000210: f53e 773d 32f0 c93d 30d2 b5bd 3358 07be
00000220: 86a8 7f3e c069 b83d 6716 b93d 2067 783d
00000230: ee1f ad3d d200 81bd e947 d6bd b094 0d3d
00000240: 2112 0cbe fafe 63bc 1f67 923d a032 e6bd
00000250: 34e0 2e3e 33e1 e73d a7d1 333d 68d5 423d
00000260: dc80 b33d ce8b 68bd 1440 84bd 5788 c83b
00000270: f6e3 5d3d dd68 b4bc 09fa e9bc 5e3f 253d
00000280: bdbd a0bc a034 cfbd 03ea 9d3d e945 c4bd
00000290: 18cf 12bc b32c ac3b 653f 23bd d501 19bd
000002a0: ffbf d7bd 9bc6 02bd db87 80bc ceaa 13bd
000002b0: c1e8 5b3d 4060 003e b7d8 b93c c9be aa3d
000002c0: f969 bbbd 135f da3a 334a 1bbd c47e a0bd
000002d0: 8b4e 293e de10 443d 9c47 b5bc 7b25 ebbd
000002e0: 4061 e6bb 15ef 043e ada8 63bd 8a7f 993d
000002f0: f18a 0a3d 7778 1abd 1cf4 813d 85a3 e23d
00000300: d84a d0bd 24c5 b3ba 3cb3 c93b 3150 ba3d
00000310: 4464 b4bd c778 56bd af56 2d3e 4a8f 22bd
00000320: 49cf 193b 12a6 01be 4fd5 c73d fe63 c7bd
00000330: a6f1 cbbb ecaa 193d f7ea e93c e9a4 0f3d
00000340: 9ddd 8f3d b846 853d 25b3 eb3d 2d5d e33d
00000350: 69f1 0b3d 2b07 1b3b e3bc 80bd f768 c23d
00000360: 49f9 9e3d 02c5 4b3d 7932 d6bd c72d 4abd
00000370: 8746 193c 961b febd 37f0 14bd 63f1 59bd
00000380: e828 81bd 3771 0b3e 44e1 ab3c 380f 25bd
00000390: 97ae 043d 8619 aabc 76e0 4bbd 5e25 26be
000003a0: 391f 25bd eed7 61bd 7d7b 113d 63b9 e2bd
000003b0: 5c23 363d 4c73 d83b 4303 6e3c b3ce bb3c
000003c0: 8401 e23d f6c5 01bb 2c8d 1ebe 1f73 b03c
000003d0: 4764 03bd dfd2 ce3d eb14 6e3d 609a 993d
000003e0: 6b52 163c 572d 653d 083a ad3b 9fcb 90bd
000003f0: b814 c53d c684 ee3d 246e 9cbd dbd1 66bd

action_model._continuous_distribution.mu.bias f4 [3]
-0.05410563 -0.0025215708 -0.08498943
00000000: dd9d 5dbd f040 25bb f00e aebd
