config/results/Entry_reward06/PathFollowing/PathFollowing-3422400.onnx (onnx, 695646 bytes, 7 tensors)

action_model._continuous_distribution.log_sigma f4 [1, 3]
0	0x3dade240	0.084904194
1	0x3cbb501c	0.022865348
2	0x3d84c377	0.064825945

action_model._continuous_distribution.mu.bias f4 [3]
0	0x3c626852	0.013818817
1	0xbaf75cdd	-0.001887228
2	0x3b4c10f4	0.0031138035

action_model._continuous_distribution.mu.weight f4 [3, 256]
0	0xbcccfdb0	-0.025023311
1	0xbb7f3ade	-0.0038945
2	0x390b84f2	0.00013305599
3	0xbbfd9e9c	-0.007739855
4	0xbc04eb3f	-0.008112728
5	0xbc47c7a4	-0.012193594
6	0x3c253c74	0.010085214
7	0x3c2f3293	0.01069321
8	0xba6129d0	-0.00085892994
9	0xbbec1454	-0.0072045717
10	0xbc0abc9b	-0.008467819
11	0xbc8c26ed	-0.017108405
12	0xbcb2c532	-0.021822546
13	0xba395303	-0.00070695597
14	0xbcd404b5	-0.02588115
15	0xb984859b	-0.00025276546
16	0x38ffab80	0.00012191292
17	0xbb3902c3	-0.0028230406
18	0xbb8c2128	-0.0042764135
19	0x3bc70b82	0.00607437
20	0x3b78f7dc	0.0037989533
21	0xbcdade61	-0.026717367
22	0x3c4afff6	0.012390127
23	0xbc054ac3	-0.0081355
24	0x3b952b73	0.0045522987
25	0xbc9c6759	-0.019092249
26	0xbcab2a4f	-0.020894198
27	0x3c1a1b3c	0.009405907
28	0xba53a3de	-0.00080734293
29	0x3b0ff6fd	0.0021967285
30	0xbcdc5007	-0.026893629
31	0xbb8f0763	-0.0043648942
32	0xbd288db1	-0.041150752
33	0x3c53b92d	0.012922567
34	0xbba571c3	-0.005048962
35	0x3b79fc1d	0.0038144656
36	0xbcd4110a	-0.025887031
37	0x3ca4976a	0.020091731
38	0xbca0f67b	-0.019648781
39	0xbcb4ea10	-0.022084266
40	0xbcae3e8d	-0.02127006
41	0xbbb4b250	-0.0055144206
42	0x3c2e1035	0.010623981
43	0xbc144831	-0.009050415
44	0xbba2e0ec	-0.0049706604
45	0x3b3b0201	0.002853513
46	0xbc13d0d6	-0.009021958
47	0xbd1cafd5	-0.038253624
48	0x3ba17210	0.0049269274
49	0xbc387d7a	-0.011260385
50	0x3c2f3e64	0.010696027
51	0xbc6d347b	-0.014477844
52	0xbcf8b036	-0.030357461
53	0xbc8eca3c	-0.017430417
54	0xbc8069f3	-0.01567552
55	0xbbb18ad2	-0.00541816
56	0x3b56ec5b	0.0032794687
57	0xba28ceca	-0.00064395054
58	0x3aad3e1f	0.0013217366
59	0xbca6ee71	-0.02037737
60	0xbb69c79a	-0.003567195
61	0x3ba0f1b8	0.0049116276
62	0x3c9caf8d	0.019126678
63	0xbc8d98de	-0.017284807
64	0xbbce6889	-0.0062990827
65	0xbb43abd8	-0.0029857066
66	0xbb46910f	-0.0030298864
67	0x3c961fda	0.018325735
68	0xbc7a39a7	-0.015272534
69	0xbc2ba6c8	-0.0104767755
70	0xbc36f181	-0.011165977
71	0xbbcc340e	-0.0062317913
72	0x3c9518cd	0.018200302
73	0x3c920214	0.017823257
74	0x3a0f4049	0.00054645963
75	0xbb0ab31e	-0.002116389
76	0x3cbd4e2c	0.023108564
77	0x3b9bb9ac	0.0047523584
78	0x3b8b3fc0	0.004249543
79	0xbb552327	-0.0032522173
80	0xbc246a68	-0.010035135
81	0x3c507911	0.012724177
82	0xbc3e40fa	-0.011612171
83	0xbc4267ee	-0.011865599
84	0x3a2eadff	0.00066635007
85	0xbcee76ad	-0.029109323
86	0x3b349aba	0.0027558045
87	0xbb5ae4bd	-0.0033400499
88	0x3ae24d12	0.00172654
89	0x3b192b40	0.0023371726
90	0x3ad77ee3	0.0016441013
91	0xbc980702	-0.01855803
92	0xbc26e499	-0.010186338
93	0xbbbe8351	-0.005813994
94	0xbc39a297	-0.011330268
95	0x3c4e481d	0.012590435
96	0x3cb43b90	0.022001058
97	0xbb1d8588	-0.002403589
98	0xbc892104	-0.016739376
99	0xbb273d72	-0.0025518802
100	0x3cbb7731	0.022883983
101	0x3b4e57fd	0.003148555
102	0x3be8ba93	0.0071023195
103	0x3c5618b6	0.013067415
104	0x3adf1458	0.0017019613
105	0x3bc86414	0.006115446
106	0xbc9e8a2c	-0.019352995
107	0x3b4662e5	0.0030271348
108	0x3c2d2cf4	0.0105698
109	0xbb54a209	-0.0032445213
110	0x3a962546	0.00114552
111	0xbc09bfd2	-0.00840755
112	0xbb9b0783	-0.00473112
113	0xbcfef2f4	-0.031121708
114	0xbc8a3ed9	-0.016875671
115	0x3b2f91f0	0.0026789866
116	0xbb99b493	-0.0046907156
117	0xbbd64b65	-0.0065397494
118	0x3bbce90e	0.005765087
119	0xbbdb356e	-0.006689719
120	0xbb8760ff	-0.004131436
121	0xbbccd5ef	-0.006251089
122	0x3c3379ad	0.010954303
123	0xbbda0d7c	-0.0066544395
124	0xbb126f17	-0.0022344047
125	0x3c447e54	0.01199301
126	0x3bde45fa	0.006783244
127	0xbcc0e37b	-0.023545971
128	0xbc0403d6	-0.008057555
129	0x3a724b43	0.0009242782
130	0x3cc0e82a	0.023548204
131	0x3c6a5836	0.014303258
132	0xbb6d13b3	-0.0036175072
133	0x3c067d97	0.008208654
134	0xb8380b98	-4.3879816e-05
135	0x3b0d3cc8	0.002155112
136	0xbc876001	-0.01652527
137	0x3b90b3f1	0.004415982
138	0x3be87e73	0.007095152
139	0xbc3667f7	-0.011133186
140	0xbc671f1d	-0.014106539
141	0x3c707539	0.014676386
142	0xbc187ba2	-0.00930682
143	0xbc0933a1	-0.008374126
144	0xbc5ba2dc	-0.013405528
145	0x3b4be43a	0.0031111375
146	0x3cbd903f	0.023140071
147	0x3c593f80	0.0132597685
148	0x3bf7add3	0.0075585633
149	0xbc1c2c0e	-0.009531988
150	0xbb126419	-0.0022337495
151	0xbb956ffa	-0.004560468
152	0xbcd4eaca	-0.025990862
153	0xbc2d4ea1	-0.010577829
154	0x3c296b45	0.010340516
155	0xbc6f08a1	-0.01458946
156	0xbb7288e7	-0.003700787
157	0xbc5e0fc6	-0.013553565
158	0xbd417b19	-0.047236536
159	0xbcd43d2d	-0.025908077
160	0x3c8bdef3	0.017074084
161	0xbc9e6099	-0.01933317
162	0x3bc234c1	0.005926699
163	0xbbdf451b	-0.006813658
164	0xbbf97134	-0.007612372
165	0x3c031970	0.00800167
166	0xbd200b83	-0.03907348
167	0xbbffcc14	-0.0078063104
168	0x3b2135f0	0.00245988
169	0x3cc05af2	0.023480866
170	0x3c2c07d0	0.0104999095
171	0x3cb9d071	0.0226824
172	0xbc76fd57	-0.015075049
173	0x39480905	0.00019076846
174	0xbb8dfc48	-0.004333053
175	0x3ade324a	0.0016952243
176	0xbc00b78e	-0.007856263
177	0xbc2dea3f	-0.010614931
178	0xbc102473	-0.008797753
179	0x3c45ed37	0.012080482
180	0x3b039dce	0.0020083073
181	0xbc691a59	-0.014227473
182	0xbb0cde0b	-0.0021494653
183	0xbc0c8265	-0.00857601
184	0x3cbc9349	0.02301945
185	0xbcf4fdfd	-0.029906267
186	0xbb746cea	-0.0037296363
187	0xbbb57c69	-0.0055385125
188	0xbba9226e	-0.005161575
189	0x3bcd35eb	0.006262531
190	0x395f87a6	0.0002131747
191	0xbbdd05a1	-0.006745056
192	0xbd27969b	-0.040915113
193	0x3b082181	0.0020771923
194	0xbb971b60	-0.0046114177
195	0x3bb43743	0.005499752
196	0xbb8c5f10	-0.0042837933
197	0xbb578a4f	-0.0032888835
198	0xbb415b56	-0.0029503903
199	0x3b368f80	0.0027856529
200	0xbcfba982	-0.030720476
201	0xbbdb98e5	-0.006701576
202	0xbcb6d863	-0.022319978
203	0x3c543bb8	0.012953691
204	0x3b9bd811	0.0047559817
205	0x3b6892f5	0.0035487984
206	0xbc4db2e4	-0.012554858
207	0xb7e8d17b	-2.7754102e-05
208	0x3c3f174e	0.011663271
209	0x3c86275b	0.016376188
210	0xbc57f1b6	-0.013180187
211	0x3a1c93c3	0.0005972946
212	0xb90bfc06	-0.00013349959
213	0xbc249b7c	-0.010046836
214	0x3b6e163d	0.0036329173
215	0x3c756bb9	0.014979296
216	0xbb583bf3	-0.0032994717
217	0xbc378113	-0.011200207
218	0xbcb838ec	-0.02248808
219	0x3ac242cd	0.0014820934
220	0xbc799061	-0.0152321765
221	0x3c2594ee	0.010106308
222	0x3c8370f9	0.01604508
223	0x3b0e10ae	0.0021677422
224	0x3c86f0e8	0.016472295
225	0xbccd220e	-0.025040653
226	0xb9133be0	-0.00014041318
227	0x3c4492e9	0.011997917
228	0x3b3b9c94	0.0028627263
229	0xbc035b67	-0.0080173975
230	0xbc5da6f3	-0.013528573
231	0x3b84674e	0.004040635
232	0xbc426ce4	-0.011866782
233	0xbcfcd665	-0.03086395
234	0xbbe873f7	-0.007093902
235	0x398b16d6	0.0002652916
236	0xbcc91418	-0.024545714
237	0xbcd3e551	-0.025866183
238	0xbc989ae5	-0.018628547
239	0x3af1bbe3	0.0018442835
240	0xbbddfc9b	-0.0067744977
241	0x3b715433	0.0036823868
242	0x3c2d68e1	0.010584087
243	0x3b5e3cb9	0.0033910705
244	0xbbfcec88	-0.0077186264
245	0xbca3dd95	-0.02000312
246	0xbb907e6f	-0.0044096033
247	0x3c382e9f	0.011241584
248	0x3c9e6bd7	0.019338531
249	0xb9c9ea7b	-0.0003851241
250	0x3c8ee00c	0.017440818
251	0xbba7456b	-0.005104711
252	0xbc6a78ea	-0.014311055
253	0x3c2a80d2	0.01040669
254	0xbcc29e5b	-0.02375715
255	0x3bfce43d	0.007717638

network_body.linear_encoder.seq_layers.0.bias f4 [256]
0	0xba293181	-0.0006454215
1	0xbc93872f	-0.018008796
2	0x3ab25172	0.0013604595
3	0x3b6d5799	0.0036215542
4	0x3b69f5ab	0.0035699408
5	0x3ada65e4	0.0016662446
6	0xbc3f7080	-0.011684537
7	0xbc256451	-0.010094718
8	0x39f9c60d	0.0004764054
9	0xbb892326	-0.004185098
10	0x3a15359c	0.00056918873
11	0x3a3be9e7	0.0007168338
12	0xbc8d6873	-0.01726172
13	0xbc427675	-0.011869063
14	0xbb77649e	-0.0037749182
15	0xbc694246	-0.014236992
16	0xbb6b0c41	-0.0035865458
17	0xbc555b7d	-0.013022301
18	0xbb4c1685	-0.0031141352
19	0xbc683a1b	-0.01417401
20	0xbbf24e97	-0.0073946225
21	0xbc5bd267	-0.013416863
22	0x3a5b7f6a	0.0008373173
23	0xbca94241	-0.020661475
24	0xbc1a0eae	-0.009402914
25	0xbc712049	-0.01471717
26	0xbbe1ce35	-0.006891037
27	0xbb85db83	-0.0040850057
28	0xb9d4f61f	-0.00040619166
29	0x3adabc11	0.0016688128
30	0xbaa4d567	-0.0012575806
31	0xbaeb5945	-0.0017955682
32	0xba1dac50	-0.0006014751
33	0xba825620	-0.000994388
34	0x3bb93051	0.0056515117
35	0xbb5e69e8	-0.0033937637
36	0x3b2b4b14	0.002613728
37	0xbb72560f	-0.0036977564
38	0xbc1a4b04	-0.009417299
39	0xbaa5393c	-0.0012605558
40	0xbad234da	-0.001603748
41	0xbbf47005	-0.007459643
42	0xba4332a6	-0.0007446207
43	0xbc08e5b8	-0.0083555505
44	0x3a371300	0.0006983727
45	0xbc806362	-0.01567239
46	0xbb27a72f	-0.0025581827
47	0x3bd91e2a	0.0066259103
48	0xb97cb644	-0.00024100492
49	0xbb90b044	-0.0044155437
50	0x3b3aac41	0.002848402
51	0xbb077f7c	-0.0020675352
52	0xb99fe2ed	-0.00030495916
53	0xbc6a51f7	-0.0143017685
54	0xbba20ef0	-0.0049456283
55	0xbafac75f	-0.0019132904
56	0xbc450f8c	-0.012027632
57	0xbbadd152	-0.005304494
58	0x3b158bdb	0.0022818956
59	0xba9e3b9b	-0.0012072207
60	0xbb3930e5	-0.0028257903
61	0xbcaacb0f	-0.020848779
62	0xbc3413d4	-0.0109910555
63	0xbc57a84d	-0.013162685
64	0x3b2de804	0.0026535997
65	0xbbf158c7	-0.0073653194
66	0xbc5d8891	-0.0135213295
67	0x3b207a48	0.0024486948
68	0xbc80b7e0	-0.015712678
69	0xbc11031c	-0.008850839
70	0xbc314857	-0.01082047
71	0xbc4f45a1	-0.012650878
72	0x3b1f05cd	0.0024264932
73	0xbc5255bc	-0.0128378235
74	0xbb8965f8	-0.004193064
75	0xbcce5d5e	-0.025191005
76	0xbbf8c2b0	-0.007591568
77	0x3b6cecd4	0.0036151903
78	0xbb9cb9a3	-0.004782872
79	0xbb125403	-0.0022327907
80	0xbb81fa10	-0.0039665774
81	0xbb5173ed	-0.0031959966
82	0x3b078782	0.0020680134
83	0xbc912b45	-0.017720828
84	0xba62ba2d	-0.0008648958
85	0xbae2aac1	-0.001729332
86	0xbbfd151e	-0.0077234646
87	0xbc387654	-0.01125868
88	0xbc2d09a7	-0.010561383
89	0xbc0c2b0f	-0.008555188
90	0xbbfb902c	-0.0076770987
91	0x3b396e3d	0.0028294467
92	0xbb81c1de	-0.0039598783
93	0xb9fb48ea	-0.00047928776
94	0xbbe41d37	-0.0069614905
95	0xbc72156b	-0.014775614
96	0x3b2f1440	0.002671495
97	0xbc25bc01	-0.010115624
98	0xbb2a4870	-0.0025983118
99	0xb807e7f0	-3.2402517e-05
100	0xbae9de93	-0.0017842822
101	0xbc21abf4	-0.009867657
102	0xbc43f7c3	-0.0119609265
103	0xbc450de2	-0.012027236
104	0xbca4ddb4	-0.020125248
105	0xb8b612f0	-8.681964e-05
106	0xbc0f6d66	-0.00875411
107	0xbc1df5ac	-0.009641092
108	0xbb22711f	-0.0024786664
109	0xbc547353	-0.012966949
110	0xbb4f1101	-0.0031595828
111	0xbc98a0c4	-0.018631347
112	0xbc21a67e	-0.009866355
113	0x39efad56	0.00045714778
114	0x39c1b300	0.00036945194
115	0xbc259335	-0.010105898
116	0xbaebcf32	-0.0017990826
117	0x3aeca792	0.0018055311
118	0xbc3d4187	-0.0115512675
119	0xbb8dde11	-0.004329451
120	0xbaf0438d	-0.0018330679
121	0xbb95ddb0	-0.0045735464
122	0xbc5aad70	-0.013347015
123	0xbab50ec8	-0.0013813609
124	0x3a520271	0.0008011228
125	0xbcbd7728	-0.023128107
126	0xbb964a35	-0.004586483
127	0xbc78ec65	-0.01519308
128	0xbc880aae	-0.016606655
129	0xbc7b5a02	-0.015341284
130	0xbbf36434	-0.0074277166
131	0xbbd90fb3	-0.006624186
132	0xbc299e43	-0.010352674
133	0xbb4213a3	-0.0029613755
134	0xbcc9317e	-0.024559733
135	0x3b6f753b	0.003653838
136	0xbca3c19c	-0.019989781
137	0xbc8894cf	-0.01667252
138	0x3a851922	0.0010154585
139	0xbc8b1c9e	-0.01698142
140	0xbaace379	-0.0013190351
141	0x3b66da8b	0.0035225477
142	0xbc51ac8f	-0.012797489
143	0xbab82d81	-0.0014051647
144	0xbc79e985	-0.015253429
145	0xbc0156e6	-0.007894253
146	0xbb3a61ac	-0.0028439565
147	0xbaaa3a74	-0.0012987391
148	0x3a99988d	0.0011718437
149	0xbc8f4266	-0.017487716
150	0xbb94913d	-0.0045339153
151	0xb8de7d11	-0.0001060908
152	0xbbb4a1b4	-0.0055124406
153	0x3b74a902	0.0037332182
154	0xbb98d516	-0.0046640737
155	0xbabce783	-0.0014412258
156	0xbc6c7c4f	-0.014433934
157	0xbaa07721	-0.0012242534
158	0xbc04be56	-0.00810202
159	0x3937fe88	0.0001754706
160	0xbc7e1d59	-0.015509927
161	0xbc3ea59d	-0.011636165
162	0xbab90390	-0.0014115442
163	0xbc0dd36d	-0.008656365
164	0xbc3f6e2a	-0.01168398
165	0xbb0dc658	-0.0021633115
166	0xbbe8a07f	-0.0070992108
167	0xbbc7fbe9	-0.006103028
168	0xbb5f703f	-0.0034094003
169	0x38e8ef20	0.000111071626
170	0xbc502b35	-0.012705614
171	0xbc02e260	-0.007988542
172	0x3b52261a	0.0032066167
173	0xb9b3aa6a	-0.0003426851
174	0xbc15279f	-0.009103685
175	0xbb7db6b9	-0.0038713648
176	0xbc68114a	-0.014164278
177	0x3b440f16	0.0029916218
178	0x3bd3264d	0.006443775
179	0xbc7efff1	-0.015563951
180	0xbbe2e22a	-0.0069239335
181	0xb8f288f8	-0.00011564972
182	0xbb48247d	-0.0030539327
183	0xbc48920b	-0.012241851
184	0xba9afcc7	-0.0011824601
185	0xbc2b8eac	-0.010471027
186	0xba58f282	-0.00082758826
187	0xba87e3c3	-0.0010367561
188	0xbba0db6c	-0.0049089696
189	0xbc469519	-0.012120509
190	0xbc0a693d	-0.008447942
191	0x3b234dc5	0.002491818
192	0xbb49d7c7	-0.003079878
193	0xbc6d2772	-0.0144747365
194	0x3ad2d4ef	0.0016085188
195	0xbb8faf27	-0.0043848935
196	0xbb16baf4	-0.0022999616
197	0xbc3ad485	-0.011403208
198	0x39e3f6e2	0.00043480756
199	0xbc520f73	-0.012821066
200	0x3a101fd8	0.0005497909
201	0xbbaa8b1a	-0.0052045705
202	0xbc429cce	-0.011878205
203	0xbc6099e9	-0.01370857
204	0xbc8196a2	-0.015818898
205	0xbc2415dc	-0.010014977
206	0xbc13050d	-0.008973372
207	0xbb85a48a	-0.0040784525
208	0xbb81883b	-0.0039530075
209	0xbac38db5	-0.0014919551
210	0xbc62d8b3	-0.01384561
211	0xbc9efd6b	-0.019407948
212	0xbba5d909	-0.005061273
213	0x3bcc3547	0.006231937
214	0xbbcb91e4	-0.00621246
215	0xbc3afeb0	-0.011413261
216	0x3aa0bb45	0.0012262842
217	0xbb887798	-0.0041646473
218	0xbbab37da	-0.005225164
219	0xbc82fc3c	-0.015989415
220	0x3b89c2c7	0.0042041275
221	0x3ad947af	0.001657715
222	0xbb8875ec	-0.004164448
223	0xbc52f034	-0.012874652
224	0xbbac1d45	-0.0052525126
225	0xbaec5014	-0.0018029236
226	0xbb58a5a2	-0.003305771
227	0xbc2a3e72	-0.010390865
228	0xbbdb62d6	-0.006695132
229	0xbbce3d47	-0.006293926
230	0xbb921026	-0.0044574915
231	0x3ab204f6	0.0013581801
232	0xbc98a162	-0.01863164
233	0xbba652bd	-0.005075781
234	0x39af5dc5	0.00033448465
235	0xba0cac38	-0.0005366239
236	0xbb8e0176	-0.0043336703
237	0xbc6ea7c0	-0.014566362
238	0xbc6ad2f3	-0.014332521
239	0xbc32bb49	-0.01090891
240	0xbbae64cb	-0.005322074
241	0xbb667878	-0.003516702
242	0xbc80a924	-0.015705653
243	0x376192bb	1.3445208e-05
244	0xbc18e95e	-0.009332983
245	0xbc11d883	-0.008901718
246	0xbb66a292	-0.0035192114
247	0xbccc6530	-0.024950594
248	0xbba077b1	-0.004897081
249	0xbc7faa0a	-0.015604505
250	0x3bfdabf8	0.0077414475
251	0x3bb79ff6	0.0056037856
252	0xbc85d3ed	-0.016336406
253	0xb81a7a1f	-3.6830195e-05
254	0xb8fd580e	-0.000120803816
255	0xbc244139	-0.010025316

network_body.linear_encoder.seq_layers.0.weight f4 [256, 416]
0	0xbc14f7d3	-0.009092289
1	0x3dda0016	0.10644548
2	0x39b9b6be	0.00035422103
3	0xbd1b3711	-0.037894312
4	0xbc994d6b	-0.018713674
5	0x3d172654	0.036901787
6	0xbd1125a4	-0.035436288
7	0x3c613f00	0.0137479305
8	0x3cd3b480	0.025842905
9	0xbc4f1fbb	-0.0126418425
10	0x3d5c3b9a	0.053767778
11	0xbcaf9950	-0.02143541
12	0xbc1a0785	-0.009401207
13	0x3cb7d650	0.02244106
14	0x3cc26a14	0.023732223
15	0x3d879acd	0.06621323
16	0x3c843cc7	0.016142262
17	0xbcaa6b64	-0.020803161
18	0xbd87555b	-0.06608077
19	0x3df3fa84	0.119130164
20	0xbc44cca5	-0.012011682
21	0xbcb9230d	-0.022599721
22	0xbd7fa85a	-0.062416412
23	0xbc928f8b	-0.017890712
24	0xbcb1c4fd	-0.021700377
25	0xbd89c4ca	-0.06726988
26	0xbc9da718	-0.019244716
27	0x3d830844	0.06398061
28	0x3c8a1b48	0.016858712
29	0x3a069024	0.0005133173
30	0xbd7c6fe7	-0.061630156
31	0xbc24eeee	-0.010066731
32	0xbd65c43f	-0.056095358
33	0x3d9ce1bf	0.07660245
34	0xbd86ab8a	-0.06575687
35	0x3d2894b0	0.041157424
36	0xbd02168f	-0.031759795
37	0xbb1a080b	-0.002350333
38	0x3c8f9010	0.017524749
39	0x3d28620e	0.041109137
40	0xbd4298ff	-0.04750919
41	0xbcab55ee	-0.020914998
42	0xbd4e67fd	-0.05039214
43	0x3d38f920	0.04515946
44	0xbd997de7	-0.07494717
45	0x3d4c446a	0.049869932
46	0xbcfa23aa	-0.030534584
47	0xbb405da2	-0.0029352685
48	0xbcad29f1	-0.021138163
49	0xbd9515b5	-0.07279531
50	0xbd4c2a2b	-0.049844902
51	0xbd529246	-0.05140903
52	0x3c0716ac	0.0082451515
53	0xbd1c0002	-0.038085945
54	0xbd84486a	-0.064591244
55	0xbcb78042	-0.022400025
56	0x3d005149	0.03132752
57	0xbd730bc3	-0.05933739
58	0xbc3cf486	-0.011532908
59	0x3db1ec12	0.08687605
60	0x3c904cfe	0.017614838
61	0xbd9c5274	-0.07632914
62	0xbcf7001b	-0.030151417
63	0x3dd05a3f	0.10173463
64	0x3beec363	0.0072864755
65	0x3cda3bc5	0.026639828
66	0x3c914656	0.017733734
67	0xbd6b4031	-0.057434265
68	0xbd8b54fd	-0.068033196
69	0x3c4c3358	0.012463413
70	0xbc1d9867	-0.009618855
71	0x3bc9c1a6	0.006157118
72	0xbd73beae	-0.05950802
73	0x3ce50087	0.027954353
74	0x3cc96f80	0.0245893
75	0x3b6e3ea7	0.0036353262
76	0x3db74522	0.08948733
77	0x3cd53dd3	0.026030457
78	0x3c1377f4	0.009000767
79	0x3d0ef7e4	0.034904376
80	0xbd2c427a	-0.042055584
81	0xbd130d8a	-0.035901584
82	0x3d20bfd4	0.03924544
83	0x3d54c52b	0.051945847
84	0xbcbbe419	-0.022935914
85	0x3d3f46f6	0.046698533
86	0xbd1bc9e1	-0.038034324
87	0x3d75be86	0.05999615
88	0x3d0b215e	0.03396737
89	0x3cd6f99f	0.026242075
90	0xbce198b2	-0.027538631
91	0x3d620fad	0.05519073
92	0xbd06061c	-0.03272067
93	0xbd6bbdef	-0.05755418
94	0xbd23f9a1	-0.040032987
95	0xbc9fc322	-0.019502226
96	0xbd9eeda6	-0.077601716
97	0xbd080dfd	-0.033216465
98	0x3cb9f25c	0.022698574
99	0x3d7d51cb	0.061845582
100	0x3c14f54b	0.0090916855
101	0x3b6069a4	0.0034242654
102	0xbd4f5035	-0.0506136
103	0x3d81cb44	0.06337598
104	0x3d079510	0.03310114
105	0x3cab3acd	0.020902062
106	0x3cde340c	0.027124427
107	0xbd7241cc	-0.05914478
108	0xbd2adaad	-0.04171245
109	0x3c54ecd1	0.012995915
110	0xbd718957	-0.058968868
111	0xbcfe2d81	-0.031027557
112	0x3c1c7389	0.00954903
113	0x3ba47263	0.005018519
114	0xbc510d5c	-0.012759533
115	0x3c553c5c	0.013014879
116	0x3d53d4ba	0.051716544
117	0x3c9b4e1b	0.018958142
118	0x3c91e6cf	0.017810253
119	0xbcde967a	-0.027171362
120	0xbdaf2773	-0.08552446
121	0x3d105efe	0.03524684
122	0x3cddff6f	0.02709934
123	0xbca2f7cd	-0.019893551
124	0x3d282dbe	0.04105925
125	0x3c93ae4b	0.018027445
126	0xbbfeaffc	-0.007772444
127	0xbc651417	-0.013981841
128	0xbdaafe71	-0.08349312
129	0xbd969be2	-0.07353951
130	0xbd6cc469	-0.0578045
131	0x3d2bb521	0.041920785
132	0xbcadd930	-0.021221727
133	0x3b3c542d	0.0028736696
134	0xbd4e7e6b	-0.05041353
135	0x3d193e83	0.03741313
136	0xbd2c8edf	-0.04212844
137	0x3dee300a	0.116302565
138	0x3d0d583a	0.034507968
139	0xbdc0e1a3	-0.09418037
140	0x3cf78285	0.030213604
141	0xbd1398e7	-0.03603449
142	0xbd1dd2c7	-0.03853109
143	0xbc998f12	-0.018744979
144	0x3cc51495	0.024057666
145	0xbc835f90	-0.016036779
146	0xbd619cf7	-0.055081334
147	0x3d150407	0.036380794
148	0xbbacd7a6	-0.0052747307
149	0xbd4a9805	-0.049461383
150	0xbc86cc06	-0.016454708
151	0xbd3f22e7	-0.046664145
152	0x3dbc70d4	0.09201208
153	0x3c90b7b5	0.017665723
154	0xbc7c5794	-0.01540174
155	0xbd8b65b6	-0.06806509
156	0xbcac6e24	-0.021048613
157	0x3c385950	0.0112517625
158	0x3d00e920	0.031472325
159	0xbd8b5de9	-0.06805021
160	0xbc277aed	-0.010222179
161	0xbcf5a5bd	-0.029986257
162	0x3dc8d3e7	0.09806042
163	0xbdaf61a2	-0.08563544
164	0x3c8d2d89	0.017233627
165	0x3d2a78e2	0.04161919
166	0xbdb10e1e	-0.08645271
167	0xbdd9c377	-0.10632985
168	0x3b429fb6	0.0029697246
169	0x3d1c964f	0.038229283
170	0x3dcbcc99	0.09951133
171	0x3cc4cb8f	0.024022846
172	0xbd449a77	-0.04799887
173	0xbdaae4fe	-0.08344458
174	0x3c897bda	0.01678269
175	0x3d099c48	0.033596307
176	0xbb8fc3c5	-0.004387351
177	0x3cb176aa	0.021663029
178	0x39afe85b	0.0003355172
179	0xbd055cad	-0.032559086
180	0x3d8c0ace	0.06837998
181	0xbd9463cf	-0.072455995
182	0x3d1e860d	0.03870206
183	0xbd945913	-0.07243552
184	0xbb1fd89f	-0.002439059
185	0xbd8b0970	-0.067889094
186	0xbd21081a	-0.039314367
187	0x3c831102	0.01599932
188	0xbd06042c	-0.032718822
189	0x3d8c0d86	0.06838517
190	0x3db793a4	0.08963707
191	0x3cc71ac6	0.024304759
192	0x3befbd80	0.0073162913
193	0x3d5951c3	0.05305649
194	0x3d4ab21e	0.049486272
195	0x3bec1666	0.0072048185
196	0xbdcb3002	-0.09921266
197	0xbb40c95d	-0.0029416897
198	0x3d3ad97d	0.04561757
199	0xbd461132	-0.048356242
200	0x3ca65774	0.020305373
201	0xbd08ad4c	-0.033368394
202	0x3d23bbe8	0.039974123
203	0x3d54c16e	0.05194228
204	0xbcfe3f5a	-0.031036068
205	0x3c84b9a1	0.016201796
206	0x3c4dc993	0.012560266
207	0xbd0b71b8	-0.034043998
208	0xbd03fc03	-0.03222276
209	0xbd47d1a0	-0.0487839
210	0x3d6c1a34	0.057642177
211	0x3cb54579	0.022127854
212	0xbc11c457	-0.008896909
213	0x3ccc43a7	0.024934603
214	0x3ce51831	0.027965637
215	0xbca68b16	-0.020329993
216	0x3d44962d	0.04799478
217	0x3ddcc2b4	0.10779324
218	0x3d60f57a	0.054921605
219	0xbc83d278	-0.01609157
220	0x3b4c51cb	0.0031176682
221	0xbb1480ef	-0.0022659858
222	0x3bb21ab3	0.0054353117
223	0xbd07d62e	-0.033163242
224	0xbc078a9c	-0.008272793
225	0xbd2ebdb0	-0.04266137
226	0xbce19350	-0.027536064
227	0x3c282653	0.010263043
228	0xbd144988	-0.036202937
229	0x3d3978c6	0.045281194
230	0xbd04b09f	-0.032395
231	0xbcd19248	-0.025582448
232	0x3c8f71db	0.017510345
233	0xbd4f91c6	-0.05067613
234	0x3d92212b	0.071352325
235	0x3db47e6a	0.08813174
236	0x3c8498f2	0.016186211
237	0xbdfff598	-0.12498015
238	0xbb09943a	-0.002099289
239	0x3d680b03	0.056651127
240	0x3d4b569b	0.04964314
241	0x3cc01ead	0.023452127
242	0x3cdcd22d	0.026955688
243	0x3b69d90e	0.0035682353
244	0x3d93d7e0	0.07218909
245	0xbcb40bb0	-0.02197823
246	0xbd39bd34	-0.045346454
247	0x3dac92bb	0.08426424
248	0x3cd9964d	0.026560927
249	0x3d545315	0.051837046
250	0xbd7e3b86	-0.062068485
251	0x3d957d53	0.07299294
252	0xbda992c5	-0.08279947
253	0x3c536321	0.012902052
254	0xbc0f43c4	-0.008744184
255	0xbcee5927	-0.029095246

network_body.linear_encoder.seq_layers.2.bias f4 [256]
0	0xba8d36a2	-0.0010773728
1	0xbba5d7ea	-0.0050611394
2	0xbbdd00d9	-0.006744486
3	0xbb9e7cad	-0.00483664
4	0xba44b77a	-0.0007504147
5	0xbcb6a5c9	-0.02229585
6	0xbaa2dee1	-0.0012426042
7	0xbbc8989b	-0.0061217076
8	0xbc1e6de3	-0.009669754
9	0xbc44c334	-0.012009431
10	0x3a1d63be	0.00060039375
11	0xba7620bd	-0.00093890337
12	0xbc1f7c00	-0.009734154
13	0xbc836d41	-0.016043307
14	0xbb7f49f6	-0.0038953996
15	0xbc3c390e	-0.011488212
16	0xbaa86b13	-0.0012849293
17	0xbb464b70	-0.0030257367
18	0xbc3efbc9	-0.01165671
19	0xbb33787c	-0.0027385047
20	0xbb2462de	-0.0025083343
21	0xba77da84	-0.00094548636
22	0x3b416afc	0.002951323
23	0xbac9f23b	-0.0015407273
24	0xbbbf17e6	-0.0058317063
25	0xbc83d9b0	-0.016095012
26	0x3b765e70	0.003759291
27	0x3ba6d97c	0.005091844
28	0xbc1fd798	-0.009755991
29	0xbbf061ff	-0.007335901
30	0xbb5ca097	-0.0033665055
31	0xbc8ef7d4	-0.017452158
32	0xbbe7ef6c	-0.007078102
33	0x3baf4792	0.005349108
34	0xbc8e103a	-0.017341722
35	0xbb9cb2d0	-0.0047820583
36	0xbb49e6c1	-0.0030807706
37	0xbbc38e12	-0.005967864
38	0xbc1b7222	-0.009487661
39	0xbc0ed90a	-0.008718738
40	0xba8d1369	-0.0010763231
41	0xbc1f6cd8	-0.00973054
42	0xbb4e0193	-0.0031434044
43	0xbcba2396	-0.022722047
44	0xbbfa702c	-0.0076427665
45	0xbba034e9	-0.00488912
46	0xbc2c6e02	-0.010524275
47	0x3b1cfe2d	0.0023955212
48	0xbc1300fe	-0.0089724045
49	0xbc217a2d	-0.009855789
50	0x385847de	5.1565345e-05
51	0xbb41b424	-0.0029556835
52	0xbbf6ebc8	-0.0075354315
53	0xbc4ab895	-0.012373109
54	0xbc3c6574	-0.011498798
55	0xbbf20867	-0.0073862555
56	0xbc625d1a	-0.013816142
57	0xbca39cec	-0.019972287
58	0xbc912fb2	-0.017722938
59	0xbc80b565	-0.015711496
60	0xbb2038b5	-0.0024447863
61	0xbbded99a	-0.0068008425
62	0x3b63b33f	0.003474429
63	0x3be14fd3	0.006875971
64	0xbc06e0bc	-0.008232292
65	0xbc2650b0	-0.010151073
66	0xbbce6e43	-0.0062997653
67	0xbc271704	-0.010198358
68	0xbccb0789	-0.024783866
69	0xbc887793	-0.01665858
70	0xbc8d7d4a	-0.017271657
71	0x3b23698a	0.0024934732
72	0xbbc75f25	-0.00608434
73	0xbae16909	-0.0017197441
74	0xbc44ef58	-0.012019955
75	0xbc25ed20	-0.010127336
76	0xbabc274a	-0.0014354971
77	0xbc4627ae	-0.012094421
78	0xbc4a245e	-0.012337772
79	0xbc2448ff	-0.010027169
80	0xb9a6f129	-0.00031841666
81	0xbba03eba	-0.00489029
82	0xbc092aaa	-0.008371988
83	0xbc1c6228	-0.009544887
84	0xbbd3cc24	-0.0064635444
85	0xbb5cdfb1	-0.0033702666
86	0xbbf4a0bd	-0.0074654506
87	0xbb237eed	-0.002494748
88	0xbbe9271b	-0.0071152574
89	0xbb49ce2c	-0.0030793054
90	0xbb7279f5	-0.0036998962
91	0xbc8b0332	-0.016969297
92	0xbc9f3658	-0.019435093
93	0x3b59cc26	0.0033233254
94	0xbc5ef7d6	-0.013608893
95	0x3b95646c	0.0045590904
96	0x3ae07cdd	0.0017127056
97	0xbc159d15	-0.00913169
98	0xbc7611e4	-0.015018914
99	0xbaf76371	-0.001887424
100	0xbaf93273	-0.0019012227
101	0xbc91f7bb	-0.017818322
102	0xbc5c98cd	-0.013464165
103	0xbbd2c8dd	-0.006432636
104	0xbc80819d	-0.015686804
105	0xbbd560ef	-0.0065117995
106	0xbbc12553	-0.005894342
107	0xbc2af558	-0.010434471
108	0xbc143799	-0.009046459
109	0xbc3a6b54	-0.011378128
110	0xbc0fa967	-0.008768416
111	0xbc2ebc9d	-0.010665086
112	0xbc77916d	-0.015110356
113	0xbc747301	-0.014919997
114	0x3b6a1b28	0.0035721753
115	0xbbbdfa11	-0.0057976325
116	0xbc24cadf	-0.010058134
117	0xbc57b945	-0.01316673
118	0xbb95b4d5	-0.004568676
119	0xbc008a17	-0.007845423
120	0xbbb3d2ce	-0.0054877764
121	0xbc51f5fe	-0.012814997
122	0xbb81f71b	-0.003966225
123	0xbbc325c7	-0.005955431
124	0xbc48dcc8	-0.01225967
125	0xbb96fbf7	-0.0046076733
126	0xbb5e9466	-0.0033962964
127	0xbc911651	-0.017710837
128	0xbc3fead7	-0.011713705
129	0xbc339837	-0.010961584
130	0xbb8f9e83	-0.0043829097
131	0x39f866a1	0.0004737871
132	0xbccbeba6	-0.02489264
133	0xbbbaca78	-0.0057004057
134	0xbccbc9b1	-0.024876447
135	0xbb804c5b	-0.0039153523
136	0xbc97d734	-0.018535234
137	0xbb98dbfd	-0.0046648965
138	0xbc2c8a23	-0.010530981
139	0xbb3e562f	-0.0029043069
140	0xbc18e279	-0.009331339
141	0xbb8f7ce6	-0.0043789027
142	0xbc17d8af	-0.00926797
143	0xbbd7b56e	-0.0065829074
144	0xbca3d926	-0.020001005
145	0xbbdbc323	-0.0067066117
146	0x3b9e65a4	0.004833894
147	0xbb6eaea8	-0.0036420021
148	0xbbb389b4	-0.005479062
149	0xbca03e68	-0.019561008
150	0xbbef7e6b	-0.0073087714
151	0xbc54de14	-0.012992401
152	0xbc989f43	-0.01863063
153	0xbc891e5e	-0.016738113
154	0xbacf5581	-0.0015818329
155	0xbbe0d320	-0.0068611056
156	0xbb70ee3f	-0.00367631
157	0xbc180e0a	-0.009280691
158	0x3b007af2	0.001960453
159	0xbb902cc3	-0.0043998673
160	0xbb67711a	-0.0035315217
161	0xbb9f6d0b	-0.004865294
162	0xbc13af29	-0.009013929
163	0x3bd513d0	0.006502606
164	0xbbf25e84	-0.007396521
165	0xbc408b52	-0.011751967
166	0x3a221560	0.00061829947
167	0xba2706bd	-0.00063715485
168	0x3ac6d219	0.0015168815
169	0xbb687d60	-0.003547512
170	0xbb0bada0	-0.0021313205
171	0xbb5ab44f	-0.0033371632
172	0xbc37d238	-0.011219554
173	0x3b4250e5	0.0029650268
174	0x3b962263	0.004581736
175	0xbac9e77d	-0.0015404072
176	0x39d8116e	0.00041211717
177	0xbc32bf13	-0.010909813
178	0xbcb631c2	-0.022240523
179	0x3b332939	0.0027337803
180	0xbb35e805	-0.0027756703
181	0xbc6796d6	-0.014135083
182	0xbc2e9aa6	-0.010656988
183	0xbc36c7b7	-0.011156014
184	0x3ab6ceda	0.0013947145
185	0xbc8c5de0	-0.017134607
186	0xbc59a829	-0.013284721
187	0xbc39580c	-0.011312496
188	0xbc2590e5	-0.010105346
189	0xbc478f79	-0.012180203
190	0xbbeb53fd	-0.007181643
191	0xbb7c82ad	-0.0038530037
192	0x3ba1ee97	0.004941772
193	0xbc4f2310	-0.012642637
194	0xbbfee560	-0.0077788085
195	0xbbf7ffda	-0.0075683417
196	0xbbd90989	-0.006623451
197	0xbac8cfa1	-0.0015320667
198	0x3a8212ec	0.0009923852
199	0x3b54b375	0.0032455598
200	0xbc0285e2	-0.00796649
201	0xbc5c283b	-0.013437326
202	0xbb04d5c0	-0.0020269006
203	0xbbf8763d	-0.0075824545
204	0xbc5865c1	-0.013207854
205	0xbb388c79	-0.00281599
206	0xbc0a8d1d	-0.008456496
207	0xbc22360c	-0.009900581
208	0xba8f4722	-0.0010931233
209	0xbb8016e7	-0.00390898
210	0xbc0c0660	-0.008546442
211	0xbb59329d	-0.003314174
212	0xbb3c3b59	-0.0028721897
213	0xbc90eb51	-0.017690333
214	0xbb86100c	-0.0040912684
215	0x3b5492c5	0.0032436114
216	0xbc05e1c3	-0.008171502
217	0xbc151fa4	-0.009101782
218	0xbc45d0c9	-0.012073704
219	0xbc1b5fd8	-0.0094833
220	0xbc7cc14b	-0.015426944
221	0xbb5dd24d	-0.0033847273
222	0xbad17099	-0.0015978991
223	0xbbc77db5	-0.0060879835
224	0xbc04e66f	-0.00811158
225	0xb99a55a0	-0.00029436965
226	0xbb0bedec	-0.002135153
227	0xbc134226	-0.008987939
228	0xbb4c005d	-0.0031128146
229	0xbbed6b01	-0.007245422
230	0xbc1d3084	-0.009594087
231	0xbb9fb570	-0.004873924
232	0xbbfb9fd8	-0.007678967
233	0xbc8ba871	-0.017048093
234	0xbcc3434a	-0.023835797
235	0xbc07aa71	-0.0082803825
236	0x3bd6ce0b	0.006555324
237	0xbc46e054	-0.012138445
238	0xbca631b2	-0.020287368
239	0xbb7345cd	-0.0037120462
240	0xbc434750	-0.011918858
241	0xbb90a4fe	-0.0044142
242	0xb9574e01	-0.00020533057
243	0xbc606825	-0.013696705
244	0xbb4a2474	-0.0030844482
245	0xbb7fbfde	-0.0039024274
246	0xbbf07700	-0.0073384047
247	0x3b14d475	0.0022709642
248	0x3b325c68	0.0027215723
249	0xbb3acf9f	-0.00285051
250	0xbae87784	-0.0017735814
251	0xbc775185	-0.015095119
252	0xbca5ebeb	-0.020254096
253	0x3b1bb995	0.0023761739
254	0xbbe4d6a9	-0.0069835973
255	0xbc3467ad	-0.011011046

network_body.linear_encoder.seq_layers.2.weight f4 [256, 256]
0	0xbc8198f0	-0.015819997
1	0xbbf69eb6	-0.007526244
2	0x3d2d417b	0.042298775
3	0xbda769da	-0.081744865
4	0x3d8e717a	0.06955238
5	0xbc87ee21	-0.01659304
6	0x3d4e7135	0.05040093
7	0xbcdfefc8	-0.027336016
8	0xbd35363d	-0.04424118
9	0xbcd6c626	-0.026217531
10	0x3cbc6111	0.022995504
11	0xbdd6e237	-0.10492366
12	0xbde885aa	-0.113536194
13	0xbbca669b	-0.0061767823
14	0x3ad7a090	0.001645105
15	0x3ca61353	0.020272886
16	0xbc93406e	-0.017975058
17	0xbd32a435	-0.04361363
18	0xbce2f37d	-0.027703995
19	0x3b84f35b	0.0040573305
20	0xbd326ed5	-0.04356273
21	0xbe10aa43	-0.1412745
22	0xbd36cedd	-0.044630874
23	0xbbdcb544	-0.0067354757
24	0xbcb6af1d	-0.022300297
25	0x3dc45388	0.09586245
26	0xbdf37977	-0.11888402
27	0x3d0b34c3	0.033985864
28	0x3d28e764	0.041236296
29	0xbd76c411	-0.060245577
30	0xbda5de03	-0.08098986
31	0x3c1bb302	0.009503128
32	0x3cf521b8	0.029923305
33	0x3d492cce	0.049114995
34	0xbe1ecb4a	-0.15507236
35	0x3c990c1d	0.018682534
36	0xbcfa1eca	-0.03053226
37	0xbc86c50d	-0.016451383
38	0xbdbe457b	-0.09290596
39	0x3e04cd70	0.12968993
40	0x3bbf957b	0.005846677
41	0xbcd6acfc	-0.026205532
42	0xbd95f2bb	-0.07321688
43	0x3d80d2d2	0.06290211
44	0x3d272095	0.040802557
45	0x3d1e043f	0.03857827
46	0xbda1fcd3	-0.079095505
47	0xbbd2feeb	-0.00643908
48	0xbd7e4a80	-0.062082767
49	0xbbc8b62f	-0.0061252336
50	0xbd4f4e7e	-0.050611965
51	0x3c9edc32	0.019392107
52	0x3b8a2f38	0.0042170547
53	0x3c2b52cc	0.010456752
54	0x3d8a337c	0.06748101
55	0xbd967cfa	-0.07348056
56	0x3c8e497c	0.017369024
57	0xbc915c2b	-0.017744144
58	0x3d143f20	0.036193013
59	0x3d16ec94	0.036846712
60	0xbccce596	-0.025011819
61	0x3ca21718	0.019786403
62	0xbd07778c	-0.033072993
63	0xbc97964e	-0.018504288
64	0xbd50e5e7	-0.051000502
65	0xbd7fa1ed	-0.062410284
66	0x3c5ee517	0.013604424
67	0x3cade6bf	0.021228192
68	0xbcbd411e	-0.02310234
69	0xbd768a91	-0.06019074
70	0xbcada17b	-0.021195164
71	0xbd0b4b16	-0.034007154
72	0x39249a5a	0.00015697759
73	0xbdbe6ef8	-0.09298509
74	0x3baf6f30	0.0053538308
75	0xbd77d582	-0.06050635
76	0x3d62f26c	0.055406973
77	0x3d84b822	0.06480433
78	0xbd550066	-0.052002333
79	0xbbb3d502	-0.005488039
80	0xbda57dc0	-0.080806255
81	0xbde48498	-0.11158103
82	0x3d3c686e	0.04599803
83	0x3da906b1	0.082532294
84	0xbcaf2b2c	-0.02138289
85	0xbd9a746c	-0.07541737
86	0x3dea6617	0.11445253
87	0xbdfed163	-0.12442281
88	0xbafad2e2	-0.0019136334
89	0xbdd575cc	-0.104228586
90	0xbd0f4f56	-0.03498777
91	0x3cdb2c81	0.02675462
92	0x3c9d7d91	0.019224914
93	0xbced6198	-0.0289772
94	0xbde1231e	-0.10993026
95	0xbd8eef5f	-0.0697925
96	0x3c75f521	0.015012057
97	0x3de06a28	0.10957748
98	0xbd505e0d	-0.050870944
99	0xbd8e9c4d	-0.06963406
100	0xbdb78c84	-0.08962348
101	0xbe03d800	-0.12875366
102	0xbd3de0e4	-0.04635705
103	0xbc5a4d14	-0.013324041
104	0x3c432e93	0.01191296
105	0xbe15a7a7	-0.14614736
106	0x3db8733d	0.09006355
107	0xbd8fa704	-0.070142776
108	0xbcd189dc	-0.025578432
109	0x3d5f9fc1	0.054595713
110	0xbd8392d5	-0.0642449
111	0x3d6b5035	0.05744954
112	0x3b835a11	0.0040085395
113	0x3d0c907d	0.034317482
114	0x3d95ea7a	0.073201135
115	0xbe05b09a	-0.1305565
116	0x3c0c9bd7	0.008582077
117	0xbcdf36b9	-0.027247773
118	0x3c86e848	0.016468182
119	0x3dec6d31	0.11544264
120	0x3cbaa21d	0.02278238
121	0x3c7455b7	0.014913014
122	0x3d2c984b	0.042137425
123	0xbc7bbb08	-0.015364416
124	0x3ccbb904	0.024868496
125	0x3dac161c	0.084026545
126	0xbcfe250e	-0.031023528
127	0xbd243cef	-0.040097173
128	0x3ca74b25	0.020421574
129	0x3d2f6ef1	0.04283041
130	0xbd53bb0e	-0.05169206
131	0x3c6f3956	0.014601072
132	0x3cc9a1e1	0.024613323
133	0x3e2bd3f5	0.16780074
134	0x3ca34ecc	0.019935034
135	0xbcdcf4e3	-0.02697224
136	0x3d3fb392	0.04680211
137	0x3d8523ef	0.065009944
138	0xbdca4b52	-0.098776475
139	0x3bc65e68	0.0060537346
140	0xbdbafe14	-0.09130493
141	0x3ca9ed20	0.020742953
142	0xbd3e973b	-0.046530943
143	0xbce6c4a0	-0.02816993
144	0xbd7e4b52	-0.06208355
145	0xbd930fab	-0.07180723
146	0xbd975c1b	-0.073906146
147	0xbe02c00c	-0.12768573
148	0x3a1e3642	0.0006035307
149	0xbde03bf4	-0.10948935
150	0xbc973b3b	-0.01846086
151	0x3d95ad77	0.073084764
152	0xbca9236a	-0.02064677
153	0x3c101fe3	0.008796665
154	0xbd99febb	-0.07519289
155	0xbc476bab	-0.012171666
156	0x3d5aa1f6	0.053377114
157	0xbe067ce5	-0.13133581
158	0xbca709bf	-0.02039039
159	0x3bfbafaf	0.007680855
160	0xbca41509	-0.020029562
161	0xbc568555	-0.013093312
162	0xbcdb0eb5	-0.026740411
163	0x3cf26d70	0.0295932
164	0x3d0173bc	0.031604514
165	0xbc84c308	-0.01620628
166	0xbca95b5a	-0.020673443
167	0x3d9b4d00	0.07583046
168	0x3bdceba2	0.006741957
169	0x3def136e	0.11673628
170	0xbc99db8c	-0.018781446
171	0x3cf14ac6	0.0294546
172	0xbde3c657	-0.11121815
173	0x3d90042e	0.07032047
174	0x3ca1382c	0.019680105
175	0x3ca70a3c	0.020390622
176	0xbd57dda1	-0.052701596
177	0xbd328ce5	-0.0435914
178	0x3cd49bb9	0.02595316
179	0x3ca9ab09	0.020711439
180	0x3c56e790	0.013116732
181	0xbc861744	-0.016368516
182	0xbb8cfc0d	-0.0043025077
183	0x3c440fc9	0.011966654
184	0x3d5548fb	0.052071553
185	0x3b2d5fa0	0.0026454702
186	0xbddf1294	-0.10892215
187	0x3daac13a	0.08337636
188	0xbd356120	-0.04428208
189	0xbd95a9fe	-0.07307814
190	0xbce53bbd	-0.027982587
191	0xbdf1edb3	-0.11812916
192	0xbd6bbba1	-0.057551984
193	0xbd780520	-0.060551763
194	0xbe01b329	-0.12666
195	0x3c3724fd	0.011178252
196	0x3e042394	0.12904197
197	0xbdd6820e	-0.10474025
198	0x3d7409ee	0.059579782
199	0xbbbf15b1	-0.0058314432
200	0xba8a5b2b	-0.0010555735
201	0x3c39573a	0.0113123
202	0x3cc54dec	0.024085008
203	0xbdd73455	-0.105080284
204	0x3b4d96d5	0.003137042
205	0x3d551d7b	0.052030068
206	0x3ca8cef7	0.020606501
207	0xbdbc1fb6	-0.09185736
208	0xbbd2cf35	-0.0064333924
209	0xbdbb28e1	-0.091386564
210	0xbd11608f	-0.035492476
211	0xbd322996	-0.04349669
212	0xbd674397	-0.056460943
213	0x391bd76c	0.00014862203
214	0xbc198081	-0.009369017
215	0xbddcecb1	-0.10787333
216	0xbceed2af	-0.029153196
217	0xbcdfd4e0	-0.027323186
218	0xbdb22f9e	-0.087004885
219	0xbd42496d	-0.047433306
220	0xbbb89fe0	-0.005634293
221	0x3da3b8f3	0.07994261
222	0xbbb2a91d	-0.005452289
223	0xbc9ec227	-0.019379688
224	0x3ca5aa31	0.020222755
225	0xbd39986c	-0.045311376
226	0xbd2a3c99	-0.041561697
227	0xbd8f97d2	-0.07011379
228	0x3bf005de	0.007324918
229	0x3e0acd42	0.13554862
230	0xbcbf19e5	-0.023327777
231	0x3e372d94	0.1788848
232	0xbcee88e9	-0.029118018
233	0xbd6172e8	-0.055041224
234	0xbd3e2a20	-0.046426892
235	0xbd02d5be	-0.03194212
236	0x3dcc0927	0.09962683
237	0xbd99f3c7	-0.075172
238	0x3c732778	0.014840953
239	0xbd90581b	-0.07048055
240	0xbd4c087c	-0.04981278
241	0x3c1542e5	0.009110187
242	0x3afd43c3	0.0019322563
243	0x3dc41bba	0.09575601
244	0x3cc8834d	0.024476672
245	0xbd8cf6f4	-0.0688304
246	0xbdf84e9f	-0.12124371
247	0xbd24830b	-0.040164035
248	0xbd90a7a2	-0.070632234
249	0x3d1fc2c1	0.03900409
250	0xbe284731	-0.16433407
251	0xbdb80b18	-0.08986491
252	0xbba327fa	-0.004979131
253	0xbcc8096c	-0.024418555
254	0xbd844952	-0.06459297
255	0x3c9368e5	0.017994354
