config/results/Entry_reward06/PathFollowing/PathFollowing-2499907.onnx (onnx, 695646 bytes, 7 tensors)

action_model._continuous_distribution.log_sigma f4 [1, 3]
000000 ac 02 6e 3d 55 9c 6b 3c c0 f4 48 3d
       0.058108017 0.014380534 0.049061537

action_model._continuous_distribution.mu.bias f4 [3]
000000 88 0a 43 3c 0b ed 57 bb 0c a9 93 3b
       0.011904366 -0.0032947685 0.004506236

action_model._continuous_distribution.mu.weight f4 [3, 256]
000000 b5 cb b8 bc 8a 79 9f ba 11 c7 71 3b e4 bb 41 3a
       -0.022558073 -0.0012166959 0.0036892334 0.00073903636
000010 4e f1 0b bc 07 9b f8 bb ea 6f 30 3c 90 f1 f6 3b
       -0.008541418 -0.00758684 0.01076887 0.0075361207
000020 7b c8 8a bb d8 42 25 bc df 31 ce bb 17 3f c4 bb
       -0.004235325 -0.010086738 -0.006292566 -0.005988966
000030 cb 4f 26 bc 2d 47 bf 39 1e b1 49 bc 02 dc 87 3b
       -0.01015086 0.0003648339 -0.012310294 0.0041461
000040 f2 2f 91 bb e4 1a 83 3b 17 91 eb b9 3c d4 19 3c
       -0.0044307644 0.0040010083 -0.00044930793 0.0093889795
000050 ac 69 a8 3b 4e d1 6a bc 09 65 a7 3c ba e6 bd bb
       0.00513955 -0.014332129 0.02043392 -0.005795327
000060 c2 15 94 ba e3 31 99 bc b4 9d 39 bc 08 ea 07 3c
       -0.0011297988 -0.018700546 -0.011329103 0.0082955435
000070 85 6a 9b 3b 17 a0 8c 3b 23 ac bb bc 68 d4 06 bc
       0.0047429227 0.004291545 -0.02290923 -0.0082293525
000080 e4 1f f3 bc 7f a5 63 3b 8f 50 ed 39 b8 02 c7 3a
       -0.029678293 0.0034736095 0.00045264183 0.0015183305
000090 89 fd ba bc c0 eb ba 3b a4 f9 83 bc 91 e4 9c bc
       -0.022825973 0.005704373 -0.016110249 -0.019151958
0000a0 73 27 46 bc 08 58 85 bb a8 c3 e8 3b 7e 92 58 bb
       -0.012094366 -0.004069332 0.007103402 -0.00330463
0000b0 19 90 dc bb bd 55 bf 3b 43 97 c8 bb 81 8a 02 bd
       -0.006731045 0.005839078 -0.0061215474 -0.03187037
0000c0 ca 27 42 bb 60 38 05 bc 37 c7 cc 3b ba c1 42 bc
       -0.0029625767 -0.008131117 0.006249334 -0.011887008
0000d0 c8 6b f5 bc 50 4d 95 bc 77 56 50 bc 16 21 d6 bb
       -0.02995862 -0.018225342 -0.012715927 -0.006534706
0000e0 8b a7 b5 3b bc a2 c8 bb e9 ed 86 bb 27 f8 bd bc
       0.0055436543 -0.006122915 -0.0041177166 -0.023189617
0000f0 3d a5 3a bb 5c cf 9d 3a a1 bf 78 3c d0 7a 2d bc
       -0.0028479837 0.0012039947 0.015182407 -0.010588363
000100 5c ea 96 bb f0 27 bf ba d8 f9 c3 bb 03 e6 0f 3c
       -0.0046055745 -0.0014584046 -0.0059807114 0.008782866
000110 49 6a 44 bc 78 7b 5f bc 72 3a 21 bc 52 68 ac bb
       -0.011988231 -0.013640277 -0.009840595 -0.0052614594
000120 f9 2d 3f 3c c6 50 34 3c f2 89 ad 3b 88 85 5a bb
       0.011668676 0.011005586 0.0052959854 -0.003334375
000130 3b d7 a9 3c 3c 15 c1 3b 96 c4 7b 3a 70 b1 6e bb
       0.020732513 0.005892424 0.0009604184 -0.003642168
000140 20 a6 da bb a2 2e 5f 3c 41 80 ce bb 6f 67 2b bc
       -0.0066726357 0.013621958 -0.00630191 -0.010461672
000150 42 c9 85 ba 20 d1 d8 bc c6 0d bc 3b 18 bf 4a bb
       -0.0010207074 -0.026466906 0.0057389466 -0.0030936655
000160 88 32 8d 3b b6 13 c4 ba a5 08 13 3b 95 9a 63 bc
       0.0043090023 -0.0014959488 0.0022435572 -0.013891836
000170 c6 db 37 bc 8b fb b1 bb ee b1 25 bc 84 9c 3d 3c
       -0.011221832 -0.0054315976 -0.0101132225 0.011572961
000180 82 40 2d 3c 66 f8 2e bb 69 18 69 bc 4c 91 92 bb
       0.010574462 -0.002669835 -0.014227011 -0.004472887
000190 36 8f b4 3c 07 58 8a 3b 9a 6a 27 3c b6 49 1c 3c
       0.022040945 0.0042219195 0.010218287 0.009539058
0001a0 11 33 06 ba 5f 55 07 bb 43 3d 88 bc 95 3d d6 ba
       -0.0005119304 -0.002065025 -0.016630774 -0.0016345257
0001b0 e6 d7 2d 3c 27 83 0c bb 90 d3 33 3b b0 75 25 bb
       0.010610556 -0.0021440478 0.0027439333 -0.002524715
0001c0 c3 7d a3 bb 6f 3c ee bc b3 2a 14 bc 50 55 01 ba
       -0.004989357 -0.029081551 -0.009043383 -0.0004933672
0001d0 37 7f 08 bb fb 18 a4 ba f1 21 d7 b8 96 27 21 bc
       -0.002082778 -0.0012519652 -0.00010258321 -0.009836098
0001e0 06 aa 8a bb c2 b0 24 bb eb 2e b5 b8 c0 b6 8c bb
       -0.004231694 -0.002512977 -8.639492e-05 -0.0042942464
0001f0 9d 60 d9 b9 0d 70 ea 3b 00 bf 0f 3c 31 a0 bb bc
       -0.00041461448 0.007154471 0.008773565 -0.022903534
000200 b8 df dc b9 8e 2b 13 3b 60 20 d1 3c 2c 7d 57 3c
       -0.00042128353 0.002245638 0.025528133 0.013152402
000210 44 7d 83 bb 5e d5 90 3b fc 8a 9c 3a 57 05 84 ba
       -0.0040127356 0.0044199666 0.0011943276 -0.0010072392
000220 83 f1 56 bc 67 a3 ad 3b 5c 7f 92 3b 4b e7 b3 bb
       -0.013119104 0.00529902 0.004470749 -0.0054902188
000230 31 91 21 bc 08 97 6a 3c 95 fb b8 bb b9 8e cf bb
       -0.0098612765 0.014318235 -0.0056452253 -0.0063341525
000240 eb bc 23 bc fb 6c 06 39 55 f4 87 3c 1e 97 7f 3c
       -0.009993772 0.00012819834 0.016595999 0.015599994
000250 81 5b b0 39 91 dd 0d bc bb 25 0c ba 60 d6 11 3a
       0.00033637512 -0.008658783 -0.00053461984 0.00055632554
000260 1c f9 bb bc c7 93 85 bc 70 6a 52 3c f4 65 96 bc
       -0.022945933 -0.016305817 0.0128427595 -0.018359162
000270 f8 47 21 3b de f2 5a bc be bb 34 bd e5 89 f4 bc
       0.0024609547 -0.013363568 -0.044124357 -0.02985091
000280 2d 4d 3d 3c e2 50 8b bc 9b 17 f8 3a fc e0 3a bb
       0.011554045 -0.017006341 0.0018927933 -0.0028515449
000290 de 1d 06 bc fb a7 00 3c 43 7f 25 bd 01 59 59 bb
       -0.008185832 0.00785255 -0.04040457 -0.0033164623
0002a0 4d 90 26 3c 0c a8 3e 3c 35 28 5e 3c 4c 0e 50 3c
       0.01016624 0.011636745 0.013559391 0.012698721
0002b0 1b 29 77 bc 17 70 02 bb fc 92 5d ba ac fa ab 3b
       -0.015085484 -0.0019903237 -0.00084523833 0.0052483883
0002c0 ed 76 07 bc 99 87 c9 bb b2 84 ee bb 89 a0 7c 3c
       -0.0082681 -0.0061501977 -0.007279002 0.015419134
0002d0 8c 69 97 ba 6d 6a 3f bc a1 04 dd 39 1d 2f c9 bb
       -0.0011551841 -0.011683089 0.00042155854 -0.0061396495
0002e0 70 cb 45 3c 67 c4 ff bc 2d bb 13 bc 21 c1 01 bc
       0.012072429 -0.031221582 -0.009016794 -0.007919581
0002f0 cf 0d 80 bb dc 9c 1b 3a b1 b5 fe ba 4e 6a ca bb
       -0.003907896 0.00059361546 -0.001943281 -0.0061772233
000300 2c 05 1b bd 55 c7 49 3b dd 44 13 bb de fa 03 3c
       -0.03784673 0.0030788977 -0.0022471466 0.008055417
000310 3f b4 48 3b 28 11 88 3b 46 bc d5 bb 5a a3 48 3b
       0.0030625013 0.004152436 -0.006522688 0.0030614943
000320 5d c8 f9 bc 7c 3d ea ba 79 ef b5 bc 31 c5 30 3c
       -0.030491048 -0.0017871107 -0.022208916 0.010789202
000330 8a 9d a3 3b f3 50 22 3b 54 87 cf bb 93 76 40 39
       0.0049931454 0.0024767488 -0.006333271 0.00018354719
000340 62 77 ae 3b 77 d2 59 3c 01 c9 25 bc 8a 8a d0 3b
       0.00532429 0.013294808 -0.010118724 0.0063641714
000350 bb c8 12 3b 63 cf 9d bb 75 d3 3d 3a f0 d1 8b 3c
       0.0022397477 -0.004815982 0.00072412874 0.01706788
000360 12 03 93 ba 58 a1 47 bc 06 ea b8 bc ed 77 16 ba
       -0.0011216125 -0.012184463 -0.022572529 -0.0005739916
000370 3e 16 3e bc 18 bf e3 3b 35 1e 42 3c 52 a3 be 3b
       -0.011601983 0.0069502704 0.011848022 0.005817809
000380 c5 22 3e 3c eb 6e 59 bc e3 17 49 3a 72 b4 01 3c
       0.011604969 -0.013271074 0.0007671101 0.007916557
000390 07 1d b0 3a 77 57 56 bb bf 6e 21 bc 34 2a a8 3b
       0.0013436385 -0.0032705942 -0.009853064 0.005131984
0003a0 ec da af bb 9f 05 fd bc 17 1c d9 bb 67 d6 73 3a
       -0.0053666737 -0.03088647 -0.006625663 0.0009301663
0003b0 58 36 a1 bc 52 b4 81 bc 5e 2d 85 bc 29 48 93 3b
       -0.019679233 -0.015833054 -0.016256984 0.004494686
0003c0 f9 4e bd bb 06 fe ad 3b 82 2a ac 3b c8 0b be 3b
       -0.0057772365 0.005309823 0.0052540908 0.0057997443
0003d0 df 98 1d bc 98 77 8a bc 79 72 04 bc e7 3b 88 3b
       -0.009618967 -0.01690273 -0.008083933 0.0041575315
0003e0 9e 1c 0b 3c 55 e7 15 ba 89 97 b1 3c ac 88 ad bb
       0.00849071 -0.000571837 0.021678703 -0.0052958336
0003f0 89 c8 79 bc 2f 3e 3d 3c 25 c8 c5 bc f2 64 6f 3c
       -0.015245565 0.01155047 -0.024143288 0.01461147

network_body.linear_encoder.seq_layers.0.bias f4 [256]
000000 b1 46 33 bb f6 31 98 bc fe 06 bd ba 58 0d 5d 3a
       -0.0027355368 -0.01857851 -0.001442164 0.00084324693
000010 e6 44 54 3b e8 9c 38 3b 46 3b b5 bb d5 5d c0 bb
       0.00323897 0.0028169695 -0.0055307476 -0.0058705606
000020 3c 9c 6f bb c5 06 d5 bb 93 0a 10 bc 76 1d 80 b8
       -0.0036561629 -0.006501051 -0.008791584 -6.109003e-05
000030 cc b4 5a bc 3b 80 0d bc 72 e9 85 ba 92 4f f6 bb
       -0.013348769 -0.00863653 -0.0010216667 -0.0075168097
000040 73 b2 54 bb d7 98 2b bc e8 53 19 bb 1a 4c 31 bc
       -0.0032454997 -0.010473452 -0.002339596 -0.010821367
000050 cb b3 74 bc 32 23 80 bc b9 bb 35 bb 31 69 5b bc
       -0.014935444 -0.015641782 -0.00277303 -0.013391779
000060 59 4d 79 bc 53 cd 34 bc 66 cb c7 bb f4 0c 8b bb
       -0.015216195 -0.011035281 -0.006097245 -0.0042434875
000070 47 0b 0a bc b2 aa 2c 39 0c b2 75 39 d1 2f d9 bb
       -0.00842554 0.00016466787 0.00023431348 -0.0066280146
000080 f0 86 89 b9 4d 16 cb 3a 77 71 d3 3b c5 27 e4 3a
       -0.00026231213 0.0015494317 0.006452735 0.0017406872
000090 00 30 c7 3a 76 2d 8b bb 8f 31 a9 bb a3 be 96 bb
       0.00151968 -0.0042473627 -0.0051633785 -0.0046003624
0000a0 f1 5a c9 ba 24 fb f4 b8 bd 85 44 3b bc 5b c4 bb
       -0.0015362186 -0.00011681605 0.002998694 -0.005992381
0000b0 58 a7 83 bb 0d 40 60 bc b6 b6 47 bb c0 91 c8 3b
       -0.0040177517 -0.013687146 -0.0030473894 0.0061208904
0000c0 94 7c 5e 3b 0f 71 ad bb f7 2f 45 3a 83 5f 08 3b
       0.0033948766 -0.0052930187 0.0007522101 0.0020808883
0000d0 0f 0d 4b ba 2a f6 7d bc ef 59 dc ba 12 be 93 bb
       -0.00077457813 -0.015500585 -0.001681147 -0.004508742
0000e0 cb 20 0c bc 1d 2d eb bb a1 29 73 3b a3 7e cf ba
       -0.00855274 -0.007177009 0.003710367 -0.0015830587
0000f0 01 ed 64 bb ba 5c 97 bc 80 13 e0 bb 73 5e 0e bc
       -0.0034931304 -0.018476833 -0.006838262 -0.008689511
000100 14 5a 31 3b 96 53 39 bc 7f b3 21 bc 7d 4c 8e 3b
       0.0027061747 -0.011311432 -0.009869455 0.004342614
000110 10 8c 18 bc 66 fe 17 bc 7d a4 20 bc 43 26 3a bc
       -0.009310737 -0.009276962 -0.009804842 -0.011361661
000120 42 92 05 ba 73 b4 0e bc 0d e5 e8 ba ba 64 67 bc
       -0.00050953415 -0.008710015 -0.0017768458 -0.014123136
000130 b8 77 c3 ba a6 20 b8 3b 07 9b a3 bb 15 8e c3 bb
       -0.0014912998 0.0056191264 -0.004992846 -0.005967865
000140 78 45 41 bc 17 66 4e bb c2 f3 9d 3a 3c aa 0c bc
       -0.011796348 -0.0031493956 0.0012050795 -0.008585509
000150 c8 7d 98 bb 4d b1 a1 3b ec 0a 1a bc d7 e3 9e bb
       -0.004653666 0.004934466 -0.009402018 -0.004848938
000160 d3 ce d1 bb 9f 71 51 bc a9 1f 0a bc 9e 0e 82 3b
       -0.006402829 -0.012783437 -0.0084304 0.0039690277
000170 eb c2 80 bb 71 32 be 39 af 64 74 bb 11 43 21 bc
       -0.003929486 0.00036277206 -0.0037291457 -0.00984265
000180 d9 ac 4c 3b ef 8d 0c bc 09 77 a6 bb 2e 88 1e ba
       0.0031230955 -0.0085787615 -0.005080108 -0.0006047514
000190 4c db d2 3a 34 4b e8 bb 80 ee 34 bc f2 30 42 bc
       0.0016087084 -0.007089043 -0.011043191 -0.01185249
0001a0 71 49 2e bc 00 a6 2f bb 89 fc 2a bc 91 3f 35 bc
       -0.010637627 -0.0026801825 -0.010436186 -0.011062519
0001b0 b4 62 a9 ba 3a a2 46 bc 24 8f 05 bb 93 17 79 bc
       -0.0012923093 -0.012123639 -0.0020379508 -0.015203374
0001c0 04 93 5c bc 1c 9f 05 bb 82 df f4 3a b9 94 22 bc
       -0.013462786 -0.0020389026 0.0018682333 -0.009923154
0001d0 51 55 b3 bb 22 db 87 bb ab 8d 0a bc c9 1a f2 ba
       -0.005472817 -0.0041459957 -0.008456628 -0.0018471117
0001e0 86 62 bb 39 09 41 84 bb d6 56 39 bc 09 de 7f bb
       0.00035740825 -0.004036073 -0.011312207 -0.0039042255
0001f0 96 b0 3c bc 4b 65 86 bc 99 ab 57 bb 5b f0 8a bb
       -0.011516711 -0.016405722 -0.0032908677 -0.0042400784
000200 0e 0a a6 bc 0d 20 14 bc 48 24 b0 bb a4 92 7a bb
       -0.020268466 -0.009040845 -0.005375419 -0.0038234377
000210 ed cc 32 bb 40 bb 42 ba 19 cb 9c bc ee dc be 3b
       -0.002728279 -0.0007428415 -0.019139813 0.0058246767
000220 7a 41 84 bc a6 ed 92 bc 94 04 c9 38 9f e2 88 bc
       -0.016144503 -0.017935585 9.5852796e-05 -0.016709624
000230 58 39 d7 ba 4d 9a 6b 3b f0 43 86 bc 10 1a 0c bb
       -0.0016420288 0.0035950125 -0.016389817 -0.002137784
000240 ed 36 6c bc 65 4d b4 bb 76 b9 5c ba 27 13 ec b9
       -0.014417392 -0.00550239 -0.000841997 -0.00045027697
000250 13 f3 42 3b a0 d4 22 bc 65 e5 ab bb ba 82 5e 3b
       0.0029746934 -0.009938389 -0.005245852 0.003395243
000260 a5 14 f0 bb e9 04 41 3b f5 e6 ae ba da 2a fb bb
       -0.00732668 0.002945239 -0.0013343977 -0.0076650204
000270 2e 1d 5b bc 45 c5 58 39 65 41 c1 bb e3 4f 94 bb
       -0.013373656 0.00020672854 -0.005897688 -0.004526125
000280 16 88 54 bc 02 1a 0a bc 2d 01 9d 3a 87 8d ab bb
       -0.012971899 -0.008429052 0.00119785 -0.0052353772
000290 0e 88 68 bc 3d 3c 44 bb 2b 38 89 3a 1d be cd bb
       -0.014192594 -0.0029943131 0.001046901 -0.006278767
0002a0 71 f9 c9 bb a7 46 d7 ba 84 b1 26 bc 90 23 e8 bb
       -0.006163769 -0.0016424254 -0.010174159 -0.0070843175
0002b0 0e ff aa bb 4a dc 9c ba 18 e9 bd bb b9 3b 81 39
       -0.005218393 -0.0011967507 -0.005795609 0.00024649294
0002c0 9e 67 b9 bb 03 15 13 3b 6a 54 07 3c a4 5b 24 bc
       -0.005658104 0.0022442944 0.008259872 -0.010031614
0002d0 e1 c8 ec bb fe 82 22 bc dd 66 21 bb 26 34 7d bc
       -0.007226095 -0.009918926 -0.0024627962 -0.015454328
0002e0 cd 49 59 3b 2f bf 35 bc 7a 89 26 3a 4d f0 87 ba
       0.003315556 -0.011092945 0.0006352883 -0.0010371298
0002f0 a6 53 52 bb 44 ef cc bb 99 25 16 bc 66 2a 0c ba
       -0.0032093315 -0.0062541086 -0.009164237 -0.0005346894
000300 d8 98 a1 bb 95 05 62 bc 0f 03 23 3b f8 11 d1 bb
       -0.0049315505 -0.013795276 0.002487365 -0.006380316
000310 ff fe a3 bb ae 9f 49 bc 45 a5 25 bb a1 56 92 bb
       -0.005004763 -0.012306137 -0.002527551 -0.0044658934
000320 5a 3f fe 3a 57 d2 f1 ba ea 26 d3 bb 11 53 65 bc
       0.0019397542 -0.0018449527 -0.006443848 -0.013996855
000330 0f 8d 22 bc 82 d4 30 bc 0d 76 ff bb ba 1c b4 3a
       -0.009921326 -0.010792853 -0.007796055 0.0013741471
000340 67 82 eb 3a 85 a4 d5 bb 25 6a 37 bc c9 7e 48 bc
       0.001796794 -0.0065198564 -0.01119474 -0.012237259
000350 92 a8 ae bb fc dd 9d 3b ac 37 ab b9 97 55 0e bc
       -0.0053301537 0.0048177224 -0.0003265714 -0.008687398
000360 68 41 14 3b 50 92 dc bb 43 dc 67 bb 3c 25 30 bc
       0.0022621993 -0.006731309 -0.003537909 -0.010751065
000370 e5 3a 5b 3a 76 9a fe ba 7a 4b a8 bb 02 60 45 bc
       0.0008362963 -0.0019424695 -0.0051359506 -0.012046816
000380 04 50 07 bc f2 57 b4 ba 47 38 13 ba 8e 39 36 bc
       -0.008258823 -0.001375912 -0.0005615991 -0.011122121
000390 28 c8 9b bb 0f b5 07 bc 77 31 14 bc a6 1a 60 bb
       -0.004754085 -0.008282914 -0.009044996 -0.0034195571
0003a0 14 16 90 bc ab c4 1a bc 99 96 c4 39 7a 30 05 bb
       -0.017588653 -0.009446303 0.00037496237 -0.0020323084
0003b0 d3 91 bb bb 45 ef 52 bc 91 f4 14 bc 62 c7 2c bc
       -0.0057241707 -0.012874429 -0.009091512 -0.010545583
0003c0 8a 8c a9 bb d6 94 d5 3a b8 75 55 bc cc af a4 3a
       -0.0051742243 0.0016294967 -0.013028555 0.0012564599
0003d0 91 81 0b bc b8 73 31 bc 84 dd 3d bc 33 36 93 bc
       -0.008514778 -0.010830812 -0.011588458 -0.01797018
0003e0 7f dc c3 bb 58 d3 7e bc 24 c9 66 3b 26 bf 4e 3b
       -0.005977213 -0.015553318 0.0035215104 0.0031547039
0003f0 0e 2e 0f bc 83 18 5a bb 98 09 a8 bb 0e 0f 0d bc
       -0.008739008 -0.003327877 -0.005128097 -0.008609546

network_body.linear_encoder.seq_layers.0.weight f4 [256, 416]
000000 28 9f 49 bc 15 76 d4 3d 8d d3 ff ba 0f b8 26 bd
       -0.012306012 0.10374085 -0.0019518003 -0.040702876
000010 ff 01 aa bc 67 c4 0d 3d 4f dd 13 bd d6 63 3b 3c
       -0.020752905 0.034611132 -0.03609973 0.011437377
000020 be 97 d3 3c 9c e5 70 bc 15 61 58 3d 61 c2 c1 bc
       0.025829192 -0.014703181 0.05282696 -0.023652257
000030 a7 b4 03 bc f7 b5 a8 3c 6e c8 c1 3c 92 25 83 3d
       -0.008038676 0.02059458 0.023655143 0.0640365
000040 fb 75 80 3c 8c 6c b8 bc c7 e0 87 bd 88 99 ef 3d
       0.015681257 -0.022512697 -0.0663467 0.11699206
000050 2d 71 54 bc e9 5c c7 bc a2 7b 7f bd 72 e6 a3 bc
       -0.012966436 -0.024336295 -0.062373765 -0.020007346
000060 6a 45 b6 bc 7f a5 8d bd be 47 97 bc 21 97 7d 3d
       -0.022249896 -0.069163315 -0.018466827 0.061911706
000070 87 20 8d 3c 17 bb b5 ba 6e 00 7f bd 81 bf 47 bc
       0.017227424 -0.0013864961 -0.06225627 -0.012191654
000080 f4 8f 62 bd 73 7d 99 3d 2e 06 88 bd 0f 7c 1f 3d
       -0.055313066 0.07494631 -0.06641804 0.03893667
000090 48 0d fe bc e3 21 80 bb 9d 01 82 3c 36 46 1f 3d
       -0.031012192 -0.0039102896 0.01586991 0.038885318
0000a0 b8 89 37 bd 13 11 b7 bc 52 d0 54 bd aa 5b 30 3d
       -0.044809073 -0.022347009 -0.051956482 0.043056168
0000b0 f0 80 93 bd c1 89 46 3d c7 b0 04 bd 30 ca a0 bb
       -0.07202327 0.048471216 -0.03239515 -0.004906915
0000c0 f4 b6 a4 bc 34 ac 97 bd 67 8a 50 bd 65 5a 5a bd
       -0.02010677 -0.07405892 -0.05091324 -0.053308863
0000d0 83 82 13 3c 58 44 21 bd 35 92 88 bd e8 c0 c5 bc
       0.009003284 -0.03937182 -0.06668512 -0.024139836
0000e0 57 1b f9 3c 59 83 79 bd 58 2d 64 bc e7 41 ae 3d
       0.030408544 -0.06091628 -0.013926826 0.085086636
0000f0 6a de 79 3c 4a f4 9f bd 09 31 00 bd e2 b6 cc 3d
       0.015250782 -0.07810266 -0.031296764 0.0999582
000100 49 f5 c8 3b 15 38 cb 3c 62 b3 82 3c 8e db 72 bd
       0.006132756 0.024807015 0.015954677 -0.059291415
000110 b2 2c 8e bd 5e 6e 31 3c b1 3d 5b bc d7 38 87 3b
       -0.06942119 0.010829536 -0.013381408 0.004126649
000120 3d 2f 80 bd f4 b0 d5 3c 1e 0e a5 3c 9d 09 ba 3a
       -0.0625901 0.026085354 0.020148333 0.0014193539
000130 ff 41 af 3d 65 fa c4 3c 93 49 61 3b 60 4a 05 3d
       0.0855751 0.024045179 0.003437613 0.032541633
000140 a1 99 38 bd af d8 1a bd f6 37 11 3d 86 83 4b 3d
       -0.045068387 -0.0378043 0.03545376 0.049685977
000150 6a 15 d6 bc e7 a9 38 3d df b7 26 bd 97 c3 6c 3d
       -0.026133258 0.045083907 -0.040702697 0.057803717
000160 df 06 03 3d 32 12 ca 3c 25 0e e3 bc 65 33 59 3d
       0.031988975 0.02466688 -0.027716706 0.05302753
000170 d1 c4 04 bd 05 19 72 bd 29 d0 1d bd 9e 8b af bc
       -0.03241426 -0.05910589 -0.038528595 -0.02142888
000180 75 f2 9c bd f8 c3 0e bd d8 5c c9 3c 14 41 76 3d
       -0.076634325 -0.03485486 0.024580404 0.060120657
000190 23 ca 33 3c 6a bc de 3a a7 63 5d bd 83 40 78 3d
       0.010973486 0.0016993408 -0.054050114 0.0606084
0001a0 89 5c fb 3c 94 40 94 3c d8 0f d0 3c 99 9a 7b bd
       0.030683773 0.0180972 0.02539818 -0.061426733
0001b0 18 3c 2e bd c8 c4 2e 3c ce 2a 72 bd 10 87 07 bd
       -0.04253778 0.0106670335 -0.059122853 -0.03308779
0001c0 1a df 16 3c 93 e6 35 3b aa 9c 43 bc 11 1c 36 3c
       0.009208465 0.002775584 -0.011939207 0.01111509
0001d0 db 8f 4f 3d 98 a7 88 3c a0 12 91 3c b5 9e ec bc
       0.0506743 0.016681477 0.017709076 -0.028884271
0001e0 c0 e0 af bd f0 7e 07 3d 47 a5 d6 3c 8b 58 b1 bc
       -0.085877895 0.03308004 0.026201857 -0.021648666
0001f0 dd e8 26 3d 23 31 82 3c 85 81 05 bc 44 29 82 bc
       0.04074942 0.01589257 -0.008148556 -0.015888818
000200 3e 2a a9 bd 18 c6 9a bd 28 4f 6b bd 5b 0c 24 3d
       -0.0826001 -0.07557315 -0.057448536 0.040050846
000210 f6 4b ae bc 85 86 4f 3a 85 cd 4a bd 36 7a 12 3d
       -0.021276455 0.00079164683 -0.049512405 0.03576108
000220 4d f7 2f bd 5a 95 e9 3d 2c cb 11 3d 9c 08 c4 bd
       -0.042960454 0.1140544 0.03559415 -0.095719546
000230 8a c5 ef 3c 02 e4 1c bd 09 62 0c bd 7d 63 a5 bc
       0.029268999 -0.038303383 -0.03427318 -0.020189041
000240 1d df b7 3c b0 31 95 bc 1e b5 52 bd e9 3f 0f 3d
       0.022445256 -0.01821217 -0.051442258 0.03497306
000250 03 49 ef bb 49 f0 52 bd 9d 49 77 bc 49 4d 44 bd
       -0.007302405 -0.051498685 -0.015093234 -0.047925267
000260 cc 65 ba 3d 3e 6b 80 3c 8d 71 7d bc e5 0e 8e bd
       0.091014475 0.015676137 -0.015468967 -0.06936435
000270 f8 e3 bf bc 98 f9 19 3c ff 2b f9 3c c3 b5 8e bd
       -0.023424134 0.009397887 0.030416487 -0.06968262
000280 bb 3f 4d bc 03 70 02 bd 5a b2 c3 3d 7a 1d b3 bd
       -0.012527402 -0.031845104 0.09555502 -0.087458566
000290 f0 22 81 3c a2 d5 22 3d c8 03 b5 bd e0 9e dd bd
       0.01576373 0.039754517 -0.08838612 -0.108213186
0002a0 a7 12 83 3a cf 93 14 3d 91 90 ca 3d e7 d5 b6 3c
       0.0010000066 0.036273774 0.09890855 0.022318793
0002b0 7f a6 53 bd fd 3b af bd df 58 66 3c 2e 98 01 3d
       -0.051672455 -0.08556364 0.014059274 0.03163927
0002c0 f2 14 08 bc 76 e0 9e 3c 60 5f 61 bb dc c4 0d bd
       -0.008305775 0.01939414 -0.0034389123 -0.034611568
0002d0 0a 6d 81 3d 2a 78 99 bd 88 8f 11 3d e3 57 98 bd
       0.06319626 -0.074936226 0.035537273 -0.07438638
0002e0 78 6a ce bb 72 f8 8f bd 84 f3 2f bd 1d a1 69 3c
       -0.006299313 -0.07029809 -0.042956844 0.014259604
0002f0 cc 44 10 bd 8f 51 87 3d 81 b3 b3 3d 58 cb b8 3c
       -0.03522186 0.06607353 0.08774472 0.0225579
000300 ef fb f0 3b 5f 37 50 3d cd d9 4e 3d ae f0 b4 3b
       0.0073542516 0.050834056 0.05050068 0.0055218553
000310 25 7a c7 bd 10 bd a2 bb 98 26 3e 3d 9e 28 4d bd
       -0.09740094 -0.0049663857 0.046423525 -0.050087564
000320 f8 21 b7 3c d4 20 10 bd 02 21 2c 3d e2 4d 4d 3d
       0.022355065 -0.035187557 0.042023666 0.050123103
000330 0f 68 0b bd 9c e4 5b 3c 6f 31 1c 3c 8a 0b 17 bd
       -0.034034785 0.013421204 0.00953327 -0.03687624
000340 97 ad 0a bd ca 54 51 bd 31 a3 69 3d 11 a4 a1 3c
       -0.033856954 -0.05110625 0.057040397 0.019731553
000350 d2 aa 12 bc 25 7e bb 3c 5f a5 da 3c e8 50 b9 bc
       -0.00895186 0.022887299 0.026690183 -0.022621587
000360 85 98 46 3d 9e c7 d8 3d 94 d8 5c 3d fb 70 96 bc
       0.048485298 0.10584949 0.053917482 -0.01836442
000370 5f 19 50 3b 18 54 83 bb 94 0f a8 3b 32 d6 10 bd
       0.0031753404 -0.0040078275 0.00512881 -0.035360523
000380 43 74 15 bc 19 2f 36 bd 65 e5 e3 bc 53 d9 04 3c
       -0.009121957 -0.04447851 -0.027819345 0.008108455
000390 f2 3d 17 bd 7f 76 31 3d 54 2d 00 bd 8d 64 e2 bc
       -0.03692431 0.043325897 -0.03129323 -0.027635837
0003a0 d1 e4 8f 3c e8 42 57 bd 36 f1 91 3d cf 11 b0 3d
       0.017565163 -0.05255404 0.071260855 0.08597147
0003b0 c4 a0 8e 3c 9f ae 01 be 5a 96 4c bb 9c bf 5e 3d
       0.017410643 -0.12664269 -0.0031217546 0.05438195
0003c0 bf 4d 52 3d be 68 b3 3c 94 88 d0 3c 5d 1d a5 3a
       0.051343676 0.02190053 0.02545575 0.0012597252
0003d0 66 73 9b 3d d2 34 c0 bc 64 a2 40 bd f6 07 a8 3d
       0.0759037 -0.023462687 -0.047029868 0.082046434
0003e0 f0 02 f7 3c 60 96 4e 3d ea 61 83 bd 5c 2b 91 3d
       0.030152768 0.050436378 -0.0641516 0.07088348
0003f0 f8 be a5 bd cf 8f 3e 3c ab 13 1e bc 4e 04 ff bc
       -0.08093065 0.011630966 -0.009648244 -0.031129982

network_body.linear_encoder.seq_layers.2.bias f4 [256]
000000 59 d7 5f 39 38 56 85 bb 2f 55 be bb 55 b9 5e 39
       0.0002134716 -0.004069116 -0.0058084945 0.00021240611
000010 d9 29 a1 3a 32 57 99 bc 17 92 04 bc 52 92 d9 bb
       0.0012295797 -0.018718336 -0.008091471 -0.006639757
000020 1f 57 de bb 83 75 39 bc 58 cf 1d ba f7 dd 9b bb
       -0.006785288 -0.011319521 -0.00060199713 -0.004756685
000030 e1 31 16 bc 56 7a 80 bc 79 a5 cc bb 8b b8 2f bc
       -0.0091671655 -0.015683334 -0.006245312 -0.010725151
000040 20 99 94 b9 7f 45 01 bb d8 91 18 bc 4f ee 88 bb
       -0.00028342847 -0.001972526 -0.009312116 -0.004178799
000050 a7 a6 78 bb d8 ef 97 bb 21 6a bb 3b bc 49 9c 39
       -0.003794113 -0.004636746 0.0057194387 0.00029809575
000060 96 38 29 bb e2 80 49 bc 9a 46 ca 3a 8b 52 76 3b
       -0.0025821081 -0.012298794 0.0015432418 0.003758582
000070 96 10 03 bc a9 f0 8c bb f3 64 77 bb a2 03 5d bc
       -0.00799956 -0.00430115 -0.003774938 -0.013489636
000080 a2 07 1d bc e4 b4 a5 3a 83 75 8d bc 08 96 d9 bb
       -0.009584339 0.0012642411 -0.017267948 -0.0066401996
000090 2b 38 9c bb 28 d1 b3 bb b9 38 28 bb 19 d5 d0 bb
       -0.004767438 -0.00548758 -0.0025668575 -0.0063730595
0000a0 83 0e d5 ba 78 12 06 bc 3f 97 2d bb bd 36 a8 bc
       -0.0016254935 -0.008183114 -0.0026487855 -0.020533914
0000b0 6b 70 e8 bb 27 c1 39 bb 28 e1 2e bc b9 63 a0 39
       -0.0070934794 -0.0028343888 -0.010673799 0.00030591877
0000c0 bc 67 59 bc 52 3a 30 bc 1b 38 b9 ba 7e 8f b8 bb
       -0.013269361 -0.010756092 -0.0014131101 -0.00563234
0000d0 db 97 b5 bb 31 17 5f bc 8c 9a 77 bc 5e 04 d5 bb
       -0.005541784 -0.013616369 -0.01511253 -0.0065007647
0000e0 5a 9b 4f bc 17 0f 9d bc 85 42 83 bc f1 a1 6f bc
       -0.012671316 -0.019172234 -0.01602293 -0.014626012
0000f0 83 c6 1e ba dc 4b 67 bb fe 50 2a 3b fc 8f 01 3c
       -0.0006056802 -0.0035293018 0.0025988217 0.007907864
000100 9d 9e fe bb 3c 96 23 bc 5c 2a 8c bb 2b ac 85 bc
       -0.007770373 -0.009984549 -0.0042775106 -0.016317448
000110 6a cd b1 bc fa e0 52 bc 3f c2 89 bc 0f 9f 93 3b
       -0.021704394 -0.012871021 -0.016816257 0.0045050452
000120 10 33 d9 bb 9d 87 69 bb 4b 92 2e bc f0 db 03 bc
       -0.0066284016 -0.003563381 -0.010654996 -0.008048043
000130 a5 f3 f7 ba 0c d8 5a bc f7 12 f9 bb fd 54 00 bc
       -0.0018917216 -0.013357174 -0.0076011377 -0.007832763
000140 ce af 30 3b 34 9f 60 bb cd 1a 1a bc ef 12 93 bb
       0.0026960257 -0.003427458 -0.009405804 -0.004488341
000150 c0 38 cb bb ae 84 ab bb be 72 65 bb f6 0d 04 3a
       -0.0062018335 -0.0052343225 -0.0035011019 0.0005037481
000160 19 a0 ed bb b8 dc b1 ba a1 76 fc bb db f2 c1 bc
       -0.007251751 -0.0013569808 -0.0077045714 -0.023675373
000170 f2 5b 9e bc 14 11 de 3a 13 78 5a bc 48 fa ed 3b
       -0.019330952 0.0016942346 -0.013334292 0.007262502
000180 98 28 99 bb f4 d6 0a bc d3 62 82 bc d3 62 bc ba
       -0.0046740286 -0.0084741 -0.015916264 -0.0014372714
000190 f6 9b c0 b9 4a 11 83 bc f2 d2 15 bc ea e1 bf bb
       -0.00036737294 -0.015999455 -0.009144532 -0.0058557885
0001a0 58 54 2b bc 2c 47 92 bb 81 9d 8f bb 92 d0 e4 bb
       -0.010457121 -0.0044640508 -0.0043827896 -0.0069828713
0001b0 44 30 eb bb 38 73 0d bc 1e 78 b8 bb f4 5e 0c bc
       -0.0071773846 -0.008633427 -0.0056295535 -0.00856756
0001c0 69 74 6a bc d1 dc 65 bc d5 40 c7 3b 57 35 18 ba
       -0.014309981 -0.0140296975 0.0060807266 -0.0005806288
0001d0 c3 9b 0a bc 39 6e 72 bc ad 98 26 bc 0e 63 b2 bb
       -0.008459988 -0.014796787 -0.010168237 -0.005443937
0001e0 05 12 8a bb 71 9d 2b bc 16 87 fc bb 97 c9 68 bb
       -0.004213574 -0.010474549 -0.007706533 -0.0035520548
0001f0 6b c2 42 bc 02 70 07 bc a3 61 6c bb cc 94 82 bc
       -0.011887173 -0.008266451 -0.0036068938 -0.015940093
000200 0c 31 1e bc 8b 92 23 bc a1 4d 1c bb a1 ec d8 3a
       -0.009655248 -0.009983669 -0.0023849981 0.0016550013
000210 53 78 9e bc 5d 37 c6 bb 47 4c 94 bc e0 10 ae bb
       -0.019344484 -0.0060490803 -0.018102778 -0.0053120703
000220 65 4d 6d bc c8 fb d0 bb b2 8b ef bb 2f ef 8c ba
       -0.014483784 -0.006377671 -0.007310354 -0.0010752435
000230 24 2f 33 bc 70 fc 01 b9 1c d7 19 bc 78 30 09 bc
       -0.010936532 -0.00012396439 -0.009389665 -0.008373372
000240 2d a3 77 bc 9d f4 3c bc cb 4e 23 3b ed fe 98 bb
       -0.015114588 -0.01153293 0.002491879 -0.0046690614
000250 2a 14 a7 bb ed 51 97 bc e8 08 9f bb 7c 5e 31 bc
       -0.0050988393 -0.018471682 -0.0048533566 -0.0108257495
000260 7b 4e 87 bc 0c d4 86 bc 6f ef a6 3a 04 e5 c7 bb
       -0.016516915 -0.016458534 0.0012736152 -0.006100299
000270 d6 9d 1a bb e5 db 36 bb f4 7a 1a 3b 2b a7 b0 bb
       -0.0023592613 -0.0027902063 0.002357182 -0.0053910217
000280 80 d5 2d bb b0 c5 16 bc 1e ec b2 bb 0c b3 bd 3a
       -0.002652496 -0.009202406 -0.0054602763 0.0014472916
000290 9e da cd b8 d3 9a 34 bc 2d 23 80 3b c8 6c ee 3a
       -9.8158824e-05 -0.011023241 0.0039104433 0.0018190378
0002a0 c9 5d 14 3a a7 07 3e bc a1 38 29 bb 09 79 f5 bb
       0.0005659727 -0.011598504 -0.0025821107 -0.007491235
0002b0 88 03 26 bc a0 57 dc 3b 51 5e 09 3b 8a ad 86 bb
       -0.010132678 0.006724313 0.0020960758 -0.004110043
0002c0 1b cd 64 3b 83 1b 52 bc 9a 83 99 bc 74 9e 23 3b
       0.0034912291 -0.012823942 -0.01873951 0.0024966272
0002d0 aa 00 5c 37 ea d3 6e bc 44 be 0f bc 4c 69 29 bc
       1.31131765e-05 -0.014576891 -0.00877339 -0.010340046
0002e0 56 40 3a bb 8a 33 33 bc 51 90 0c bc 7d f3 3e bc
       -0.0028419695 -0.010937581 -0.00857933 -0.011654732
0002f0 5b 12 1b bc c0 27 34 bc d9 60 a5 bb 84 c5 48 bb
       -0.0094648255 -0.010995805 -0.0050469455 -0.0030635307
000300 68 c5 63 3b 7b fd 06 bc 44 ac a9 bb 2c bc e8 bb
       0.0034755114 -0.008239145 -0.0051780064 -0.00710251
000310 78 62 98 bb b4 c1 16 3b c9 03 32 3b d3 ce 11 3a
       -0.0046504103 0.002300364 0.00271629 0.000556213
000320 6f 8a f5 bb 0f 3f 17 bc be ad 41 ba 6e 34 9f bb
       -0.007493309 -0.009231343 -0.00073882553 -0.004858545
000330 7a 78 5b bc 9b bb fd ba e6 15 80 bb de b9 6f bc
       -0.013395423 -0.0019358279 -0.0039088605 -0.014631717
000340 32 f3 85 bb d2 8e 76 bb bc 3a dc bb 29 9d e6 b9
       -0.004087829 -0.0037621749 -0.006720869 -0.00043986112
000350 33 5d 38 bb dd ce 89 bc f3 0d a1 bb fa 8a b7 3b
       -0.0028131723 -0.016822273 -0.004914993 0.005601284
000360 50 fb 1c bc 3d e5 98 bb 49 84 06 bc a2 09 23 bb
       -0.009581402 -0.004665999 -0.00821025 -0.0024877568
000370 87 e0 6c bc b2 29 b5 ba 9a cd cd 3a 4a 6f 46 3a
       -0.014457828 -0.001382163 0.0015701533 0.0007569684
000380 1d f2 27 bc eb 2d 17 ba db df 86 bb 44 da 3c bc
       -0.010250595 -0.0005767035 -0.004116041 -0.011526648
000390 1c bf d6 bb 1c ff 6a bb 64 88 4f bc c3 d5 c4 bb
       -0.0065535437 -0.0035857623 -0.012666795 -0.0060069277
0003a0 cf 40 2e bc e4 b5 45 bc 93 3f d2 bc db 2c 19 bc
       -0.010635569 -0.012067292 -0.02566508 -0.009349073
0003b0 32 53 58 3b f6 32 88 bc cf 60 97 bc 4c 5e 94 ba
       0.0033008573 -0.016625863 -0.01847878 -0.0011319607
0003c0 68 90 00 bc a4 b7 03 bb 26 fe bb ba f6 2f 0c bc
       -0.007846929 -0.0020098472 -0.001434271 -0.008556357
0003d0 ee 32 22 bb cf 11 8d bb 73 ce f6 bb b2 4d 00 bc
       -0.0024749595 -0.0043051015 -0.007531935 -0.007831024
0003e0 6c cf 18 3b 21 25 c2 3b d2 8c 94 b7 d7 2d 17 bc
       0.0023316992 0.0059248363 -1.770855e-05 -0.009227238
0003f0 a7 81 70 bc 8d 8b 0b 3b c4 cc 5b bb d4 e6 f4 bb
       -0.014679349 0.0021292896 -0.0033538798 -0.007473806

network_body.linear_encoder.seq_layers.2.weight f4 [256, 256]
000000 46 ca 79 bc fe 27 ea bb 2f 28 2c 3d 6f 0b 90 bd
       -0.01524598 -0.0071458807 0.04203051 -0.07033431
000010 bb 9b ad 3d 93 45 92 bc 6c dd 51 3d bb 55 b9 bc
       0.08476969 -0.017855441 0.051236555 -0.022623887
000020 7a 06 43 bd 94 5a 95 bc f6 d7 c3 3c 9b 38 e3 bd
       -0.0476136 -0.018231668 0.02390669 -0.11094781
000030 bc 9f f2 bd c6 79 db bb 1e c4 2a 3c 30 0c 93 3c
       -0.11846873 -0.006697866 0.010422735 0.017950147
000040 ee be a8 bc ad a2 3d bd 5c 5a e3 bc a7 ae 20 3b
       -0.020598855 -0.046297718 -0.027753048 0.0024518163
000050 0d 07 4d bd ee 3e 12 be 6f a0 18 bd 89 58 18 bc
       -0.050055552 -0.14281818 -0.037262376 -0.009298452
000060 4c ba b1 bc c8 7f c1 3d 73 8a ed bd f2 90 ea 3c
       -0.021695279 0.094482005 -0.11598673 0.028633568
000070 94 4c 04 3d 76 10 82 bd 0f 60 b4 bd 08 f6 97 3c
       0.032299593 -0.06350796 -0.08807384 0.018549934
000080 51 ef 19 3d 59 cf 4a 3d f4 28 1c be ea f9 bf 3c
       0.037581746 0.04951415 -0.15249997 0.023434598
000090 f7 4f 05 bd 53 15 b5 bc 00 89 b7 bd 29 4a 09 3e
       -0.032546964 -0.022104895 -0.089616776 0.13407196
0000a0 e7 ad 92 3c 53 d0 cb bc 31 f4 99 bd 8a f8 8d 3d
       0.017905189 -0.02487961 -0.07517279 0.06932171
0000b0 b6 45 32 3d 8a d7 08 3d dd 2e a6 bd 10 58 71 bc
       0.043523513 0.03340868 -0.08114407 -0.014730468
0000c0 79 35 7f bd 09 06 3b bc 2a b5 58 bd ea ed ee 3c
       -0.062306855 -0.011415013 -0.052907147 0.02916618
0000d0 a1 c7 86 39 fa 01 21 3c e6 85 8a 3d fa c2 9a bd
       0.00025707207 0.009827131 0.0676382 -0.0755672
0000e0 0f bc 83 3c b6 41 b4 bc 09 c9 07 3d c5 12 13 3d
       0.016080884 -0.02200399 0.033150706 0.035906572
0000f0 45 5c c2 bc 46 af b4 3c 38 5a 28 bd b9 61 a4 bc
       -0.023725638 0.022056233 -0.041101664 -0.020066129
000100 23 03 5e bd 12 09 76 bd c9 20 31 3c ee 5c eb 3c
       -0.05420221 -0.060067244 0.010811039 0.028730836
000110 bd dc c9 bc 8b 92 63 bd 78 9f 7c bc a5 c4 1f bd
       -0.024641389 -0.055559676 -0.01541888 -0.039005894
000120 f8 a9 c8 bb f0 13 bb bd 0a 82 93 3c fe 9e 75 bd
       -0.0061237775 -0.09134662 0.018006343 -0.05996608
000130 4c f9 5a 3d a5 63 80 3d cd 03 68 bd 9a 3a e1 3a
       0.053460404 0.06269006 -0.05664425 0.0017183602
000140 f2 d8 9d bd f0 4d d8 bd 5f fb 3d 3d 24 ec a8 3d
       -0.07707395 -0.105617404 0.046382304 0.08248165
000150 88 7a bf bc a1 ba 94 bd 14 bf e1 3d 83 56 02 be
       -0.023373857 -0.07262159 0.110227734 -0.12728314
000160 9c 07 95 bb 84 11 c7 bd 30 45 19 bd fd cc ab 3c
       -0.0045480262 -0.09720138 -0.037419498 0.02097177
000170 60 ea 15 3c 66 38 b0 bc 5f 62 e4 bd 94 4c 96 bd
       0.009150118 -0.021511268 -0.11151575 -0.07338825
000180 62 2b 2f 3c 2a 73 cb 3d 5f f6 20 bd 1c 73 8a bd
       0.010691496 0.09934075 -0.039297458 -0.067602366
000190 40 f4 a8 bd 43 20 03 be b6 2f 44 bd 38 d8 b3 bc
       -0.08249712 -0.12805276 -0.047897063 -0.021953687
0001a0 51 74 2d 3c 2a e6 19 be c5 a2 b0 3d 01 50 9b bd
       0.010586814 -0.15029207 0.08624796 -0.07583619
0001b0 a8 83 af bc 5c ae 46 3d 5a d5 95 bd e1 0b 64 3d
       -0.021425083 0.048506126 -0.07316084 0.05567539
0001c0 06 4e 97 bb 3b da e7 3c d1 eb 89 3d cc 2e f1 bd
       -0.0046174554 0.028302303 0.067344315 -0.11776504
0001d0 83 6a 32 3c fc b3 0f bd 52 84 53 3c 39 b7 e4 3d
       0.010889652 -0.035083756 0.012909966 0.111677594
0001e0 4b 34 09 3d 9a ff 09 3c 55 cd 1f 3d 61 2f b0 bc
       0.033497136 0.008422757 0.03901418 -0.021506967
0001f0 51 f0 1e 3c a9 0d ad 3d ce f6 10 bd 0b 02 2d bd
       0.009700851 0.08449871 -0.03539162 -0.042238276
000200 0c db 50 3c 72 ed 07 3d 57 67 4e bd db 07 62 3c
       0.012747537 0.03318543 -0.05039152 0.013795818
000210 40 3c c7 3c 0c 75 22 3e 23 3c 49 3c 53 16 02 bd
       0.024320722 0.15864962 0.012282404 -0.03175957
000220 3f 73 29 3d f1 c5 69 3d 06 3a c0 bd 53 25 b4 3b
       0.041369673 0.057073537 -0.09386067 0.0054976135
000230 87 33 ad bd ae d1 5c 3c 77 63 5b bd e6 5a c2 bc
       -0.08457094 0.013477726 -0.053561654 -0.023724984
000240 30 fb 94 bd 9c a2 9a bd 9d 13 a2 bd b6 ac f5 bd
       -0.07274473 -0.075505465 -0.07913897 -0.119958326
000250 50 67 5e bb d3 48 e6 bd f4 62 53 bc 1a 5b 94 3d
       -0.003393609 -0.11244359 -0.01290201 0.07243939
000260 23 48 f3 bc 93 0d bf 3c 6a ac 90 bd c2 06 8a bc
       -0.029697483 0.023321902 -0.070641354 -0.016848926
000270 9c 5d 42 3d 63 57 0b be f3 10 3e bc 40 04 36 3b
       0.047452554 -0.13607554 -0.011600721 0.002777353
000280 36 55 a6 bc 34 c5 b0 bc 0a 56 05 bd 4b 1d 25 3d
       -0.020304304 -0.021578409 -0.032552756 0.04031114
000290 86 e3 d0 3c 97 0a 70 bc 4d 5c cc bc 49 84 a5 3d
       0.025499117 -0.014650962 -0.024946356 0.08081872
0002a0 2b f0 5c 3c a8 71 f1 3d a9 95 bf bc 7e d0 bf 3c
       0.013484995 0.11789256 -0.023386793 0.023414847
0002b0 f3 a6 d6 bd e8 ab 87 3d b6 ba 81 3c 6c de 62 3c
       -0.10481062 0.066245854 0.015836101 0.013846975
0002c0 ed 6a 68 bd 0c d0 30 bd 7a 3f c3 3c 40 a5 d1 3c
       -0.056742597 -0.04316716 0.023833979 0.025591493
0002d0 f0 00 8d b6 d8 a1 b2 bc 8e ef fc b9 81 32 08 3c
       -4.2022366e-06 -0.021805689 -0.00048243668 0.008312822
0002e0 a9 da 70 3d 28 d8 cb 3b 28 2d ca bd f8 83 9e 3d
       0.05880228 0.006220836 -0.09871894 0.07740015
0002f0 61 da 38 bd 1a 3f 9a bd 8a c4 ea bc 48 31 f8 bd
       -0.045130137 -0.07531567 -0.02865817 -0.12118775
000300 78 06 56 bd a9 69 84 bd 25 24 fd bd 0c 87 ea b9
       -0.052252263 -0.064654656 -0.1236041 -0.00044732576
000310 69 ca 02 3e 7a e9 da bd 53 89 87 3d ac 84 ca bb
       0.12772526 -0.10689063 0.066179894 -0.0061803665
000320 00 6f 27 bb 0f fc e7 3b 42 ff 88 3c ca 0d db bd
       -0.002554834 0.0070796083 0.016723279 -0.106959894
000330 23 6b af 3a 24 0f 38 3d 5d 4c 87 3c 52 2e bf bd
       0.001338337 0.044936314 0.016515905 -0.09335007
000340 72 aa 4c bb 8c bd c0 bd f8 6f fe bc 85 5d 10 bd
       -0.0031229523 -0.09411153 -0.03105925 -0.035245437
000350 94 dc 5b bd a0 3c bb 3a 7c c1 fe bb ba e6 c4 bd
       -0.053677157 0.0014285035 -0.00777453 -0.0961432
000360 63 d0 be bc 2c e5 58 bc 5f cd aa bd 24 01 37 bd
       -0.023292726 -0.013238233 -0.08339953 -0.044678822
000370 7e ad 09 bc f9 8a af 3d 43 12 1e bc df 26 b7 bc
       -0.00840318 0.08571429 -0.009647909 -0.022357402
000380 24 53 a1 3c a0 7c 38 bd 0c f1 10 bd 6c 97 80 bd
       0.019692965 -0.045040727 -0.03538613 -0.062788814
000390 57 a5 80 3b 98 a3 04 3e 4e c0 a0 bc 00 74 33 3e
       0.00392596 0.12953031 -0.019622948 0.17524719
0003a0 8d 5b 03 bd 9b e6 2a bd b3 31 55 bd 2c 0f eb bc
       -0.03206973 -0.04172383 -0.05204935 -0.028693758
0003b0 6b ef da 3d e2 f2 93 bd 58 eb 67 3c c0 a6 98 bd
       0.106901966 -0.072240606 0.014155231 -0.0745368
0003c0 8b 2e 6a bd d5 a9 ee 3b db 36 07 bc 69 35 cd 3d
       -0.057173293 0.007283429 -0.008252825 0.10019953
0003d0 f1 f7 0b 3d 7e 60 79 bd be c1 f3 bd 55 7c 2e bd
       0.034172002 -0.060883038 -0.11902188 -0.04259904
0003e0 81 c6 92 bd 05 3d d9 3c 44 da 26 be 33 d3 b2 bd
       -0.07166768 0.026518354 -0.16294199 -0.08731689
0003f0 8a 2b 0e bc 12 b7 ba bc 6f 06 83 bd d4 b0 97 3c
       -0.008677373 -0.022792373 -0.063977115 0.018516935
