config/results/Entry_reward06/PathFollowing/PathFollowing-1999945.onnx (onnx, 695646 bytes, 7 tensors)

action_model._continuous_distribution.log_sigma f4 [1, 3]
00000000: 838b 6a3d 41e3 053c 0bac 183d
0.057261955 0.008171857 0.037273448

action_model._continuous_distribution.mu.bias f4 [3]
00000000: bf92 1b3c e600 3dbb d009 153b
0.009495436 -0.0028839647 0.0022741444

action_model._continuous_distribution.mu.weight f4 [3, 256]
00000000: 1084 a1bc b4de 493a 1419 ee3a 43d3 bf3a
00000010: 222b cbbb e794 b7bb e4ab 103c c9da f13b
00000020: 4d89 bbbb 6c29 54bc 6049 e6bb f6af 9cba
00000030: e5ff 60bc 2197 243b 0389 18bc fd4e 853b
00000040: 6003 51b8 ba36 073c 9f0c 503b 0105 453c
00000050: d2fc 543b 49b3 6abc a41e b53c 7b31 f1bb
00000060: f588 86bb c3c3 90bc 5521 fdbb 6d07 173c
00000070: 05f0 473b 6a64 cb3a 64a5 bebc 2d17 25bc
00000080: c5c9 ebbc 7a33 c1b8 e188 573b 571b b2ba
00000090: 33b0 afbc 58cf 3a3b 64b9 5dbc 7bae 84bc
000000a0: a808 4abc d27f c7bb da5e 113c e7a9 00bc
000000b0: d36b febb 9224 e53b e027 e7bb 095d e3bc
000000c0: 0f4c 1cbb 53c7 97bb 9e07 2f3b 9862 11bc
000000d0: 1051 edbc c30c 96bc 8579 56bc f5f2 16bc
000000e0: fcc3 4c3a fa04 6bbc 71c8 b4bb dfd4 bebc
000000f0: aff4 9fbb 748f b53a 67fe 473c 6810 c5bb
00000100: b01f b8ba 33db 89ba 058a 06bb 18cd 61ba
00000110: 97d2 25bc c53e 86bc ffd5 14bc 9531 14bc
00000120: 82c0 713b 8477 3f3c 3c32 5c3b a255 7eba
00000130: a58a 793c 21cd 813b 4490 a93b 7eb6 003a
00000140: 6d28 90bb a273 3e3c 5203 f3bb eb48 60bc
00000150: 9953 8cbb 00a5 e4bc 5bb4 1b3c 2dfc 5bb9
00000160: 8132 ab3b ab2d 8a3b aa2d 973b 9b87 5dbc
00000170: 5096 2fbc 8cbe 6abb a0b5 19bc f144 2d3c
00000180: 989c 0c3c db65 9abb 1744 75bc 825b 20bc
00000190: ff4c 9c3c 3cca 89bb c70d 023c 33a4 d53b
000001a0: f08f 13bb c19f 39ba a257 73bc fdfb 51bb
000001b0: 8a50 d53b 0807 21bb abfc 413b 91da a2bb
000001c0: 3095 ddbb 521e e8bc 56bf 2ebc e514 93ba
000001d0: 23ed e8bb 5c99 843b a863 973a 3de5 2abc
000001e0: 2d69 22bc c874 f9b9 05f4 1e3b 4179 90bb
000001f0: 271b 02bb 1d6f e63b de03 0a3c 6278 aebc
00000200: 8d6e d8bb e5f9 033b 3e1e eb3c 055c 2d3c
00000210: 08f3 83bb 2150 03bb b75d 633b 00da 28bb
00000220: 5018 66bc 2873 1a3c 2b28 30bb ef10 ddba
00000230: 4442 18bc 8f4d 333c a877 21bc 8b73 01bc
00000240: 4882 1fbc dfbf 773b 1a07 173c 745c 703c
00000250: 940d bfba 42cf 05bc 17dd d9bb 1aa3 c1b9
00000260: a3d0 c3bc fe45 7fbc 20d7 6a3c 7b28 a8bc
00000270: 50a2 963b 7797 23bc fdfc 2dbd 41b7 02bd
00000280: d266 3b3c 5e03 82bc 6633 b93b 7287 48bb
00000290: b7b8 92bc 689c ab3b 3c92 18bd 4eb3 d439
000002a0: dc72 383c 07cc 453b b9d8 173c cc84 483c
000002b0: 4132 6fbc 259b c2ba 6527 1f3b d7a0 9f3b
000002c0: a1e8 1fbc 3324 33bc 1d51 79bb 6bda 643c
000002d0: 761f b3b9 34b1 2abc b31a 70bb 1acb 31bc
000002e0: 9f1c ca3b e5e2 e6bc b8af 1bbc 6080 0abc
000002f0: 2386 d2bb baaf 40bb 95d2 80bb 684f a4bb
00000300: afdf 1cbd 8b4a 733a 0212 96bb 4b99 af3b
00000310: b715 533b 1745 e83b 2150 48bb 5079 9ebb
00000320: a595 03bd 465b beba 784a d5bc aec0 ea3b
00000330: eb0b a83a 9c2c d43b 1358 dfba 5c88 19bb
00000340: 6616 9b3b b6fd 643c 1cfd 35bc 7896 493b
00000350: a4ff 823b e052 0abc 84b6 40ba e723 753c
00000360: 4718 463b 9da1 edbb 5b5b c8bc f137 1739
00000370: fac9 3bbc b800 973b 61c6 233c 7d6a 163c
00000380: 6afa 013c 8dba adbb 5ba3 b1ba c1c6 f33b
00000390: 8fd7 153c a7e9 2fbb f4d6 0abc 1c6a f33b
000003a0: c65f 3bbb 1616 f5bc 7a48 d8bb 8c6f 8f3a
000003b0: 094c 86bc 4a75 a3bc 271c 88bc ef9f d73b
000003c0: 0e7f 2abc efcb ec38 8827 243c b720 073c
000003d0: c498 fbbb eb88 8dbc 6d10 ffbb 6272 413b
000003e0: e976 04bb 088c 353b 3bfe 8d3c 10b1 c839
000003f0: 9c2f 8ebc 4389 673c c1d2 d4bc 3c74 8f3c
-0.019716293 0.0007700727 0.0018165433 0.0014635104 -0.00620021 -0.0056024673 0.008830044 0.0073808176
-0.0057231546 -0.012949329 -0.00702779 -0.0011954296 -0.013732885 0.0025114494 -0.00931001 0.004068254
-4.9832626e-05 0.008252794 0.0031745804 0.012025119 0.0032499325 -0.0143249715 0.022109337 -0.007360635
-0.004105682 -0.017671471 -0.0077249208 0.009218079 0.0030508053 0.0015517597 -0.023272224 -0.010076326
-0.028782735 -9.2125454e-05 0.0032887983 -0.001358847 -0.021446323 0.0028504934 -0.01353297 -0.01619648
-0.012331165 -0.0060882354 0.008872712 -0.007853008 -0.0077643185 0.006992885 -0.007054314 -0.027754324
-0.0023849045 -0.0046319156 0.002670742 -0.008873604 -0.028969318 -0.018316632 -0.013090496 -0.009213199
0.00078111864 -0.014344448 -0.0055170585 -0.023294864 -0.0048814635 0.0013851956 0.01220665 -0.0060139187
-0.001404753 -0.0010517597 -0.0020529043 -0.000861363 -0.010121009 -0.016387353 -0.009084224 -0.009045024
0.0036888425 0.01168621 0.0033599278 -0.00097020913 0.015230809 0.003961221 0.0051746685 0.0004910006
-0.0043993504 0.011624249 -0.0074161673 -0.01368926 -0.0042824266 -0.02791071 0.009503449 -0.0002097941
0.0052245264 0.00421687 0.004613598 -0.0135211 -0.01071699 -0.0035819141 -0.009381682 0.010575519
0.008582257 -0.004711849 -0.014969847 -0.009787442 0.019079683 -0.0042050164 0.007937855 0.006519818
-0.0022516213 -0.0007080995 -0.014852436 -0.0032041066 0.006509845 -0.0024570841 0.0029600065 -0.004969903
-0.0067621693 -0.02833477 -0.010665735 -0.0011221437 -0.007108347 0.004046602 0.0011550086 -0.010430631
-0.009912771 -0.0004757999 0.0024254334 -0.004408986 -0.001985261 0.0070322887 0.008423774 -0.021297637
-0.0066049756 0.0020137962 0.028700944 0.010581021 -0.0040267743 -0.0020036774 0.003469331 -0.0025764704
-0.0140438825 0.009426869 -0.002687941 -0.0016866009 -0.009293143 0.010943784 -0.009855188 -0.007901083
-0.009735651 0.0037803573 0.009218002 0.01467048 -0.001457619 -0.00816709 -0.0066486704 -0.0003693335
-0.023903197 -0.015580652 0.014333516 -0.020527115 0.004596986 -0.0099848425 -0.042477597 -0.031913046
0.0114380885 -0.015870746 0.005651879 -0.003059831 -0.017910345 0.005237151 -0.037248835 0.00040569383
0.011257853 0.0030181424 0.009267979 0.0122386925 -0.014599384 -0.0014847262 0.0024284956 0.0048714685
-0.009760053 -0.010933924 -0.0038042732 0.0139680905 -0.0003416498 -0.010418225 -0.0036637008 -0.010851646
0.0061679627 -0.028184364 -0.009502344 -0.008453459 -0.0064246817 -0.0029401616 -0.0039313533 -0.005014349
-0.03829926 0.0009280822 -0.0045797834 0.00535885 0.0032208988 0.0070883143 -0.0030565339 -0.004836239
-0.032125134 -0.0014523051 -0.026036486 0.0071640825 0.0012820935 0.0064750444 -0.0017039798 -0.0023427224
0.0047328947 0.013976505 -0.011107709 0.0030759852 0.00399776 -0.0084426105 -0.00073514157 0.014962173
0.0030226873 -0.007251932 -0.024457624 0.00014421322 -0.011461729 0.00460824 0.009996028 0.009180662
0.0079332385 -0.0053017796 -0.0013552712 0.007439465 0.009145631 -0.0026842149 -0.0084741 0.0074284207
-0.002859102 -0.029917758 -0.0066004368 0.0010943278 -0.016393678 -0.019953389 -0.016614987 0.006580345
-0.010406269 0.000112913425 0.010019191 0.008247546 -0.007678123 -0.017277202 -0.0077839405 0.002951764
-0.0020212478 0.0027701873 0.01733314 0.00038278894 -0.017356686 0.014131847 -0.025979402 0.01751148

network_body.linear_encoder.seq_layers.0.bias f4 [256]
00000000: 40ee 6c39 bfcb 77bc 91c4 9bba 456c 9f39
00000010: 2ac1 213b 2cf7 08ba b806 27bb f653 bebb
00000020: 4121 28ba f18a 37bc 3c9b 01bc 1ede 09b9
00000030: 31b1 3dbc 67b7 19bc b9cf 46b9 dcf7 fbbb
00000040: ee2d 05bb a258 1abc 7127 cdba 8e6f fbbb
00000050: 20b3 1abc 9ac9 49bc 0293 19bb d671 16bc
00000060: 87c4 10bc ce59 4bbc 9829 50bb 1900 9dba
00000070: 1df0 cbbb d357 2f3b e18f 653a 07cf 13bc
00000080: 2b8f 04bb dff5 603a baf4 843b e908 82bb
00000090: c7f8 783b c54f 85bb 376f b7bb ba70 01bc
000000a0: f9ec adbb b863 04bb d569 5dbb f676 d7bb
000000b0: 845b 2dbb c7b7 79bc e657 7f39 5b65 573b
000000c0: 651c 3b3b 0a9e 20bb 47e2 743a 6807 8236
000000d0: 2b4e 073b f804 34bc 25a6 773a 253e d8bb
000000e0: 8275 e5bb 6acf a3bb 26c4 cd3a 2282 acba
000000f0: 9606 4aba 2603 68bc 7d97 8ebb d98b 9abb
00000100: 826f 023b 9dee 0fbc 4570 fbbb 8d95 9c3a
00000110: 36e5 d8bb e072 97bb ff95 f5bb 6d78 10bc
00000120: f9b2 af3a d6c5 09bc 450b 59bb 255f 36bc
00000130: bd1a afbb a66a 783b 668e 73bb 7350 63ba
00000140: e28c 1fbc 5c3e 54bb 3e15 433b 6ce3 b3bb
00000150: e18e acba 276c 2c3b 13e8 40bc 2a0a 80bb
00000160: e990 bdbb 7c19 18bc 778c fdbb 3c21 b93b
00000170: aef8 00bb c71b a2ba 6e72 90b6 f335 27bc
00000180: 4f7e 4f3b 192b 00bc 95fe 91bb 2deb 36bb
00000190: 913a 09b9 ae8e 16bb 038d 6cbb c53b 33bc
000001a0: 78b9 10bc ca05 00bb 4e5b bebb ad32 10bc
000001b0: 069f 08bb 0ca3 28bc 50df 063b 89b1 2fbc
000001c0: b397 28bc 34fc a4ba 8530 10bb 609c 17bc
000001d0: 2321 aebb 6d41 21bb 4cf3 23bc 139a 59ba
000001e0: 53ef d2ba dee1 84bb 34a8 ebbb 6f68 2639
000001f0: 42aa 3dbc d7fa 46bc 4a49 34bb 2b5f cebb
00000200: 9243 8abc 5ce1 09bc 5f72 b4bb 7a10 9fbb
00000210: 14cc cdba 6b28 a8ba 6f1f 35bc 5672 dd3b
00000220: 9914 2abc 3ebf 57bc 3169 9eba 6695 39bc
00000230: 350c afba 34b3 453b 48f2 57bc d85b 2ebb
00000240: 5f9f 3ebc 314a acbb 343c efba 2895 54b9
00000250: cb0e cb3a 5ee5 4abc cedf c137 07d1 043b
00000260: 0b4a aebb 233b 03bb c995 0dbb 9ab2 18bc
00000270: eb69 f8bb b937 873a 0c92 00bc 087d 9a38
00000280: 624e edbb 854b 3ebc b38a 9cba 798f dabb
00000290: bd76 45bc 3f99 b8bb 41cb 8739 87b6 06bc
000002a0: 2ef3 d0bb 99de 863a d199 28bc c0e5 c2bb
000002b0: 0a70 98bb 5d5f bd3a 111f 03bb 6de2 04bb
000002c0: ace0 87bb 0742 0fbb 95f8 013c ca47 35bc
000002d0: 3205 3bbc 51e1 e4bb 1909 daba bebf 34bc
000002e0: 2966 863b e4de 85bb 3eef 8bbb 43f8 4238
000002f0: b297 83bb 9777 ffbb 28cb d8bb 7f71 2abb
00000300: b947 9ebb 937a 30bc 69af 143a f0ab a3bb
00000310: e759 2abb 9c99 11bc 560a 88b9 4056 13bc
00000320: c1a4 fd3a 47d6 363b 8280 07bc c509 e8bb
00000330: c0b6 f3bb 925c e1bb a3cc d8bb da7f ab3b
00000340: c192 c1ba dbb8 99bb fd09 83bc 000a 2fbc
00000350: 189a 9dbb c53b 993b d4ed 72ba 1d47 a5bb
00000360: 7f86 7a3a e888 2cbc c4dc 3bbb 81fa 4bbc
00000370: 3a77 83b8 47e4 e8ba 3297 7bbb 787d 6ebc
00000380: 35cb 9dba cd0d 6cbb 948f 54bb 3fc2 f3bb
00000390: d1a0 0fbc 884d 15bc 1415 dcbb 82a6 94ba
000003a0: 720a 3cbc 5643 30bc 6e67 2439 7500 d0ba
000003b0: 82a0 0fbc fb7c 34bc 195d 17bc f024 20bc
000003c0: f215 7fbb a242 4ebb 1c34 6ebc ec3a e1b9
000003d0: 3f5d abbb 9d4b 13bc 516a 42bc ab29 40bc
000003e0: 45ce 53bb be44 8ebc 05a0 6e3b 42fe c03b
000003f0: 0048 69bc 7c24 1dbb 3405 a4bb 0dce c7bb
0.00022595469 -0.01512426 -0.0011884143 0.0003040751 0.0024681785 -0.000522482 -0.0025486182 -0.005808349
-0.00064136466 -0.01120256 -0.007910546 -0.00013148083 -0.01157789 -0.009382105 -0.00018960134 -0.0076894592
-0.0020321566 -0.009420546 -0.0015652013 -0.0076732105 -0.009442121 -0.012316132 -0.002343357 -0.009182414
-0.008835918 -0.012411548 -0.0031763073 -0.0011978179 -0.006223692 0.0026755228 0.00087570964 -0.009021527
-0.0020226936 0.00085815595 0.004057494 -0.0039683473 0.003799008 -0.004068347 -0.0055979746 -0.007900411
-0.0053077904 -0.0020201039 -0.0033785005 -0.0065754605 -0.0026452253 -0.01524157 0.0002435144 0.003286681
0.002855086 -0.002450826 0.0009341579 3.875164e-06 0.0020645957 -0.010987513 0.000944706 -0.006599205
-0.0070025334 -0.004999091 0.0015698716 -0.0013161341 -0.000770667 -0.014160907 -0.004351555 -0.004716378
0.001990289 -0.008784917 -0.0076732957 0.0011946425 -0.006619121 -0.0046218485 -0.0074946876 -0.008817774
0.0013404778 -0.008408984 -0.003311829 -0.011131083 -0.0053437636 0.0037905364 -0.0037163734 -0.00086713507
-0.009738179 -0.0032385802 0.00297673 -0.0054897573 -0.001316514 0.002630958 -0.011774081 -0.0039074617
-0.005785097 -0.00928342 -0.007737692 0.005649714 -0.0019679475 -0.0012367897 -4.304856e-06 -0.010205734
0.003166098 -0.007822775 -0.0044553974 -0.0027911172 -0.00013087156 -0.0022973227 -0.0036094792 -0.010939543
-0.008833282 -0.00195347 -0.005809224 -0.008801145 -0.0020846738 -0.01029278 0.0020579882 -0.01072348
-0.010290074 -0.001258737 -0.0022001576 -0.009253591 -0.005314009 -0.0024605647 -0.010006737 -0.0008300852
-0.0016093053 -0.004055246 -0.0071916822 0.00015869898 -0.011576237 -0.012144766 -0.0027509504 -0.006297966
-0.016877923 -0.008415546 -0.005506798 -0.004854259 -0.0015701079 -0.0012829428 -0.011054858 0.0067580147
-0.010380887 -0.013168154 -0.0012085793 -0.011327123 -0.0013355078 0.0030166628 -0.013180323 -0.0026605036
-0.011634677 -0.0052578677 -0.0018252195 -0.0002027346 0.001549208 -0.012383787 2.311161e-05 0.0020266192
-0.005318885 -0.0020024262 -0.0021604171 -0.009319926 -0.007580986 0.0010316289 -0.00784732 7.366581e-05
-0.00724201 -0.011614685 -0.0011943191 -0.0066699353 -0.012052235 -0.0056335027 0.00025900643 -0.008222229
-0.0063766455 0.0010289728 -0.010290579 -0.0059477985 -0.004652028 0.0014447976 -0.002000753 -0.0020276562
-0.004146656 -0.0021859424 0.007932802 -0.011064479 -0.011414813 -0.0069848676 -0.0016634791 -0.011032043
0.004101534 -0.0040854085 -0.0042704633 4.6484416e-05 -0.004015886 -0.0077962386 -0.006616015 -0.002600759
-0.0048303274 -0.0107714115 0.000567189 -0.004994862 -0.0025993527 -0.008886721 -0.00025947642 -0.008992732
0.0019351469 0.0027898715 -0.008270385 -0.0070812427 -0.007437557 -0.0068774903 -0.0066161915 0.005233747
-0.0014768468 -0.004691226 -0.015995974 -0.0106835365 -0.004809629 0.0046763145 -0.00092670065 -0.0050438778
0.00095567846 -0.010530688 -0.0028665522 -0.0124498615 -6.2687745e-05 -0.0017768227 -0.003838968 -0.014556281
-0.001203871 -0.0036018968 -0.0032434212 -0.0074389274 -0.008766369 -0.009112723 -0.00671638 -0.0011341127
-0.0114771 -0.010758242 0.0001567879 -0.0015869277 -0.008766295 -0.011016126 -0.009238505 -0.009774432
-0.0038922993 -0.0031472822 -0.014538791 -0.00042959244 -0.0052296217 -0.008990196 -0.011866168 -0.011728684
-0.003231899 -0.017366763 0.0036411297 0.005889685 -0.014238358 -0.0023978045 -0.005005503 -0.006097561

network_body.linear_encoder.seq_layers.0.weight f4 [256, 416]
00000000: 6c0b efbb 78e1 db3d 2855 813b f011 18bd
00000010: 903c 7fbc 1ff9 1c3d cc9b fdbc d0b7 733c
00000020: f592 fa3c 6c3d 34bc 2e77 6a3d 8c53 a6bc
00000030: 3a39 93bb e756 c63c 6da6 e33c f9bb 893d
00000040: c1d4 a03c 6e0c 9dbc dae3 80bd fb0e f63d
00000050: 7cf9 1fbc db08 adbc 64d7 71bd 6f99 8abc
00000060: e272 9cbc a964 87bd 459e 74bc 5671 853d
00000070: 35da 9e3c 33b7 ba3a cc84 71bd ff33 11bc
00000080: 1890 5cbd 69e4 9e3d 30ff 7cbd 1c91 2d3d
00000090: a9d6 f2bc d3fc bbba 4624 ac3c 2c2a 2e3d
000000a0: 003c 35bd 7a9a a3bc 8a43 3dbd a145 403d
000000b0: 8710 92bd ed27 503d 66cb ddbc 77fd 5dba
000000c0: 2945 9ebc 75c1 92bd f958 36bd 313f 49bd
000000d0: 5aca 113c fa8f 17bd 8bba 78bd 0386 a2bc
000000e0: dc36 fb3c 55f6 6fbd d2d4 10bc a30b b73d
000000f0: 6b73 8a3c 701b 9bbd 844c d8bc 528a d53d
00000100: a16f fc3b e260 df3c f5d5 a43c dadc 61bd
00000110: dc66 8abd cde9 5b3c 0729 20bc d32b 053c
00000120: 71ec 78bd 0431 eb3c aa70 bd3c 8c65 af3b
00000130: a027 b23d 5996 da3c 9d6f d33b b7a9 143d
00000140: c1ae 31bd 30b4 0fbd a252 1e3d 5a49 5a3d
00000150: ef7b c7bc 6e45 443d 19f0 1dbd ff6b 7b3d
00000160: 00a6 073d aa60 e13c 9554 d3bc e31e 673d
00000170: ed89 ffbc c220 66bd 2efb 16bd 8c18 95bc
00000180: 581f 9bbd 9304 03bd 690f d13c f61f 813d
00000190: f92e 433c 55a6 973b cabc 48bd 5771 833d
000001a0: 8b63 153d b22b b13c ea5b fb3c 459a 6cbd
000001b0: b579 19bd 5362 663c c739 5dbd d414 f1bc
000001c0: 543c 5e3c 2d5c c73b 8218 0abc 5e99 703c
000001d0: fe8d 5e3d 2288 a23c cc41 b23c 7fb7 d1bc
000001e0: 6074 a8bd 4637 143d ea87 ee3c 65c0 97bc
000001f0: 9dbf 343d f830 9b3c 05f1 a7bb d581 53bc
00000200: 0f13 a2bd 3339 94bd a3e0 62bd e726 2f3d
00000210: d9bd 93bc 8e65 853b 19c9 45bd 08e4 1c3d
00000220: fbfe 1bbd c287 f03d 19b9 173d df2a bfbd
00000230: d1b2 0b3d 6c31 0ebd c3b3 09bd c9ca 92bc
00000240: 203a e73c f03c 6bbc 385e 50bd d075 183d
00000250: aa7c 00bb ec6f 42bd dd1f 75bc d1da 3abd
00000260: b7ac c63d 5368 a23c 447a 83bc a062 89bd
00000270: 6838 91bc 109b 5f3c 1ed1 fd3c 441d 8abd
00000280: 24a6 eabb e7cb e1bc f4a1 c53d 0f71 aebd
00000290: b19e a63c 2a38 343d 278d b2bd aac8 d8bd
000002a0: 28e9 a83b e362 253d 7b75 ce3d 5d2b cb3c
000002b0: 0e08 46bd 5b19 a7bd 478d 803c 6ad0 0b3d
000002c0: 7924 aabb 364f be3c d540 01bb 016e 03bd
000002d0: af14 883d adfd 91bd 9639 133d 7601 93bd
000002e0: efa9 1cbb f3cb 88bd 0a6f 2bbd acf3 8a3c
000002f0: 96ae 0bbd 9463 8e3d 1d36 b53d 08cd ce3c
00000300: 809f 143c a1a6 5d3d f888 543d 62f5 073c
00000310: 28dd c4bd 6eb3 f6ba e21c 413d 03de 41bd
00000320: 57eb b33c afa7 04bd c285 2a3d 09c7 583d
00000330: f007 eebc 681c 8a3c db44 783c 911f 09bd
00000340: 60ff eabc e9ea 42bd de54 7b3d cb5a bc3c
00000350: ddf9 77bb 6548 d83c b645 fb3c a456 9fbc
00000360: 47e9 543d 17ca df3d 69d6 6b3d a349 7bbc
00000370: 1632 e43b 61c7 64ba 1a12 0a3c 46a5 04bd
00000380: aa1d bdbb 5113 2abd dca6 c8bc 4bbe 343c
00000390: 8a52 0abd a10b 3d3d bd18 e3bc 003c c9bc
000003a0: d11a 9f3c 15d5 4cbd 5408 983d 8687 b63d
000003b0: bbc0 973c 4b80 febd 3d32 bd3a b420 6c3d
000003c0: d44d 563d e089 c53c 99d9 fa3c 520a 9b3b
000003d0: 2044 9c3d f6f8 aebc 65b7 28bd aeb7 af3d
000003e0: 6cfc fd3c bd23 573d 999b 72bd d42f 993d
000003f0: ad74 a6bd d0a4 613c 3304 82bb 83bd ddbc
-0.0072950628 0.10736364 0.003946919 -0.03712648 -0.015578404 0.038323518 -0.030958079 0.014875367
0.030587653 -0.011000972 0.057242565 -0.02030351 -0.004492906 0.02421136 0.027789319 0.06725306
0.019632699 -0.019170966 -0.06293459 0.12014576 -0.009764072 -0.021122387 -0.059043303 -0.016918866
-0.01909775 -0.06610996 -0.0149303125 0.06515758 0.019391159 0.0014245271 -0.058964536 -0.0088624945
-0.053848356 0.077584095 -0.061766803 0.042374715 -0.029643374 -0.0014342315 0.02101339 0.042520687
-0.044246674 -0.019971121 -0.04620699 0.046941403 -0.071320586 0.050819326 -0.027074527 -0.000846825
-0.019320088 -0.07165805 -0.044518445 -0.04913253 0.008898342 -0.03700254 -0.060724776 -0.019839292
0.030665807 -0.05858453 -0.008839803 0.089377664 0.016900739 -0.07573593 -0.026403673 0.10426773
0.007703737 0.027267877 0.020121554 -0.05514226 -0.067579 0.013422442 -0.009775407 0.008128124
-0.060772363 0.028709896 0.023125011 0.0053526815 0.08698964 0.02668302 0.0064525143 0.036294665
-0.04337955 -0.03508395 0.038653024 0.05329261 -0.024351088 0.047917776 -0.038559053 0.06138229
0.033117294 0.027511913 -0.025797168 0.05642594 -0.031193698 -0.056183584 -0.036860637 -0.018200181
-0.07574338 -0.031986784 0.025520043 0.06304924 0.011913055 0.0046279826 -0.04900817 0.06418102
0.036471885 0.02162728 0.030683476 -0.05776431 -0.037469584 0.014061528 -0.05401018 -0.029428877
0.013564188 0.0060839863 -0.008428695 0.014685003 0.054334633 0.019840304 0.02175989 -0.025600193
-0.08225322 0.036185525 0.029117543 -0.018524358 0.04412805 0.018944249 -0.0051251673 -0.012909372
-0.079137914 -0.072374724 -0.05539001 0.04276171 -0.018034862 0.004070944 -0.048287485 0.038303405
-0.038084965 0.11744644 0.037041757 -0.09334349 0.03410608 -0.0347151 -0.0336187 -0.017918961
0.028225958 -0.01435779 -0.050871104 0.03722173 -0.0019605556 -0.04747002 -0.01496121 -0.045618836
0.097009115 0.019825136 -0.016049512 -0.06708264 -0.017727092 0.01364781 0.030983504 -0.06743863
-0.007160919 -0.027563049 0.09650031 -0.08517658 0.020339342 0.043998875 -0.08718329 -0.10585149
0.0051547475 0.04037751 0.10081001 0.02480095 -0.048347525 -0.08159133 0.015692366 0.034134306
-0.005192336 0.02323113 -0.001972248 -0.03208733 0.0664457 -0.07128463 0.03594359 -0.07178013
-0.0023905 -0.06679525 -0.041853942 0.016961895 -0.034102045 0.06952587 0.08848212 0.02524425
0.009071231 0.054113988 0.051888436 0.00829825 -0.09612495 -0.0018821785 0.047146685 -0.047330867
0.021962805 -0.032386478 0.041631468 0.05292419 -0.02905652 0.016859248 0.015153135 -0.03347737
-0.028686225 -0.04758731 0.061360233 0.022992512 -0.003783814 0.026401708 0.03067289 -0.019450493
0.051980283 0.109272175 0.057577524 -0.015337381 0.0069639785 -0.00087272195 0.008427167 -0.03238418
-0.0057713585 -0.041522328 -0.024493627 0.0110316975 -0.03377012 0.04615367 -0.027721757 -0.024564743
0.019421967 -0.0500079 0.074234635 0.08912568 0.018524518 -0.12426814 0.0014434528 0.057648376
0.052320316 0.024113595 0.030621337 0.004731455 0.07630181 -0.021358948 -0.041190524 0.08579956
0.031004153 0.052524317 -0.05923042 0.074798256 -0.08127723 0.0137722045 -0.0039677857 -0.027067905

network_body.linear_encoder.seq_layers.2.bias f4 [256]
00000000: 0015 c8bb 646e b9bb dc5c b9bb 13cf 363a
00000010: af5e 8eba 9f08 17bc 3371 79bb f4df 0bbc
00000020: 5331 70bb 6250 0ebc e412 e73a 952b dfbb
00000030: 581d fbbb 19fd 38bc d8e2 43bc e4a0 06bc
00000040: 8b71 24bb 83f3 0fbb 7e78 12bc bc0b 6ebb
00000050: 4413 49bb e143 3cbb dba5 ae3b c016 3a3b
00000060: f246 5dbb ee7e e9bb e850 79ba 9429 ab3b
00000070: 8474 cfbb 379a 52ba 1601 21ba fe13 44bc
00000080: c0ee b2bb 4607 a33a 9b2e 70bc 525a cdbb
00000090: 0afa 4fbb 50ba 48bc 80ba b5b9 1f17 16bc
000000a0: 6516 99bb 1041 4fbb dae7 4abb 9bac 8cbc
000000b0: afce 9ebb 017c efba e97a c5bb c12f dbbb
000000c0: 1125 2ebc 61dd 11bc c4bb 4c3a 9752 d8ba
000000d0: aa42 b0b7 7efd d8bb 9510 3bbc f01d b1ba
000000e0: 4d7a 21bc ee31 48bc be96 4dbc 6d20 3bbc
000000f0: 0b83 2fbb ce7a 06bb 1777 a03a ec00 a33b
00000100: 54fb efba 57e2 40bc b2f2 eabb 1a66 79bc
00000110: 5380 a3bc fa4a 3fbc 5c54 42bc 2788 a03b
00000120: ddcb 90bb a4c1 32bb f6f2 89bc 530e 28bb
00000130: aa1a 40ba af59 54bc 53c4 02bc cf4a 18bc
00000140: d97f 343b 02fb 92bb db26 c6bb f9d6 54bb
00000150: 9030 71bb 4ae1 53bb f1c6 36bb 791a c3ba
00000160: 7d89 b4bb b595 fcb9 d053 0dbc 9ade 62bc
00000170: 85fa 2bbc ed3d 543b c434 2abc 7ce4 cd3a
00000180: c22c a8bb 1ee7 10bc 99e4 15bc cefd 00ba
00000190: ac3a 4138 6c09 60bc 4e25 eebb adb8 d5bb
000001a0: 8a17 3fbc 4160 b9bb 66b1 f2ba b8ff dbbb
000001b0: 25fc a7bb 989e f1bb 768b 1cbb e640 08bc
000001c0: 1690 4fbc 70c7 d5bb a3b5 303b 33c7 eeba
000001d0: 8292 11bb 40ab 6cbc 2af5 d5bb 24df 6fbb
000001e0: 2a4f 91bb bd9a 03bc 8ef1 e5bb 63ba c3bb
000001f0: 8c19 2abc 5f52 d8bb 1a7a 7bbb e5a0 97bc
00000200: af22 a3bb 9768 e2bb c8be 04bb 7db9 943a
00000210: 2cb4 85bc ae42 ffba 3096 73bc 55f0 b9bb
00000220: d26b 3cbc 70c4 c1bb 2b82 7fbb 7110 14bb
00000230: 1984 16bc dc94 10ba 7161 76bb 18e8 e6bb
00000240: d932 91bc 4ef5 12bc 63d3 6f3b e79d 9ebb
00000250: e058 babb 47c3 97bc 3878 3abb f897 ddbb
00000260: b948 94bc 13b0 52bc d164 c739 00bd 0fbb
00000270: 09c5 c7ba fddd d7bb a65c c73b 6597 11bb
00000280: 46ff caba 5e26 94bb 32b6 c9bb 44f5 993b
00000290: 6fd2 d7b9 a5c4 30bc 339d b43a d89a 253b
000002a0: c6a7 173a 744d 15bc d3b3 dbba 6a2b 47bb
000002b0: 70dc 3fbc 02ea 593b c42a 593a c29e 8dbb
000002c0: dbbd 3eba c2e4 08bc 78bc 2abc 7b09 833b
000002d0: beb3 03ba 476d 2dbc 2da2 f3bb 19ee edbb
000002e0: 4ce6 67bb 70d1 25bc dbf3 fdbb edff 1ebc
000002f0: 929e 91bb 02e0 0ebc b172 b5bb fa1e 09ba
00000300: 2236 b839 8808 1cbc 84a5 99b9 43bb b6bb
00000310: 061e e9ba 312c e63a e1ef 953a 7fdd 023a
00000320: b1fd 9eba a4f5 41bc d7fe 203b b81a 70bb
00000330: 0792 1ebc 71a0 41bb 01e0 c3bb 2dec 84bc
00000340: 3e5d 91bb d849 17bb c18d bcbb 7070 043b
00000350: ef9c bbba 607e 53bc 44d0 e7bb a207 a13b
00000360: 09ae 9cbb 5965 a6bb b5f8 cbba e293 d5bb
00000370: f28b 8bbc a186 b4ba 5676 073a 351d 0d3b
00000380: 3ab0 21bc c527 aabb 414f 3ebb d6dc 1ebc
00000390: 98fb a6bb 1838 d0bb 03d2 4fbc 8dcc b4bb
000003a0: 7af0 44bc 9ae4 54bc e1bc 8bbc 328c debb
000003b0: 8c92 f63a 2ba1 28bc 721b 35bc 9a76 0b3b
000003c0: 74d6 11bc b6dc 4abb ebb7 f0ba 0b7f c8bb
000003d0: 83cc 8dbb 04b0 8bbb f7f9 96bb 5da8 a9bb
000003e0: 1edf 13ba 52b9 813b cef9 00ba 0155 37bc
000003f0: 5cf0 2bbc 0b20 783a ae3d 0b3a 1cfe 87bb
-0.006106019 -0.0056589115 -0.0056568217 0.00069736055 -0.0010861958 -0.009218364 -0.0038061857 -0.008537281
-0.0036650493 -0.008686157 0.0017629531 -0.0068106153 -0.00766341 -0.011290812 -0.011955939 -0.00821707
-0.002509209 -0.0021965213 -0.00893986 -0.0036322912 -0.003068165 -0.0028726982 0.00532983 0.0028394908
-0.003376421 -0.007125727 -0.0009510652 0.0052234624 -0.0063310284 -0.0008033844 -0.00061418244 -0.011967657
-0.00546059 0.0012438081 -0.014659549 -0.0062668705 -0.0031734728 -0.012251452 -0.00034661964 -0.009160786
-0.004671859 -0.0031624474 -0.0030960948 -0.017172148 -0.004846416 -0.0018271209 -0.006026615 -0.0066890423
-0.0106289545 -0.0089028785 0.00078099617 -0.0016504106 -2.1011878e-05 -0.0066220155 -0.011417528 -0.001351295
-0.009855819 -0.012218935 -0.012548147 -0.011421305 -0.0026780989 -0.0020519975 0.0012242523 0.004974475
-0.0018309155 -0.011772714 -0.007170045 -0.015222097 -0.01995865 -0.011675591 -0.011860933 0.004899043
-0.0044188336 -0.0027276063 -0.016839486 -0.0025643304 -0.0007328192 -0.012960835 -0.007981378 -0.0092951795
0.0027542023 -0.004485489 -0.0060471124 -0.0032476767 -0.0036802627 -0.0032330328 -0.0027889574 -0.0014885209
-0.005509554 -0.00048176726 -0.0086259395 -0.013847018 -0.01049674 0.0032385543 -0.010388557 0.0015708352
-0.0051322887 -0.008844165 -0.00914874 -0.00049206323 4.606943e-05 -0.013674121 -0.0072676307 -0.006522259
-0.011663327 -0.0056572263 -0.0018516004 -0.0067138337 -0.0051264935 -0.007373642 -0.0023886836 -0.008316254
-0.01266863 -0.006524019 0.0026963733 -0.0018217325 -0.002221257 -0.014445126 -0.00652947 -0.0036601508
-0.004434486 -0.008032498 -0.007017321 -0.0059731468 -0.010382067 -0.0066016163 -0.0038372339 -0.018509338
-0.0049785 -0.0069094407 -0.0020255316 0.0011346784 -0.016321264 -0.0019474828 -0.01486735 -0.0056744018
-0.011500316 -0.0059133098 -0.0038987498 -0.0022592808 -0.009186768 -0.0005515346 -0.00375947 -0.0070467107
-0.017724441 -0.008969618 0.0036594502 -0.004840601 -0.0056868643 -0.018525733 -0.0028453004 -0.006762501
-0.018101083 -0.012859362 0.00038031352 -0.002193272 -0.0015241216 -0.0065877424 0.0060840426 -0.0022215482
-0.0015487454 -0.0045211753 -0.0061557526 0.0046984274 -0.0004116478 -0.010789071 0.0013779759 0.0025269296
0.0005785193 -0.009112705 -0.0016761966 -0.0030390867 -0.011710271 0.0033251052 0.00082842656 -0.004321904
-0.00072762155 -0.008355321 -0.010420911 0.003998933 -0.0005024037 -0.010585136 -0.0074351043 -0.0072610495
-0.003538507 -0.010120735 -0.007750017 -0.009704572 -0.004443952 -0.0087204 -0.005537354 -0.0005230751
0.00035135547 -0.009523518 -0.00029305753 -0.0055765226 -0.0017785437 0.0017560777 0.0011439287 0.0004992112
-0.0012130049 -0.01183835 0.002456596 -0.003663702 -0.00967837 -0.0029545093 -0.005977631 -0.016225899
-0.004436164 -0.0023084786 -0.005754203 0.002020862 -0.0014313738 -0.012908548 -0.0070743877 0.00491424
-0.004781489 -0.0050779996 -0.0015561791 -0.006517873 -0.017034505 -0.0013773033 0.0005167475 0.0021532301
-0.009868676 -0.005192729 -0.0029038938 -0.009696206 -0.0050959103 -0.006354343 -0.012684348 -0.0055175484
-0.012020225 -0.012993956 -0.017057838 -0.006791615 0.0018811985 -0.010292332 -0.011053907 0.002128041
-0.008901227 -0.0030954308 -0.0018365359 -0.0061186603 -0.004327358 -0.004262926 -0.004607435 -0.005177541
-0.0005640852 0.0039588595 -0.00049200363 -0.0111897 -0.010494318 0.0009465224 0.000531162 -0.0041501652

network_body.linear_encoder.seq_layers.2.weight f4 [256, 256]
00000000: 60ee 91bc 7f70 f4bb 9dbe 303d bec4 93bd
00000010: 953a b73d 9599 b3bc c877 643d bb78 bbbc
00000020: 4363 6ebd 1fa3 72bc f7a9 f93c 7492 f6bd
00000030: bbe6 e8bd ec14 f9bb 3c8c 603c 1ec5 e33c
00000040: 1437 59bc 6d3c 1abd 7e3f 27bd a6fe df3b
00000050: 5487 3bbd a6f0 10be 3117 f1bc 05b1 b9bb
00000060: 4635 9fbc 3e5b cd3d 5121 e4bd 529d a53c
00000070: 3f81 0f3d a035 9cbd 4b44 ccbd dd1d ed3c
00000080: 0828 213d bddd 653d e853 20be 6ca0 043d
00000090: e42a 20bd 29b1 5bbc 9a0a b1bd 244e 0c3e
000000a0: 3174 973c bdb4 97bc a90f b7bd d0a9 943d
000000b0: 4088 2c3d f305 0a3d 1432 b6bd 8592 ffbc
000000c0: 1a19 94bd d4a9 82bc 762a 42bd ee23 ee3c
000000d0: f616 933b 0c22 393c a9de 983d cdc3 86bd
000000e0: 6dda b33c fc65 dabc 3202 253d d51f 043d
000000f0: 8ba3 d2bc f072 de3c 377f 17bd a81d 6fbc
00000100: 8f26 7cbd a09c 6abd 2fcd a13c 8d49 143d
00000110: 2b73 91bc fe35 63bd f922 34bc c559 0bbd
00000120: 8f68 ea37 4805 acbd a28a c83c 494a 70bd
00000130: 8f4c 4a3d 8bb5 573d 7c17 55bd bc77 ba3a
00000140: b638 99bd 4da0 e3bd 7098 0d3d 2a9b b33d
00000150: bc13 9ebc d6c8 97bd d10d da3d c307 01be
00000160: bbf1 e23a 4e76 b8bd c6fe 00bd ab37 0e3c
00000170: 76ab 363c 4478 d5bc aa5a d8bd 668a 86bd
00000180: 0d8e 673c 204e cc3d 4a8b 4bbd d22a 74bd
00000190: 48b6 a6bd f212 00be 4b68 2fbd b7f6 8cbc
000001a0: 394d 423c dfa1 0ebe 7d82 b73d b544 8dbd
000001b0: d612 63bc 2fe2 393d 11d6 91bd 656e 803d
000001c0: 716e 413b 4c7e cb3c 02e4 5a3d 4803 ecbd
000001d0: 0e90 953c db74 11bd 873b 833c 1f73 c73d
000001e0: 2d24 c83c 7a88 3f3c 1f38 453d 3dcb 05bd
000001f0: 51ef 413c adc4 ba3d 8d7f f3bc 3833 14bd
00000200: b05f 8b3c 688a 073d 0788 3cbd 4de3 a23b
00000210: 9cc4 9c3c c0a7 233e e1df 943c 2a3a 38bd
00000220: 91a9 2e3d 698c 743d fb4a b4bd 70a6 f03b
00000230: d39e aebd b3c0 a03b 226e 3fbd 5bbd dabc
00000240: 301e 89bd 6f10 92bd 902f bebd 9f2a fbbd
00000250: 8d06 60bc f105 d8bd 50ae 31bc 382e 823d
00000260: d46f 00bd ad7a 9f3c 183f 85bd 957e 73bc
00000270: e589 5d3d 7b34 14be 52d7 74bc 04b6 0bbc
00000280: d7e8 7abc 51b6 85bc d802 47bd fcd2 333d
00000290: 0fbf e93c d532 9ebc e722 a0bc 0d8b b13d
000002a0: 692e 423c 7c5b e53d 115b acbc 9d83 c53c
000002b0: 5a2a cdbd 233a 633d dbc4 b33c 81f9 5e3c
000002c0: da67 43bd fbba 1dbd 47e2 7e3c f96e bc3c
000002d0: bf1b 0abb a55f 90bc d7c4 01bc 55ce 453c
000002e0: 005b 553d 2568 a83b 5efa d3bd f7d0 803d
000002f0: 6702 1cbd c031 8bbd 5f2c f0bc e522 e4bd
00000300: ad43 4ebd 974e 83bd 6001 f4bd 6f80 7d3b
00000310: d629 013e 941f d3bd bfeb 873d 14ca 49bc
00000320: 60c9 e73b a67d 413c ba6a a63c d825 e3bd
00000330: 48b0 c03b 6320 4c3d e8fa 963c d7cf bbbd
00000340: f842 10bc e97e b8bd 3bbf 80bc 5668 18bd
00000350: 5bb8 4abd c566 06bb c4fa 8cbc c6fd c0bd
00000360: 0d9f 09bd 9b08 9dbc f1ee 9fbd a3b0 40bd
00000370: 34bf a4ba 5d08 bb3d 60df 56bc 5d01 b5bc
00000380: a651 b53c b3c7 19bd edba 2ebd 2c4e 5fbd
00000390: 9512 27bc 19e3 033e 3404 5ebc 3070 323e
000003a0: 97d5 c8bc 45c3 0ebd 7a57 78bd bf45 0ebd
000003b0: 3cf1 e23d 43f7 86bd dd66 383c f2ba 8ebd
000003c0: bbbf 61bd 99f7 dabb 1edd f0bb 6749 c93d
000003d0: 5e2b 123d fbce 60bd 45fa d1bd 6412 26bd
000003e0: fa4e 82bd 585c bb3c f8b3 1cbe 41e1 afbd
000003f0: f651 31bb 8515 90bc 5318 7dbd e826 ce3c
-0.017813861 -0.0074596996 0.043150533 -0.0721526 0.089467205 -0.02192382 0.055778295 -0.022884717
-0.058200132 -0.014809399 0.030476553 -0.120396525 -0.11372133 -0.007601371 0.0137053095 0.027803954
-0.013257761 -0.037655283 -0.040832035 0.0068357764 -0.045783356 -0.141543 -0.029430004 -0.0056668543
-0.019434582 0.10027169 -0.11139167 0.020216618 0.035035368 -0.07627416 -0.09973963 0.028944904
0.039344817 0.05611967 -0.15657008 0.032379553 -0.039103404 -0.0134089375 -0.086446 0.13701683
0.018488022 -0.0185188 -0.08938534 0.07258952 0.042122126 0.03369708 -0.088962704 -0.031197796
-0.0723135 -0.015950121 -0.047403775 0.029069867 0.004488821 0.011299621 0.07464344 -0.06580315
0.02195474 -0.026659958 0.040285297 0.03225692 -0.025712749 0.027154416 -0.036986556 -0.014594473
-0.06156021 -0.057278275 0.01975116 0.036202956 -0.017755112 -0.055471413 -0.010994666 -0.034021158
2.7943663e-05 -0.08399445 0.024480168 -0.058664594 0.04938942 0.052663367 -0.05202435 0.0014226357
-0.0748152 -0.11114559 0.034569204 0.087698296 -0.01929652 -0.07411353 0.106471665 -0.12600617
0.0017314473 -0.0900694 -0.03149297 0.008680264 0.011149278 -0.026058324 -0.10564168 -0.06569366
0.014132989 0.09975839 -0.049693383 -0.05961115 -0.08140236 -0.12507227 -0.04282407 -0.017207487
0.011859232 -0.13928936 0.089604355 -0.068978705 -0.013859471 0.04538172 -0.07120908 0.06271056
0.002951529 0.024840496 0.0534401 -0.11524063 0.018257167 -0.035511833 0.016019596 0.097387545
0.024431312 0.011690253 0.048149224 -0.032664526 0.011836843 0.09119544 -0.029723907 -0.03618166
0.0170134 0.03309098 -0.046028163 0.004970944 0.01913672 0.1598196 0.01817316 -0.044977345
0.04264218 0.059704218 -0.08803364 0.0073440596 -0.08526387 0.004905784 -0.04673589 -0.02670162
-0.06695211 -0.07132041 -0.092864156 -0.12263989 -0.013673437 -0.10548008 -0.010844782 0.06356472
-0.031356648 0.019467676 -0.06506175 -0.0148617225 0.054086585 -0.14473145 -0.0149439145 -0.008527283
-0.015314302 -0.016322287 -0.048586696 0.043902382 0.028533487 -0.019311348 -0.019547893 0.086691
0.011851885 0.1119909 -0.021039518 0.02411061 -0.100178435 0.055475365 0.021944454 0.013609291
-0.047706462 -0.038508397 0.015556878 0.023002135 -0.0021073667 -0.017623732 -0.007920465 0.012073119
0.052088737 0.005139368 -0.10350488 0.06289857 -0.03808823 -0.067965984 -0.029318033 -0.11139468
-0.05035751 -0.06411474 -0.11914325 0.0038681289 0.12613615 -0.103087574 0.06636762 -0.012316246
0.0070735663 0.011809742 0.020314563 -0.110912025 0.0058803894 0.049835574 0.018430188 -0.09170502
-0.008805029 -0.09008581 -0.015716186 -0.037208878 -0.04949222 -0.0020508033 -0.017209418 -0.094234034
-0.03359895 -0.019169142 -0.07809246 -0.047043454 -0.001256919 0.091324545 -0.01311478 -0.022095377
0.02213366 -0.037543964 -0.042658735 -0.05451791 -0.010197301 0.128796 -0.013550807 0.17425609
-0.02451591 -0.034854192 -0.0606303 -0.034734484 0.11081168 -0.0659013 0.011254993 -0.06969251
-0.05511449 -0.006682348 -0.007350578 0.098284535 0.03568589 -0.054884892 -0.10252813 -0.040544882
-0.0636272 0.022871181 -0.15303028 -0.08587886 -0.002705691 -0.017588386 -0.061790776 0.025165036
