config/results/basic/PathFollowing/PathFollowing-1000113.onnx (onnx, 695646 bytes, 7 tensors)

action_model._continuous_distribution.log_sigma f4 [1, 3]
00000000: fbd1 8dbd b7c2 07be 1aa2 39bd
-0.06924816 -0.13257872 -0.045320608

action_model._continuous_distribution.mu.bias f4 [3]
00000000: 4dae 1abb 6a76 043c 98b3 43b9
-0.0023602427 0.008084873 -0.00018663553

action_model._continuous_distribution.mu.weight f4 [3, 256]
00000000: 1b85 1f3c 31ee 22bc e425 46bc fcc1 7d3b
00000010: 9ac9 323c f384 2abb ee21 b83a 48a6 9139
00000020: f007 053c 95a5 e6bb 0f94 523c 41cb a23b
00000030: 1f7c a1bb f928 73bc 1f1e efbc fe63 d33c
00000040: 3d5c 823c b5c0 eb3a 4e02 f2bb 66a5 1d3b
00000050: 2bbe beba c7a7 de3b 8453 afbc 4af0 ebbb
00000060: 8733 703c ebea 9f3c 8ec5 28bd 9e35 3d3c
00000070: a558 f1bc 3e41 5b3b 954f d63b f33a 28bc
00000080: c40f 823c 0f19 bb3c bbef 8dbc d82a 97b8
00000090: 7f9f 5f3a 4da5 2fbb 6afe ffbb 0cb9 663c
000000a0: 3e8a 40bb 2fc6 4a3d 3f8a 1b3b 04cb 043d
000000b0: c274 f63b 0682 fbbb cdf3 7ebc f976 713b
000000c0: f319 90bc 4487 7d3c e032 a13c 0791 f53b
000000d0: 42a3 88bc cbfa 463c 6075 1fbc 0940 c23c
000000e0: cc1d 993c aec9 3e3c 8517 92bb 0cf7 fd3b
000000f0: cd42 a73c 009d d6bc 790a 8dbb d803 863c
00000100: 2560 b23b 93d8 543c d930 ee3b 07ce 9b3b
00000110: d07d 8c3c 91a1 0e3c 02d5 c93c 08bb 04bc
00000120: b449 c03b 2ae6 a8bc 865d 8a3c 15e1 8ebc
00000130: 549a 6d3b 4394 9e3c 3b14 65bc 3413 d23a
00000140: 256d 0e3c 81d8 853b 5a6c 28bd fe39 bd3c
00000150: 42bc 583c 3583 793b e02e 31bb 3e36 9ebc
00000160: f68f 3d3c f714 33bb 3db1 49bd 7a3a 633c
00000170: 74e2 1c3c d9fa b93c ffb1 1fbc ba5b db3b
00000180: 4eb4 92bc 61b0 86bc afd7 ccbc 9b66 283c
00000190: a738 79bc 5f5d 89bc cce6 be3a bddc 25bc
000001a0: 80f0 bc3b e694 ccbc d031 8c3b 1f65 f73c
000001b0: 9512 bb3c c4ea 993c 9ec7 b73a 58c8 d63b
000001c0: f6a5 55bb 2582 46bc 0cad 3cbc f7b6 c7ba
000001d0: 7b3e 5dba 77d1 3f3c 0f9d 283c 4c3a ee38
000001e0: c8be 1abc 0c3e a6ba c625 a13c a143 803b
000001f0: 1fdb 103c 698c 813c 2d76 833c 0030 313c
00000200: a2cd d0bc 03d9 9d3a b512 d7ba 339b 38bc
00000210: c1b1 903c 2309 a03c 4505 a03b 41a1 743c
00000220: 48af 7cbb 4434 53bc 305c 03bc dc41 a3bb
00000230: 2ed5 07bc 4492 b9bc b14b e23a 4d5b 063d
00000240: df27 063c 95c1 1ebb a340 b43b 1d26 d73c
00000250: 5b80 92bc 41f4 d33b 20ac d4bb 5ca2 bcba
00000260: f34d bb3b 7681 663c 8ac1 823c 25b6 65bb
00000270: 9450 943c 391a db3a f3e8 683c 30ed 27bc
00000280: 6c86 b8bc 6e8c ccbc 1664 8c3c 9a11 a53a
00000290: 831b 0f3c 95fd 8036 308d ed3b 59e3 273c
000002a0: f7f4 763c 9108 1d3c 2374 253c 840e ac38
000002b0: 60da afbc 46b0 a8bb 1657 3fbb 56ae 063c
000002c0: 8187 8bba aff7 f3bb d033 803b 3ee7 34bb
000002d0: 737f 113c 770d cf3a 928f 503b abc2 ed3c
000002e0: db49 9dbb a3c4 61ba 8e3c 98bb e3dc d93c
000002f0: 17b9 993c 6912 c6bc 1af4 c23c a0b3 57bc
00000300: 4dcc 9c3c fd66 133c d2a2 583b 127e f33c
00000310: ae30 f2bb e037 9f3c eb05 0f3c a249 49bb
00000320: e64d 0b3c ea40 7c3c b2fe 023c ea24 3f3b
00000330: a680 32bb 3b50 f4ba 0f16 44bc af0b 84bb
00000340: 300b 9e3b ffa4 caba b150 a43b 9068 50bc
00000350: 5ab2 6e3c a6d4 4abc e97c ac3c ed4e c33a
00000360: 4317 3b3c 2014 e73b 9590 583c 7456 c73a
00000370: 563b 73bb c868 5a3c ac91 0a3b 9673 90bc
00000380: 80e0 41bc 389b bc3b d586 583b b2c5 923c
00000390: 8727 0c3c d19f 0ebc e224 b13a 1a66 bfbc
000003a0: 4c2b debc 0171 d63c 1e4f a8bc 3bef 6dbb
000003b0: 6d6e 193a 7e7e 90bb 5e96 433c 72db 3fbc
000003c0: dcf9 6a3c 374e ae3c 77d5 99bb 7542 0c3c
000003d0: d1ef 2e3c 9d88 a93c c20f 083a abcf 7c3c
000003e0: e2d1 ca3a 9387 0bbc 247b 17bd 19f2 923b
000003f0: eadd aa3a 9cca 1dbc 9bf2 873c 8044 423c
0.009736325 -0.009944485 -0.012093995 0.003872036 0.010912323 -0.0026019185 0.0014048198 0.00027780444
0.008119568 -0.007038782 0.012852683 0.0049680774 -0.0049281265 -0.014841312 -0.029189168 0.025804516
0.015913123 0.0017986508 -0.0073855286 0.0024054884 -0.0014552524 0.006794903 -0.021402128 -0.0072002755
0.014660723 0.019521197 -0.041204028 0.011548428 -0.029461214 0.0033455635 0.0065402486 -0.010267961
0.015876658 0.022839097 -0.017326226 -7.208221e-05 0.00085305417 -0.0026801408 -0.007812311 0.014082205
-0.0029379274 0.04950541 0.0023733524 0.032420173 0.007521243 -0.007675412 -0.015561056 0.0036844595
-0.017590499 0.015474144 0.01967758 0.0074940952 -0.01667941 0.012144755 -0.009732574 0.023712175
0.018690966 0.011644764 -0.00445837 0.0077503975 0.020417595 -0.02619791 -0.004304227 0.016359255
0.00544359 0.012991088 0.0072690067 0.004754785 0.017149836 0.008705513 0.024637703 -0.008101232
0.005868161 -0.020617563 0.016890299 -0.017441312 0.0036255317 0.019357806 -0.013981874 0.0016027451
0.008693014 0.004084647 -0.041118957 0.023098942 0.013228478 0.003807259 -0.0027035996 -0.019312974
0.0115699675 -0.0027325728 -0.049241293 0.013868922 0.009575475 0.022702621 -0.009747027 0.0066942843
-0.017908242 -0.016441526 -0.02500519 0.010278369 -0.015211261 -0.016768156 0.0014564632 -0.010123429
0.0057659745 -0.024973344 0.004278399 0.030199585 0.022836009 0.018788703 0.0014021283 0.0065546446
-0.003260014 -0.01211599 -0.011515867 -0.0015237023 -0.0008439791 0.011707655 0.010291352 0.00011359583
-0.0094449 -0.0012683286 0.019671332 0.003914312 0.008841305 0.015814023 0.016047562 0.010814667
-0.025488678 0.0012042824 -0.0016408773 -0.011267471 0.017662885 0.019535607 0.0048834407 0.014931024
-0.0038556624 -0.012890879 -0.008017585 -0.0049822163 -0.008290572 -0.022652753 0.001726499 0.032801915
0.008188217 -0.002422427 0.0055008694 0.026263291 -0.01788347 0.0064683263 -0.0064902455 -0.0014391649
0.0057160794 0.014068952 0.015961427 -0.0035051194 0.018104829 0.0016716189 0.014215696 -0.010249421
-0.022525035 -0.024969306 0.017137568 0.0012593747 0.008734587 3.844218e-06 0.007249497 0.010247075
0.015073053 0.009584562 0.01009849 8.204303e-05 -0.021466434 -0.0051479666 -0.0029196194 0.008220276
-0.0010645242 -0.0074452977 0.0039124265 -0.0027603651 0.008880484 0.001579686 0.0031823856 0.029023489
-0.004800064 -0.000861237 -0.0046458906 0.026594585 0.018765016 -0.0241787 0.023798037 -0.0131653845
0.019140387 0.008996722 0.0033056033 0.029723201 -0.007391057 0.019435823 0.008729438 -0.0030714055
0.008502459 0.015396336 0.007995294 0.002916629 -0.0027237325 -0.0018639633 -0.01196815 -0.004029713
0.004823111 -0.001546055 0.005014502 -0.012720242 0.0145688895 -0.012379801 0.021055656 0.0014900841
0.01141912 0.0070519596 0.013218065 0.001520826 -0.0037114224 0.013330646 0.0021143956 -0.01763324
-0.01183331 0.005755808 0.003303935 0.017916534 0.008554346 -0.008705095 0.001351502 -0.023364116
-0.027120255 0.026176931 -0.020545539 -0.0036305923 0.00058529415 -0.0044096103 0.011937706 -0.011710035
0.014341798 0.02127753 -0.0046946364 0.0085607665 0.010677294 0.020695025 0.00051903364 0.015430371
0.0015473927 -0.00851621 -0.03698267 0.0044844267 0.0013036106 -0.009630825 0.016595175 0.011857152

network_body.linear_encoder.seq_layers.0.bias f4 [256]
00000000: 1ace 8a3b 1170 ea3b 1da0 893b 251f 873a
00000010: 85a4 123b 1a5f d2bb 447e c3bb b2cc 033a
00000020: 4d91 e43b 51b5 b53b 77d3 20b8 1d2c 13bc
00000030: 9fc0 b9bb 7552 483b 48ea da3a 7c18 b039
00000040: b5c2 c73b a994 083a 8e4b b7ba bcab 373c
00000050: d7f3 c2ba e5a3 793a a775 e0bb 1b70 3d3b
00000060: 331e 983b 2ff4 843a 69ad cd39 96db ab3a
00000070: 04d5 b4bb cb1e f9bb 47c7 d5bb 585c 57bc
00000080: 5ed2 4e3a c5d6 6fba 7a7a dbb9 aac4 91bb
00000090: d40b 5a3b 0be5 8cba 0661 49bc e123 05bb
000000a0: f67a 393b 904c 24b9 41e5 93bb 685d ae3a
000000b0: 78db 95bb 70d3 9f3b 4c1e af3a b27d e238
000000c0: f467 08bb 4a62 1f3a 5189 97ba b947 53bb
000000d0: da3b ad3b 52d9 18bc 752d a7bb 394a 0b39
000000e0: a3eb 753b d4df f03a 5e6e 52bb 95f7 1139
000000f0: 2f4d 2bbc 084f 05bc 7e76 1d3c 4709 f6ba
00000100: dc51 cabb 2f65 17bc bab2 c2bb 6b46 cabb
00000110: 6c3e 7bb9 7adc bbbb a348 373b 1807 8dba
00000120: c642 913a 1b6b 91ba c799 473b 1d99 ebba
00000130: cc1a 80bb 4b1d 7a3a d3cb 2938 1a6c 173b
00000140: 9079 efbb 0d0b ba3b 5c35 e7bb 5956 98ba
00000150: 538f 03bb d20f 7bb9 455c 19bb 8517 cebb
00000160: 94b4 bbbb 0a08 90bb cfbb 0abb 1718 05bb
00000170: 2dde 9cba 6432 8fbb fea7 b0bb f4b8 a2bb
00000180: 5b4c b2bb c32f 6abb 8938 cabb c9f3 d4bb
00000190: 2e1e 563a b95b 2739 da9d 9f3a cb2a 30bc
000001a0: a659 c7bb 44b6 4b3b 0a53 163b dfb5 193b
000001b0: b178 cfba 56fc 1eba 472b c93a 0096 91bb
000001c0: 63e2 3ebb c128 2cbb 96fb 10bb 6bde e3bb
000001d0: b26a a5bb 07b3 46bb 29ec 603a 1556 a3bb
000001e0: efa9 9a3a af5f f5bb 1844 873a 66f0 bd39
000001f0: ec13 5ebb e8f5 f73b a9a2 b33b bc19 0cbc
00000200: fb31 54bb 0287 f2bb d3fd f4bb 9d4f 0cbc
00000210: e102 0a3b 0f25 24bb 1828 adbb c2e1 6239
00000220: 7655 b3bb 2762 8039 d879 f239 312e 5f3b
00000230: 36e2 1dbc 871d 383b 10f0 ddb9 c204 493b
00000240: 8086 9dbb 942f 0a3b aa4f e7b9 08b3 00bb
00000250: f2d8 2d3a df8f 8dbb decd 7dbb 07c4 dbbb
00000260: da81 5cba 4035 91bb d9e5 59bb 4a99 153a
00000270: f138 52bc 7f12 ea3a 30b3 2cbc b698 53ba
00000280: 8cd7 eabb 9bcd 033b bea6 c53a c465 5a3b
00000290: 329d 74bb a7e4 b4ba bfd4 4dbb 489f b5bb
000002a0: 04ff d2bb 6317 eeba 656e 17bb a5bf 34bb
000002b0: 5edc b4bb 5080 1bbb 83a6 103b a626 87bb
000002c0: 9233 28bc 7da9 2cbb ab21 883b 9e1b aaba
000002d0: db54 973b ffa1 46bb a200 42bb 476e 233b
000002e0: 14f6 7b3b b732 feb9 1f43 37bb 5d16 713b
000002f0: 17ee c13a a6ff a0bb 719b 30bb 0ec5 623b
00000300: e618 163b 86bb c03b 2975 91ba 0a8a 473b
00000310: f499 7abb e994 213b 0b7d 99bb d628 37ba
00000320: 7d5d b83a 2204 e7bb 683e 8c3b b7a4 20ba
00000330: 68a8 323b 1c11 92ba a7d1 1bbc 0e1c 1ebc
00000340: db2b fbbb 95b1 24ba 1fed b5bb 05ec 9c38
00000350: 273c a2bb 450d 47b8 dd4f 463a f9a8 2c3a
00000360: c510 a73b 4335 bdbb 1e4d 15bc 0580 91ba
00000370: fcbf 87bb f44e 7dbb 0079 4939 4108 8dbb
00000380: 0c4b 323b 9285 0bbc ecc8 d4bb 9208 b6bb
00000390: d32f d3ba f2ca ef3b 8f77 28bb cd1a 25b9
000003a0: a648 96bb 4c03 2fbc bc3d 983a ad50 2bbb
000003b0: 50f5 433a 9e82 27bc 496e 723a 605b 9d3b
000003c0: ebfa 9d3b f4ef 813b 9602 b3ba 8054 723b
000003d0: 1be5 87bb 10cf a1bb 62f5 4fbb 8666 78ba
000003e0: 00a1 083b 43b0 1f3b 1891 78bb 3683 cbbb
000003f0: d97a cfb9 55ef 32ba 9be4 ecbb 84eb ed3a
0.004235995 0.0071544726 0.004199995 0.0010308964 0.0022375893 -0.0064200284 -0.00596598 0.00050277554
0.006975329 0.0055452962 -3.8343915e-05 -0.008982685 -0.005668714 0.0030566726 0.0016701901 0.00033587578
0.006096209 0.00052101404 -0.0013984309 0.011210378 -0.0014873695 0.00095230184 -0.0068499628 0.0028905931
0.004642272 0.0010143573 0.00039229848 0.0013111706 -0.0055185575 -0.0076025478 -0.006524 -0.013144575
0.00078896235 -0.00091491296 -0.00041862187 -0.004448493 0.003327121 -0.0010749412 -0.012291199 -0.0020315575
0.002830205 -0.0001566878 -0.004513413 0.0013302984 -0.004573282 0.0048775002 0.001336047 0.00010799932
-0.0020813914 0.0006080015 -0.0011561309 -0.0032238795 0.005286676 -0.009329157 -0.0051018544 0.00013283723
0.0037524484 0.0018377253 -0.003210924 0.00013920509 -0.010455414 -0.008136518 0.00961077 -0.0018771075
-0.006174309 -0.009240433 -0.005941716 -0.0061729453 -0.0002396048 -0.00573307 0.002796688 -0.001075956
0.0011082522 -0.0011094542 0.0030456649 -0.0017974708 -0.0039094444 0.0009541108 4.0482566e-05 0.0023105205
-0.0073081926 0.005677587 -0.0070559215 -0.0011622413 -0.0020074442 -0.00023943119 -0.0023400944 -0.006289425
-0.0057283137 -0.0043954896 -0.0021169072 -0.0020308548 -0.0011968069 -0.0043700207 -0.00539112 -0.004965896
-0.005441231 -0.0035734035 -0.0061712903 -0.006498788 0.0008167949 0.0001596053 0.0012177781 -0.01075239
-0.006083685 0.003108398 0.0022937679 0.002345435 -0.0015828816 -0.00060648227 0.0015347981 -0.00444293
-0.0029126636 -0.0026269408 -0.0022122613 -0.0069540045 -0.0050481195 -0.003031911 0.00085801125 -0.004984627
0.0011799912 -0.007488213 0.0010319976 0.00036228 -0.0033886386 0.007567156 0.005482037 -0.008551057
-0.0032378423 -0.007401348 -0.0074765473 -0.008563903 0.0021058845 -0.0025046503 -0.0052843206 0.00021637141
-0.005472834 0.00024487192 0.00046248618 0.0034054632 -0.009636452 0.0028093772 -0.00042331265 0.0030673002
-0.0048072934 0.0021085488 -0.00044119108 -0.001963796 0.00066317536 -0.0043201293 -0.0038727443 -0.006706718
-0.00084116834 -0.0044313967 -0.0033248572 0.0005706741 -0.012830959 0.0017858295 -0.0105407685 -0.0008071767
-0.0071668085 0.0020111564 0.00150796 0.0033324817 -0.003732514 -0.0013801054 -0.0031407324 -0.0055426694
-0.0064390916 -0.0018164929 -0.0023106572 -0.002758005 -0.005519434 -0.0023727603 0.0022071905 -0.0041244803
-0.010266202 -0.002634614 0.004154404 -0.0012978201 0.00461827 -0.003030896 -0.0029602428 0.0024937557
0.0038446235 -0.0004848444 -0.0027963591 0.0036787011 0.0014795688 -0.004913288 -0.002694812 0.0034602317
0.0022903024 0.0058817295 -0.0011097539 0.0030447268 -0.0038238736 0.0024655408 -0.0046840957 -0.0006986981
0.0014065948 -0.007050053 0.0042799003 -0.000612806 0.0027261022 -0.0011144015 -0.009510434 -0.009650243
-0.00766514 -0.00062825653 -0.0055519487 7.482622e-05 -0.0049510184 -4.7457655e-05 0.0007565001 0.0006586458
0.0050984346 -0.0057741716 -0.009112624 -0.0011100775 -0.0041427594 -0.0038651796 0.0001921393 -0.0043039625
0.0027205376 -0.008515732 -0.0064936783 -0.005555221 -0.0016112275 0.007317894 -0.0025706028 -0.0001574561
-0.004586297 -0.010681938 0.0011615078 -0.0026140616 0.0007475214 -0.010224013 0.0009248001 0.0048021525
0.0048211715 0.003965372 -0.0013657387 0.0036976635 -0.0041471845 -0.004938014 -0.0031731953 -0.00094757264
0.0020847917 0.0024366535 -0.003792828 -0.00621071 -0.00039573645 -0.00068258244 -0.0072294003 0.0018151854

network_body.linear_encoder.seq_layers.0.weight f4 [256, 416]
00000000: 62c0 17bd 3494 e53c 2893 dbbb 6467 c8bc
00000010: 0de3 ef3c 6abd 663c 8c1b c1b9 04c8 793d
00000020: b5dc 0f3d be85 813c a733 0c3d bf96 883d
00000030: d4ba 7dbc 9a54 163c 65db 9e3d 7b3c a2bb
00000040: abb3 5d3d 3ace ab3c 2d61 c03d 0b49 07bc
00000050: d5fb 7ebd 355e 6a3d cb2b 88bd f4ed 6c3d
00000060: d48a 8fbd 54fe dc3d 022d dabc 0059 7ebb
00000070: ccd3 21bd 8041 043d 203b 243c ac66 b33b
00000080: fcef 0dbd 6c2e cf3c 76ec 013d d48a 50ba
00000090: 0010 cfbb 1209 ffbc defe df3d cc4f 9b3c
000000a0: 99e8 97bd 43cd 203b 7959 413d 312c 92bd
000000b0: a2fd 163d cb9e 40bd 03eb 6dbc 0d6c b13d
000000c0: d633 c93d 5678 a3bd 4109 383d 00ad 6fbd
000000d0: 7d79 a7bd 5e81 90bc 1d9c a1bd d0a2 c13b
000000e0: 5103 48bd 4989 fcbc 8150 cebc eb3c d3bc
000000f0: d4de 67bc 4fe3 65bc 3f05 a5bb 1d59 aeba
00000100: c4b9 f2bb 243f 95bd db96 2d3a 610a 8a3c
00000110: 8ef8 373b c427 3e3d fd01 0fbd 0759 9dbd
00000120: 4152 0b3d b092 a13d 1b99 93bc 9417 153d
00000130: 728e 273d d16c 8b3d cecf f939 07c5 81bd
00000140: 0bb4 f0bc 627c 2e3c da96 943a 533e d83d
00000150: fb9a 07bc 19c0 c4bc b5ec 563c 97a0 37bc
00000160: 29a3 14bd e758 9dbc c171 9ebc a2fe 7ebd
00000170: ccce 833d c356 023d 4392 663d 1fa8 9d3d
00000180: 16c9 11be 806e ddbb a6ea 033d 8887 92bc
00000190: 64b6 bd3b 544b 38bd 9582 1d3d 6a32 bd3c
000001a0: 7e94 b3bc bc81 3f3b 1a7a 53bc 671a 79bd
000001b0: 66c1 e6bd 5e15 19bd 003b 9d3d 5eb3 a03d
000001c0: f0c7 11bd 1e3f 143d 1d95 7a3d 2aa2 babd
000001d0: 5bb3 dabc 0a4a 9ebc 6ebe 3f3d 7383 8dbd
000001e0: b0cd ef3b 837a 1d3d cc25 5cbd 977d 583c
000001f0: b0dc 043d 6238 193d b7a1 bebc 1722 853d
00000200: c65c db3c 067f 953d c14e 5cbd 827d 1abd
00000210: 7ea9 a73c 27a6 22bc a1b7 5e3d a48f ac3c
00000220: e9b3 aa3b 89f8 febd d508 c6bc f105 eebb
00000230: b4e7 063d 6008 69bd e57a 8e3c b03c 893d
00000240: f25f a73d dbfd af3d 3bd0 a1bd 2bff 0c3d
00000250: 6cc2 093c 1380 f33c f092 f53c ed37 133d
00000260: 2a4e c8ba ea65 243d 078c aebd 3c1a 87bd
00000270: 417d a73d 329c 153d 5e89 b6bb f0ff f7bd
00000280: 4d6b 293d e88d 4ebd 4e98 d8bc 4c19 84bc
00000290: a4df 01bd add5 bbbd 2a9b d33b e5a4 e03d
000002a0: 1df2 81bd e4bd f4bc e1af 98bd 78cd 1a3d
000002b0: 25e1 19bc f0ff b6bd f1db 92bd a717 223b
000002c0: d40d 3f3d 6143 0c3d 5b40 8fbb 4c99 d13c
000002d0: 6830 1c3c 0e31 68bd 3dd9 6ebc d872 d53d
000002e0: b7b8 1e3d 1982 123d 926f 533b 6813 88bd
000002f0: 9229 b4bc a784 283b 9812 44bb fb70 603d
00000300: af94 213d e7ef 3f3b a1a9 023d 9b28 83bd
00000310: 52dd c03c b9f9 3cbd 6a84 b9bd 5bb0 2cbd
00000320: 584c 4c3d fd26 88bd 2371 e33d cb62 213a
00000330: f5ca 82ba 4514 123d ac98 1fbc 607c 81bd
00000340: 5345 fabb 3715 953c 7eca e7bc 7a38 03bd
00000350: f1a1 093d 7eab e93c ec8f 1e3c f590 1f3d
00000360: 90d9 0dbd 0a0f 3dbd f02f 3fbd 264e 77ba
00000370: 5760 573d 6aaf 343d 3da1 e33b 7004 c9bd
00000380: 9dd5 a2bc 0d32 a5bd 2664 7d3d 1ca0 83bc
00000390: 4de0 813d cd30 00bc e270 afbb 5bd5 443d
000003a0: 7454 823d f9f6 c8bc 3236 5b3d 710d 2cbc
000003b0: a566 8f3d 68fc c6bc bb3e f4bc 93c0 43bd
000003c0: 0d3a 3f38 a3e0 aa3d cc54 683d c0de 933c
000003d0: 46b6 b6bc 34bc 2b3d 3b96 bcbc 795a 18ba
000003e0: 0a70 5b3d 3c18 8f3d 3609 27bd 14e8 b13d
000003f0: ec26 86bd fb5b 4a3c 54b4 0e3d a58b d53d
-0.037048705 0.02802477 -0.006700892 -0.024463363 0.029283071 0.014083246 -0.00036832353 0.060981765
0.035122592 0.015810844 0.034228947 0.066693775 -0.015486438 0.009175444 0.0775669 -0.0049510575
0.054126423 0.02097236 0.09393535 -0.008257161 -0.062251884 0.05721875 -0.06648978 0.057844117
-0.07008901 0.10790697 -0.02663279 -0.0038810372 -0.039508626 0.03228903 0.010023862 0.005474886
-0.034652695 0.02529069 0.031719647 -0.00079552573 -0.006319046 -0.031132255 0.10937284 0.018958949
-0.07417411 0.0024536408 0.04720447 -0.07137335 0.036862977 -0.047026437 -0.014521363 0.08663187
0.0982434 -0.07981937 0.0449307 -0.058514595 -0.08177469 -0.017639812 -0.07891104 0.0059093013
-0.048831288 -0.030827181 -0.025184872 -0.025785884 -0.014152247 -0.014031245 -0.005036026 -0.0013301704
-0.007407399 -0.07287434 0.00066219055 0.016850652 0.0028071734 0.046424642 -0.034914006 -0.07682996
0.03401399 0.078893065 -0.018017342 0.03639944 0.04090733 0.068078645 0.00047647808 -0.06336408
-0.029382726 0.010649772 0.0011336461 0.105587624 -0.008276696 -0.02401738 0.013117959 -0.011207721
-0.036288414 -0.019207431 -0.019341351 -0.062254556 0.06435928 0.031821024 0.05629183 0.07698082
-0.14236864 -0.0067575574 0.0322062 -0.017886892 0.005789565 -0.044993713 0.03845461 0.023095328
-0.021921393 0.0029221615 -0.012907529 -0.060816195 -0.112673566 -0.037373893 0.07677269 0.078467116
-0.035591066 0.036193006 0.06117736 -0.091129616 -0.026696851 -0.019322414 0.046812467 -0.069098376
0.007318221 0.038446914 -0.053746983 0.013213537 0.032437027 0.037407286 -0.023270471 0.06500643
0.026777636 0.072996184 -0.053786043 -0.03771735 0.020466562 -0.009927309 0.05437434 0.021064587
0.0052094352 -0.12449748 -0.024174133 -0.007263892 0.032935813 -0.056892753 0.017392585 0.06701028
0.08172597 0.08593341 -0.07901045 0.034423035 0.00840817 0.029724156 0.029977292 0.035942007
-0.0015282084 0.040136255 -0.08522802 -0.06596801 0.08178187 0.036525913 -0.0055705747 -0.12109363
0.041362096 -0.0504283 -0.026439812 -0.016125344 -0.03170742 -0.09171615 0.006457706 0.10968951
-0.063450076 -0.029875703 -0.07455421 0.037793607 -0.009392058 -0.08935535 -0.07170857 0.0024733336
0.046644047 0.034243945 -0.0043716854 0.025585793 0.009533025 -0.056687407 -0.014578161 0.10422295
0.038750377 0.035768602 0.0032262546 -0.066443264 -0.021992479 0.0025713833 -0.002991831 0.054795247
0.039448436 0.002928728 0.031900052 -0.06404229 0.023543034 -0.04613659 -0.09058459 -0.042160373
0.049877495 -0.066480614 0.111055635 0.0006156384 -0.0009978699 0.03566386 -0.00974099 -0.06322551
-0.0076376586 0.018198593 -0.028294798 -0.032036282 0.033601705 0.028524157 0.009677868 0.0389566
-0.034631312 -0.04615692 -0.046676576 -0.0009433947 0.05258211 0.0441126 0.0069467113 -0.098152995
-0.01987725 -0.08066187 0.061863087 -0.016067557 0.0634161 -0.007824135 -0.005354033 0.048055034
0.063637644 -0.024531828 0.05351848 -0.010501252 0.07002 -0.024290279 -0.029815068 -0.047791075
4.5592013e-05 0.08343627 0.056721494 0.018050551 -0.022303712 0.04192753 -0.023020854 -0.00058118213
0.053573646 0.06987044 -0.04078027 0.086868435 -0.065503925 0.012351031 0.034839943 0.10427026

network_body.linear_encoder.seq_layers.2.bias f4 [256]
00000000: 7bb1 29bb b758 843b 00af b2ba fc98 ab3a
00000010: d734 a6bb 67f3 afbb dbee ae3b bffa 0bbb
00000020: 66a4 0cbc b5e6 963b 59d9 1b3b d587 a7bb
00000030: cc85 983b 5939 c43a 4843 0a3c d462 5eba
00000040: aaf6 cf3a a956 bbbb 60ea 0dbc cd81 fbba
00000050: 7d9d 0abc 1d4f 3ebb 5f67 7439 9d12 1bbb
00000060: 2d2c 90bb 6107 dd3b 8bbc 0d3c a87b ae3b
00000070: 71ec 873a 1e3d 01bc 512c 80bb 9045 37bb
00000080: c508 033b e2c4 b73a 87e8 a4bb d400 87bb
00000090: e222 dbbb 4682 bcbb e38d 843b 9e56 bd3a
000000a0: 4887 5c3b 6c2f 8438 c84b 7c3b 4376 e4ba
000000b0: 6c7e 96bb 9985 893b 3e1a e8b9 6b59 763b
000000c0: 82b5 6b3b be7a ea3b 4317 8fbb f017 2dbc
000000d0: ee8e c2ba 9d93 a73a 4a0f 3c3b 035d 3038
000000e0: 8f34 88bb 60ea 4dbb fa2c 5fbb 6cd0 77bb
000000f0: ef40 f23a cd37 253b 99be 2b3b dfb5 6cbc
00000100: a139 4cbb 01e2 483b 7494 253b e8ff 55bc
00000110: d764 65bb 4b74 c539 a5d7 2fbb 3422 38bc
00000120: 2ba4 5d3a 2640 2a3b 07ba 6fbb 34ad c8bb
00000130: 5629 aebb d6df fcb9 1686 f2ba b19b 90bb
00000140: 4beb 5d3b 2f23 523a 78b9 323c 66b9 513b
00000150: 5608 433b 4c50 b3ba 25ec 03bb 2915 313b
00000160: 45b9 aa3b 28ab b8bb bef6 1a3b 4c1b 6439
00000170: ed8c c9ba 344e 813c 2bf2 48bc 824d 85bb
00000180: 18c0 8d3b 2105 c0ba 0dbe 743b 9c46 06bb
00000190: bb84 93bb db66 8ebb 5080 b43a 71a0 553b
000001a0: 3c46 3dbc f5df de3b 7a9b 1fbc fa26 48ba
000001b0: 53f0 793b b781 b23a e70f 9bbb af90 3fba
000001c0: 234a a2bb e219 b1bb fcc9 6c3b f8b9 30ba
000001d0: 41eb f1ba 096e 01bb 66bc eebb 8eb5 8cbb
000001e0: e6e0 73bb effe b7bb d4bf e0bb 443b 22bc
000001f0: 2e98 40bb 463f b2bb eefa 33bc 5d9c 7fbb
00000200: 89f5 f13b fe17 d1bb 7c05 1cbc 53f7 8cba
00000210: c4b3 673b 4937 21b9 5aed 0ebc 4b6a a1bb
00000220: 9356 e7bb dc18 91ba 22b2 07bb e071 e33b
00000230: 7a90 413a 5785 bdba 35cc 07bb 5fbb 983b
00000240: 9395 7d3b a0c4 32bb fb12 fbbb 522a 3d3b
00000250: 7adf 49bb 8580 5cbb ca8f b6bb db7b 843b
00000260: 3ea6 d3bb 8afd ca3a 0dc6 96bb 3465 7dba
00000270: c8ad 6dbb 5632 2fbc 658b 8fbb da8e c93a
00000280: f3a7 b73b 54c5 203b d92b 443b 9ecf e8bb
00000290: b471 dbbb 4f65 60bb 83d9 4abb 3acc d5bb
000002a0: 1ada e4bb 61b2 77bb 769f 82bb fa6e 71bc
000002b0: 2ba7 c93b 5905 2a3b 0ec2 60bb d1db 923a
000002c0: a6d4 1338 fe5c 44bb 0ba2 c23b f488 acbb
000002d0: 2aa8 8fba a75f 8fbb fd91 ba3b dbad 16bc
000002e0: bd1e e2ba 8e03 3cbb 5a0a a3bb 53c7 a63a
000002f0: dfd2 e63a a5b0 f63b 986e cb3b 6fb4 5dbb
00000300: 63b4 1bbb 5d02 db3b 40c7 6a3b 6e58 6c3b
00000310: 601f cc3a f9bc abb9 4f46 8c3b 45c5 35bc
00000320: c6b2 eb3a 7ad5 7ebb 719f 8ebb a293 1bbc
00000330: 0c63 46bb c4e7 c7b9 67f3 b33b fd99 08bb
00000340: bc31 d2bb 5f03 db3a 9056 f1bb ae81 d03b
00000350: 1121 c5bb d655 0bbb ed22 96bb c5ad 65bb
00000360: f2e6 5c3a 0a08 81bb deee 4ebc 0085 dbbb
00000370: ca3f 8b3b 22eb d5bb ca5c 87bb 4530 90bb
00000380: c4ec 92ba 1f38 00ba 637e 833b b06d 243b
00000390: 195f 2bbc 1537 16bb 9755 01bc f635 4dbb
000003a0: a653 c23b 731e ad3b 87c6 e83a b15f 7a39
000003b0: afdf bfbb 0104 943b e8c7 81bb 11f8 c73b
000003c0: eb81 b83a 9e98 a53b 9ee9 dbb5 cf38 aebb
000003d0: 6a5e b5bb 88fd 4f39 140b 3fbc dcdc 96bb
000003e0: a18e 8ebb 3e95 edbb 6363 ab3c ccb1 46bb
000003f0: 9a97 fbbb 0712 ccbb 5096 1f3b c435 9639
-0.002589314 0.004038896 -0.0013632476 0.0013091858 -0.005072217 -0.005369592 0.0053385324 -0.0021359173
-0.0085841175 0.004605139 0.0023780672 -0.005112628 0.0046546217 0.0014970704 0.008438893 -0.00084833545
0.0015866358 -0.005717118 -0.008661836 -0.0019188464 -0.0084604 -0.0029038854 0.00023308162 -0.0023662217
-0.0043997974 0.0067452644 0.008650909 0.0053247996 0.0010370148 -0.007888107 -0.003911533 -0.0027965046
0.001999424 0.0014020468 -0.005032602 -0.0041199718 -0.006687508 -0.0057528345 0.0040452345 0.001444537
0.003364997 6.3030835e-05 0.0038497318 -0.0017430264 -0.0045927074 0.0041968343 -0.0004427004 0.0037589918
0.0035966341 0.0071557453 -0.0043667867 -0.010564789 -0.0014843622 0.0012785081 0.0028695636 4.2048294e-05
-0.004156656 -0.0031420216 -0.0034053908 -0.0037813438 0.0018482486 0.0025210262 0.0026206134 -0.014447658
-0.003116228 0.0030652287 0.0025265487 -0.013061501 -0.0035002732 0.00037661413 -0.0026831415 -0.011238623
0.0008454944 0.0025978177 -0.0036579387 -0.006124163 -0.005314986 -0.00048231956 -0.0018503095 -0.004413091
0.003386217 0.0008016107 0.010908477 0.0032001375 0.0029759607 -0.0013680547 -0.0020129767 0.002702067
0.005210074 -0.005635638 0.0023645605 0.00021753943 -0.0015377082 0.01578436 -0.012264769 -0.0040680775
0.004325878 -0.0014649966 0.0037344724 -0.0020488864 -0.0045019067 -0.0043457574 0.001377115 0.0032596851
-0.01155239 0.0068016 -0.009741658 -0.00076352025 0.003813763 0.001361898 -0.0047321203 -0.00073076313
-0.0049526854 -0.005404697 0.0036131134 -0.00067415787 -0.0018456952 -0.0019749424 -0.0072856424 -0.004294104
-0.0037212907 -0.0056151072 -0.006858805 -0.009901825 -0.002938758 -0.0054396717 -0.010985119 -0.0039003112
0.0073840064 -0.006381034 -0.009522792 -0.0010754861 0.0035354951 -0.00015374752 -0.008723581 -0.004926001
-0.007059881 -0.0011070031 -0.002070554 0.006941065 0.00073838944 -0.0014459294 -0.0020721082 0.0046610082
0.003869389 -0.0027277842 -0.0076621748 0.0028864336 -0.0030803368 -0.003364594 -0.00557134 0.004043085
-0.0064590266 0.0015486937 -0.004601246 -0.00096662645 -0.0036266912 -0.010693153 -0.004380631 0.0015377656
0.005604738 0.002453168 0.0029933362 -0.007104828 -0.006696904 -0.0034240072 -0.00309524 -0.00652459
-0.0069840075 -0.003779553 -0.0039862944 -0.0147359315 0.006153961 0.002594313 -0.0034295353 0.0011204426
3.5245575e-05 -0.0029962654 0.005939727 -0.0052653495 -0.0010960151 -0.0043754163 0.0056936727 -0.009196724
-0.0017251592 -0.0028688642 -0.0049755992 0.0012724198 0.0017610452 0.007528382 0.006208252 -0.003382947
-0.0023758642 0.0066836313 0.0035824329 0.003606345 0.0015573315 -0.00032756457 0.0042808424 -0.011094396
0.0017982356 -0.0038884566 -0.004352503 -0.009495648 -0.003027144 -0.00038128917 0.0054916623 -0.0020843737
-0.00641462 0.0016709379 -0.0073650554 0.0063631153 -0.0060159047 -0.002126088 -0.0045818 -0.0035046202
0.00084267475 -0.003937726 -0.012630193 -0.0066992044 0.0042495476 -0.006528274 -0.0041309344 -0.0044002854
-0.0011209478 -0.0004891175 0.004012869 0.0025089793 -0.010459685 -0.0022921015 -0.007893941 -0.003131268
0.005930382 0.005283171 0.0017759361 0.00023877506 -0.0058555226 0.004517079 -0.0039605983 0.00610257
0.0014076805 0.005053594 -1.6384763e-06 -0.0053168307 -0.0055349367 0.00019835506 -0.011660356 -0.004603965
-0.004350499 -0.007250457 0.020921415 -0.0030318378 -0.0076779844 -0.006227735 0.0024351068 0.00028650288

network_body.linear_encoder.seq_layers.2.weight f4 [256, 256]
00000000: 67b7 09bd 3060 98bd aee2 a63a c8f3 80ba
00000010: 7467 2d3d c9e4 0f3b de7d 8c3d 5bbe c33c
00000020: 0031 dbbd f1ea 203d 9c96 c8bd 046b 08be
00000030: 7bc6 263d e450 13bc b9c4 1cbd 4d10 82bd
00000040: c3bd 9ebc cf2d 9abd a2ba 0c3d 2b93 5b3d
00000050: 3990 fc3d 1444 1e3d 8d23 a53d 5389 44bd
00000060: 4968 8f3d d477 2d3e 7a8f 10be 65ad f93d
00000070: d7f1 63bd 27d9 c8bc 94dc aebd 7e81 b0bc
00000080: 6696 6abd 11a2 793d aac0 3cbd 050d a2bd
00000090: 6976 7e3b b63a 23bc 958b 4f3d aaa2 883d
000000a0: 010b 5fbc c34e 8fbd d1a6 783c 0386 6f3d
000000b0: b724 98bd 2ffa a4bd 2a0f 523c c642 8cbc
000000c0: 27df 0ebc 2e70 c7bc 792a b9bd a1ec 843d
000000d0: d4bf 643c 1912 ce3d de86 1e3c f5ff 803d
000000e0: ead1 d73b 8c16 963d 3b80 013e 1e7e d83b
000000f0: 8005 fabc 4cba f83d 8de6 eb3d d79f 1d3d
00000100: 2e94 23bd 1407 45bd e48b 3bbb b69c 893d
00000110: 0e15 0f3d 4a17 043e c76c 663d 1a53 083d
00000120: 1433 b3bb 7e0c f3bb f0d3 5d3d a195 b33d
00000130: 0f73 623d 1ad8 843d 25fe a0bc dbbb 173c
00000140: 6894 813d 82bf f43c 5c67 bd3b b03e 4dbd
00000150: 53a2 8c3c 30a4 ce3c f252 5bbd 98ce 6d3d
00000160: afaf 18bd 4200 01be 6895 cc3d e968 073d
00000170: f119 3c3d 586b 0d3d af52 2d3d 6894 bbbc
00000180: 5691 1a3e 9c75 1bbc 98b4 aa3d 8c55 873c
00000190: 26da 0bbc 1f52 88bd 1cde 1b3d d33f acbd
000001a0: 4a4d 5d3d d629 08bd e73e 0f3e 74a6 2ebd
000001b0: 8bb8 0a3c 8fc3 bb3d 2565 ecbd 32aa dabc
000001c0: 1c45 72ba a660 b5bd a7ca 3b3c ca2f b63c
000001d0: b702 b53b 6fa0 2c3e 47ed 07bb 540e c3bc
000001e0: 76e2 84bd 6302 cabd e952 873c 1088 7cbd
000001f0: a27a a5bb 3deb b53b e5ac 1bbe cfa3 e33a
00000200: fd0e 263d cbcf 813d 3621 533d 884f 8b3a
00000210: c905 34bc c868 3fbc 13c4 df3c f6a8 77bc
00000220: 3cec a23c 4985 12be 7cc7 63bd a2cf e1bc
00000230: 27e7 4dbd 7130 d0bd 5387 df38 ea50 08bd
00000240: f21e 5bbd 3f34 80bc 4ab3 c33d 25bc 9abd
00000250: 6bce aabc 492d 48bd 1431 8fbc 64d4 003d
00000260: b006 57bd 61a0 d6bc 7dc8 bbbd 4cd5 9fbd
00000270: 7cce dfbc 9646 a73d 5a1a a33d f271 913c
00000280: fc59 d5ba 62de 55bd c2b0 1b3d e0a2 073e
00000290: 769d dabd 82dc 1ebc 8131 033e 8cd6 90bd
000002a0: 4695 6f3d 90f3 d03b b9d9 05bd ba6c 2e3d
000002b0: 4a96 4e3d b437 f0bb 578a cbbd c051 893d
000002c0: 0f1a d83d b741 c3bd 505b 873c c5e7 53bc
000002d0: 3f44 dbbc f81d e33d 39dc 503d 911f 02bd
000002e0: 7ab1 cabd e4bb 7b3d 3ca3 c4bc d745 913c
000002f0: 9817 f03d 37b3 1e3d deb2 b33c b491 82bd
00000300: 58cb 793c cbc5 7abd 0dfd f23b 6f3d 0b3d
00000310: 6e28 e6bc b2f7 aebd 0e4e 6dbd 235a cfba
00000320: 2db9 bbbc f2e2 b7bc acbe ae3d 6dfb 473d
00000330: 616b 703d b5ab bf3b 546d c6bc 892e 4f3b
00000340: e243 b43d 67fe c1b9 b114 083d 29d1 3fbd
00000350: 5521 18be 9def 50bd a25b 22bc 7ea9 46bc
00000360: 809b 503d 99d3 a23d 7349 26bd 5737 20bc
00000370: 98da 21bd 1eed 193c c567 df3c 0e55 513d
00000380: 40fe 13be 07dd 24be ace0 5ebc c4d8 303d
00000390: e56a ad3d e841 82bc d2a8 f43d a528 30bd
000003a0: db4e 26bd 3155 92bc 5f75 3abd a30f fabb
000003b0: e81b 5abd 738c 37bd 4089 aa3c e134 d03c
000003c0: 7ff9 4fbc 6527 b3bc 7fa2 073d a5f2 17bc
000003d0: 1b5a 74bd 13ef ec39 707f 043d f8f8 ebbb
000003e0: 69d1 8dbc 133d a1bd 8115 a23d 48fd d4bc
000003f0: 9290 c73c 9835 0d3d 043f 40be 0797 30bd
-0.03362217 -0.07440221 0.0012732351 -0.0009838277 0.04233499 0.0021956435 0.06859945 0.02389448
-0.107027054 0.039286558 -0.097943515 -0.13322073 0.04071663 -0.008991454 -0.038273547 -0.063507654
-0.019377595 -0.075282685 0.034357674 0.053607147 0.12332196 0.038639143 0.080634214 -0.047982525
0.07002313 0.16940242 -0.14117232 0.121912755 -0.05565056 -0.024517609 -0.08538166 -0.021546122
-0.057272337 0.060945574 -0.046082176 -0.079126395 0.0038827902 -0.009962728 0.050670225 0.06671651
-0.013613463 -0.069974445 0.015176491 0.058477413 -0.07428878 -0.08055531 0.012820998 -0.017121684
-0.008720196 -0.024345484 -0.09041304 0.06490446 0.013961751 0.100620456 0.0096757095 0.0629882
0.006586303 0.07328519 0.12646572 0.006606831 -0.0305202 0.12144908 0.115185834 0.038482513
-0.039936237 -0.048102453 -0.0028617317 0.06719343 0.03493219 0.12899509 0.056256082 0.033282377
-0.0054687355 -0.0074172607 0.054157197 0.08768774 0.05528551 0.064865306 -0.019652436 0.009261097
0.06327134 0.029876474 0.0057801437 -0.05010861 0.017167246 0.025224775 -0.0535459 0.05805835
-0.03727692 -0.12597755 0.099894345 0.033059034 0.045923177 0.0345262 0.04231518 -0.022897914
0.15094504 -0.0094884895 0.08335227 0.016520284 -0.008535897 -0.06656288 0.038053617 -0.08410611
0.054028787 -0.033243023 0.13988839 -0.04263921 0.00846685 0.09168159 -0.11542729 -0.026692484
-0.00092418655 -0.08856325 0.01146189 0.022239584 0.0055240053 0.16858076 -0.0020740794 -0.023810543
-0.064885065 -0.098637365 0.016519027 -0.061653197 -0.0050500194 0.005551724 -0.15202673 0.0017367544
0.040541638 0.063384615 0.051545344 0.001062856 -0.010987707 -0.011682697 0.027315175 -0.015115967
0.019888036 -0.14308657 -0.055610165 -0.027564827 -0.050269272 -0.101654895 0.00010658675 -0.03328029
-0.05349631 -0.015649913 0.09555681 -0.07555417 -0.02085038 -0.048871312 -0.017479457 0.03145255
-0.052496612 -0.026199521 -0.091690995 -0.07804355 -0.02732014 0.0816776 0.079640105 0.017754529
-0.0016277428 -0.052214034 0.038010366 0.13245726 -0.106745645 -0.009696128 0.12811853 -0.070721716
0.058491968 0.006376691 -0.03267834 0.04258416 0.050436296 -0.007330859 -0.099384956 0.06705046
0.10551845 -0.095340185 0.016523033 -0.012933676 -0.02676594 0.110897005 0.05099127 -0.031768385
-0.09897132 0.061458483 -0.024003617 0.017733498 0.1172325 0.03874513 0.021935876 -0.06375447
0.015246235 -0.061223786 0.00741542 0.033994135 -0.02809545 -0.08543338 -0.057935767 -0.001581971
-0.022915447 -0.022447083 0.085324615 0.048823763 0.058696155 0.0058493265 -0.024222054 0.003161343
0.0880201 -0.00037001373 0.033222858 -0.04683033 -0.14856465 -0.051009763 -0.009909542 -0.012125371
0.050929546 0.07950515 -0.04059739 -0.009778819 -0.039515108 0.009394912 0.02727116 0.051106505
-0.14452457 -0.1609994 -0.013603371 0.043175474 0.08467654 -0.015900567 0.119462624 -0.04300751
-0.040602546 -0.017862888 -0.04552209 -0.0076312586 -0.05324927 -0.044811677 0.020817399 0.02541584
-0.012693762 -0.02186937 0.033113953 -0.00927416 -0.059656244 0.00045191552 0.032348096 -0.0072013102
-0.017311769 -0.07872977 0.07914258 -0.02599968 0.024360929 0.03447494 -0.18774039 -0.04311278
