config/results/entry_initFromBasic_obsNormalized/PathFollowing/PathFollowing-277576.onnx (onnx, 695646 bytes, 7 tensors)

action_model._continuous_distribution.log_sigma f4 [1, 3]
0	0xbd9e2885	-0.07722572
1	0xbe0a1619	-0.13484992
2	0xbd2a1a63	-0.04152907

action_model._continuous_distribution.mu.bias f4 [3]
0	0x3aabcec2	0.0013107883
1	0x3bf31d93	0.007419297
2	0xbaea7d9a	-0.0017890215

action_model._continuous_distribution.mu.weight f4 [3, 256]
0	0x3d07c931	0.033150855
1	0xbc359f6f	-0.011085375
2	0x3bcd447a	0.0062642666
3	0x3c964c05	0.018346796
4	0xbc944ce3	-0.018103069
5	0xbd1148e4	-0.035469905
6	0x3cc52bcf	0.024068741
7	0xbbe85dba	-0.007091251
8	0x3bdf81af	0.0068208794
9	0x3d115c7e	0.035488598
10	0x3bdea149	0.006794129
11	0xbc098f68	-0.008396007
12	0xbc29020d	-0.01031543
13	0xbbe6baf8	-0.0070413314
14	0x3b4acec2	0.0030945991
15	0xbcefd583	-0.029276615
16	0x3c5cb1cb	0.0134701235
17	0xbd031e07	-0.03201106
18	0x3c12fbde	0.008971183
19	0xbc000ad9	-0.007815086
20	0x3cb6a375	0.02229474
21	0xbcd5e3f5	-0.026109675
22	0x3b26f5c4	0.0025476078
23	0x3b59bedd	0.0033225336
24	0x3b3a6103	0.002843917
25	0x39b6dbb1	0.00034877428
26	0x3c83ab5c	0.016072921
27	0xbc3cc95e	-0.011522619
28	0x3b853893	0.004065582
29	0xbd14044c	-0.03613691
30	0xbcc35e4e	-0.023848679
31	0xbc4fceaf	-0.012683555
32	0x3c465cee	0.012107117
33	0xbbb59c16	-0.0055422885
34	0xbb91843b	-0.004440812
35	0xbd41c051	-0.047302548
36	0xbd17fe29	-0.03710762
37	0xbc390897	-0.011293552
38	0x3be3c6cb	0.006951188
39	0x3c3ca81c	0.01151469
40	0x3d0c35ac	0.034230873
41	0xbb2f3c05	-0.0026738655
42	0xbcb1d348	-0.021707192
43	0x3c1ec266	0.009689903
44	0x3ca0dcbc	0.019636504
45	0x3c7b4cf3	0.01533817
46	0x3b34b809	0.0027575514
47	0xbb73dc8f	-0.003721032
48	0x3c8bb805	0.01705552
49	0xbb0565cf	-0.0020354872
50	0x3c1c6351	0.009545163
51	0xbbfd1383	-0.0077232732
52	0xbd02e3f7	-0.031955685
53	0xbc21a9cd	-0.009867144
54	0x3d0e6e47	0.034773137
55	0xbc2e6c91	-0.010646001
56	0x3b3503cc	0.0027620671
57	0xbbbdd119	-0.0057927486
58	0xbd07f658	-0.033193916
59	0xbc9ac0ae	-0.018890705
60	0xbcbe4b06	-0.023229133
61	0x3d1bee54	0.038069084
62	0x3cf575e9	0.02996345
63	0x3c9d2256	0.019181412
64	0x3bb70d58	0.0055863075
65	0x3c8d6435	0.017259696
66	0x3d44e567	0.048070338
67	0xbcc12417	-0.02357678
68	0xbb664deb	-0.0035141658
69	0xbc834983	-0.016026264
70	0x3be68e8a	0.007036035
71	0x3c9eb440	0.01937306
72	0xbc8671c4	-0.01641167
73	0xba64a795	-0.00087224814
74	0xbc8136b4	-0.015773155
75	0x3c86cc3f	0.016454814
76	0x3ac26907	0.0014832326
77	0xbc4c8ceb	-0.012484769
78	0x3c69549d	0.014241365
79	0x3be5b24a	0.007009779
80	0x3c754153	0.014969188
81	0xb9609a97	-0.00021419894
82	0x3cc83663	0.024439996
83	0x3c730350	0.014832333
84	0x3bab6acc	0.005231237
85	0x3bb9a0c7	0.005664918
86	0xbbed333d	-0.007238774
87	0xbcb57f69	-0.02215548
88	0x3c764f66	0.0150335785
89	0xbc882d17	-0.016623063
90	0xbb3412bc	-0.0027476987
91	0xbc10b651	-0.00883253
92	0x3bdda691	0.006764241
93	0x3a5adf00	0.00083492696
94	0x3ada35dd	0.0016648133
95	0x3b19827b	0.002342372
96	0x381ba51c	3.710865e-05
97	0x3bf33936	0.0074225916
98	0xbcd89392	-0.026437555
99	0xbbd7a55b	-0.006580991
100	0x3d146e7a	0.03623817
101	0x3b980cbb	0.0046401895
102	0xbc7e456f	-0.015519484
103	0xbc207c94	-0.009795327
104	0x3b017289	0.0019752106
105	0xbb851b92	-0.0040621245
106	0xbc1329be	-0.00898212
107	0x3d27ff94	0.041015223
108	0x3bed8271	0.007248216
109	0xbc845e9c	-0.016158395
110	0x3c72ff07	0.014831311
111	0xbc8b41f4	-0.016999222
112	0x3c8c48e1	0.017124595
113	0xbc3d8d48	-0.011569329
114	0x3c2d682e	0.01058392
115	0x3ca85947	0.020550383
116	0x3c7578ce	0.014982415
117	0x3bdb4e84	0.0066927094
118	0xbbb8c3a6	-0.0056385575
119	0xbcd28416	-0.02569775
120	0xbc1025cc	-0.008798074
121	0xbc1bf5b2	-0.009519028
122	0xbc31915e	-0.010837881
123	0x3c9fbabd	0.019498223
124	0xbd3d35ab	-0.04619376
125	0xbc79bf5b	-0.015243377
126	0x3cbd56d2	0.023112688
127	0x3ba2a1ac	0.0049631204
128	0xbcab52c5	-0.020913491
129	0x3c196263	0.009361836
130	0x3b9a42c0	0.0047076643
131	0x3b9d00ab	0.0047913394
132	0x3c198250	0.009369448
133	0xbcc3c393	-0.023896968
134	0x3d26549a	0.040608026
135	0xbc47c6ce	-0.012193395
136	0x3c95904f	0.018257288
137	0xba665c39	-0.0008787546
138	0x3d2c1e02	0.042020805
139	0xbcc5a60c	-0.024127029
140	0x3d123cbe	0.03570246
141	0xbbb6a352	-0.0055736685
142	0x3c4c7979	0.012480133
143	0xbb9b4397	-0.004738282
144	0xbbfacd30	-0.007653855
145	0xbd167968	-0.036736876
146	0xbcb3fc76	-0.021970969
147	0xbd4f29fb	-0.050577145
148	0x3cff7f12	0.031188522
149	0xbbb74c9c	-0.0055938493
150	0x3bd3349f	0.006445482
151	0xbc9282f2	-0.017884705
152	0xb9775e1e	-0.00023590817
153	0xbca8f9aa	-0.020626862
154	0x3caaba58	0.020840809
155	0x3c4e9b03	0.0126102
156	0x3c3ddeb3	0.01158874
157	0xbc6aa6f7	-0.014322034
158	0xbc38a630	-0.011270091
159	0xbbc032b3	-0.005865419
160	0xbd2baa58	-0.0419105
161	0x3bee2714	0.007267842
162	0xbb71b6ae	-0.0036882567
163	0xb9d97dba	-0.0004148314
164	0x3d0c21d7	0.03421196
165	0xba1261a8	-0.000558401
166	0xbc408ddf	-0.011752575
167	0x3c05d2d1	0.008167938
168	0xbc9df7cf	-0.019283203
169	0x3ba7cdf9	0.0051209894
170	0xbcd5a338	-0.026078805
171	0x3c9896d8	0.018626615
172	0x3ca7ed0a	0.020498771
173	0x3c5afe2f	0.013366266
174	0x3c4b4672	0.012406932
175	0x3d2a50b5	0.041580874
176	0xbbad694d	-0.005292094
177	0xbb83dd43	-0.004024179
178	0x3c71bd6d	0.014754635
179	0x3c04683d	0.008081493
180	0xbb9fca31	-0.004876398
181	0x3c9eb881	0.019375088
182	0x3cced2b2	0.025246952
183	0xbbc88b96	-0.0061201556
184	0x3c864129	0.016388493
185	0x3ccc8191	0.024964126
186	0x3c9afe0f	0.018919973
187	0xbc0038c7	-0.007826037
188	0x3cca9d8a	0.024733324
189	0xbc4d2167	-0.012520171
190	0xbb4b720d	-0.0031043321
191	0x3d0fcef1	0.035109464
192	0x3be6e587	0.0070464048
193	0xbb0fdcb1	-0.002195161
194	0x3b97e795	0.004635761
195	0x3cbfa4ef	0.023394076
196	0x3cadcead	0.021216715
197	0xbce79fb3	-0.028274393
198	0xbb288086	-0.0025711372
199	0xbb521245	-0.0032054347
200	0xbc3d2c28	-0.011546172
201	0x3c3ef3c8	0.011654802
202	0xbcb5372a	-0.02212103
203	0x3d31c63d	0.043401945
204	0xbbdd9c58	-0.0067630224
205	0xbb8395a7	-0.0040156427
206	0xbb962ac8	-0.0045827366
207	0xbbd2bdaf	-0.0064313035
208	0x3d0ebdbe	0.03484892
209	0x3c8231f1	0.015892955
210	0x3d2a5d57	0.041592922
211	0x3c2c303c	0.010509547
212	0x3cbd192f	0.023083298
213	0x3d1471e5	0.03624143
214	0x3ca8b61d	0.02059465
215	0x3c4f2e58	0.012645327
216	0xbc351a59	-0.011053645
217	0xbd1beb14	-0.038065985
218	0x3abbea78	0.0014336845
219	0x3aabd39e	0.0013109331
220	0xb8327368	-4.2545988e-05
221	0x3caa9fde	0.020828184
222	0xbc3ac0f1	-0.01139854
223	0xbcc19477	-0.023630364
224	0xbcffc5f0	-0.031222314
225	0x3c765e12	0.015037077
226	0xbb8f0454	-0.0043645296
227	0xbb357fe8	-0.0027694646
228	0x3be3da98	0.0069535486
229	0xbc685bbe	-0.014182029
230	0xbc822284	-0.015885599
231	0xbc1d10d6	-0.0095865335
232	0xbc16fc8f	-0.009215488
233	0xbcc0580d	-0.023479486
234	0x3c0d034e	0.008606745
235	0xba9d9ca2	-0.001202483
236	0x3c21503c	0.0098457895
237	0x3b2d905c	0.002648375
238	0x3c5e2921	0.013559611
239	0x3c5345f3	0.012895095
240	0xbc7d80fd	-0.015472648
241	0x39e16102	0.0004298762
242	0xbaaf9a01	-0.0013397337
243	0xbc03567a	-0.008016223
244	0x3b99c5e8	0.0046927817
245	0xbcad15a9	-0.021128492
246	0xbbca96f3	-0.0061825453
247	0x3bb610a7	0.0055561843
248	0xbae34996	-0.0017340656
249	0x3caeac0b	0.02132227
250	0x3ccd370f	0.025050668
251	0x3c20b43c	0.009808596
252	0x3b0c1fa3	0.0021381162
253	0xbc9f1bc2	-0.019422416
254	0xba95d03e	-0.0011429859
255	0xbbf084d7	-0.0073400545

network_body.linear_encoder.seq_layers.0.bias f4 [256]
0	0x3b3d0389	0.0028841218
1	0x3b980b64	0.0046400297
2	0x3a1e5aef	0.0006040772
3	0x3b517feb	0.0031967114
4	0x3b0a1279	0.002106814
5	0x391fa690	0.00015225471
6	0xbbee7604	-0.007277252
7	0xb99d3208	-0.0002998265
8	0xbbc11330	-0.00589218
9	0x3a0d728c	0.0005395792
10	0xbbe95241	-0.007120401
11	0xbb32da1c	-0.0027290648
12	0xbbfe13cf	-0.007753826
13	0x3b9f2d4b	0.0048576943
14	0xbb246a62	-0.0025087823
15	0x3b8b2e4d	0.004247463
16	0xbc04bf70	-0.008102283
17	0xb9bf0a48	-0.0003643802
18	0x39c5be8d	0.0003771674
19	0xbad2cebb	-0.0016083339
20	0xbc1e7e5b	-0.00967368
21	0xbad4090a	-0.001617701
22	0xbb8daec6	-0.004323813
23	0xbac56df5	-0.0015062677
24	0xbc22b6ee	-0.009931309
25	0xbb513016	-0.003191953
26	0x3b3dd298	0.0028964635
27	0xbae96176	-0.0017805535
28	0x3b24945f	0.002511285
29	0x3b7551aa	0.0037432709
30	0x3b81c2cb	0.0039599887
31	0xbc905057	-0.017616434
32	0x3b3ac633	0.0028499484
33	0x3a813252	0.0009856916
34	0xbb7cd99b	-0.0038581851
35	0xbbc40228	-0.0059817024
36	0xbbcc9a5f	-0.0062439884
37	0xba87d32f	-0.001036262
38	0x3bbad32c	0.005701443
39	0xbba57502	-0.005049349
40	0x3c42d819	0.011892342
41	0x3bb06e57	0.0053842473
42	0x3b19144e	0.002335805
43	0xbb98aec7	-0.004659507
44	0x3b3707c6	0.0027928217
45	0xbb4896a1	-0.003060736
46	0xbb887d64	-0.0041653384
47	0xbbf13f93	-0.007362315
48	0xbc131a35	-0.008978416
49	0xbaea05fd	-0.0017854568
50	0x3bcffa49	0.006346975
51	0xb9b4df92	-0.00034498848
52	0xbc91cf20	-0.01779896
53	0x3acf661d	0.0015823279
54	0xbc5d093d	-0.013490972
55	0xbb7e7847	-0.0038829015
56	0xbb963ba1	-0.004584745
57	0xb9d7d344	-0.000411654
58	0xbc1435fb	-0.009046073
59	0xbb191413	-0.0023357912
60	0xbbb0391b	-0.0053779013
61	0x3af36e95	0.0018572385
62	0x3bd3fc7c	0.0064693075
63	0x3bb33ec4	0.0054701287
64	0x3bc2e4d7	0.00594769
65	0x3a31e461	0.0006786045
66	0xbb51c07f	-0.0032005606
67	0x3c4df8cb	0.012571524
68	0x3b801065	0.0039082044
69	0xbb4bb6f1	-0.0031084383
70	0xbb6e2f72	-0.0036344198
71	0xbba3a753	-0.004994312
72	0xb9c4f625	-0.00037567425
73	0xba3f122a	-0.00072887784
74	0xbbb6c19e	-0.00557728
75	0xbc213d13	-0.009841221
76	0xbba08c43	-0.004899533
77	0x3c0365e2	0.008019896
78	0x3aab5201	0.0013070704
79	0x3b54e270	0.00324836
80	0xbbb1d991	-0.0054275473
81	0xbc1f9370	-0.009739742
82	0xbbc259b6	-0.0059311045
83	0x3a0f18ea	0.00054587296
84	0xbc27638f	-0.010216608
85	0xbaf9deec	-0.0019063628
86	0xbc24ae65	-0.0100513445
87	0x3b90b6d7	0.0044163275
88	0xbc378550	-0.011201218
89	0xbb54e1f6	-0.0032483316
90	0x3af8c379	0.0018979154
91	0x3c1e55e3	0.009664032
92	0x3b9d7087	0.004804674
93	0xbc1cc43c	-0.00956827
94	0xbb368c54	-0.0027854638
95	0x3b6ae796	0.0035843602
96	0x3a1794ac	0.00057823467
97	0x3bb1adac	0.0054223146
98	0xbc040d67	-0.008059836
99	0x3b5029fe	0.003176331
100	0xbc4a0912	-0.012331264
101	0xbb831952	-0.004000821
102	0xbb233bf2	-0.0024907556
103	0x3adcb954	0.00168399
104	0x3b761de5	0.003755444
105	0xbb345fcf	-0.0027522927
106	0xbb4b3d88	-0.0031012017
107	0x3b4509e1	0.0030065703
108	0x3b3dbddd	0.0028952279
109	0xbac51742	-0.0015036839
110	0x3bf29507	0.0074030194
111	0xbbef719c	-0.0073072445
112	0x3b1ec917	0.0024228746
113	0x3bb5b532	0.005545282
114	0x3b89acd2	0.00420151
115	0x3b314d62	0.002705418
116	0xbbb5ed2f	-0.005551956
117	0xbb4dbee3	-0.0031394295
118	0x3c518acc	0.012789439
119	0xbc243f75	-0.010024895
120	0xbc5900a5	-0.013244783
121	0xba864c93	-0.001024621
122	0xbc70351d	-0.014661101
123	0xbad147c2	-0.001596682
124	0x3a892437	0.0010463063
125	0x3b207325	0.0024482694
126	0xbb329356	-0.0027248464
127	0xb8f67138	-0.00011751283
128	0x3bfd2b32	0.0077260965
129	0xba860fef	-0.0010228137
130	0x3b9a79c9	0.004714225
131	0xbaaab95e	-0.0013025214
132	0xbacaef43	-0.0015482683
133	0xbb939082	-0.0045033107
134	0xbb828ee8	-0.003984321
135	0x3a67f41e	0.0008848327
136	0xbc221a41	-0.009893955
137	0xbc6c82cb	-0.01443548
138	0x3b18ebc2	0.0023333882
139	0x3bdfaecf	0.0068262587
140	0xb8e0187d	-0.00010685714
141	0xbbedd464	-0.007257985
142	0xbbf0664b	-0.007336413
143	0xbba93bd3	-0.0051646023
144	0x3b2b78f5	0.0026164625
145	0xbb07879e	-0.00206802
146	0x3ab4b795	0.0013787622
147	0xbc7dc816	-0.015489599
148	0x3c00b466	0.00785551
149	0x3bc47f45	0.005996617
150	0xbb064baf	-0.0020491888
151	0xbbb357cb	-0.005473112
152	0x3b791776	0.0038008369
153	0x3afb33ea	0.0019165252
154	0x3c307fe5	0.01077268
155	0xbaf33b15	-0.0018557037
156	0x3b1463a5	0.00226424
157	0x3b4aedfb	0.0030964601
158	0xbbf18908	-0.0073710717
159	0x3b2158d1	0.002461959
160	0x3b5a5047	0.003331201
161	0xbc0918a5	-0.008367692
162	0xbc1bc99c	-0.009508517
163	0xbba4efad	-0.0050334544
164	0x3b703d8d	0.003665778
165	0xb800c7c0	-3.070361e-05
166	0xbc09b706	-0.008405453
167	0xbaa96e23	-0.00129265
168	0xbc512214	-0.0127644725
169	0x3b6338a7	0.0034671219
170	0x3b86e633	0.0041167974
171	0xbc9b492a	-0.018955786
172	0x3b8617dc	0.0040921997
173	0xbc65e8e7	-0.014032579
174	0xba35fdb3	-0.0006942406
175	0x3aad9423	0.0013243001
176	0xba75cd62	-0.0009376613
177	0xbb2e5d97	-0.0026606077
178	0x3a993e52	0.0011691547
179	0xbc2140f0	-0.009842142
180	0xbb98a8de	-0.0046588024
181	0x39d5a827	0.0004075181
182	0x3bb0a42f	0.005390666
183	0x3ad6b2e6	0.001638022
184	0xba7964f5	-0.000951364
185	0xba8d7f75	-0.0010795431
186	0x3ab536cd	0.0013825536
187	0x3bab9da8	0.0052373
188	0x3afb936d	0.0019193717
189	0xbc2373b6	-0.009976318
190	0xba360d21	-0.00069447054
191	0xbbbf133a	-0.0058311494
192	0x3b7f7ab9	0.003898306
193	0x3baf287a	0.0053454014
194	0xbc57c815	-0.013170262
195	0xbb918c51	-0.004441776
196	0xbc5719aa	-0.013128677
197	0x3c06312e	0.008190436
198	0x3aabfee1	0.0013122224
199	0x3be213d7	0.0068993377
200	0xbb3edc1a	-0.002912289
201	0xbc71df48	-0.014762707
202	0x3ac44e0e	0.0014976875
203	0xba073497	-0.0005157678
204	0x3bef9813	0.00731183
205	0xbac5cbd7	-0.0015090656
206	0x3b627780	0.003455609
207	0xbb8febca	-0.004392122
208	0xbc374268	-0.011185266
209	0xbb3dc140	-0.0028954297
210	0x3acb51fe	0.0015512106
211	0x3c1c6088	0.009544499
212	0x3aa8ac11	0.0012868663
213	0x3a7abf4e	0.000956525
214	0xbc2094eb	-0.00980113
215	0x3b4a5cf0	0.003087815
216	0x3b0dc2b6	0.002163095
217	0x39daf911	0.0004176577
218	0x3bf90d1a	0.007600439
219	0x3b8fb07b	0.004385052
220	0x3adb6296	0.0016737755
221	0xb96648b8	-0.00021961599
222	0x3c316bb0	0.010828897
223	0xbc25509b	-0.010090019
224	0xbbbbc8b9	-0.005730715
225	0xb990d582	-0.00027624896
226	0xbb38e65e	-0.0028213481
227	0x3bbd3dc9	0.0057751876
228	0xbc069793	-0.008214849
229	0x3ad6cb43	0.0016387481
230	0xbb1f9cbc	-0.0024354896
231	0xbb2f9746	-0.0026793047
232	0x3ac4d056	0.0015015702
233	0x3bdc7802	0.0067281732
234	0x3a018253	0.00049403793
235	0x3b0d0166	0.0021515726
236	0xbad20437	-0.0016022985
237	0xbc419248	-0.011814661
238	0xbc8e2e18	-0.017355964
239	0xbb3fe490	-0.002928052
240	0xbb19e0fb	-0.0023480046
241	0xbb163244	-0.0022918144
242	0xba6e4c48	-0.0009090346
243	0x3b8d0162	0.0043031434
244	0xbc0e5b00	-0.008688688
245	0xbbe1620c	-0.006878143
246	0x3b85baba	0.0040810974
247	0x3afec692	0.0019437841
248	0xba6d480d	-0.0009051569
249	0xbb204e65	-0.002446079
250	0xbaa62591	-0.0012675991
251	0x3b3b75b8	0.0028604101
252	0xba5c1df6	-0.00083967985
253	0xbbb0b53c	-0.0053926986
254	0x3bd1601f	0.0063896324
255	0x3a9cbf78	0.0011958918

network_body.linear_encoder.seq_layers.0.weight f4 [256, 416]
0	0x3dc101f2	0.09424199
1	0x3ce1ebb5	0.027578214
2	0xbca4db2e	-0.020124044
3	0x3c8c140c	0.017099403
4	0xbc8669ff	-0.016407965
5	0xbd640c94	-0.055676058
6	0x3cd52afb	0.026021471
7	0x3d16099c	0.036630258
8	0xbc8ea28e	-0.017411496
9	0xbd65a163	-0.056062113
10	0xbc963636	-0.018336397
11	0xbdbcec93	-0.092248105
12	0x3d4f5621	0.05061925
13	0x3ce9eafe	0.028554436
14	0x3d48349b	0.048878293
15	0x3ce0aed0	0.027427107
16	0xbd1f4072	-0.03887982
17	0x3d244f40	0.04011464
18	0xbc4cbc32	-0.012496041
19	0xbd9606cb	-0.073255144
20	0x3d960159	0.07324476
21	0xbbf1c46c	-0.0073781516
22	0x3cb514ab	0.022104582
23	0xbd18d4b6	-0.037312232
24	0x3cf69219	0.030098962
25	0xbd1e1188	-0.038590938
26	0x3cd22ea1	0.025657
27	0x3d7c37c6	0.061576627
28	0x3affcf0b	0.001951666
29	0xbd21e2b6	-0.03952285
30	0xbd12f585	-0.035878677
31	0xbd00c4fe	-0.031437866
32	0xbc2b8b04	-0.010470156
33	0x3d746e40	0.059675455
34	0xbd53f926	-0.05175128
35	0xbcd2b35c	-0.02572029
36	0x3cad3ba9	0.021146612
37	0x3d7543c2	0.059879072
38	0xbd08fa05	-0.033441562
39	0xbd4374dd	-0.04771887
40	0xbd99bad2	-0.07506336
41	0xbd3c58d0	-0.045983136
42	0xbd6f44c7	-0.0584152
43	0x3c9da13e	0.019241925
44	0x3d1ffe99	0.039061163
45	0xbc867b5d	-0.016416246
46	0xbdf6dd8e	-0.12053977
47	0xbcc7c550	-0.024386078
48	0xbd8fa7c9	-0.07014424
49	0xbb82dd2c	-0.003993651
50	0x3ca2f2b7	0.019891126
51	0xbd383a7b	-0.044977646
52	0x3a7e939f	0.00097113283
53	0xbcd79f83	-0.026321178
54	0xbd48c550	-0.049016297
55	0x3d590688	0.052984744
56	0x3cc7b434	0.02437792
57	0x3d72b6e1	0.05925644
58	0xbc558c42	-0.013033928
59	0xbcdfd7ce	-0.027324583
60	0xbd1a3f5c	-0.03765808
61	0xbce38ec2	-0.027778033
62	0xbd2e6b83	-0.042583
63	0x3dd7c477	0.105355196
64	0x3c5f9ad1	0.013647751
65	0xbd876815	-0.06611649
66	0x3d37bd1c	0.044858083
67	0xbd884f65	-0.06655768
68	0x3cde3f0b	0.02712967
69	0x3ad8249a	0.00164904
70	0xbd1cb7e3	-0.038261306
71	0xbb83d48d	-0.0040231408
72	0xbd1861b3	-0.03720255
73	0xbd8768ee	-0.066118106
74	0xbd50aa5b	-0.050943714
75	0xbb85b408	-0.0040802993
76	0xbd39f998	-0.045404047
77	0x3b6e046d	0.0036318556
78	0xbda608ab	-0.08107122
79	0xbd07141c	-0.032978162
80	0xbd2d4f91	-0.04231221
81	0xbcf63ac9	-0.030057328
82	0xbc911b4a	-0.017713208
83	0x3cd6cfb6	0.026222091
84	0x3d445b28	0.047938496
85	0xbd314edb	-0.043288093
86	0x3d4b36a4	0.049612656
87	0x3c79ca52	0.015245991
88	0x3cc947aa	0.024570305
89	0xbce93479	-0.028467404
90	0xbca3493c	-0.019932382
91	0xbc21799b	-0.009855653
92	0xbd80c1c7	-0.0628696
93	0x3d17127b	0.03688286
94	0x3d7f5e2a	0.06234566
95	0xbc1f4acb	-0.009722422
96	0xbd8e90fe	-0.06961249
97	0x3c0693b6	0.008213928
98	0xbd46aef8	-0.048506707
99	0xbd6ddb1e	-0.058070295
100	0x3bfca083	0.007709564
101	0xbddc3f8d	-0.10754309
102	0x3dd46402	0.103706375
103	0x3ba55e02	0.005046607
104	0xbc867299	-0.016412066
105	0x3c25e2c5	0.010124867
106	0x3d82b54b	0.06382235
107	0xbbc662ac	-0.006054243
108	0xbc081390	-0.008305445
109	0xbce35ed8	-0.027755186
110	0xbd44f8f6	-0.04808899
111	0x3d4388b7	0.047737803
112	0x3b8fb369	0.004385401
113	0xbd2496b7	-0.040182795
114	0xbc03c2c9	-0.008042046
115	0x3b416f23	0.0029515706
116	0x3be75689	0.0070598763
117	0x3dba1aa6	0.09087114
118	0xbdb4362f	-0.08799397
119	0x3d338b32	0.04383392
120	0xbd386c08	-0.0450249
121	0xbbef2a71	-0.0072987606
122	0x3dd38f08	0.103300154
123	0xbb4b35d9	-0.0031007438
124	0xbd8677a6	-0.0656579
125	0xbcfc1431	-0.030771347
126	0xbd8bbdfa	-0.068233445
127	0xbc1f8121	-0.009735377
128	0xbd03db14	-0.03219135
129	0xbd4899af	-0.04897469
130	0xbde5b6cc	-0.11216506
131	0xbda3de6a	-0.080014065
132	0xbca5d31d	-0.020242268
133	0x3d262ee9	0.04057208
134	0x3b6e26c3	0.0036339022
135	0xbd82012b	-0.06347879
136	0x3d0f6741	0.03501058
137	0x3afa480e	0.001909496
138	0xbd62a1ae	-0.05532997
139	0xbcfa5c8b	-0.030561706
140	0xbac6f54e	-0.0015179308
141	0xbd5c225a	-0.053743698
142	0x3a810988	0.000984476
143	0xbbaa7fd4	-0.0052032266
144	0x3d67a773	0.056556176
145	0x3c8f2004	0.01747132
146	0xbbdd4088	-0.0067520775
147	0x3d397d8b	0.045285743
148	0xbcc7dfec	-0.024398766
149	0xbd3a9ab2	-0.045557685
150	0x3c826abe	0.01592004
151	0xbdb831d4	-0.08993879
152	0xb9f02eaa	-0.00045811135
153	0xbd23e2c9	-0.0400112
154	0xbc1bd214	-0.009510536
155	0xbda33235	-0.079685606
156	0xbd4c6d68	-0.049909025
157	0x3a10969f	0.00055156084
158	0xbcbbdd36	-0.02293263
159	0x3d4764df	0.048680183
160	0xbd5b85bc	-0.053594336
161	0xbd6aa0da	-0.057282306
162	0x3c974db7	0.018469675
163	0xbd8b6cca	-0.06807859
164	0xbd1c487c	-0.038155064
165	0xbd1f8c20	-0.038951993
166	0x3bb92497	0.005650114
167	0x3d4a33be	0.04936575
168	0x3da2d19d	0.07950137
169	0xbd112784	-0.035438076
170	0x3d780f93	0.060561728
171	0xbadf5fbe	-0.0017042083
172	0x3d3907e7	0.045173552
173	0x3b446397	0.0029966587
174	0x3cf9351e	0.030420836
175	0xbd801087	-0.06253152
176	0xbd03351d	-0.032033075
177	0x3b67d59f	0.003537513
178	0x3c6986d5	0.014253338
179	0xbb413168	-0.0029478911
180	0xbbad3dee	-0.0052869236
181	0xbd0daea0	-0.034590364
182	0x3db8698e	0.09004508
183	0xbc588222	-0.01321462
184	0xbdbb4c10	-0.09145367
185	0xbd3d2916	-0.04618176
186	0xbcac7cf1	-0.02105567
187	0x3b3f46d2	0.00291865
188	0xbd6f666d	-0.05844729
189	0x3ccb35a1	0.024805846
190	0x3d95d45a	0.073158935
191	0xbd284e18	-0.0410901
192	0xbd1128ef	-0.035439428
193	0xbd145d63	-0.036221873
194	0xbce9d71c	-0.028544955
195	0xbc4cef03	-0.012508157
196	0xbc111a2a	-0.008856336
197	0xbdbfc786	-0.09364228
198	0x3c925f0a	0.017867584
199	0xbc464a0a	-0.012102613
200	0xbd328184	-0.043580547
201	0xbceb83d1	-0.028749378
202	0x3d0547e7	0.032539275
203	0xbd3e2a57	-0.046427097
204	0x3c00a954	0.007852871
205	0xbd9c0bc2	-0.0761943
206	0x3d3fa3cc	0.04678707
207	0x3d6d3290	0.05790955
208	0xbcf756b6	-0.030192714
209	0xbd5c7c72	-0.053829618
210	0xbd5500de	-0.05200278
211	0x3da1ac7b	0.07894226
212	0x3dc684ec	0.096933216
213	0x3d90c259	0.07068319
214	0x3cedf710	0.029048473
215	0x3d8e2b74	0.06941882
216	0x3ca3b250	0.019982487
217	0x3b11eebb	0.0022267539
218	0xbdee4b14	-0.11635414
219	0x3c810a03	0.015751844
220	0x3d9ecff4	0.07754508
221	0x3c0dda4b	0.008658002
222	0xbd3b66db	-0.045752387
223	0x3df2dac5	0.11858133
224	0xbca6702d	-0.020317161
225	0xbda9a576	-0.08283512
226	0xbd8c5ddf	-0.06853842
227	0x3cf0a9c8	0.029377833
228	0xbca4a982	-0.020100359
229	0x3c52430d	0.012833369
230	0xbcf459e7	-0.029828025
231	0xbcd2c091	-0.025726588
232	0xbd3a1f9a	-0.045440294
233	0xbd192f56	-0.03739866
234	0xbe09ae7a	-0.13445464
235	0x3d75cbbe	0.060008757
236	0xbd1ed057	-0.038772907
237	0x3bce2e48	0.0062921382
238	0x3c728475	0.014802088
239	0x3d4a67c3	0.04941536
240	0x3d4fe3ab	0.05075423
241	0x3d569d26	0.052395962
242	0xbd2beeca	-0.041975774
243	0x3df15073	0.117829226
244	0xbc75bf3d	-0.014999208
245	0x3dac3f53	0.08410516
246	0x3d8364ad	0.06415687
247	0x3cc8bf63	0.024505323
248	0x3cfead74	0.031088568
249	0xbcfff5a0	-0.031245053
250	0xbc902022	-0.017593447
251	0xbd205b07	-0.03914931
252	0xbca03dc1	-0.019560697
253	0x3dd78740	0.10523844
254	0xbc83d10b	-0.01609089
255	0xbd042922	-0.03226579

network_body.linear_encoder.seq_layers.2.bias f4 [256]
0	0xbc128342	-0.008942427
1	0xbbc5e13a	-0.006038812
2	0xbb677e22	-0.0035322984
3	0xba0ce668	-0.00053749094
4	0x3b6903f3	0.0035555332
5	0x3bd3c36c	0.006462505
6	0x3bd41d2d	0.0064732046
7	0xb4b55e60	-3.3782544e-07
8	0xba6762c8	-0.000882667
9	0x3b218d7c	0.0024650982
10	0xbbe88138	-0.007095482
11	0xbc334e86	-0.010944014
12	0xba60b414	-0.00085717556
13	0xbbdfad96	-0.006826113
14	0xbc2690fe	-0.010166405
15	0x3aaf9f6a	0.001339895
16	0x3bc2c658	0.0059440546
17	0x3998cdaf	0.00029144945
18	0xbbc66cba	-0.0060554417
19	0x3b54b774	0.003245798
20	0x39c74b4e	0.00038012344
21	0xbbb4a530	-0.005512856
22	0x3c2778b8	0.010221653
23	0x3bd34041	0.0064468686
24	0x39876859	0.00025826952
25	0x3b251c59	0.0025193898
26	0xb9856fe4	-0.00025451102
27	0x3b05c0fd	0.002040922
28	0x3ab89b06	0.0014084287
29	0xba1d3bcc	-0.0005997985
30	0x3ac47fcf	0.0014991703
31	0xbae3bb06	-0.0017374463
32	0x3b05d029	0.0020418263
33	0xbb779ced	-0.0037782744
34	0x3b9f4db8	0.0048615597
35	0x3b4ba56f	0.0031073948
36	0x3bdf9720	0.0068234354
37	0xb90d273b	-0.00013461422
38	0x3b0f767c	0.002189069
39	0xbb2bf6e9	-0.00262397
40	0x3b8e76cd	0.0043476583
41	0xbaec5bf4	-0.0018032775
42	0xbbbfadb0	-0.0058495626
43	0xbc0ebc49	-0.008711883
44	0xb901b48b	-0.00012369656
45	0x3bcef8ec	0.006316295
46	0x3bd768dc	0.0065737795
47	0x3b685f7d	0.0035457306
48	0x3a8ab76b	0.0010583227
49	0x3acd8ce5	0.0015682249
50	0xbb598be3	-0.0033194951
51	0x3ad247ce	0.0016043128
52	0x3bf253f7	0.0073952633
53	0x3ac75e74	0.0015210644
54	0x3bdbdd4d	0.0067097307
55	0x3bacd071	0.0052738716
56	0xbbb87481	-0.0056291227
57	0xbab6e7e4	-0.0013954607
58	0x3b1b0fbb	0.00236605
59	0x3ba64890	0.005074568
60	0x3ad51006	0.0016255386
61	0x3ba462fe	0.0050166836
62	0x3bcb17e6	0.0061979173
63	0x3b902c68	0.004399825
64	0xbb9a56ac	-0.004710039
65	0x3bd2f778	0.006438192
66	0x3b9315ab	0.004488667
67	0x39b69246	0.00034822727
68	0xbc28df73	-0.010307181
69	0x3a7272ac	0.0009248655
70	0x3a1e51de	0.0006039421
71	0xbae94160	-0.0017795973
72	0x3bb74c4e	0.005593813
73	0x3799952a	1.8308481e-05
74	0xbc12f001	-0.008968354
75	0xba23f376	-0.0006254235
76	0xbbc3064c	-0.0059516784
77	0x3b1e50ed	0.0024157122
78	0xbb74ab3f	-0.0037333516
79	0xba06223e	-0.0005116797
80	0x3bcfb1d4	0.0063383374
81	0x3b9019bd	0.0043975995
82	0xbba35fea	-0.004985799
83	0x39b3d906	0.00034303236
84	0xbbc957df	-0.0061445083
85	0x3aa880ae	0.0012855732
86	0xbb656237	-0.0035001168
87	0x3c53b671	0.012921915
88	0x3b67b204	0.0035353908
89	0xbac45d5c	-0.0014981437
90	0x3c655c10	0.013999
91	0xba0704fb	-0.00051505835
92	0x3bbf178d	0.005831665
93	0x3b321e17	0.002717858
94	0xbb80d326	-0.003931421
95	0xbb6421c6	-0.003481017
96	0xbaa5686d	-0.0012619622
97	0xbbe54151	-0.0069963117
98	0xbb5a33f4	-0.0033295127
99	0xbab93191	-0.0014129152
100	0x3abd3b47	0.0014437222
101	0xbc440dbc	-0.011966165
102	0x3ae636ad	0.0017563902
103	0xbc474427	-0.012162245
104	0xbb10a751	-0.0022072385
105	0xbb8b6904	-0.004254462
106	0x3c130ed7	0.008975706
107	0x3b4e59b1	0.0031486566
108	0x3b29f8d9	0.0025935678
109	0x3bb6b9c3	0.0055763437
110	0x3bd23af7	0.0064157206
111	0x3b85eee0	0.004087314
112	0xbbbee749	-0.005825911
113	0xbbc8df2f	-0.006130121
114	0xb927c649	-0.00016000228
115	0xbac6e822	-0.0015175382
116	0x3c00c112	0.007858532
117	0xbb5a64bb	-0.00333242
118	0x3bba2236	0.005680348
119	0x3c04116c	0.008060794
120	0xbaecde4d	-0.0018071622
121	0x3bbbb777	0.005728658
122	0x393d7a38	0.00018069975
123	0x3b28a87e	0.0025735195
124	0x3af12838	0.0018398827
125	0xbbaa2120	-0.005191937
126	0x3b041bb6	0.0020158119
127	0xbbcb0a54	-0.0061962996
128	0xba8cfc30	-0.001075631
129	0x3bb814fc	0.005617736
130	0xbb2d1358	-0.0026409235
131	0x3c064d99	0.008197212
132	0xbbba0da3	-0.005677895
133	0x386528c6	5.4635828e-05
134	0x3b3bac22	0.0028636535
135	0x3b19bf0f	0.0023459827
136	0xbb95a4bc	-0.004566757
137	0x3b9a52b5	0.0047095665
138	0x3b45eacd	0.0030199767
139	0xb9653140	-0.00021857489
140	0x3b800036	0.003906275
141	0x3ab54b46	0.0013831637
142	0x3b15616f	0.002279367
143	0x3b285372	0.0025684503
144	0x3abcd056	0.0014405351
145	0x3b46be62	0.003032588
146	0x3a20ee8d	0.00061390625
147	0xba4cc27d	-0.00078109634
148	0x3c36a6b0	0.01114814
149	0xbb8f751d	-0.0043779747
150	0x3a72f222	0.0009267648
151	0x398b3c2e	0.00026556983
152	0xbbbd0777	-0.005768712
153	0xbaf730f5	-0.0018859195
154	0xbb04c0e5	-0.0020256576
155	0x3bad83ba	0.005295244
156	0x3c02fe61	0.007995219
157	0xbb8d1828	-0.004305858
158	0xbacff0c7	-0.0015864604
159	0xbb9e453d	-0.004830031
160	0x3bb8822b	0.0056307516
161	0x3badecfb	0.0053077913
162	0x3ae131b2	0.0017180948
163	0xbb5839f0	-0.0032993518
164	0xba29ca66	-0.0006476998
165	0xb9fcc92e	-0.00048215076
166	0xbbb55482	-0.0055337558
167	0x3ba9fd86	0.005187693
168	0x3b1e0db0	0.0024117045
169	0x3b98067b	0.0046394444
170	0x39de7bee	0.00042435474
171	0x3b9e01e9	0.004822005
172	0x3bb5af5f	0.0055445875
173	0x3b9a64bd	0.004711716
174	0xbc01b433	-0.007916498
175	0x3c0f83cb	0.008759449
176	0xbbfb96e2	-0.0076778987
177	0xbbd65554	-0.0065409336
178	0x3c2260d6	0.009910783
179	0xbc01aee9	-0.007915237
180	0xbc5cf8b8	-0.013487034
181	0x3b46eaf6	0.003035245
182	0x3b923fcc	0.0044631716
183	0xbc082df1	-0.008311735
184	0x3ae54ad7	0.0017493617
185	0x3b47e365	0.0030500528
186	0x3b598189	0.0033188781
187	0xbb6227f2	-0.0034508673
188	0x3ba4be4e	0.005027569
189	0xbb445086	-0.0029955222
190	0xbc19792f	-0.009367271
191	0x3b9a592a	0.004710336
192	0xbbf3052d	-0.0074163885
193	0xbba94dde	-0.005166753
194	0x39009ffb	0.00012266629
195	0x3b826647	0.0039794776
196	0x3c1330f6	0.008983841
197	0xbb161f96	-0.002290701
198	0x3bd02cae	0.0063529825
199	0xbc18da61	-0.009329409
200	0x3ae02b2b	0.0017102709
201	0xb92f32e0	-0.00016708253
202	0xba9b3af8	-0.0011843136
203	0x3c3e989a	0.011633063
204	0xbbdc194d	-0.0067168833
205	0x3b355eae	0.0027674842
206	0xbc25a7d0	-0.01011081
207	0xbc494d90	-0.012286559
208	0x3b831619	0.004000437
209	0xbc024482	-0.007950904
210	0x3c06b438	0.008221678
211	0xbbb87685	-0.005629363
212	0x3b91a118	0.0044442527
213	0x3a87a70a	0.0010349464
214	0x3b6e4790	0.0036358573
215	0xbbba83f3	-0.005691999
216	0xbc2a18d6	-0.010381898
217	0x3a9312c5	0.0011220804
218	0xbc01c8d2	-0.007921414
219	0xbbd43cd4	-0.006476978
220	0xbb2bad4b	-0.002619582
221	0x3bf0e6aa	0.007351716
222	0xbac16eb9	-0.0014757729
223	0xbb8b085d	-0.0042429403
224	0x3b3b2ab2	0.0028559384
225	0xbb89d164	-0.0042058695
226	0x3bb1dbde	0.0054278215
227	0xbc07f327	-0.008297718
228	0xbb8cd8b8	-0.004298296
229	0x3b4aa6e4	0.0030922228
230	0xbbffeee2	-0.0078104595
231	0xbb0cc430	-0.0021479242
232	0xba9bc80a	-0.0011885178
233	0x3a956579	0.0011398039
234	0x3bf19d7c	0.00737351
235	0x3ae880ef	0.001773862
236	0xbb9fe641	-0.0048797433
237	0x3bd9ae3b	0.0066430843
238	0xbb0e363d	-0.002169981
239	0xbb528695	-0.0032123674
240	0x3a664298	0.0008783727
241	0xba89fdd5	-0.0010527918
242	0xbb8ef9f1	-0.0043632914
243	0xbc537b03	-0.012907746
244	0xbae74208	-0.001764358
245	0xbb1f6512	-0.0024321717
246	0xbb280554	-0.0025637941
247	0xbb38b010	-0.0028181113
248	0x38860c26	6.391881e-05
249	0xbaeeb45c	-0.001821171
250	0x3b2371fb	0.0024939764
251	0xbba19e97	-0.0049322355
252	0x3ad3c087	0.00161554
253	0x3ac1d29e	0.00147875
254	0xbbf5b4a1	-0.0074983393
255	0xba9be831	-0.001189476

network_body.linear_encoder.seq_layers.2.weight f4 [256, 256]
0	0x3dfc0134	0.12304917
1	0xbcdf4c97	-0.0272582
2	0x3e0cddd2	0.13756493
3	0x3cdbb53f	0.026819823
4	0x3a67ae33	0.00088379084
5	0xbd813804	-0.06309512
6	0xbcafbb3e	-0.021451589
7	0xbcb1be45	-0.021697173
8	0xbc841bcc	-0.016126536
9	0xbd383197	-0.044969168
10	0x3c5e1e11	0.013556973
11	0x3d8296dc	0.063764304
12	0x3db539ba	0.08848901
13	0x3bce9afa	0.0063050957
14	0x3d968bac	0.07350859
15	0x3d1428bc	0.03617166
16	0x3d616536	0.055028163
17	0x3da0ebdb	0.07857486
18	0xbd20289c	-0.039101228
19	0xbb548bda	-0.003243199
20	0xbd2dfa4c	-0.04247503
21	0x3d3c628f	0.04599243
22	0x3d419193	0.04725797
23	0x3d79c050	0.06097442
24	0x3df5dccf	0.120050065
25	0x3c68870f	0.014192357
26	0x3c80ee21	0.015738549
27	0xbd3cf97c	-0.046136364
28	0x3dc0e8e9	0.09419424
29	0xbbee1338	-0.0072654746
30	0x3d0c2a2c	0.034219906
31	0x3c4e15a8	0.012578405
32	0x3c9f5206	0.019448292
33	0xbca99a73	-0.02070353
34	0x3cd37f33	0.02581749
35	0x3cc611b8	0.02417837
36	0x3cdcb3bb	0.02694117
37	0x3d6a2d7c	0.057172284
38	0xbe358875	-0.17727835
39	0xbcdac100	-0.026703358
40	0xbce1f9a6	-0.027584862
41	0xbb1a3243	-0.0023528493
42	0x3b3ebfb3	0.002910596
43	0x3d3e5ac4	0.04647328
44	0xbcfb74c6	-0.03069533
45	0x3dd7f0ad	0.10543952
46	0xbd4b67f4	-0.049659684
47	0x3d3d7d64	0.04626216
48	0xbd90c0d4	-0.07068029
49	0x3d2debb3	0.04246111
50	0x3c655863	0.013998124
51	0x3c941f16	0.01808123
52	0x3d25d909	0.040490184
53	0xbda93145	-0.082613505
54	0x3d8de587	0.069285445
55	0xbc323bc4	-0.010878507
56	0x3c97bf13	0.018523728
57	0x3da0e14c	0.07855472
58	0xbdf31ff9	-0.11871333
59	0xbb514ba2	-0.003193595
60	0xbc93b7e3	-0.01803202
61	0x3c18dad9	0.009329521
62	0xbdf6cb25	-0.120504655
63	0x3cd1d459	0.02561395
64	0xbd6eae0b	-0.05827145
65	0x3d1b47d1	0.037910286
66	0x3cb5e0d0	0.022201926
67	0xbd8af999	-0.06785888
68	0x3e54892e	0.20755455
69	0x3d08b443	0.033375036
70	0xbd9b148a	-0.07572277
71	0xbc21b80d	-0.009870541
72	0xbdd3cdf3	-0.10342016
73	0xbd3d1c80	-0.046169758
74	0xbd483a03	-0.04888345
75	0x3cad1c27	0.021131588
76	0x3d11dcf9	0.035611127
77	0xbc8b76d2	-0.017024431
78	0x3c4faf50	0.012676075
79	0x3d94e2ab	0.07269796
80	0x3d344d57	0.04401907
81	0xbc543a5c	-0.012953367
82	0xbd3184d6	-0.043339573
83	0x3d8338a3	0.06407287
84	0xbc94d3d4	-0.018167414
85	0xbdc217cb	-0.094771944
86	0xbd9ec7cc	-0.07752952
87	0x3d535db1	0.051603023
88	0x3da65589	0.08121783
89	0x3cc08770	0.023502082
90	0x3cbe2bd3	0.023214256
91	0xbc113438	-0.008862548
92	0xbdcc43f7	-0.09973901
93	0x3d078443	0.03308512
94	0xbbdd7fa6	-0.0067596016
95	0xbd842362	-0.06452061
96	0x3d14b4ff	0.036305424
97	0x3cabd634	0.020976163
98	0x3caa879f	0.020816622
99	0x3e273fef	0.16332982
100	0x3d26db94	0.04073675
101	0xbdbd0d84	-0.092310935
102	0xbbbce85a	-0.005765003
103	0xbcbc67ce	-0.022998717
104	0x3d6b8180	0.057496548
105	0xbd2c1f5a	-0.042022087
106	0x3da53473	0.080666445
107	0x3bb03748	0.005377684
108	0xbe036480	-0.12831306
109	0x3d268002	0.04064942
110	0x3cbfe0d8	0.023422644
111	0xbde19105	-0.110139884
112	0xbe1c6270	-0.15271926
113	0xbdc7b3c5	-0.09751085
114	0x3d7b0629	0.06128517
115	0xbd316154	-0.04330571
116	0x3c3f7a1c	0.011686828
117	0x3d8cd4cf	0.068765275
118	0x3c4a1aac	0.012335461
119	0x3db9008e	0.09033309
120	0xbdc88591	-0.09791101
121	0xbdd41267	-0.103550725
122	0xbdee30f3	-0.1163043
123	0xbda9c06f	-0.08288657
124	0x3c654cea	0.0139953885
125	0x3d8c06f2	0.06837262
126	0xbd2dbe9a	-0.0424181
127	0x3d612400	0.054965973
128	0x3d3acf09	0.0456076
129	0x3defc31e	0.117071375
130	0x3cec5f5f	0.02885407
131	0x3d1984be	0.03748011
132	0x3daf15fe	0.085491166
133	0x3d89708b	0.06710919
134	0xbe33f490	-0.17573762
135	0xbd630862	-0.055427916
136	0x3d1b88f3	0.0379724
137	0x3c65afcc	0.014018964
138	0x3ac3a85e	0.0014927497
139	0xbdc340a0	-0.095338106
140	0xbc608692	-0.013703959
141	0x3b9b9b37	0.0047487277
142	0xbd0e09c6	-0.03467729
143	0x3cac3494	0.021021165
144	0xbdb34893	-0.08754077
145	0x3cee4c39	0.02908908
146	0x3d749127	0.05970874
147	0x3d2fdd05	0.04293539
148	0x3d23bf0e	0.039977126
149	0x3cc41a87	0.02393843
150	0xbc058891	-0.008150236
151	0x3bff9771	0.0078000356
152	0xbd0e13f4	-0.034686998
153	0x3dc8ae7a	0.09798904
154	0xbd92c8b6	-0.07167189
155	0xbc882608	-0.016619697
156	0xbd780dad	-0.060559917
157	0xbd93bc67	-0.07213669
158	0xbd84cb21	-0.06484056
159	0xbd845e24	-0.064632684
160	0xbda51467	-0.08060532
161	0xbc9b3ff4	-0.018951394
162	0x3dd07d32	0.10180129
163	0xbc93c924	-0.018040247
164	0xbe039dad	-0.12853117
165	0xbd9fb469	-0.077980824
166	0x3d593a42	0.053034075
167	0xbd6da2c2	-0.058016546
168	0x3e2981a0	0.16553354
169	0xbddcfb7f	-0.107901566
170	0x3cee4a2d	0.029088104
171	0x3dcfb7f2	0.10142507
172	0x3d858e01	0.06521226
173	0x3d9db2fd	0.07700155
174	0x3d1112a4	0.035418168
175	0x3d1278aa	0.035759605
176	0xbdd1e2c8	-0.10248333
177	0x3c29c693	0.010362285
178	0xbd633fd6	-0.0554808
179	0x3d5f671f	0.054541703
180	0x3d1d71d8	0.038438648
181	0x3e189986	0.14902315
182	0x3dac0bac	0.08400664
183	0xbd696106	-0.056977294
184	0x3de619ad	0.11235366
185	0xbb46b91b	-0.0030322734
186	0x3df7e774	0.12104693
187	0x3d75cf85	0.06001236
188	0xbc92c96c	-0.017918311
189	0x3c634fb8	0.013873987
190	0x3cfc8673	0.03082583
191	0xbc6fd5e4	-0.014638398
192	0x3c900fa7	0.017585589
193	0xbe137582	-0.14400294
194	0x3cb31c66	0.021864127
195	0xbcb2c4e3	-0.021822399
196	0xbc75506a	-0.0149727855
197	0x3d2c0e11	0.042005602
198	0xbb655d00	-0.003499806
199	0xbd2d4196	-0.042298876
200	0x3c3cf477	0.011532894
201	0xbd2034ad	-0.039112736
202	0xbcbcf3af	-0.023065416
203	0x3cdd2add	0.026997978
204	0xbc04fe8a	-0.0081173275
205	0xbd266f85	-0.040633697
206	0x3ddf6bf7	0.109092645
207	0x3dd5d0f4	0.10440245
208	0x3d5678f7	0.052361455
209	0x3d7304bc	0.059330687
210	0x3c89f3a4	0.01683981
211	0xbe236d79	-0.15959729
212	0x3c0bbcfc	0.008528944
213	0xbd7c272b	-0.06156079
214	0x3e3cde8a	0.18444267
215	0xbdfbad92	-0.12288965
216	0xbd15ca50	-0.036569893
217	0xbb806881	-0.003918708
218	0x3b15cad7	0.0022856498
219	0xbc7f759e	-0.015592007
220	0x3c9a4a58	0.018834278
221	0x3d86cd4c	0.06582126
222	0xbcd3c976	-0.0258529
223	0x3c01a880	0.007913709
224	0x3c1aa692	0.0094391275
225	0x3d73bf5e	0.059508674
226	0x3d6c156d	0.05763762
227	0x3c534ec8	0.012897201
228	0xbd843f0b	-0.06457337
229	0xbd82d888	-0.06388956
230	0xbb95feaf	-0.00457748
231	0x3cc8887e	0.024479147
232	0x3cf9c744	0.030490525
233	0x3d144275	0.03619619
234	0x3dbd4bef	0.09242999
235	0x3d3529fb	0.04422949
236	0x3d807cd0	0.06273806
237	0x3d6899dc	0.056787357
238	0xbaef4e06	-0.0018257506
239	0x3cd31ec1	0.0257715
240	0xbd50b418	-0.050953
241	0xbcdd349e	-0.027002629
242	0xbd3364e5	-0.043797392
243	0x3d5f2cc2	0.054486044
244	0xbd3b8894	-0.045784548
245	0x3cdb5a5e	0.026776489
246	0xbd0ec766	-0.03485813
247	0x3d9b3147	0.07577758
248	0xbc1c50d8	-0.009540759
249	0x3ca0001b	0.0195313
250	0xbd98a11b	-0.074526034
251	0x3ce4eb53	0.027944243
252	0xbb2277b4	-0.0024790587
253	0x3d648566	0.05579128
254	0x3b8e500d	0.004343039
255	0xbd931206	-0.07181172
