config/results/Entry_reward05/PathFollowing/PathFollowing-999926.onnx (onnx, 695646 bytes, 7 tensors)

action_model._continuous_distribution.log_sigma f4 [1, 3]
000000 12 f7 85 3c 03 7a 1b 3c a5 ea b7 3c
       0.016353164 0.009489539 0.022450754

action_model._continuous_distribution.mu.bias f4 [3]
000000 ea f2 ab 3b ba f9 0e ba d8 a5 d4 ba
       0.0052474635 -0.0005454082 -0.0016223742

action_model._continuous_distribution.mu.weight f4 [3, 256]
000000 c6 d3 ef 3a f6 b0 86 3c 33 c8 30 3c e3 f1 da b8
       0.0018297366 0.016441803 0.010789919 -0.00010440105
000010 8a bd bb 3b 5d 1b af bc 3a f6 bd 3a 41 19 14 bc
       0.005729382 -0.021375353 0.0014492937 -0.009039224
000020 66 c4 8f bc 84 7f 84 ba 1a e5 90 3b 72 d8 e6 3b
       -0.017549705 -0.0010108803 0.0044218423 0.0070448453
000030 38 24 17 bc cf 80 9d 3c 6a 99 8b bc ec 9f 0f 3c
       -0.009224944 0.01922646 -0.017040927 0.008766156
000040 ea f9 e8 bb ae 9e 56 3c 53 82 9d 3c ef 3d 34 bb
       -0.00710987 0.013099356 0.019227182 -0.0027502736
000050 08 d0 b8 bb a0 0d 5f 3b 1d 1b f3 ba 50 b7 f2 3a
       -0.0056400336 0.003403522 -0.0018547509 0.0018517766
000060 fd b0 6a 3c 49 10 ec bb 14 8f 06 bc 7a 71 35 ba
       0.014324424 -0.00720409 -0.008212823 -0.00069215114
000070 bb 81 a4 3a bd 58 13 bd 26 ec 80 ba ce f2 20 bc
       0.001255087 -0.0359733 -0.0009836003 -0.009823514
000080 c6 6f 68 bc 87 9f 4e bc 4a 26 0e 3c fb 76 ef 3b
       -0.014186805 -0.0126112765 0.008676121 0.0073078847
000090 74 3d d5 3b d3 f4 2d 3c 52 a3 c0 3b b1 11 08 3b
       0.00650757 0.010617453 0.0058788443 0.0020762498
0000a0 09 2d 28 bb a3 16 8c bc eb 9e 9a 3b 5e 77 55 3b
       -0.0025661609 -0.017100638 0.0047186515 0.003257237
0000b0 af 93 5d ba 91 66 92 bc 3b fd 3d 3b 71 78 d4 bb
       -0.00084524875 -0.017871173 0.0028990048 -0.0064840843
0000c0 7d ac 3d bc 17 ff 02 3a 69 8e 3e bc bc d9 fd 3c
       -0.011576769 0.0004997118 -0.011630633 0.030987613
0000d0 3c 07 80 3b 0c ee 84 3c 33 47 6b 3b 52 3d 48 bc
       0.0039071124 0.01622679 0.0035900592 -0.012221651
0000e0 85 fd e0 3b cb 71 67 3b 4b d6 10 bc 01 0e b1 bb
       0.0068661594 0.0035315629 -0.008840154 -0.0054032807
0000f0 43 b4 f4 b9 41 9a 15 bb 09 af c3 3c 13 9f 66 ba
       -0.00046673612 -0.0022827538 0.023887174 -0.00087975076
000100 b1 e5 43 3c 08 76 93 bc f9 84 82 bb 8b 0f 17 bc
       0.011956618 -0.018000618 -0.0039831367 -0.009220014
000110 20 d4 46 bc ae 81 22 3c 8c cc 13 ba 14 e0 6a 3c
       -0.0121355355 0.009918613 -0.0005638085 0.014335651
000120 ea 4d 71 3c 45 3b bd 3c fb 09 59 bb a5 9b c8 3b
       0.014728049 0.023099551 -0.003311752 0.00612207
000130 e2 f5 a5 bb 97 fa 48 bc 25 3c 66 3b 7a fa 82 3c
       -0.005064712 -0.0122667765 0.0035131064 0.015988577
000140 ce 7b 6d 3c 84 c0 77 bc dc d4 18 3c 74 c8 ec 3b
       0.014494849 -0.015121583 0.009328093 0.0072260443
000150 9b fc 59 3a 23 b7 0e 3c f0 31 a5 ba 26 68 69 3c
       0.0008315534 0.008710655 -0.0012603384 0.014246022
000160 9b 8e 11 3a 0e 84 8a 3b 80 03 05 3c 73 03 a3 bb
       0.0005552561 0.004227168 0.00811851 -0.0049747764
000170 51 fe f5 bb 27 93 71 bc b2 7a 48 bb a1 5e 15 3c
       -0.0075071235 -0.0147445565 -0.003059071 0.0091168
000180 57 c9 59 39 f7 b2 9a 3b 9e 9a d4 3b 01 22 73 3c
       0.00020769738 0.0047210413 0.0064881584 0.01483965
000190 4e c4 30 3b d9 79 ce 3c d8 ec 8c bc 7c 70 7e bb
       0.0026972475 0.025204586 -0.01720278 -0.003882437
0001a0 e1 e2 b8 3b 21 5a fa 3b 50 24 9e 3a 69 33 10 3c
       0.0056422804 0.0076401387 0.0012065265 0.00880132
0001b0 be 23 9d bc 81 28 2a 3b 97 80 0e bb c3 a8 38 bb
       -0.019182082 0.0025964084 -0.0021744126 -0.0028176762
0001c0 fd 9b 98 bc e3 38 67 3b cb 28 01 3c e0 11 7d 3a
       -0.018629069 0.003528171 0.007883261 0.00096538477
0001d0 6d 3c eb 3a 86 24 a4 bb 68 a1 0f bc 72 9d 2b 3c
       0.0017947085 -0.0050092367 -0.00876651 0.01047455
0001e0 76 be b9 39 d3 c7 b3 3b 07 8a 9b 3c db 53 38 bc
       0.00035427854 0.0054864674 0.018986715 -0.011250461
0001f0 46 df e3 bb a6 44 8d bc 71 94 9b bb 21 8c 0e 3c
       -0.0069541065 -0.017244648 -0.00474792 0.0087004015
000200 12 0f da bb a9 e5 4d bb bc 7b 61 ba 2a e3 61 3c
       -0.0066546286 -0.0031417406 -0.00086015067 0.01378707
000210 79 5e 39 3c 1a 09 3b bb 35 86 fc ba 4f d6 0a bc
       0.011314028 -0.002853936 -0.0019266071 -0.008473947
000220 5e 3b 73 3b 54 f7 1c 38 f5 23 62 3c b3 73 8e ba
       0.0037114243 3.742364e-05 0.013802518 -0.0010868221
000230 e7 10 31 bb 94 e8 71 bb 56 77 c3 3c 0a a1 6a bb
       -0.0027018131 -0.003691231 0.023860615 -0.0035801553
000240 43 2d 62 bc b3 82 e9 bb 2b 8b d0 bb 3d c3 e2 3b
       -0.013804737 -0.0071261763 -0.0063642464 0.006920247
000250 fe 16 6a bc 58 25 1c bb eb 9f 24 3b 55 f2 f7 3a
       -0.014287708 -0.002382597 0.0025119733 0.0018916825
000260 d6 a0 b9 39 f8 e7 33 ba 71 f5 74 ba f8 3f 64 ba
       0.00035405782 -0.0006862874 -0.0009344435 -0.0008707042
000270 d9 a2 b1 ba ce a1 06 bc d3 cc ff 3b b3 98 85 bb
       -0.0013552561 -0.008217288 0.0078063994 -0.004077041
000280 04 85 c3 3c 77 5c 27 bc 70 4a 1b 3c 6c 70 88 bc
       0.023867138 -0.010214916 0.0094781965 -0.01665517
000290 2b d5 0f bb 0a 34 25 bb bd be f0 3b c9 ca 78 bc
       -0.0021947126 -0.002520802 0.0073469565 -0.0151850665
0002a0 3b 0d 0b 3c 6c cb 04 bb c2 8b 97 3c 7a eb f9 ba
       0.008487041 -0.002026285 0.018499259 -0.001906737
0002b0 86 a3 c8 3b 9a 27 f6 ba ff 09 da bb d7 f7 fb bb
       0.006123009 -0.0018780113 -0.0066540237 -0.007689457
0002c0 ba 54 fc 3b fb 59 52 bc 42 16 d8 bb 04 4f ef 3b
       0.00770053 -0.012838836 -0.00659445 0.0073031206
0002d0 a0 03 19 3b 3c 42 38 3c c3 17 da bb 3e 64 82 bb
       0.0023348108 0.01124626 -0.0066556646 -0.003979235
0002e0 2d 75 51 3b b7 da b4 bb 55 93 32 bb 8c bc e3 3b
       0.0031960711 -0.005519237 -0.0027248461 0.006949967
0002f0 99 2c 47 3c 99 3b 77 bb df 6a 3a 3c 92 c7 2f bb
       0.012156629 -0.0037724732 0.011378019 -0.0026821834
000300 84 01 0b 3c 6e 84 2f bc 5f 6a e6 ba 1a 91 32 3b
       0.008484248 -0.010712726 -0.0017579308 0.0027247132
000310 4c 90 4e bb b1 fc 3b 3b 36 90 9c bc 04 0e d3 3b
       -0.0031519113 0.0028684551 -0.019111734 0.00644088
000320 55 be 03 3c ea 1c c1 bc dd 62 9b bb c6 b9 2a 3d
       0.008040984 -0.023573358 -0.00474201 0.041681074
000330 e0 b2 4b 3a a2 67 35 3b 60 06 cc bc 88 fe 99 3b
       0.000777049 0.0027680178 -0.024905384 0.004699532
000340 d3 f9 05 bb 11 67 c9 bb 6d 43 3e bc b8 22 9b 3a
       -0.0020443096 -0.0061463197 -0.011612755 0.0011835909
000350 2e 12 31 bc 78 4b 18 3c db c9 19 3a d5 36 5c 3c
       -0.010807557 0.009295337 0.00058665656 0.013440807
000360 59 8a 33 3c aa 00 db bb 7e 90 c7 39 bf 88 99 ba
       0.010958278 -0.006683429 0.00038063893 -0.0011713727
000370 66 cb d1 3c d1 f6 ab 3b 47 0b 1b bc cc 63 1b 3b
       0.025609683 0.0052479287 -0.009463138 0.0023710607
000380 44 04 12 3a 32 dd f3 3b 9f 8f 19 bb dd a3 10 3c
       0.00055700936 0.00744214 -0.0023431552 0.008828131
000390 dc 92 96 ba 04 45 c1 bb 65 48 53 3b 7e 1d ea b7
       -0.0011487859 -0.00589812 0.0032239195 -2.7908707e-05
0003a0 49 0e ca bb 25 ca 2c 3c 90 84 61 3c 2c 1c 2f 3c
       -0.0061662537 0.010546242 0.0137645155 0.010687869
0003b0 a9 72 1f bb 2f 02 8f bb f8 47 4c bb b9 c4 02 3c
       -0.0024329817 -0.004364274 -0.0031170826 0.007981473
0003c0 2e e9 87 3c d9 77 56 ba 4b 3b a7 bb 1a 07 1f bb
       0.01659068 -0.0008181311 -0.005103504 -0.0024265707
0003d0 d7 57 40 bc 65 24 6e bc 4c 71 78 bc ea 12 84 3c
       -0.011739693 -0.014535044 -0.015163731 0.0161223
0003e0 89 05 34 bb bb 45 d8 3b bd a5 80 bc a6 e7 a3 3b
       -0.002746912 0.0066001094 -0.01570403 0.00500198
0003f0 54 0d 9f bc 5d e0 3a 3b af 06 5d bb 8c 81 37 3b
       -0.019415535 0.0028515079 -0.0033725908 0.00280008

network_body.linear_encoder.seq_layers.0.bias f4 [256]
000000 74 64 5b bb 8a 5f 44 3b 79 8d 9c bb 28 0a 0f bb
       -0.0033476623 0.0029964172 -0.004777607 -0.0021826122
000010 ec a0 37 ba e5 ac 31 bc 78 97 b1 bb c9 a0 09 bb
       -0.0007004875 -0.010844444 -0.005419668 -0.0021000376
000020 9c 30 13 bb 55 64 bb bb 03 71 fc bb dd 3e 12 3c
       -0.0022459393 -0.0057187476 -0.0077039017 0.008926121
000030 5c 46 84 bb 8d 82 1f bb 43 2b 8e ba 70 fe ee ba
       -0.004036708 -0.002433929 -0.0010846633 -0.0018233787
000040 5a 5a 93 b9 cb da 8d bb 17 f8 24 bb 77 34 92 bb
       -0.00028105342 -0.0043290607 -0.0025172287 -0.0044618207
000050 a4 e1 27 bb f5 97 8e ba dd b6 c7 ba bf 10 27 bb
       -0.002561667 -0.0010879027 -0.0015236993 -0.002549216
000060 d5 19 78 3b 54 39 e1 bb 72 c7 07 3b 35 6e 1a bb
       0.0037857194 -0.006873289 0.0020718244 -0.0023564224
000070 5c 69 e9 bb 42 37 6d bc 4c a2 96 bb e0 b7 57 ba
       -0.0071231555 -0.0144785065 -0.004596984 -0.00082289986
000080 4c 01 ee 3a 7d 06 15 bc 50 a7 af ba 5b 2c 26 bb
       0.0018158345 -0.009095785 -0.0013401303 -0.0025356028
000090 68 8a 40 bc 8c 38 f1 bb 41 e7 00 bc d3 25 ad bb
       -0.011751749 -0.0073614772 -0.007867635 -0.00528405
0000a0 a8 d4 ac bb bb a6 1f ba db 31 6f ba f2 37 0a bb
       -0.005274374 -0.00060902134 -0.00091245555 -0.0021090475
0000b0 52 45 2b bc 59 49 d0 bb 5d 41 e7 bb 21 3c 11 bc
       -0.010453539 -0.0063564 -0.0070573525 -0.0088644335
0000c0 fc d3 97 3a 21 3f 39 3b d1 b2 37 38 d1 d9 57 ba
       0.0011583562 0.0028266388 4.3797136e-05 -0.00082340563
0000d0 92 11 ac 3b 7d 2e 6a bb 40 94 03 bc 6f e3 9c bb
       0.005251118 -0.0035733276 -0.008030951 -0.0047878544
0000e0 34 88 7f 39 1f c4 f6 bb 96 02 a9 ba e1 0f 68 bb
       0.00024369435 -0.0075307037 -0.0012894447 -0.0035409855
0000f0 ee 92 73 b9 29 e6 09 bc b2 63 d4 bb 9f 48 1d bb
       -0.00023229021 -0.008416691 -0.006481611 -0.0023999584
000100 bd 66 e6 ba b2 4b e5 bb 19 19 fb bb 1d e1 8f bb
       -0.0017578226 -0.006997549 -0.007662904 -0.0043908493
000110 75 f4 b6 bb b3 7f f5 bb 77 32 aa bb 8b 19 e9 3a
       -0.005583341 -0.0074920296 -0.005194004 0.0017784102
000120 a3 0f 71 ba 5d 44 0f 3b 1c e7 b2 bb 3c 4b c1 bb
       -0.00091957505 0.0021860816 -0.0054596793 -0.005898861
000130 11 09 43 39 2e 3e f5 38 e6 35 bb bb 9f a5 bc bb
       0.00018600027 0.00011694092 -0.0057132123 -0.0057570483
000140 a9 ae b0 bb af 13 7c bb cd c1 cb bb 54 1f 11 bb
       -0.005391915 -0.003846388 -0.006218171 -0.0022143917
000150 03 63 1a 3b 54 6c 07 ba 60 b6 ab bb 3a b1 39 bc
       0.002355755 -0.00051659835 -0.0052402467 -0.011333758
000160 00 03 cc ba 17 43 b4 bb 59 1f 64 bb c7 35 d4 bb
       -0.0015564859 -0.005501162 -0.0034808724 -0.0064761373
000170 22 67 47 3a c2 cb 8a ba 77 49 b1 ba f6 c1 b6 b9
       0.00076066155 -0.0010589289 -0.0013525923 -0.00034858257
000180 90 d9 ce bb f2 34 1f bc e1 1e b1 bb e1 cb 0a bc
       -0.0063125566 -0.009717213 -0.0054052924 -0.00847146
000190 3f c1 96 bb 85 b8 24 3c d0 af 11 bc 81 aa e0 bb
       -0.0046006734 0.0100537585 -0.008892015 -0.006856263
0001a0 e6 74 1c bc 17 a1 1d bc 36 1a 5e bb 8f dc ee ba
       -0.009549355 -0.009620926 -0.0033890135 -0.001822369
0001b0 36 6e 66 bb 87 c4 8b bb eb 70 a3 39 e1 b2 74 bb
       -0.0035160906 -0.0042653712 0.00031173913 -0.0037338065
0001c0 4e 60 6b bb 21 3b 97 bb e9 54 bd bb 84 f5 be bb
       -0.0035915556 -0.004615203 -0.0057779443 -0.0058276076
0001d0 56 4c ec ba 50 92 5c 3a f5 c1 de bb 23 06 e8 38
       -0.0018028121 0.0008414136 -0.006798024 0.00011063765
0001e0 eb 96 83 bb ff 51 ae 3b ff c4 77 bb 7e e1 8f b9
       -0.0040157936 0.0053198333 -0.0037806628 -0.0002744309
0001f0 eb 7c a3 ba 8c 77 eb 3a 9b 19 c8 bb f6 d6 06 3a
       -0.0012473142 0.0017964705 -0.006106568 0.0005143726
000200 41 ab 8a bb e7 02 d4 bb 53 58 ba ba 71 dc c1 3b
       -0.004231841 -0.0064700725 -0.0014216996 0.0059161712
000210 fd be bf ba fa d3 a5 bb 84 d9 5f 3b d0 87 b9 b9
       -0.0014629062 -0.00506067 0.003415675 -0.00035387138
000220 30 4e 28 ba 6c be 32 bb d7 64 96 3a f9 ed 35 bb
       -0.0006420342 -0.0027274145 0.0011474144 -0.002776025
000230 09 cb 01 bc 10 a8 0a bc 1c a1 0c bc ad 6e a0 3a
       -0.0079219425 -0.008462921 -0.008583333 0.0012240015
000240 e1 68 5e ba 13 f0 bf ba 89 72 d0 bb a3 32 0c bb
       -0.0008484256 -0.0014643691 -0.00636131 -0.0021392487
000250 4e 64 51 bb f1 fb 24 bb 34 71 de bb 41 e8 c5 3b
       -0.0031950655 -0.0025174583 -0.006788397 0.0060396497
000260 6a 43 88 bb f6 51 f6 ba 42 7f bb bb 0d 4f 76 bb
       -0.004158427 -0.0018792737 -0.0057219574 -0.003758374
000270 cd 99 3a 3a 46 ab 31 bb e4 ac ae b9 d3 3b 80 bb
       0.0007118255 -0.0027110144 -0.0003331668 -0.0039133816
000280 89 66 a3 bb df 18 df bb bd 6b 33 3b 18 93 4e 3a
       -0.0049865884 -0.006808385 0.002737745 0.0007880195
000290 b2 0e 57 3b 29 90 55 3a 2b 21 26 3b 7c 71 bb bb
       0.0032815156 0.0008146787 0.002534936 -0.0057203155
0002a0 27 5d 6f ba c4 7f fd ba a7 f8 2c 3b a7 25 bb bb
       -0.0009131007 -0.0019340445 0.0026393326 -0.0057112756
0002b0 64 24 57 bc f1 f6 67 ba 3d 1c 92 bb d0 ae 14 bc
       -0.013131235 -0.0008848748 -0.0044589327 -0.009074882
0002c0 39 9a 33 ba 1d d7 a3 ba 33 aa 9b bb 6b cb 6a 3b
       -0.0006851289 -0.0012500022 -0.004750514 0.0035826813
0002d0 0f 2a 03 bb 5c 8c e8 ba 7c f7 fb bb 07 ad 00 3a
       -0.0020014083 -0.0017742026 -0.0076894145 0.00049085956
0002e0 99 0c ca bb 36 09 69 ba 16 96 00 bc 9f ec ba bb
       -0.0061660525 -0.0008889617 -0.007848283 -0.005704477
0002f0 8b 61 6e bb 7a 89 1b 38 09 d8 af bb 82 27 de bb
       -0.0036374058 3.7082915e-05 -0.0053663296 -0.006779612
000300 45 d6 a7 bb f6 09 5b bb 44 91 0a bc c5 93 56 b9
       -0.0051219785 -0.0033422685 -0.008457486 -0.00020463679
000310 32 48 a2 bb d7 e9 ec ba c6 7d 0b bb c5 05 ff ba
       -0.004952454 -0.0018075061 -0.0021284684 -0.0019456676
000320 43 99 8c bb b8 8d 2f 36 c8 ae 57 bb 2f 6c 27 3b
       -0.004290731 2.6159523e-06 -0.0032910574 0.002554666
000330 38 11 ab ba 7f 81 bb bb 25 6f 74 bb e1 4d 29 ba
       -0.0013051396 -0.0057222242 -0.0037297693 -0.0006458443
000340 92 2b 87 bb 21 68 e6 bb 31 db 82 ba 3e 37 2f bb
       -0.004125067 -0.007031456 -0.0009983537 -0.0026735808
000350 b2 e6 64 bb 1d ae a5 3a d5 b4 00 bb 82 06 9d bb
       -0.0034927544 0.0012640391 -0.0019639034 -0.0047920356
000360 80 cc 21 bb 9e 3d 05 bb e9 01 a5 ba f7 68 cb bb
       -0.0024688542 -0.0020330916 -0.001258907 -0.006207581
000370 f7 7b 99 bb 72 85 5f bb 80 83 91 bb 17 75 d9 bb
       -0.004683967 -0.003410664 -0.004440725 -0.0066362727
000380 02 76 c8 b9 e9 8f 82 bb 06 b2 27 bc e2 5c 07 b9
       -0.00038234895 -0.0039844406 -0.010235315 -0.00012909205
000390 34 ab 13 bc 30 7e eb bb 4e 01 95 bb e9 db 5b ba
       -0.009012986 -0.0071866736 -0.0045472747 -0.0008386956
0003a0 23 7c b7 bb cb 64 c7 bb c2 19 b2 bb 34 7e 8a bb
       -0.005599515 -0.0060850135 -0.0054351995 -0.0042264704
0003b0 8a 1a fc 39 aa 96 94 bb 52 c4 0f bc ff b8 0f ba
       0.0004808496 -0.004534562 -0.008774834 -0.00054825837
0003c0 53 9c 27 3a 17 25 2a bc 38 87 61 bb ff f0 e3 bb
       0.00063938386 -0.0103848195 -0.0034412872 -0.006956219
0003d0 9f 50 00 bc 6e c5 1c bc 1d 38 16 39 47 90 18 bc
       -0.007831722 -0.009568555 0.00014326019 -0.009311742
0003e0 16 01 c7 bb c2 98 f5 ba 86 eb e7 bb 96 73 d0 ba
       -0.0060731275 -0.0018737542 -0.007077637 -0.0015903588
0003f0 af 5c 94 ba 2e 9c 58 3b 27 68 00 bb 38 49 3e bc
       -0.0011319126 0.0033052075 -0.001959333 -0.011614136

network_body.linear_encoder.seq_layers.0.weight f4 [256, 416]
000000 86 c9 0a 3d 87 49 7a bd a9 02 b2 bd 24 04 13 bd
       0.033883594 -0.061105277 -0.08691914 -0.03589262
000010 5a 24 48 bc 48 a8 a5 3d e9 ad 3f bc 10 c5 1f 3d
       -0.012215698 0.08088738 -0.011699178 0.039006293
000020 39 27 80 3d 7b 03 07 3d b5 32 c8 bd 7c e1 d9 bc
       0.06257481 0.032962304 -0.097752966 -0.026596777
000030 06 2d d7 3d a3 ec 23 bd 7a af 20 bd 66 4c 79 3d
       0.105066344 -0.040020596 -0.039229847 0.060863875
000040 9b 95 52 bd 02 4b 7d ba d6 ec 44 3d 73 57 ec 3c
       -0.051412206 -0.0009662361 0.048077427 0.028850293
000050 3c a7 b5 3c e9 bf 9c 3b 5c d1 23 bd 5d f9 6f bd
       0.02217447 0.0047836197 -0.039994583 -0.05858742
000060 0d 4f f6 bd 01 72 88 bd c5 5a f8 bc ac ca ba bc
       -0.120267965 -0.066623695 -0.03031672 -0.02280172
000070 9d c1 60 3c f8 31 45 bd 97 57 ba bc 2a 9f a1 ba
       0.013718036 -0.048143357 -0.022746844 -0.001233076
000080 da da 7b 3d e1 d9 e3 3c a6 51 70 bd 3c 33 aa bc
       0.06148801 0.027813854 -0.058671616 -0.020776384
000090 59 a9 84 bd 1d 30 77 bd 19 67 ba bc be 32 dd 3c
       -0.06477613 -0.06034862 -0.022754239 0.027001735
0000a0 29 20 9e 3d 3b 56 0f bd 19 4e 2d bb 3d e3 e8 3d
       0.07720978 -0.034994345 -0.0026444255 0.11371467
0000b0 06 d9 36 3c f8 ec 22 3d 63 20 03 bd 79 0b b8 bc
       0.011160141 0.039776772 -0.03201331 -0.022466408
0000c0 32 ee 71 bc 21 35 7a bc cc de 28 be 42 8a 97 bb
       -0.014766263 -0.015271456 -0.1649124 -0.004624636
0000d0 ea 25 b8 bb 24 3b 51 bd 91 25 a3 bc 86 a5 38 3c
       -0.005619754 -0.05108179 -0.019915374 0.011269933
0000e0 68 e1 a4 3d bb 61 b7 bc 82 7a a3 3d 47 c0 a7 bc
       0.08050805 -0.022385469 0.07982351 -0.020477427
0000f0 22 4e 08 3c b4 9b 4f bc 24 2c c8 3b ad 55 f3 3c
       0.00831941 -0.0126714 0.0061087776 0.02970394
000100 79 7b 9c bc a9 fe 8f bd 6e f1 00 3d 43 62 4c bd
       -0.019101845 -0.070309944 0.031480245 -0.049898397
000110 92 4e 98 bc c9 24 88 3c 28 e9 ad 3c 64 75 41 bd
       -0.018592153 0.016619103 0.021229342 -0.047231093
000120 b9 23 eb 3c 5b 0c 5b 3c 17 00 2e bd 0f b1 2d bd
       0.028703557 0.013369645 -0.042480554 -0.042405184
000130 83 4f 23 3a 86 db a9 3d f1 e3 af bc 73 61 86 3d
       0.0006229805 0.08293824 -0.021470996 0.06561556
000140 50 dd 99 3d 69 23 b8 3d e6 0c 3d bd 5c 44 94 bc
       0.07512915 0.08991129 -0.04615488 -0.018099003
000150 8e 5a 1a bb 1e 81 9c 3d 44 fa bc bd e4 8b 95 3d
       -0.002355251 0.07641815 -0.09227422 0.07302073
000160 33 e0 3f bd ef 5a 66 3d af bf 5c 3c d2 f9 e8 3b
       -0.046844672 0.056239065 0.013473435 0.007109859
000170 25 6a a3 bd 09 a8 ec 3b c1 e1 0b bd a9 2a ec 3b
       -0.0797923 0.00722218 -0.034150843 0.007207234
000180 05 89 8e bc f2 bd 12 3c 64 1f b7 bc 90 42 07 3d
       -0.01739932 0.008956419 -0.022353835 0.033022463
000190 d6 a0 4b 3c 94 b5 d2 bd 5d b8 3d bd 8d be 88 bc
       0.012428483 -0.102885395 -0.0463184 -0.016692424
0001a0 9b 2f 0a 3d 3c 33 5e bd 03 1d 81 bd 97 00 3e 3d
       0.033736806 -0.05424808 -0.06304362 0.04638728
0001b0 56 7c 18 bc ff 4a 6e 3d d4 ef 9f bd 79 d3 ad bb
       -0.009306988 0.05817699 -0.078094155 -0.0053047505
0001c0 d7 d1 b5 bd 90 e6 11 bd 56 38 89 bb c0 bd 4a 3d
       -0.088779144 -0.035620272 -0.004187624 0.049497366
0001d0 f6 20 9d 3d 0b b6 1d bd 04 61 03 bd fc ae b5 3b
       0.076723024 -0.038503688 -0.032074943 0.0055445414
0001e0 c2 f5 a2 3d a8 96 38 3c 62 a0 3b 3c 6f e1 84 bc
       0.07957031 0.011266388 0.011451812 -0.016220776
0001f0 a1 eb f1 bb a3 31 46 bd e7 53 3c 3c 62 74 15 bd
       -0.0073828255 -0.04838718 0.011494613 -0.036487944
000200 24 1d 02 3c b0 49 fb bc 27 81 2e bc 4d 54 e2 3c
       0.007941518 -0.030674785 -0.0106509095 0.027628088
000210 d4 05 bc bd 8c 7c 36 bd 09 8c eb 3c 85 61 95 3c
       -0.09180799 -0.04455237 0.028753297 0.018234977
000220 28 f4 b2 3d c8 27 cd bd 4e fd b1 bd d2 b2 15 3c
       0.08737975 -0.10017353 -0.08690892 0.009136872
000230 e9 7a 1d 3d e8 75 cd bb 04 29 9a bd d8 8b ea 3c
       0.038447294 -0.006270159 -0.07527354 0.028631136
000240 8f 10 51 bd af f6 52 bd 39 85 b2 bd 42 52 ac 3c
       -0.051041182 -0.051504787 -0.087168165 0.021035317
000250 f9 cb a1 bd af c9 f1 3b c0 2c 2f bd 36 31 b7 3c
       -0.07900233 0.007378779 -0.042767286 0.022362333
000260 09 18 ef bb 54 5b 72 3b 82 90 e5 3c 24 2d 5b bd
       -0.0072965664 0.0036980705 0.028023008 -0.053509846
000270 9a b0 5b bd d1 33 8e bc fa 42 d4 3c ae 53 33 bd
       -0.053635217 -0.017358692 0.025910843 -0.043780975
000280 09 ca 00 bd fb 4e f3 3b a4 28 8d bd 8d bf 18 3d
       -0.031442676 0.0074251867 -0.06892517 0.037292052
000290 eb 24 98 bc 4e 81 06 3d 5b be 08 3d 54 8a 33 3d
       -0.018572291 0.03283816 0.033384662 0.04383309
0002a0 5d 60 90 bd de b7 56 3d 4a f9 dc 3d b4 96 d4 3a
       -0.0704963 0.052421443 0.107897356 0.001621923
0002b0 fe d3 f4 3c 1a c8 2d bb 8e 27 d2 bc 7f 5f 45 bd
       0.029886242 -0.0026516975 -0.025653627 -0.048186775
0002c0 b0 94 30 bc 3e 8d cb bb da fe 12 bd 22 f6 3b 3d
       -0.010777637 -0.0062119057 -0.035887577 0.045889027
0002d0 a1 3d 95 3d d1 36 3d bc 6c 87 b0 bc 13 a7 ca bd
       0.072871454 -0.011548714 -0.02154895 -0.09895148
0002e0 b6 2e 45 bd 99 3e 70 3c 98 b6 4a bd 1f 65 90 3d
       -0.04814025 0.014663362 -0.04949054 0.07050537
0002f0 a3 a4 cd 3c df 8d 23 bd 6d 61 94 3b d8 9a aa 3c
       0.025102919 -0.03993022 0.0045282156 0.020825788
000300 ed 81 f7 bb b6 da 7d 3d f2 a8 7e 3c 5f 47 9a bc
       -0.00755333 0.061976157 0.015543209 -0.01883286
000310 57 54 3f bd dc a3 ad bc 22 cc e0 3b 44 be 2a bd
       -0.046711292 -0.021196298 0.006860272 -0.041685358
000320 0b 08 1c bd b9 93 c1 bd 26 83 e7 bc 85 29 ba bd
       -0.038093608 -0.09452004 -0.028260779 -0.090899505
000330 5c 7b c1 3b e3 0c 7a 3c 39 13 8b 3c 96 05 1b bd
       0.005904598 0.0152618615 0.01697694 -0.037847124
000340 2c 17 f6 bc 6f 53 8e 3d f6 d9 9a 3d 50 2f 03 3d
       -0.030040346 0.069495074 0.07561104 0.032027543
000350 f4 9e b7 3d 99 0b 39 bc 60 bb 4e bd 4c ce f3 bc
       0.08965865 -0.011294269 -0.050471663 -0.029761456
000360 01 97 06 bd 98 14 9f bb 5a 21 e6 3c 3d 8d fe 3b
       -0.032858852 -0.00485475 0.028092075 0.0077683018
000370 80 8b d6 3c 06 f3 b8 3b ae d4 e0 3c 26 d8 ec bd
       0.026189566 0.005644205 0.027445164 -0.115646645
000380 ef 6c 87 3d 34 3b ea bc 1e 6e 71 bd 39 00 2b 3d
       0.06612574 -0.028592683 -0.058942907 0.04174826
000390 43 7c 07 bd 56 f7 fa 3c b7 dd 0c bd 69 c2 80 bc
       -0.03307749 0.030635517 -0.03439113 -0.015717702
0003a0 e0 8f 31 3d 90 9d e9 3b e8 fe 00 3d b6 db 61 bd
       0.0433501 0.0071293786 0.031493098 -0.055141173
0003b0 3e 5f 52 bd 00 9e 4b 3d 20 d0 94 3d 9e 05 62 bd
       -0.05136036 0.049711227 0.07266259 -0.05518114
0003c0 e2 db 69 bc 6d 15 f6 bb 8d 88 c9 3d 60 51 5f bc
       -0.014273616 -0.0075098784 0.09840498 -0.013630241
0003d0 70 ba 0f 3d a2 14 15 3d 50 cd 00 be 99 1b da ba
       0.03508991 0.03639663 -0.1257832 -0.0016640305
0003e0 ed 39 f3 3b 7e 57 bf 3c 0a 34 48 3d 47 d5 36 bd
       0.007422677 0.02335715 0.048877753 -0.04463699
0003f0 79 f9 b8 bc e0 95 3d bd e8 e2 01 3d 22 7a 96 bb
       -0.022579895 -0.04628551 0.031710535 -0.004592196

network_body.linear_encoder.seq_layers.2.bias f4 [256]
000000 84 12 1f bb b9 d4 1f ba 05 94 df 3a 82 0e 10 bc
       -0.002427251 -0.0006097067 0.0017057663 -0.008792521
000010 67 42 02 bb 51 1f 16 bc db fd 13 3a 77 f0 80 bb
       -0.0019876005 -0.00916274 0.00056454324 -0.0039349156
000020 50 38 f2 bb 7b 4f 2d bc 44 c6 ba bb f7 af 33 3b
       -0.007391967 -0.010578032 -0.0056999046 0.0027418116
000030 11 91 9c bb 1d b7 c8 ba 73 0a c6 ba 80 fb 90 bb
       -0.0047780355 -0.0015313361 -0.0015109315 -0.0044245124
000040 ee 6b ac bb 94 9a a3 ba 20 06 e4 3a d2 2f 47 bb
       -0.0052618897 -0.0012481981 0.0017396845 -0.0030393493
000050 19 07 90 bb 69 3d 01 3b 04 50 40 bb cd 6b c7 bb
       -0.0043953774 0.0019720441 -0.0029344568 -0.006085849
000060 49 b9 b4 ba 46 a2 24 bc 19 ac a7 bb d9 62 8b bb
       -0.001378813 -0.010048455 -0.005116951 -0.004253727
000070 9c 04 00 ba cb 3a 72 bb ce ef d4 ba 94 3c a7 bb
       -0.00048834994 -0.0036961313 -0.0016245784 -0.005103657
000080 3e ce d4 bb 5c b0 17 bc 76 c8 05 3b 51 49 bb ba
       -0.0064943125 -0.009258356 0.0020413673 -0.0014288818
000090 f4 79 a4 bb 2a d1 a3 bb 06 ad d9 ba eb eb bd bb
       -0.0050194208 -0.0049992995 -0.0016607351 -0.005795946
0000a0 59 8f 51 bb bb 60 43 bb 3d 31 d9 b9 c9 63 8a bb
       -0.003197631 -0.0029812295 -0.0004142615 -0.004223321
0000b0 a6 42 11 bc 5b b5 46 bc 0f 4b 9c bb df 4f db bb
       -0.008865988 -0.012128199 -0.00476969 -0.006692871
0000c0 cb 7a 3a bb 3c b0 70 3a e3 7d 1b bc 11 fd f8 b9
       -0.0028454538 0.00091815344 -0.009490463 -0.00047490795
0000d0 bb 18 3e bb 6e 35 81 3b 17 19 bc bb 45 f7 ab bb
       -0.002900644 0.003943137 -0.0057402956 -0.0052479827
0000e0 e3 c2 8c bb d8 af d3 bb 3b 54 a4 3a cd 25 de bb
       -0.0042956932 -0.006460171 0.001253731 -0.0067794085
0000f0 ef d9 40 bb 9f 75 29 bb 3b 8e 14 3b 4d 69 25 bc
       -0.0029426774 -0.002585746 0.0022667784 -0.010095906
000100 cc db 36 3a 39 22 0c bc 4e fe 03 bc 56 53 09 bc
       0.00069755013 -0.008553081 -0.008056236 -0.008381685
000110 08 8f 62 ba 70 00 50 bb 06 a5 70 bb 68 f9 82 ba
       -0.0008642529 -0.0031738542 -0.0036719455 -0.0009992542
000120 92 b5 b8 38 03 5c 81 3b 11 f6 5b ba 68 d0 43 ba
       8.807624e-05 0.003947736 -0.0008390854 -0.00074697146
000130 82 5a 93 bb ab de 37 bb 86 78 a4 39 a5 ef 2c 3a
       -0.0044968734 -0.0028056304 0.00031370315 0.0006596989
000140 f6 7a e5 ba 0d 6c 97 ba e4 b6 a4 bb c8 de 23 3b
       -0.0017507959 -0.0011552587 -0.005026685 0.0025004614
000150 a5 af 69 bb 8c a7 da 3a 8b c2 81 bb 54 6c 2e ba
       -0.003565767 0.0016682013 -0.003959959 -0.00066537154
000160 98 65 e6 bb 41 5a 39 bb 9d cf f4 bb c8 29 b7 bb
       -0.007031154 -0.0028282555 -0.0074710385 -0.0055896975
000170 19 f8 40 bb 34 bf 60 bb 52 f2 2b bb c0 a7 17 3b
       -0.0029444753 -0.0034293653 -0.0026236963 0.0023140758
000180 73 bb b1 38 12 06 39 bb a1 61 0d bb 46 77 ea 38
       8.474933e-05 -0.0028232378 -0.0021573084 0.00011180206
000190 38 ba b5 bb 1f 0a 98 ba 8b 0a f8 b9 b9 62 fa bb
       -0.0055458806 -0.0011599696 -0.000473101 -0.007641163
0001a0 f0 05 b3 ba f3 2d d0 ba 67 b8 13 bc 6c a0 bb ba
       -0.0013658386 -0.0015882835 -0.009016133 -0.0014314777
0001b0 aa 3f 36 bc 1c b1 fc bb 7e 90 03 bc 4d 0f 85 bb
       -0.011123577 -0.007711543 -0.008030055 -0.004060662
0001c0 00 7b 32 bb 4c f3 30 3a 9e 1c fb 3a 18 36 66 bb
       -0.0027233958 0.0006750121 0.0019158309 -0.0035127457
0001d0 18 f4 ff bb 67 ac 5e bb 28 03 92 3a 21 c1 cd 3a
       -0.0078110807 -0.0033977272 0.0011139857 0.0015697816
0001e0 c7 ca 1f bc 45 8e 08 bb 8d 74 0f 3c 38 56 8a bb
       -0.009752936 -0.0020836752 0.008755815 -0.004221704
0001f0 b1 ae 1a bb b8 2a d5 bb fa f3 27 bc 44 57 38 ba
       -0.002360266 -0.0065053366 -0.01025104 -0.00070320466
000200 45 99 fa bb 5f 6b ee bb 39 a2 ac bb e3 fa f9 3b
       -0.0076476657 -0.007275983 -0.005268362 0.007628785
000210 7f 45 38 ba 1b dc 01 bb eb 59 d0 b9 0d b5 f6 bb
       -0.00070293987 -0.001981503 -0.00039739846 -0.007528907
000220 5f bb 21 bb e7 1b c9 bb 05 ed 75 3b 6f 7f 2e bb
       -0.0024678332 -0.0061373594 0.0037525308 -0.002662625
000230 66 68 4a bb db f2 a4 bb 3c ab ce 3a da 13 8e bb
       -0.003088498 -0.0050338334 0.0015767585 -0.0043358626
000240 9a c5 e2 ba 5f f7 0e bc b0 91 88 bb 03 e2 0a 3b
       -0.0017301321 -0.00872597 -0.004167758 0.0021191842
000250 ab da 8a bb ee 55 d8 bb be ea 81 bb 27 bd 94 bb
       -0.004237493 -0.0066020405 -0.003964751 -0.0045391503
000260 62 50 7a bb 6b c8 ed bb 68 64 85 ba ad 88 aa bb
       -0.0038194885 -0.0072565577 -0.0010177018 -0.0052042813
000270 76 2b c5 bb cb e2 da bb 74 c7 2c 3b c1 02 c4 bb
       -0.006017144 -0.006679868 0.0026364 -0.0059817736
000280 80 38 9e 3b c4 04 1e bb 43 af e8 ba 82 1a ae bb
       0.0048285127 -0.0024111727 -0.0017752427 -0.0053132186
000290 dd 96 38 bc 3a 13 b3 bb b9 c8 c0 bb 72 34 e4 bb
       -0.011266437 -0.0054649385 -0.005883303 -0.00696426
0002a0 01 5d 2f bc 92 66 5c bb b6 24 65 39 d1 76 e9 bb
       -0.010703326 -0.0033630473 0.00021852818 -0.0071247597
0002b0 31 82 6e b9 b5 92 67 bb 05 a0 81 bb 4a 10 1a bc
       -0.00022745949 -0.0035335247 -0.0039558434 -0.009403298
0002c0 77 7c b8 bb 6a f8 ba bb b3 63 c8 39 a1 86 38 3b
       -0.0056300717 -0.005705883 0.00038221254 0.0028156417
0002d0 44 46 a3 ba 81 25 7c bb 58 43 74 bb 6d 36 a1 bb
       -0.0012456854 -0.0038474503 -0.0037271585 -0.004919818
0002e0 c4 0d 1a bb c4 df 1a bc 97 6c a2 bb 37 e6 12 bb
       -0.002350674 -0.009452764 -0.0049567926 -0.002241505
0002f0 a3 15 29 3b b1 b1 b6 ba 2e fc 51 b9 36 cc 99 bb
       0.002580025 -0.0013938454 -0.00020025737 -0.0046935333
000300 b3 bd 6e b9 1a 1f aa bb fd 7c e9 ba d5 04 c2 bb
       -0.00022768117 -0.005191696 -0.0017813739 -0.005920986
000310 9c 63 44 bb 12 8b 6d 38 1b e6 bd bb 5a 99 3f bb
       -0.0029966598 5.6634723e-05 -0.005795253 -0.0029235692
000320 b5 50 bb 3a da 5a bf bb 68 f4 44 bb 60 f0 82 3b
       0.001429102 -0.005839688 -0.0030052904 0.00399594
000330 ed bb 08 bb e5 0c 17 bb 47 e0 aa bb c5 d4 95 bb
       -0.0020863966 -0.0023048457 -0.005214724 -0.0045724832
000340 47 a7 07 bc e9 80 57 bb 37 19 c4 bb 27 13 5d ba
       -0.008279628 -0.0032883233 -0.005984451 -0.0008433335
000350 f2 f0 1c bc ed 3e a9 38 63 4a 18 bb 7c 0b 6d 3b
       -0.00957893 8.070269e-05 -0.0023237697 0.0036170175
000360 0f f6 7e ba fe 17 26 bc 13 d7 97 b7 41 d3 21 bc
       -0.00097259966 -0.010137556 -1.8100754e-05 -0.009877027
000370 69 8f 92 3b fa 3d 40 bb 39 00 73 ba e6 f3 19 bc
       0.004472662 -0.0029333816 -0.00092697475 -0.009396529
000380 d0 e4 ef b7 74 36 01 bb b2 de a5 bb 6c 1b 3d 3b
       -2.859757e-05 -0.0019716294 -0.0050619477 0.0028855456
000390 a3 64 d4 bb bd b3 37 bb a9 1b b6 bb bf 8b 66 ba
       -0.0064817234 -0.0028030716 -0.0055574966 -0.00087946275
0003a0 fb 1a e3 bb 94 de 4e bb a7 5e 98 ba 2e 38 cd 3a
       -0.0069307066 -0.0031565772 -0.0011624888 0.0015657002
0003b0 cb 27 5c bb 7b ef 14 bc 6b c0 28 bb c9 f5 5c 3b
       -0.0033593054 -0.0090903 -0.0025749456 0.0033715835
0003c0 32 c5 0f 3b 98 04 bd bb ac f2 ec bb 06 bf c5 bb
       0.0021937606 -0.00576837 -0.007231077 -0.0060347347
0003d0 81 f4 26 bc eb 9f b8 bb 74 66 da bb 0d 44 16 3a
       -0.01019013 -0.005634298 -0.0066650454 0.0005732186
0003e0 0b cd a5 bb 70 f7 06 bb db 2e 4e bb e7 32 64 bb
       -0.0050598434 -0.0020594262 -0.0031461034 -0.003482038
0003f0 5a 6e 8c bb 74 60 c6 bb 0b 72 90 bb ca a1 ad ba
       -0.004285616 -0.0060539786 -0.004408126 -0.001324707

network_body.linear_encoder.seq_layers.2.weight f4 [256, 256]
000000 a2 27 bc bc bc 92 97 bd dc 4e 41 bd be 2a e6 3b
       -0.022968117 -0.07401034 -0.047194347 0.0070241382
000010 22 9e 9b 3c 9d 61 b5 3d ea 66 f5 bc d4 9c 3e bd
       0.018996302 0.08856509 -0.0299563 -0.04653628
000020 f8 bf 55 bd c6 53 22 bd e5 d5 23 be 0d 32 cb 3c
       -0.05218503 -0.039630674 -0.15999563 0.02480414
000030 70 75 98 3d 65 41 bd bc 96 da fd 3d 8b f6 b2 3d
       0.074442744 -0.023102472 0.123952076 0.087384306
000040 d3 e1 7e 3d da 48 73 3d 36 66 73 bd 85 c0 70 bd
       0.06222708 0.05939565 -0.059423648 -0.05877735
000050 d6 5c 47 bd 1d 13 cd bd 09 0e aa 3c bd 1a cd 3c
       -0.04867252 -0.10013411 0.020758646 0.025037164
000060 35 50 87 bc 8e 13 8f 3d ae e5 fb bc 18 bb 28 3c
       -0.016517738 0.06986152 -0.030749168 0.010298513
000070 b5 90 fd 3d 03 76 4a bc 27 5c 10 bb 91 00 08 be
       0.12381116 -0.012357238 -0.0022027583 -0.13281466
000080 cb df 3c 3d 06 6e ac 3a 0a d1 94 bc 1b 48 1c 3c
       0.046111863 0.0013155348 -0.018166084 0.009538676
000090 26 0f d2 3d 30 ef 64 bb 49 aa 28 3d 20 7a c3 bd
       0.102567956 -0.0034932606 0.04117802 -0.09544778
0000a0 06 d2 c7 3d 9d 26 d1 bd f0 14 3d 3b 3a 10 3a 3c
       0.09756856 -0.10212443 0.002885159 0.011356408
0000b0 39 33 fd 3d 1f 76 bf 3c 63 45 fa ba c2 b5 90 bd
       0.123632856 0.023371754 -0.0019094165 -0.070659176
0000c0 bc b4 ad bc 2d 82 1f be 65 91 8a 3d 5b ab 43 3d
       -0.021204345 -0.15577002 0.06766013 0.04777084
0000d0 8b 5e 6c 3b 82 b3 8c bc 8c c6 4f bc f1 c4 c2 3d
       0.0036067094 -0.01717544 -0.012681615 0.0951022
0000e0 53 ca 91 bd 80 3a 35 3d ef 42 3c 3d 0a 24 32 bd
       -0.071186684 0.044245243 0.04596227 -0.0434914
0000f0 c0 24 bd 3c 4d fc 74 3c e4 28 0e 3d 61 fa 50 bd
       0.023088813 0.014952731 0.034706965 -0.05102003
000100 da 06 8c 3d 13 6a e7 3d fb 48 a6 bc ee 84 2d bd
       0.06837244 0.11299529 -0.020298472 -0.0423631
000110 d8 52 63 3d 26 b2 56 3d 83 25 83 bd 63 b6 3e 3d
       0.055498928 0.05241599 -0.06403639 0.046560656
000120 72 b9 0e bd 95 96 ac bc 63 1c cc bd 68 f1 b0 3d
       -0.034844823 -0.021067897 -0.09966352 0.086397946
000130 aa 89 0a bd 4d 52 f3 3d 6e eb 48 3d cc 07 83 3d
       -0.033822693 0.11880932 0.04905265 0.063979715
000140 a2 18 49 3d 94 4f 5a bd 15 75 9a bd bd fb d8 3c
       0.049095757 -0.053298548 -0.07541863 0.026487226
000150 19 91 7f bd 83 4b 81 39 d5 fe b2 bd b7 df 5f 3c
       -0.062394235 0.00024661058 -0.087400116 0.013664178
000160 11 ec 5f 3d 15 9c 59 bd 83 c9 8b 3d 5c a9 27 bd
       0.05466849 -0.053127367 0.06825545 -0.040932998
000170 11 f4 a5 3c 40 0c 03 3d f2 12 4a bd c9 9e 2f bd
       0.020257981 0.031994104 -0.049334474 -0.04287604
000180 87 ab 3a bd b7 46 17 3d 05 08 24 3c 00 e5 69 be
       -0.045573737 0.036932673 0.010011678 -0.22841263
000190 6b 2c 49 3c 10 55 ba bd 18 52 2d 3d 28 b4 14 bd
       0.0122786565 -0.09098256 0.04231462 -0.036304623
0001a0 0a fd 57 3d e5 fc 88 3c b2 8e 12 3d b8 f6 5a 3d
       0.05273155 0.016722152 0.035780616 0.053457946
0001b0 85 7e 3a 3d c3 0c 6d 3d ad 11 88 3b cf e0 1e 3e
       0.045530815 0.0578735 0.0041524977 0.15515445
0001c0 47 8a 83 3b 9f dd e0 3d 35 3e c7 bc 62 47 59 ba
       0.0040142867 0.10979771 -0.024321655 -0.000828853
0001d0 ca 6e 1f bd 33 1e 4a bd 5a 33 ec bd f4 6f b2 3d
       -0.038924016 -0.049345206 -0.11533232 0.087127596
0001e0 ba 29 b4 bc a4 85 a6 bd d2 1b 1f bd ea fb ac bd
       -0.021992553 -0.08130959 -0.03884489 -0.08446486
0001f0 1b 19 9e bc 96 73 db bd 1d 9d 58 bd 04 fe cb bc
       -0.01929908 -0.10715406 -0.05288421 -0.024901398
000200 29 df 35 bd 0b af 81 bc 7e 17 5c bd 39 55 85 3b
       -0.044402275 -0.015830537 -0.05373334 0.004068997
000210 cb 2b e5 3b b7 dc 82 3c 17 39 1c bb 54 48 77 3c
       0.006993746 0.015974386 -0.002383774 0.015092928
000220 d0 97 89 bd 1d 19 03 be 1e 3a 95 bd d9 66 35 bd
       -0.06718409 -0.12802549 -0.072864756 -0.044287536
000230 34 3c 80 3d 9a 62 8e 3d 1a 03 92 3c 79 d3 78 bd
       0.06261483 0.069524005 0.017823745 -0.06074855
000240 93 9e 2c 3d 62 a5 9b 3d 77 b0 53 3d c7 a0 97 bd
       0.042143416 0.07599904 0.051681962 -0.07403713
000250 74 97 07 bb 75 59 22 3c f3 74 c2 bd 02 b1 56 3d
       -0.0020689638 0.0099090235 -0.094949625 0.0524149
000260 61 4a d2 bc 58 f7 d5 3c 4b 11 e0 3c ba ce 9a bd
       -0.025670232 0.02611892 0.027351996 -0.07558961
000270 cc 86 96 bc bc 12 8e 3d b0 2b 23 3d c2 e8 c7 bd
       -0.018374823 0.06937167 0.039836586 -0.09761192
000280 51 1c be bc 2e 48 05 bc 05 e8 c1 bd c0 33 56 bd
       -0.023206862 -0.008134885 -0.09468082 -0.052295446
000290 25 c4 72 bd 61 68 16 3d 04 f0 07 3d 17 c2 fe 3c
       -0.05926909 0.036720637 0.03318788 0.031098409
0002a0 32 21 5e 3d 7f f9 62 bd 1c 3b 84 3d c1 77 79 3d
       0.054230876 -0.05541372 0.06456587 0.06090522
0002b0 74 b6 67 bd 40 1f 5c 3d 46 33 9c 3d cc 35 0e be
       -0.056570485 0.05374074 0.07626967 -0.1388771
0002c0 34 18 1b 3d 3f a7 34 bd a0 a5 5d 3d d6 cb ed bd
       0.03786488 -0.04410481 0.05411303 -0.11611144
0002d0 d1 46 59 3d 1e d2 28 bc 36 53 6c bd 12 a7 99 3c
       0.05304605 -0.010304002 -0.057696544 0.018756423
0002e0 cb 34 1f 3d 20 ef 9d bd 4e bf 2f bd 88 fd cd bc
       0.038868707 -0.07711625 -0.04290705 -0.025145307
0002f0 79 61 c2 3d ef 8b 55 bd 42 c8 ff 3c 3b f8 bb 3d
       0.09491248 -0.052135404 0.03122342 0.091782056
000300 20 ec 11 be a3 87 a7 3d e3 b5 9e 3d c4 8f a0 3d
       -0.14250231 0.081801675 0.07749536 0.07839921
000310 b1 d4 0c ba 36 f4 db bc 27 71 9c bd 99 82 06 be
       -0.00053722697 -0.026849847 -0.076387696 -0.13135757
000320 eb 17 ec bc 86 b4 5e bd 77 29 9d 3d a4 45 04 3d
       -0.028819999 -0.05437138 0.076739244 0.032292977
000330 22 0b c7 3c 71 cf 4f 3e 7e 99 07 be cc 1a b9 3d
       0.0242973 0.20293976 -0.13242146 0.09038314
000340 36 41 45 3c ae a9 b7 3d c4 9b 21 be 8c f8 1e 3c
       0.012039473 0.08967911 -0.15782076 0.009702813
000350 f2 8f 6c 3c dd ac 84 3d a4 81 ad 3d b9 79 ff 3d
       0.014438616 0.064782836 0.084719926 0.12474389
000360 25 3c d9 bc f7 85 7b 3d 65 c6 4d bc 40 b1 ac 3c
       -0.026517937 0.061407056 -0.012559508 0.021080613
000370 22 00 9a 3d f7 97 08 bc 86 77 1b bd 10 71 0f 3d
       0.075195566 -0.0083370125 -0.037955783 0.035019934
000380 dd 02 3d 3b 8b be f1 bc 45 8f 87 3d 7c cf 5b 3c
       0.0028840818 -0.029509803 0.06619123 0.013416167
000390 25 6c fc 3c 42 22 0f bd fb 66 12 bd 34 68 37 bc
       0.030813286 -0.03494478 -0.03574274 -0.011194278
0003a0 3c 69 f1 ba 8e da a1 bd 22 e2 eb bc 73 ae ca bb
       -0.0018418203 -0.07903014 -0.028794352 -0.0061853467
0003b0 7a f7 aa 3d 3a 7f f4 3c 03 ad 3c bd 44 d8 31 bc
       0.08347984 0.029845823 -0.046063434 -0.010854784
0003c0 b4 93 1e bb 95 df ad 3c 36 0a 8f 3d d7 87 fa bc
       -0.0024196925 0.021224776 0.069843695 -0.030582352
0003d0 66 e5 34 3d 24 12 04 bd 00 77 18 bc 5a 83 11 3d
       0.044164084 -0.032243863 -0.009305716 0.035525657
0003e0 cf a7 fb 3b 22 ad c7 bc fd 30 e5 bc 8a 7c 03 3d
       0.0076799165 -0.024374548 -0.027977461 0.03210119
0003f0 ce bb a9 3d f1 f4 56 bd 6c 0a 83 bc 90 8d d0 bc
       0.08287774 -0.052479688 -0.01599618 -0.025458127
