config/results/Entry_reward05/PathFollowing/PathFollowing-1203921.onnx (onnx, 695646 bytes, 7 tensors)

action_model._continuous_distribution.log_sigma f4 [1, 3]
0.009386788 0.0141513 0.01752473
00000000: 0bcb 193c dbda 673c 0690 8f3c

action_model._continuous_distribution.mu.bias f4 [3]
0.0033974957 0.00056729274 -0.0027595672
00000000: 85a8 5e3b 5fb6 143a dbd9 34bb

action_model._continuous_distribution.mu.weight f4 [3, 256]
0.00089951814 0.012092956 0.012598258 -3.8645616e-05 0.0047681723 -0.019822769 -0.0016633142 -0.009340497
-0.014070695 -0.0015562717 0.006945894 0.005430054 -0.009400833 0.019657856 -0.014465289 0.008620377
-0.008088438 0.016678957 0.018754793 -0.008284353 -0.0054861205 0.0017988036 -0.00029395233 0.00771922
0.010541599 -0.004400491 -0.008987156 0.0018354965 0.0022899741 -0.03993068 -0.001779575 -0.0074172737
-0.012090676 -0.009123309 0.010555641 0.01068335 0.00490839 0.011752758 0.0038199057 0.0057043433
-0.0044018095 -0.017789634 0.0028224525 0.0037617635 -0.0024927314 -0.013188462 0.0035131422 -0.004304388
-0.014227896 -0.00077978004 -0.010065162 0.03096004 0.0015833295 0.016039813 0.0028148298 -0.01490827
0.009371776 0.0044782087 -0.004479895 -0.010915408 0.0012133447 0.0016723301 0.024110243 -0.0014329584
0.01143668 -0.014697796 -0.0030725107 -0.008818262 -0.011184187 0.009773548 -0.007115202 0.01416914
0.018522287 0.027723689 -0.0053760996 0.008660832 -0.0012688709 -0.012194079 0.00394765 0.014683527
0.01665095 -0.01575242 0.0109928595 0.007772272 -0.0013808021 0.008501627 -0.00073352933 0.012472402
0.0012121091 0.0065549333 0.012197096 -0.0032719164 -0.005123877 -0.020797333 -0.0039588204 0.009046322
0.00017454692 0.0055700126 0.010115999 0.0150203705 0.0037245592 0.024184313 -0.014978711 -0.003302532
0.006953832 0.008664517 0.0027385182 0.0059089824 -0.020312618 0.0022404564 -0.00262194 -0.0033769968
-0.022383543 0.0003589665 0.008385632 0.0049726428 0.0005221907 -0.01027607 -0.010496154 0.009273746
0.0032890206 0.006953079 0.02286502 -0.009625833 -0.0097111 -0.01618879 -0.0075620282 0.010582752
-0.0064230156 -0.0045027565 -0.0026939295 0.015149707 0.011352586 -0.0014896723 -0.004358309 -0.010092881
0.003603024 0.0004891489 0.013561102 -0.0034567139 -0.0033219813 -0.0061723934 0.026327122 -0.003809461
-0.01227223 -0.0045335544 -0.0070325625 0.005314939 -0.01365758 -0.0018033114 -0.00022142792 -0.0002858753
0.001611765 -0.0002821195 -0.0011538141 -0.0026227778 -0.0006110641 -0.0060995254 0.0104693575 -0.0061154296
0.026851308 -0.008435412 0.01065634 -0.017325625 0.0019999314 0.002093594 0.00444972 -0.013894663
0.0114724245 -0.0035381718 0.017556528 -0.0004236099 0.0050900476 -0.0012566978 -0.0029432476 -0.0110518085
0.011098667 -0.014783652 -0.0052034818 0.0071136346 0.0024044814 0.013175926 -0.011371463 -0.0075697517
0.0028434256 -0.0035605673 -0.0027534456 0.0066099837 0.011865644 -0.005218412 0.0132595245 -0.0050390805
0.008725918 -0.011160864 -0.001750804 0.0067409147 -0.0030342238 0.0010734668 -0.019059366 0.0061851316
0.009873923 -0.022124436 -0.0033349292 0.042959202 -0.0012774502 0.0027227502 -0.02484368 0.0030674827
-0.0017776615 -0.009169555 -0.010485823 0.0011114081 -0.009375982 0.008758077 0.0014577088 0.012552129
0.014210192 -0.004944114 0.0040389374 -0.002104775 0.026057713 0.009515642 -0.012883602 0.0015513971
0.0017082386 0.008267377 -0.0053828424 0.00991003 0.00045946674 -0.0051147165 0.0032625147 -0.00012915135
-0.0053807604 0.012597528 0.013782636 0.009664294 -0.0016687707 -0.0036164857 -0.0035854264 0.009630017
0.018179564 0.0007422661 -0.005064364 -0.0055045406 -0.009087636 -0.017392095 -0.013462647 0.020213932
-0.0018708888 0.008677116 -0.017173199 0.008153275 -0.017567687 0.007521929 0.0021851086 0.0041141426
00000000: a4cd 6b3a 8921 463c ed68 4e3c 6a17 22b8
00000010: 543e 9c3b 5c63 a2bc 9003 daba e208 19bc
00000020: c688 66bc d0fb cbba 629a e33b 98ee b13b
00000030: f405 1abc 8309 a13c d2ff 6cbc 7b3c 0d3c
00000040: 5e85 04bc 4fa2 883c a7a3 993c 18bb 07bc
00000050: eac4 b3bb d5c5 eb3a 9d1d 9ab9 83f1 fc3b
00000060: acb6 2c3c fe31 90bb dd3e 13bc 0b95 f03a
00000070: 6413 163b 5a8e 23bd a140 e9ba 9a0c f3bb
00000080: f917 46bc ee79 15bc 91f1 2c3c 3809 2f3c
00000090: 8fd6 a03b a48e 403c 6257 7a3b 80eb ba3b
000000a0: 0e3d 90bb 91bb 91bc e5f8 383b eb87 763b
000000b0: 185d 23bb 6b14 58bc bf3c 663b d30b 8dbb
000000c0: 1f1c 69bc 276a 4cba 59e8 24bc e99f fd3c
000000d0: b987 cf3a ed65 833c 0279 383b d141 74bc
000000e0: 148c 193c f0bd 923b 15cc 92bb 8ad6 32bc
000000f0: 1809 9f3a 1632 db3a d882 c53c 1bd2 bbba
00000100: ea60 3b3c 06cf 70bc 2d5c 49bb 797a 10bc
00000110: e13d 37bc 3b21 203c a426 e9bb ae25 683c
00000120: 0dbc 973c ca1c e33c fe29 b0bb 2ae6 0d3c
00000130: 3e50 a6ba adc9 47bc 4a5b 813b 2d93 703c
00000140: 9367 883c 380b 81bc 651b 343c 8bae fe3b
00000150: 08fc b4ba 684a 0b3c 524a 40ba 0c59 4c3c
00000160: a2df 9e3a c4ca d63b 54d6 473c a66d 56bb
00000170: 32e6 a7bb 2b5f aabc feb8 81bb 0637 143c
00000180: 9506 3739 a784 b63b 93bd 253c 0018 763c
00000190: bc17 743b 2e1e c63c 4469 75bc 4b6f 58bb
000001a0: f9dc e33b 9ef5 0d3c b678 333b 23a0 c13b
000001b0: a666 a6bc 9fd4 123b dbd4 2bbb 9b50 5dbb
000001c0: b15d b7bc ab33 bc39 e463 093c 8df1 a23b
000001d0: a0e3 083a f65c 28bc 10f8 2bbc e9f0 173c
000001e0: 9c8c 573b a7d6 e33b 6c4f bb3c abb5 1dbc
000001f0: 4e1b 1fbc 5a9e 84bc e4ca f7bb 4763 2d3c
00000200: 2978 d2bb dc8b 93bb a38c 30bb 7a36 783c
00000210: 3200 3a3c 1c41 c3ba 25d0 8ebb 9c5c 25bc
00000220: b620 6c3b 3a3a 003a 622f 5e3c 098a 62bb
00000230: 99b5 59bb ca41 cabb faab d73c 26a8 79bb
00000240: 7711 49bc 368e 94bb 6971 e6bb f128 ae3b
00000250: 0bc4 5fbc 175d ecba 1b2f 68b9 89e1 95b9
00000260: dc41 d33a 70e9 93b9 943b 97ba e9e2 2bbb
00000270: d12f 20ba 87de c7bb ab87 2b3c f163 c8bb
00000280: 46f7 db3c af34 0abc ee97 2e3c 78ee 8dbc
00000290: 4811 033b ae34 093b f5ce 913b 71a6 63bc
000002a0: d6f6 3b3c ace0 67bb b5d2 8f3c f517 deb9
000002b0: 6aca a63b c8b7 a4ba 80e3 40bb a512 35bc
000002c0: 2fd7 353c 2137 72bc f881 aabb 7e19 e93b
000002d0: 8194 1d3b d7df 573c 5f4f 3abc ae0b f8bb
000002e0: c458 3a3b 6858 69bb 2773 34bb 9098 d83b
000002f0: 1e68 423c 36ff aabb 7a3e 593c df1e a5bb
00000300: 27f7 0e3c 0edc 36bc 3c7b e5ba e4e2 dc3b
00000310: d4d9 46bb 92b3 8c3a 6322 9cbc a5ac ca3b
00000320: 3cc6 213c 4e3e b5bc d48e 5abb fdf5 2f3d
00000330: 1e70 a7ba 2b70 323b f984 cbbc d207 493b
00000340: 6c00 e9ba e73b 16bc bbcc 2bbc abac 913a
00000350: b89d 19bc 0a7e 0f3c 9710 bf3a 72a7 4d3c
00000360: ddd1 683c 3c02 a2bb 1059 843b 44f0 09bb
00000370: fc76 d53c 7fe7 1b3c be15 53bc 4058 cb3a
00000380: fae6 df3a e473 073c 8e62 b0bb ae5d 223c
00000390: 95e4 f039 5a99 a7bb eacf 553b cd6c 07b9
000003a0: 1751 b0bb dd65 4e3c 91d0 613c fd56 1e3c
000003b0: a7ba daba 9002 6dbb 79f9 6abb 38c7 1d3c
000003c0: 4fed 943c a294 423a f7f2 a5bb 6f5f b4bb
000003d0: 4fe4 14bc de79 8ebc 6f92 5cbc b097 a53c
000003e0: 9c38 f5ba 762a 0e3c cfae 8cbc 5095 053c
000003f0: 1cea 8fbc 847a f63b 0a34 0f3b eecf 863b

network_body.linear_encoder.seq_layers.0.bias f4 [256]
-0.0009899943 0.0026085607 -0.0038553788 -0.0040380424 -0.0042152437 -0.011304386 -0.004187589 -0.0007943361
-0.0021879913 -0.0068087955 -0.008393283 0.00590861 -0.0073461705 -0.0018498973 -0.00089986686 -0.0067475573
0.00062306196 -0.005334403 -0.0029514348 -0.0076947925 -0.00071203354 -0.0006420339 -0.0022675463 -0.0033768266
0.0026938259 -0.008486011 0.00048990524 0.0006819352 -0.0067128954 -0.012877193 -0.0037793173 -0.0019999212
0.004153905 -0.007903641 -0.0047049685 -0.0033569548 -0.011125275 -0.007901091 -0.007101876 -0.008612401
-0.0069702943 -0.0007740833 -0.0019299008 -0.0011578773 -0.009242354 -0.0042081513 -0.0055101514 -0.0054249377
8.816968e-05 0.0040947283 0.00063276436 5.42294e-05 0.0041547944 -0.00501105 -0.009380785 -0.0026486055
-0.0011140663 -0.0053731995 -0.00065239717 -0.0029072159 0.0015973524 -0.008799197 -0.0074529615 -0.0028018043
-8.767082e-05 -0.008229473 -0.008503691 -0.006080664 -0.0067565534 -0.0062228646 -0.00619218 0.000119240955
-0.0010409638 -0.0006079828 -0.0054364074 -0.009984553 0.0027009456 -0.00045834843 -0.006499368 -0.005050298
-0.004401226 -0.007014452 -0.0055637364 -0.003768352 0.0017544348 -0.0011087129 -0.00561248 -0.009619526
-0.0030973256 -0.0037589334 -0.0032492864 -0.006421386 0.0005395207 -0.0020936015 -0.004397139 8.523483e-05
-0.007375968 -0.013719462 -0.0067731394 -0.009349478 -0.0056860023 0.008864191 -0.009732169 -0.0017704308
-0.007755056 -0.010343882 -0.003479996 0.0012550699 -0.005014149 -0.005148066 -0.0019089681 -0.0062400936
-0.0022665162 -0.0036132035 -0.005748541 -0.006768303 -0.0033338657 0.00014365942 -0.007546797 -0.00066539575
-0.0024539682 0.0050351997 -0.0031905551 -0.00033318906 -0.0020366004 0.0010875396 -0.0071419394 -0.0013405585
-0.004967728 -0.00498016 -0.000962247 0.007312555 -0.002838314 -0.008201215 0.0034040995 -0.0026833564
-0.00061998225 -0.0037894417 0.0013786673 -0.0024157325 -0.0019048072 -0.008635391 -0.010408833 0.0018254652
-0.0013559475 -0.0032066503 -0.0062799505 -0.0033864372 -0.005621511 -0.0023220154 -0.005240518 0.0028210205
-0.006499483 -0.0022116697 -0.006838331 -0.0053917537 0.0004910846 -0.0022214802 -0.0035568976 -0.0015715474
-0.006181354 -0.00791773 0.0036732522 2.7478243e-05 0.0019635868 -0.00046797594 7.3000316e-05 -0.0033679702
-0.00043655676 -0.0017251492 0.0031107024 -0.005659807 -0.014698312 0.00042277985 -0.0032992102 -0.008742081
-0.0021831265 -0.0010323678 -0.0047410186 0.0041966992 -0.0028674786 -0.00041493753 -0.00957475 -0.000882727
-0.006187801 0.000632253 -0.005043881 -0.00549217 -0.0038865393 0.0010970446 -0.00919551 -0.0039705844
-0.0029316777 -0.0028727662 -0.009470872 0.0030813455 -0.0024802838 -0.0004196739 -0.0008472049 -0.0043855445
-0.0042180084 0.00012174797 -0.0033922566 0.00095144915 -0.0008931324 -0.005072229 -0.0058163707 -0.0008408806
-0.003657154 -0.005741108 -0.0016860445 -0.0026575562 -0.0034053635 0.0026372024 -0.0012860202 -0.0052408283
-0.0013789952 -0.0038164183 -0.0032362053 -0.00431076 -0.0034769357 -0.0020879842 -0.0038192207 -0.008550299
0.00067558535 -0.005771352 -0.0097566955 0.0008618779 -0.007581818 -0.007116282 -0.0044534034 -0.00066997245
-0.00087220024 -0.0069691245 -0.006920629 -0.0036105698 0.004016607 -0.0043943804 -0.010272564 -0.0011367741
0.0006131092 -0.011550657 -0.003978497 -0.0075937835 -0.009018851 -0.009109847 0.0013698385 -0.011016129
-0.010524098 -0.0025609075 -0.005129048 -0.00082484365 -0.0015799134 0.0010199469 -0.0027687221 -0.012789999
00000000: b2c2 81ba 63f4 2a3b 86aa 7cbb 8e51 84bb
00000010: 0720 8abb 0836 39bc 0b38 89bb fe3a 50ba
00000020: 6764 0fbb 511c dfbb fb83 09bc 039d c13b
00000030: 25b8 f0bb 4178 f2ba 0be5 6bba 9d1a ddbb
00000040: fb54 233a 37cc aebb dc6c 41bb 9924 fcbb
00000050: c3a7 3aba 2a4e 28ba 1d9b 14bb c04d 5dbb
00000060: e68a 303b e908 0bbc fc6c 003a e6c3 323a
00000070: d9f7 dbbb ddfa 52bc 6cae 77bb 1c11 03bb
00000080: 7b1d 883b 467e 01bc 232c 9abb 5b00 5cbb
00000090: c946 36bc 9473 01bc dbb6 e8bb 071b 0dbc
000000a0: 1167 e4bb daeb 4aba baf4 fcba eac3 97ba
000000b0: 3e6d 17bc 88e4 89bb 808e b4bb adc3 b1bb
000000c0: bde7 b838 122d 863b 19e0 253a 6074 6338
000000d0: f124 883b bc33 a4bb ddb1 19bc 3a94 2dbb
000000e0: dd05 92ba aa11 b0bb a205 2bba fd86 3ebb
000000f0: 415e d13a 822a 10bc f937 f4bb 7a9e 37bb
00000100: eadb b7b8 e9d4 06bc 1153 0bbc 4f40 c7bb
00000110: 1466 ddbb 2ce9 cbbb c5e7 cabb 0011 fa38
00000120: f370 88ba 0961 1fba e423 b2bb 4096 23bc
00000130: 5902 313b 7c4e f0b9 a7f8 d4bb f87c a5bb
00000140: 2938 90bb 7dd9 e5bb 0150 b6bb 75f6 76bb
00000150: 10f5 e53a 3b52 91ba e5e8 b7bb 379b 1dbc
00000160: 80fc 4abb 7058 76bb fbf1 54bb 7d6a d2bb
00000170: 9f6e 0d3a ce34 09bb e015 90bb 1ac0 b238
00000180: 1bb2 f1bb 98c7 60bc 36f1 ddbb 8e2e 19bc
00000190: a551 babb 1d3b 113c ad73 1fbc cd0d e8ba
000001a0: 201e febb 6379 29bc a510 64bb 2881 a43a
000001b0: bb4d a4bb 1cb1 a8bb 5736 faba b379 ccbb
000001c0: d589 14bb 7fcb 6cbb 425e bcbb a4c8 ddbb
000001d0: fc7c 5abb 48a3 1639 1f4b f7bb f46d 2eba
000001e0: c1d2 20bb 51fe a43b a218 51bb e1af aeb9
000001f0: 7c78 05bb c68b 8e3a ee06 eabb aeb5 afba
00000200: 53c8 a2bb 9c30 a3bb 4e3f 7cba 289e ef3b
00000210: 0203 3abb 645e 06bc 5017 5f3b 40db 2fbb
00000220: 4e86 22ba 4858 78bb 66b4 b43a 4451 1ebb
00000230: b9aa f9ba 747b 0dbc cf89 2abc 7344 ef3a
00000240: 0cba b1ba aa26 52bb 0bc8 cdbb fdee 5dbb
00000250: a734 b8bb f42c 18bb a7b8 abbb dfe0 383b
00000260: 9df9 d4bb a9f1 10bb 1414 e0bb 4fad b0bb
00000270: 21bc 003a 4196 11bb d71a 69bb 61fc cdba
00000280: f58c cabb 5eb9 01bc f2ba 703b 1481 e637
00000290: 85af 003b ab5a f5b9 bf17 9938 2ab9 5cbb
000002a0: a8e1 e4b9 671e e2ba eddc 4b3b e775 b9bb
000002b0: 30d1 70bc 8da8 dd39 9037 58bb f23a 0fbc
000002c0: c912 0fbb 8450 87ba 8c5a 9bbb 7784 893b
000002d0: 4fec 3bbb f98b d9b9 6adf 1cbc ce66 67ba
000002e0: 09c3 cabb c8bd 253a 2447 a5bb a9f7 b3bb
000002f0: 4fb5 7ebb b5ca 8f3a c4a8 16bc ad1b 82bb
00000300: 6421 40bb 0545 3cbb b72b 1bbc 66f0 493b
00000310: 428c 22bb ad07 dcb9 f516 5eba 9db4 8fbb
00000320: 3837 8abb f252 ff38 9f50 5ebb ac6a 793a
00000330: 1a21 6aba f134 a6bb 4197 bebb 8b6e 5cba
00000340: ddac 6fbb e81f bcbb 44fe dcba 652a 2ebb
00000350: 852c 5fbb ead4 2c3b ad8f a8ba 41bb abbb
00000360: 67bf b4ba e01c 7abb 8416 54bb 4741 8dbb
00000370: 4ddd 63bb 90d6 08bb e44b 7abb 8e16 0cbc
00000380: c419 313a 9c1d bdbb 8cda 1fbc a6ef 613a
00000390: e670 f8bb b32f e9bb dbed 91bb 17a1 2fba
000003a0: 5ea4 64ba 415d e4bb 72c6 e2bb 4f9f 6cbb
000003b0: be9d 833b bcfe 8fbb 424e 28bc cfff 94ba
000003c0: 10b9 203a f83e 3dbc 0d5e 82bb 46d5 f8bb
000003d0: cec3 13bc 7841 15bc 278c b33a fe7c 34bc
000003e0: 446d 2cbc e6d4 27bb 9311 a8bb 523a 58ba
000003f0: 1915 cfba bdaf 853a 7373 35bb 258d 51bc

network_body.linear_encoder.seq_layers.0.weight f4 [256, 416]
0.033493582 -0.05918937 -0.08795384 -0.03408026 -0.012029931 0.083043866 -0.0122761205 0.04061616
0.06285851 0.035491887 -0.09866741 -0.025042607 0.10780174 -0.03723386 -0.039868623 0.062465582
-0.04838715 0.0019055613 0.047730688 0.03053827 0.027746571 0.0076135546 -0.03997493 -0.056797795
-0.116828315 -0.06395097 -0.029701995 -0.020939412 0.01707174 -0.045560367 -0.021152062 0.00066660467
0.06507286 0.030332487 -0.05687715 -0.018979063 -0.06222834 -0.05786913 -0.021842277 0.02872404
0.07967679 -0.03253302 -0.0019216515 0.115495734 0.013665958 0.042240594 -0.031236127 -0.020582682
-0.012932829 -0.01281259 -0.16440289 -0.0026232551 -0.004233524 -0.048683092 -0.019888233 0.013442558
0.08185878 -0.020062834 0.07887097 -0.018017447 0.009222729 -0.0104488935 0.0076937336 0.032234404
-0.017732207 -0.068172954 0.033028625 -0.047383364 -0.018080458 0.018708065 0.02274291 -0.044712454
0.029197032 0.015371721 -0.041073225 -0.039823376 0.0010512793 0.08485569 -0.01963346 0.06822677
0.075470954 0.0917717 -0.045480218 -0.015469212 -0.0019523761 0.0782461 -0.09048733 0.07552718
-0.047041535 0.05812598 0.015501209 0.009503698 -0.07992733 0.009186908 -0.0327495 0.0094553
-0.016708696 0.011008676 -0.021219198 0.035165414 0.013563137 -0.100742556 -0.047164906 -0.014884187
0.03245919 -0.05255665 -0.06275177 0.048480604 -0.009893216 0.059679616 -0.078180164 -0.0028810569
-0.09012014 -0.03414347 -0.0014448925 0.052206304 0.07557668 -0.03695673 -0.029296206 0.008353303
0.07928371 0.012912227 0.01645847 -0.013441733 -0.0074295998 -0.046625223 0.014675167 -0.033842903
0.008483973 -0.028797874 -0.0069582555 0.030183138 -0.089884914 -0.042655032 0.032068774 0.020718453
0.08948671 -0.098368734 -0.084393546 0.0116232205 0.039448265 -0.0045482456 -0.07286004 0.031101037
-0.05031154 -0.049727242 -0.084646 0.023503622 -0.07833917 0.009264564 -0.04080428 0.024840167
-0.0067705503 0.0056958925 0.029142907 -0.051095262 -0.05348101 -0.015194326 0.027883148 -0.04143897
-0.03218481 0.009896195 -0.06767494 0.03952695 -0.016973613 0.035386406 0.03477802 0.045978673
-0.069015756 0.054949332 0.108802125 0.0037217345 0.031222913 -0.00011932152 -0.025546042 -0.046158817
-0.008836401 -0.0036193265 -0.035934042 0.047831565 0.07481686 -0.008914259 -0.021165274 -0.09705912
-0.04685696 0.017349437 -0.04871814 0.07235924 0.026773503 -0.037384823 0.0046764594 0.02273576
-0.005673941 0.06439658 0.015420628 -0.016845115 -0.044823125 -0.018936357 0.007625932 -0.039620005
-0.036727034 -0.09235731 -0.026894178 -0.08873677 0.0047861664 0.016884178 0.015520908 -0.03634119
-0.03012897 0.07139622 0.0743996 0.033334564 0.08906425 -0.009064277 -0.05202659 -0.028452232
-0.030550925 -0.0023147585 0.026454652 0.009164412 0.02928095 0.008285593 0.02665742 -0.11412492
0.0702908 -0.025959538 -0.059845947 0.04339551 -0.030155374 0.03318048 -0.034568027 -0.013905742
0.046627946 0.009594627 0.033185743 -0.053327817 -0.048763707 0.052095305 0.075014025 -0.0534653
-0.011960958 -0.005088611 0.099294364 -0.011981003 0.037619486 0.03879946 -0.12515716 4.220011e-05
0.00981484 0.025757447 0.04945038 -0.04283364 -0.020261744 -0.04386474 0.032142896 -0.0026740436
00000000: 9130 093d 8e70 72bd 2521 b4bd be97 0bbd
00000010: 3019 45bc e712 aa3d c821 49bc 215d 263d
00000020: f6bb 803d f15f 113d 2412 cabd 2726 cdbc
00000030: 29c7 dc3d 8882 18bd 484d 23bd e9db 7f3d
00000040: 9b31 46bd 07c4 f93a 4181 433d 652b fa3c
00000050: c74c e33c 207b f93b c1bc 23bd cea4 68bd
00000060: af43 efbd baf8 82bd 9951 f3bc 2189 abbc
00000070: 09da 8b3c 829d 3abd 1747 adbc 15bf 2e3a
00000080: eb44 853d d67b f83c 04f8 68bd fb79 9bbc
00000090: 25e3 7ebd 2e08 6dbd 93ee b2bc ae4e eb3c
000000a0: 962d a33d 5841 05bd eddf fbba 0789 ec3d
000000b0: 2fe7 5f3c 7904 2d3d e8e2 ffbc 039d a8bc
000000c0: 37e4 53bc e6eb 51bc 3b59 28be ebea 2bbb
000000d0: 60b9 8abb ec67 47bd a6ec a2bc 2d3e 5c3c
000000e0: 93a5 a73d d05a a4bc 1a87 a13d 5399 93bc
000000f0: ee1a 173c d631 2bbc b71b fc3b 3908 043d
00000100: 2243 91bc 439e 8bbd 0649 073d 0f15 42bd
00000110: 781d 94bc a841 993c 574f ba3c 6824 37bd
00000120: 9d2e ef3c acd9 7b3c 663c 28bd d61d 23bd
00000130: 14cb 893a d2c8 ad3d 5ad6 a0bc 7aba 8b3d
00000140: 8490 9a3d cdf2 bb3d 7749 3abd 9472 7dbc
00000150: dfe6 ffba 7e3f a03d 6c51 b9bd ffad 9a3d
00000160: a0ae 40bd 8215 6e3d c8f8 7d3c 66b5 1b3c
00000170: f1b0 a3bd af84 163c 5724 06bd 67ea 1a3c
00000180: ade0 88bc bc5d 343c e2d3 adbc 9c09 103d
00000190: eb37 5e3c 1d52 cebd fd2f 41bd cedc 73bc
000001a0: edf3 043d a445 57bd 0084 80bd 9993 463d
000001b0: 2817 22bc 9d72 743d ec1c a0bd 1dd0 3cbb
000001c0: e890 b8bd 06da 0bbd 8c62 bdba 47d6 553d
000001d0: f2c7 9a3d f15f 17bd 99fe efbc 4bdc 083c
000001e0: 7f5f a23d ce8d 533c ead3 863c b73a 5cbc
000001f0: 0074 f3bb 17fa 3ebd 1d70 703c db9e 0abd
00000200: 5d00 0b3c 85e9 ebbc 1402 e4bb a142 f73c
00000210: 9515 b8bd 0bb7 2ebd 8c5a 033d bfb9 a93c
00000220: cf44 b73d 8c75 c9bd 86d6 acbd 526f 3e3c
00000230: 8194 213d 7309 95bb a537 95bd 9ac7 fe3c
00000240: 7913 4ebd cbae 4bbd e25a adbd ab8a c03c
00000250: 4970 a0bd 66ca 173c 6422 27bd 9b7d cb3c
00000260: 7edb ddbb 9ca4 ba3b 1bbd ee3c 4449 51bd
00000270: e70e 5bbd 9ff1 78bc 336b e43c e9bb 29bd
00000280: 38d4 03bd a623 223c 2999 8abd 03e7 213d
00000290: 3f0c 8bbc 56f1 103d 6673 0e3d 2254 3c3d
000002a0: 2258 8dbd 8d12 613d a6d3 de3d 58e8 733b
000002b0: 32c7 ff3c 413c fab8 ef45 d1bc 0711 3dbd
000002c0: 8dc6 10bc 3932 6dbb 932f 13bd 08eb 433d
000002d0: 9539 993d 1d0d 12bc cc62 adbc efc6 c6bd
000002e0: 15ed 3fbd 6820 8e3c ac8c 47bd 1531 943d
000002f0: 1b54 db3c d420 19bd fc3c 993b 5840 ba3c
00000300: 78ec b9bb 5be2 833d cda6 7c3c c4fe 89bc
00000310: 7498 37bd 6b20 9bbc f4e2 f93b 9648 22bd
00000320: 166f 16bd d425 bdbd 2e51 dcbc a0bb b5bd
00000330: 46d5 9c3b b050 8a3c 684b 7e3c 80da 14bd
00000340: 08d1 f6bc 2e38 923d d15e 983d d389 083d
00000350: 5167 b63d 5582 14bc d519 55bd a814 e9bc
00000360: ef45 fabc 34b3 17bb 6db7 d83c 5426 163c
00000370: 9ade ef3c 4cc0 073c a960 da3c 53ba e9bd
00000380: 9ff4 8f3d 19a9 d4bc 0621 75bd 7ebf 313d
00000390: 6708 f7bc 41e8 073d 3497 0dbd e9d4 63bc
000003a0: f2fc 3e3d c832 1d3c c6ed 073d 456e 5abd
000003b0: 74bc 47bd e361 553d f4a0 993d 6efe 5abd
000003c0: e5f7 43bc 5dbe a6bb d85a cb3d f84b 44bc
000003d0: e416 1a3d 2fec 1e3d 3329 00be 0600 3138
000003e0: 6cce 203c 4801 d33c 7b8c 4a3d 5472 2fbd
000003f0: f5fb a5bc 83ab 33bd 45a8 033d 023f 2fbb

network_body.linear_encoder.seq_layers.2.bias f4 [256]
-0.003290474 -0.0013452205 -0.0042821914 -0.011501095 -0.0017746193 -0.010831674 -0.0008424625 -0.0039551933
-0.005993906 -0.012559642 -0.005655603 0.00044727736 -0.0042227386 -0.0031200978 -1.2441101e-05 -0.0064322837
-0.0059547024 0.0006210751 0.0018321495 -0.0028906597 -0.0043075797 0.0012355885 -0.0027211201 -0.0053652492
-0.004939697 -0.008443922 -0.0036199088 -0.0005325594 0.004093988 -0.00041083776 -0.003801794 -0.006745274
-0.0015816683 -0.0047962605 0.0008650367 -0.0023901388 -0.007913845 -0.0074551413 -0.003266469 -0.006565444
-0.0059893928 -0.00067511335 -0.0005652278 -0.0035634749 -0.009110984 -0.010508468 -0.0067584757 -0.006840237
-0.0027519 -0.00084743643 -0.010246192 -0.0017411317 -0.0064601502 0.005540941 -0.008727682 -0.0021813125
-0.003715933 -0.009675554 0.0010359206 -0.004554143 -0.0007780135 -0.0009442175 0.0011359144 -0.008904386
0.0013139453 -0.0070640882 -0.0075505795 -0.007614491 0.00019564063 -0.0024070079 -0.0022406045 -0.0037021658
-4.5571087e-05 0.0040354743 0.0006182987 -0.002396318 -0.0037631926 -0.0023108495 -0.0013254188 -0.0022903436
-0.0026229676 0.0019830042 -0.0063133077 0.0025413805 -0.0054529062 -0.00010966629 -0.0020393427 -0.0036383625
-0.006077291 -0.0065096896 -0.010347108 -0.0060547823 -0.004160841 -0.001020254 -0.0024356095 0.00039621873
0.00063490943 -0.0035935093 -0.0014001654 0.00034808592 -0.007755635 -0.0022089109 -0.0005596824 -0.003277538
-0.0013930686 -0.0037403014 -0.010517329 -0.0044274167 -0.010466204 -0.00943036 -0.0075019253 -0.0052087507
1.2020343e-05 -0.0009935783 0.0012053561 -0.004032873 -0.009770465 -0.0012239987 0.0023738635 -0.0023611903
-0.010073631 -0.003174665 0.0067139743 -0.003996255 -0.0013609788 -0.0043393834 -0.01069938 -0.0026175622
-0.0070600994 -0.008369474 -0.0071217814 0.005554274 -0.0030040848 -0.003308095 0.001922723 -0.0066977553
-0.0030219473 -0.008787173 0.004297458 -0.0014398871 -0.0041190833 -0.0022885203 0.0020979 -0.004772426
-0.0023625642 -0.00699198 -0.0030081233 0.0014212921 -0.0038500626 -0.006455884 -0.0032346062 -0.007220033
-0.0035162647 -0.009151042 -0.001995894 -0.004332775 -0.004278146 -0.006711011 0.00062474055 -0.0067419703
0.004395469 -0.0029469002 -0.001717632 -0.003529515 -0.009564075 -0.005866245 -0.0046984986 -0.003300473
-0.012489687 -0.0042904047 -0.0019337035 -0.008306513 -0.0009937194 -0.0047447383 -0.0052848156 -0.0077758706
-0.005955901 -0.0043156995 -0.0013166011 0.0029744683 -0.001026597 -0.00399196 0.00027510218 -0.00376305
-0.0047250846 -0.01163723 -0.0043262714 -0.0020633251 0.0010831617 -0.0016304173 -0.00072411855 -0.0021910889
-0.00056251313 -0.002370197 -0.000848429 -0.007463492 -0.0018988353 0.0007130903 -0.004263818 -0.0047177933
0.0008955649 -0.0031855986 -0.0035043112 0.0039420915 -0.0038274953 -0.0033249264 -0.002532 -0.00613139
-0.006994957 -0.0038054541 -0.006487933 -0.002697771 -0.008709747 -0.00028906984 -0.00074310135 0.0036637655
-0.0019850852 -0.008472453 -0.00072911254 -0.009824478 0.0052418145 -0.0026001635 0.0039606304 -0.008262812
0.0028514431 -0.005130662 -0.0048947656 0.0024579274 -0.007436878 -0.00041254293 -0.005134345 -0.0009471032
-0.003935166 -0.003614816 -0.0005274058 -0.00016665326 -0.005388607 -0.009910851 -0.0008593318 0.0021215864
0.00026459864 -0.0050505907 -0.0037985872 -0.0055408003 -0.00906486 -0.006223825 -0.007354158 0.00041840362
-0.004212303 -0.0040890686 -0.0018603596 -0.0040564346 0.001016839 -0.0081109665 0.00077006617 -0.002738203
00000000: fea4 57bb 1c52 b0ba a051 8cbb 176f 3cbc
00000010: 589a e8ba 5577 31bc b4d8 5cba 919a 81bb
00000020: 8768 c4bb f5c6 4dbc a352 b9bb 8d80 ea39
00000030: e65e 8abb 8e7a 4cbb 1fba 50b7 e8c5 d2bb
00000040: aa1f c3bb a5cf 223a bc24 f03a 3971 3dbb
00000050: 9926 8dbb 78f3 a13a d254 32bb f9ce afbb
00000060: 2fdd a1bb 6058 0abc fe3b 6dbb 759b 0bba
00000070: dc26 863b b665 d7b9 8527 79bb 7607 ddbb
00000080: fb4f cfba f329 9dbb a1c3 623a e0a3 1cbb
00000090: 12a9 01bc 424a f4bb 4212 56bb f022 d7bb
000000a0: ab42 c4bb 17fa 30ba cc2b 14ba 3089 69bb
000000b0: 3d46 15bc b62b 2cbc 3476 ddbb 1124 e0bb
000000c0: 3959 34bb 7f26 5eba a5df 27bc af36 e4ba
000000d0: abaf d3bb c890 b53b 8dfe 0ebc 5af4 0ebb
000000e0: 0387 73bb 3786 1ebc bac7 873a ec3a 95bb
000000f0: 9af3 4bba 5d85 77ba f6e2 943a b4e3 11bc
00000100: b038 ac3a de79 e7bb da6a f7bb fb82 f9bb
00000110: e224 4d39 e4be 1dbb 1bd7 12bb 09a0 72bb
00000120: 9523 3fb8 033c 843b 5315 223a 8b0b 1dbb
00000130: e59f 76bb 9f71 17bb adb9 adba 9719 16bb
00000140: 18e6 2bbb 4af5 013b dddf cebb 4a8d 263b
00000150: 4bae b2bb a4fc e5b8 7ea6 05bb 9871 6ebb
00000160: 0324 c7bb 3c4f d5bb eb86 29bc 3267 c6bb
00000170: aa57 88bb 0bba 85ba bf9e 1fbb 94bb cf39
00000180: 0d70 263a 1581 6bbb c185 b7ba 4d7f b639
00000190: fb22 febb 60c3 10bb a6b7 12ba f7cb 56bb
000001a0: a097 b6ba d81f 75bb e050 2cbc dd13 91bb
000001b0: 717a 2bbc cc81 1abc b6d2 f5bb 2bae aabb
000001c0: fbaa 4937 f53a 82ba 0afd 9d3a 3126 84bb
000001d0: 4d14 20bc 956e a0ba d292 1b3b 33be 1abb
000001e0: df0b 25bc 0a0e 50bb e600 dc3b 04f3 82bb
000001f0: df62 b2ba 6331 8ebb 744c 2fbc 688b 2bbb
00000200: 6858 e7bb 1e20 09bc d55d e9bb a100 b63b
00000210: 2ee0 44bb a0cc 58bb e103 fc3a d878 dbbb
00000220: dd0b 46bb 13f8 0fbc b1d1 8c3b 98ba bcba
00000230: 60f9 86bb 00fb 15bb ec7c 093b 0362 9cbb
00000240: 40d5 1abb fb1c e5bb ef23 45bb a64a ba3a
00000250: 5551 7cbb e18b d3bb b0fb 53bb 0796 ecbb
00000260: 2271 66bb 41ee 15bc 8bcd 02bb f3f9 8dbb
00000270: b12f 8cbb 0ae8 dbbb a1c5 233a bfeb dcbb
00000280: de07 903b c820 41bb 2b22 e1ba 6f4f 67bb
00000290: a3b2 1cbc a139 c0bb ddf5 99bb c04c 58bb
000002a0: 8ba1 4cbc 8696 8cbb 5374 fdba 0a18 08bc
000002b0: b13f 82ba c079 9bbb 3f2c adbb bbcc febb
000002c0: b829 c3bb b66a 8dbb cd91 acba 4cef 423b
000002d0: e18e 86ba fdce 82bb 973b 9039 819d 76bb
000002e0: e2d4 9abb 15aa 3ebc 65c3 8dbb da38 07bb
000002f0: e0f8 8d3a bab3 d5ba c6d2 3dba 5f98 0fbb
00000300: 9e75 13ba 4f55 1bbb 1b69 5eba 4f90 f4bb
00000310: 57e2 f8ba aeee 3a3a 7fb7 8bbb b897 9abb
00000320: 58c4 6a3a 7ac5 50bb 96a8 65bb a92c 813b
00000330: b7d6 7abb 02e7 59bb e9ef 25bb d4e9 c8bb
00000340: f435 e5bb ed64 79bb ba98 d4bb 16cd 30bb
00000350: 54b3 0ebc 4c8e 97b9 b0cc 42ba c91b 703b
00000360: 3418 02bb 0bd0 0abc ea21 3fba d9f6 20bc
00000370: 87c3 ab3b 8167 2abb 2dc8 813b bf60 07bc
00000380: 47df 3a3b 1d1f a8bb 4564 a0bb 2e15 213b
00000390: 0eb1 f3bb 934a d8b9 023e a8bb 0547 78ba
000003a0: 91f2 80bb 8de6 6cbb 9b41 0aba a5bf 2eb9
000003b0: e992 b0bb 1f61 22bc c844 61ba 500a 0b3b
000003c0: d4b9 8a39 6d7f a5bb b8f1 78bb 9a8f b5bb
000003d0: c784 14bc 3af1 cbbb 26fb f0bb 2f5d db39
000003e0: 5c07 8abb 98fd 85bb 4fd7 f3ba d7eb 84bb
000003f0: 7547 853a dce3 04bc 44de 493a 6c73 33bb

network_body.linear_encoder.seq_layers.2.weight f4 [256, 256]
-0.025406001 -0.074874595 -0.046856325 0.00792344 0.019811423 0.089503184 -0.029342266 -0.048606806
-0.054051768 -0.039741304 -0.15707728 0.024656478 0.07555783 -0.02333984 0.12563527 0.087544166
0.06245717 0.061078988 -0.061242864 -0.05930001 -0.05118073 -0.10373326 0.019501565 0.025263948
-0.01629382 0.06923758 -0.02849468 0.007308468 0.12711091 -0.010390093 -0.004258727 -0.13525335
0.0445763 0.00032200766 -0.017236376 0.010811202 0.100058325 -0.0025267447 0.042113196 -0.09389918
0.09649986 -0.10195795 0.0019747834 0.009887858 0.12527393 0.024832921 -0.001025415 -0.07270858
-0.022441464 -0.15644006 0.066135295 0.0477753 0.0008955834 -0.015291384 -0.014496444 0.09617551
-0.074348986 0.04373231 0.046323687 -0.045823608 0.022939 0.016255634 0.03525065 -0.050471045
0.071325906 0.11360688 -0.020533742 -0.041433048 0.055373494 0.052757625 -0.06412531 0.043679584
-0.034051456 -0.020374307 -0.098209046 0.08664146 -0.043329023 0.12194713 0.048109505 0.06270159
0.052041512 -0.052403975 -0.07480204 0.027104376 -0.06395812 -0.0010492712 -0.086801104 0.012960201
0.054176264 -0.04887924 0.069395214 -0.03832593 0.022135517 0.025508717 -0.04931027 -0.042746197
-0.04456515 0.037107237 0.014545951 -0.22823527 0.010881532 -0.09050507 0.042596668 -0.03625109
0.04992877 0.017491823 0.03487815 0.045202784 0.04112018 0.05952904 0.006082981 0.15428522
0.0024836594 0.11054472 -0.027086621 0.0032521214 -0.038143836 -0.049780827 -0.11384538 0.08913932
-0.017410586 -0.08053534 -0.036812782 -0.086974375 -0.017911233 -0.10581163 -0.054174908 -0.023873847
-0.046819612 -0.017462231 -0.051883284 -0.00015899363 0.007495932 0.015756804 -0.0013179933 0.016173966
-0.06665065 -0.13326727 -0.07331272 -0.044175934 0.056758024 0.069430396 0.016519642 -0.058212936
0.041150473 0.074982084 0.05145261 -0.07293135 0.0002567655 0.011470016 -0.090919875 0.053075187
-0.023866158 0.02585116 0.025671419 -0.075611874 -0.018543446 0.06987019 0.039653406 -0.09710496
-0.02318664 -0.007911132 -0.09186006 -0.05190201 -0.057814308 0.03618421 0.0348737 0.034048084
0.057296436 -0.056284197 0.06101202 0.061664708 -0.057130355 0.05231117 0.072356954 -0.13862173
0.035762712 -0.04783459 0.054877475 -0.11145558 0.052704353 -0.009313724 -0.058145992 0.018303145
0.035980765 -0.078861564 -0.044575904 -0.023107335 0.09443167 -0.051544223 0.031283952 0.08793874
-0.14543839 0.07961741 0.07774327 0.078526214 -0.0014294162 -0.026263133 -0.07403761 -0.13432579
-0.027351936 -0.052535772 0.07616502 0.035092264 0.020129614 0.19506215 -0.13132407 0.09058215
0.003891121 0.09072456 -0.15741085 0.010122604 0.00731664 0.06578779 0.081656784 0.12498529
-0.026271686 0.063595645 -0.015143304 0.02265403 0.077008404 -0.008590346 -0.03630339 0.03459121
0.001690596 -0.028435042 0.06677827 0.014904396 0.031041065 -0.0350426 -0.035669487 -0.009403771
-0.0031651137 -0.07822245 -0.035750475 -0.0047235927 0.08252071 0.03131642 -0.043306265 -0.012945144
-0.0022486923 0.021774061 0.06821068 -0.030065555 0.045823153 -0.029677495 -0.011384674 0.036676858
0.006435599 -0.02414855 -0.026049847 0.032973573 0.08283187 -0.05167066 -0.015603251 -0.024259873
00000000: 3f20 d0bc da57 99bd 6bec 3fbd 51d1 013c
00000010: 914b a23c 724d b73d 315f f0bc ee17 47bd
00000020: 6365 5dbd c7c7 22bd ded8 20be 62fc c93c
00000030: 10be 9a3d 3133 bfbc 88a6 003e 5b4a b33d
00000040: 17d3 7f3d f62d 7a3d ccd9 7abd 91e4 72bd
00000050: e3a2 51bd 1a72 d4bd bfc1 9f3c 57f6 ce3c
00000060: 9e7a 85bc 6fcc 8d3d ad6d e9bc e07b ef3b
00000070: 5d29 023e 353b 2abc cb8c 8bbb db7f 0abe
00000080: a395 363d 23d3 a839 4d33 8dbc 7821 313c
00000090: 61eb cc3d be97 25bb e37e 2c3d 374e c0bd
000000a0: b8a1 c53d 54cf d0bd 5e6b 013b af00 223c
000000b0: cf47 003e 696e cb3c 3867 86ba 3ce8 94bd
000000c0: 29d7 b7bc d331 20be f171 873d 08b0 433d
000000d0: 96c5 6a3a b788 7abc 7e82 6dbc aaf7 c43d
000000e0: 4844 98bd a720 333d e8bd 3d3d 89b1 3bbd
000000f0: 92ea bb3c 892a 853c fc62 103d baba 4ebd
00000100: 5113 923d b9aa e83d 6136 a8bc b3b5 29bd
00000110: 51cf 623d 6118 583d 2154 83bd 5de9 323d
00000120: 8a79 0bbd 05e8 a6bc d321 c9bd 1471 b13d
00000130: c679 31bd 6bbf f93d 790e 453d b169 803d
00000140: 7b29 553d 8da5 56bd d031 99bd ff09 de3c
00000150: 7afc 82bd b387 89ba c7c4 b1bd 0657 543c
00000160: eee7 5d3d 9935 48bd 141f 8e3d a6fb 1cbd
00000170: 8b55 b53c a8f7 d03c 91f9 49bd a316 2fbd
00000180: f289 36bd c2fd 173d 2452 6e3c 82b6 69be
00000190: 7448 323c b95a b9bd d879 2e3d 067c 14bd
000001a0: 1c82 4c3d 034b 8f3c 64dc 0e3d 8e26 393d
000001b0: a26d 283d b9d4 733d be53 c73b f2fc 1d3e
000001c0: e4c4 223b 4565 e23d c3e4 ddbc 8b21 553b
000001d0: b63c 1cbd fbe6 4bbd c427 e9bd ad8e b63d
000001e0: a5a0 8ebc b6ef a4bd 00c9 16bd 9f1f b2bd
000001f0: 94ba 92bc c5b3 d8bd 82e6 5dbd 1693 c3bc
00000200: ecc5 3fbd f40c 8fbc 9183 54bd 87b7 26b9
00000210: 6fa0 f53b 6a14 813c 84c0 acba 447f 843c
00000220: 2380 88bd 3777 08be fb24 96bd d3f1 34bd
00000230: 1a7b 683d 8631 8e3d 3354 873c b070 6ebd
00000240: 668d 283d 3590 993d f9bf 523d 085d 95bd
00000250: 7b9e 8639 bcec 3b3c 3334 babd 5e65 593d
00000260: f682 c3bc d0c5 d33c de4c d23c 66da 9abd
00000270: 6de8 97bc 1a18 8f3d 9c6b 223d f7de c6bd
00000280: e9f1 bdbc b19d 01bc 2121 bcbd 3497 54bd
00000290: b2ce 6cbd e535 143d bad7 0e3d 0176 0b3d
000002a0: abaf 6a3d 428a 66bd bde7 793d 2294 7c3d
000002b0: 8501 6abd 3d44 563d e22f 943d dbf2 0dbe
000002c0: ec7b 123d 34ee 43bd 34c7 603d d342 e4bd
000002d0: 85e0 573d 9798 18bc 7e2a 6ebd 7af0 953c
000002e0: 9160 133d 2c82 a1bd 3995 36bd 984b bdbc
000002f0: 6465 c13d 0920 53bd 9a23 003d 3a19 b43d
00000300: cded 14be 740e a33d dd37 9f3d 5ad2 a03d
00000310: 405b bbba c825 d7bc 08a1 97bd b38c 09be
00000320: 2b11 e0bc c02f 57bd 68fc 9b3d e8bc 0f3d
00000330: dce6 a43c 5fbe 473e d179 06be 2283 b93d
00000340: 2d02 7f3b cccd b93d 4f30 21be 47d9 253c
00000350: 6dc0 ef3b c0bb 863d ac3b a73d 4af8 ff3d
00000360: b837 d7bc 6f3e 823d 9f1b 78bc f294 b93c
00000370: 95b6 9d3d 86be 0cbc ddb2 14bd 83af 0d3d
00000380: fd96 dd3a 9bf0 e8bc 0cc3 883d 9131 743c
00000390: d549 fe3c d488 0fbd 2b1a 12bd 4612 1abc
000003a0: cc6d 4fbb 1833 a0bd 176f 12bd 5ec8 9abb
000003b0: 9e00 a93d a545 003d e961 31bd df17 54bc
000003c0: cc5e 13bb 845f b23c 0ab2 8b3d 0a4c f6bc
000003d0: 0fb1 3b3d 381e f3bc c986 3abc 793a 163d
000003e0: b8e1 d23b 2ed3 c5bc 7d66 d5bc 4c0f 073d
000003f0: c1a3 a93d 9da4 53bd c7a4 7fbc a4bc c6bc
