config/results/Entry_reward05/PathFollowing/PathFollowing-499894.onnx (onnx, 695646 bytes, 7 tensors)

action_model._continuous_distribution.log_sigma f4 [1, 3]
0	0x3ba15190	0.004923053
1	0x3b2e5760	0.0026602373
2	0x3c44cfeb	0.012012462

action_model._continuous_distribution.mu.bias f4 [3]
0	0x3a5a55d3	0.0008328829
1	0x3995c975	0.00028569592
2	0x37ad18be	2.0634729e-05

action_model._continuous_distribution.mu.weight f4 [3, 256]
0	0x3ba9fad0	0.00518737
1	0x3cabc7bf	0.02096927
2	0x3c1ca4bb	0.009560759
3	0xbb0d1b67	-0.0021531226
4	0x3c023a4f	0.007948472
5	0xbca34e84	-0.0199349
6	0x3c433890	0.011915341
7	0xbb9a73ee	-0.004713527
8	0xbc988ab5	-0.018620828
9	0xbb9e63d1	-0.0048336764
10	0x3beb8fa0	0.0071887523
11	0x3bf9cf88	0.0076236166
12	0xbc00eb2e	-0.007868571
13	0x3cc5ec91	0.024160655
14	0xbc99688c	-0.01872661
15	0x3c6c45a8	0.014420904
16	0xbbfa0fcf	-0.007631279
17	0x3c2f2137	0.010689071
18	0x3cc3974f	0.02387586
19	0x3a734f7c	0.00092815585
20	0xbb8ea8cd	-0.0043536187
21	0x3bd88d45	0.0066086375
22	0x3bcda27d	0.0062754736
23	0xba07c658	-0.0005179397
24	0x3c9565dd	0.018237049
25	0xbc4bcef1	-0.012439475
26	0xbbf251b4	-0.0073949937
27	0xbc066ea1	-0.008205087
28	0x3ba67070	0.0050793216
29	0xbd14732e	-0.036242656
30	0x3a435c48	0.00074524106
31	0xbc2ce883	-0.010553482
32	0xbc76c70f	-0.015062108
33	0xbc02ac65	-0.007975672
34	0x3bb649f1	0.0055630137
35	0x3b849487	0.004046026
36	0xbb63d4be	-0.0034764255
37	0x3c665b09	0.01405979
38	0x3c0d8909	0.008638629
39	0x3b6bedba	0.003599985
40	0xbc1d40ee	-0.009598
41	0xbc8a0a5d	-0.016850645
42	0x3b8b9b79	0.004260477
43	0x3aeaf5b2	0.0017926006
44	0xbb5a912a	-0.0033350685
45	0xbc74c442	-0.01493937
46	0x3b88a5c9	0.0041701538
47	0xbbf998e4	-0.007617103
48	0xbc7cc3c8	-0.015427537
49	0x3b7f67dc	0.0038971817
50	0xbbf04059	-0.0073318896
51	0x3d09c2b8	0.033632964
52	0x3a1dba48	0.0006016833
53	0x3c1f3fe6	0.009719824
54	0x3b91de37	0.004451539
55	0xbc072313	-0.008248108
56	0x3bd8a71e	0.006611719
57	0x3bcf8ee7	0.006334174
58	0xbbecec0c	-0.0072302874
59	0x3adf2250	0.0017023776
60	0xbaf0b09a	-0.0018363178
61	0xbbf41cfb	-0.007449744
62	0x3cb7ae1d	0.02242189
63	0xbb6f48bc	-0.003651186
64	0x3c2e8e80	0.010654092
65	0xbc92197d	-0.01783442
66	0xbb84584d	-0.0040388466
67	0xbc364e06	-0.011127001
68	0xbc54b5b2	-0.012982773
69	0x3c745982	0.014913918
70	0x3bcaa888	0.0061846413
71	0x3c9776f8	0.018489346
72	0x3ca8c370	0.020601004
73	0x3c7701e5	0.015076135
74	0xbbae0eeb	-0.005311837
75	0x3bc15873	0.0059004365
76	0xbbd3da78	-0.0064652525
77	0xbc33c13d	-0.010971365
78	0x3a10baa4	0.00055209757
79	0x3c840205	0.016114244
80	0x3c840d22	0.016119543
81	0xbc37c7a1	-0.011217029
82	0x3bbc9f9c	0.0057563316
83	0x3bb62a72	0.005559259
84	0x3b919edd	0.004443987
85	0x3c3dbdea	0.011580924
86	0xbbc3fae8	-0.005980838
87	0x3c848355	0.016175905
88	0x3b35f8a8	0.002776662
89	0x3af5594c	0.0018718629
90	0x3c0ffd59	0.00878843
91	0xbc10faa7	-0.008848823
92	0xbb9e0943	-0.0048228814
93	0xbc7a38ad	-0.015272302
94	0xb9a929a0	-0.00032265205
95	0x3c384376	0.011246553
96	0x3c15659e	0.009118466
97	0x3b7da536	0.003870321
98	0x3bc04add	0.0058682994
99	0x3c758353	0.014984923
100	0x3bbec1b9	0.0058214334
101	0x3ce01804	0.027355202
102	0xbc3114a5	-0.010808145
103	0x38992102	7.301757e-05
104	0x3bd403cd	0.0064701797
105	0x3c1d992e	0.00961904
106	0xbb531c59	-0.0032212941
107	0x3c50b154	0.012737591
108	0xbcb72d71	-0.022360535
109	0x3a49a86f	0.000769264
110	0xbac92003	-0.0015344623
111	0xbb634865	-0.0034680602
112	0xbc7937d8	-0.015211068
113	0x3b0dbc31	0.0021627063
114	0x3bfd7e8b	0.0077360324
115	0x3b513434	0.0031921985
116	0x3ad1316a	0.0015960161
117	0xbb27007e	-0.002548247
118	0xba4fcade	-0.0007926653
119	0x3bafb492	0.005362102
120	0xbb553270	-0.0032531284
121	0x3c2a8563	0.010407778
122	0x3c3a6a56	0.0113778915
123	0xbc21f2fc	-0.009884592
124	0xbb4450f7	-0.0029955485
125	0xbc929556	-0.017893475
126	0xbc50605d	-0.012718287
127	0x3c17c2b0	0.009262726
128	0xbb8ef3fc	-0.0043625813
129	0xbc31a33e	-0.010842143
130	0x3b60ae91	0.0034283737
131	0x3c02dc1b	0.007987048
132	0x3c6496b0	0.013951942
133	0xbbd40d04	-0.006471278
134	0xb9bc19d2	-0.00035877392
135	0xbc300406	-0.010743147
136	0x39b2e727	0.00034123028
137	0xbb1d42d5	-0.0023996134
138	0x3c08b6f5	0.008344402
139	0x3a1fc4b9	0.00060946826
140	0x3a8ed614	0.001089754
141	0xbb920771	-0.0044564535
142	0x3cba3690	0.022731096
143	0xba69b64d	-0.00089154096
144	0xbc706a16	-0.01467373
145	0xbb9a95b6	-0.004717554
146	0xbbd179d0	-0.006392695
147	0x3bead085	0.0071659707
148	0xbc5e37ab	-0.013563077
149	0xbbc776d3	-0.006087163
150	0x3a9b49db	0.0011847572
151	0x3b98f5c3	0.004667969
152	0xbb64d874	-0.0034919055
153	0x3b2fab35	0.0026804928
154	0x3b74952d	0.003732036
155	0xbaa91918	-0.0012901155
156	0xbb50ada3	-0.0031841777
157	0xbc3ab99d	-0.011396793
158	0x3be84a91	0.007088967
159	0xbc1ae18f	-0.009453191
160	0x3c979c36	0.018507104
161	0xbb5e0855	-0.0033879478
162	0x3bd478f1	0.006484144
163	0xbc95a8df	-0.018269
164	0xbc21e512	-0.009881275
165	0xbbbb5a8a	-0.00571758
166	0x3b7fa8ca	0.0039010518
167	0xbc8149b1	-0.01578221
168	0x3c40ffd2	0.011779742
169	0x389652e9	7.1680006e-05
170	0x3c9460ac	0.018112503
171	0x3bdbe763	0.006710933
172	0x3bd9a35e	0.0066417893
173	0xb981fda2	-0.00024793769
174	0xbc5edc74	-0.013602365
175	0xbc362665	-0.011117552
176	0x3c4864f4	0.0122311
177	0xbc25cb75	-0.010119309
178	0xbb291268	-0.0025798324
179	0x3c2d6a19	0.010584378
180	0x3b1606e3	0.0022892288
181	0x3c85b089	0.01631953
182	0xbb9ca812	-0.0047807777
183	0xbbd2ff1a	-0.006439102
184	0x3ac54406	0.001505018
185	0xbbe3a4fc	-0.006947158
186	0xbb4d6592	-0.0031341058
187	0x3bf98400	0.0076146126
188	0x3c5acc30	0.013354346
189	0xbb89834d	-0.0041965605
190	0x3c6cbdc6	0.014449542
191	0xbae3ad1f	-0.001737032
192	0x3c1b20d8	0.00946828
193	0xbcaf088e	-0.021366384
194	0xb94263ba	-0.00018538433
195	0x3bf9d795	0.0076245763
196	0x39bd0a29	0.0003605646
197	0x3c1080b1	0.008819745
198	0xbc8679d5	-0.016415516
199	0x3c3c2e55	0.011485656
200	0x3b9ae4b6	0.0047269715
201	0xbcc88510	-0.024477512
202	0xbc0629d2	-0.008188682
203	0x3d25cbe6	0.040477656
204	0xbba59f48	-0.005054388
205	0x3b930eca	0.004487847
206	0xbcc2e937	-0.023792846
207	0x3bd00eff	0.006349444
208	0xbb85f903	-0.0040885224
209	0xbbe94d03	-0.007119776
210	0xbc7eb397	-0.015545747
211	0x399f9a26	0.00030441693
212	0xbc54ccfc	-0.012988325
213	0x3c600a43	0.013674322
214	0x36d7f40e	6.435911e-06
215	0x3c69c5c9	0.014268347
216	0x3ac7679d	0.0015213374
217	0xbbf7ca1a	-0.007561934
218	0xbb78d811	-0.0037970582
219	0xbbd95d80	-0.0066334605
220	0x3cbe5c8a	0.023237485
221	0x3c0216b0	0.007939979
222	0xbb6c7361	-0.0036079513
223	0x3988a59e	0.00026063336
224	0x3b820ee8	0.003969062
225	0x3bace0ef	0.0052758376
226	0xbb9e3373	-0.0048279106
227	0x3c55fe11	0.013061062
228	0x3b57443a	0.0032847063
229	0xbb99e2e2	-0.004696236
230	0x3bfaa67a	0.00764924
231	0x3bd7db2c	0.0065874066
232	0xbb78dc6b	-0.0037973176
233	0x3c3d71a7	0.011562741
234	0x3c4244f9	0.011857265
235	0x3c263838	0.0101452395
236	0xba90ca5d	-0.0011046637
237	0xbb3c014d	-0.0028687299
238	0xbaacf460	-0.0013195388
239	0x3c2b9168	0.010471679
240	0x3c69aebf	0.014262854
241	0xbb470611	-0.0030368606
242	0xbbea3689	-0.0071476144
243	0xbb5db030	-0.003382694
244	0xbc75a7d8	-0.01499363
245	0xbc61c122	-0.013778957
246	0xbc95f510	-0.018305331
247	0x3c896f21	0.016776623
248	0xba563bae	-0.0008172345
249	0x3c028eef	0.007968648
250	0xbc5c19d0	-0.013433889
251	0x3bea19c6	0.0071441857
252	0xbc94a660	-0.01814574
253	0xbb276d18	-0.0025547203
254	0xbc114aad	-0.008867902
255	0xbb8eedb6	-0.0043618334

network_body.linear_encoder.seq_layers.0.bias f4 [256]
0	0xbb603339	-0.0034210219
1	0xb9ef19a5	-0.0004560474
2	0xbaa6d04c	-0.0012726872
3	0xbac2887f	-0.0014841704
4	0xbb1ba2d4	-0.0023748176
5	0xbba98c4f	-0.005174197
6	0xbb4ae91d	-0.00309617
7	0xbabdbf3f	-0.0014476551
8	0xbadbccc3	-0.0016769398
9	0xbb4e99f2	-0.0031524864
10	0xbbceb313	-0.0063079684
11	0x3b1f1fa3	0.0024280332
12	0xbb1f0c63	-0.0024268858
13	0xbb1b7a93	-0.0023724183
14	0xb92abc16	-0.00016282531
15	0x3a18848f	0.00058180926
16	0x3a994f8b	0.0011696679
17	0xbb302e13	-0.002688293
18	0xbb374bb1	-0.00279687
19	0xbb2a6cca	-0.0026004785
20	0xbb896f5e	-0.004194184
21	0xbadf0441	-0.0017014818
22	0xba3e7e1b	-0.0007266716
23	0x3b227f5a	0.0024795146
24	0x3b2abf06	0.00260538
25	0xbb287560	-0.0025704727
26	0xb93ebfd1	-0.00018191269
27	0xb9ae2910	-0.0003321846
28	0xbbc14284	-0.005897822
29	0xbb912592	-0.0044295276
30	0xbad31b81	-0.0016106219
31	0xbb03da2b	-0.0020119052
32	0x3b17ac47	0.0023143457
33	0xbb8fc850	-0.004387893
34	0xbb47eda2	-0.003050663
35	0x3a96d395	0.0011507148
36	0xbbd395ca	-0.006457065
37	0xbb47e7e5	-0.003050321
38	0xbbbc1221	-0.005739466
39	0xbb88eb9e	-0.0041784784
40	0xbabe2cf5	-0.0014509248
41	0xbab072cc	-0.0013461947
42	0xbb125954	-0.0022331076
43	0xbac9c813	-0.001539471
44	0xbbd3a888	-0.0064592995
45	0xbbcc1c37	-0.0062289494
46	0xbb9b2555	-0.004734675
47	0xbb3403de	-0.0027468125
48	0xbb10f0e9	-0.002211625
49	0x3b26a714	0.0025429176
50	0xb970a03a	-0.00022947873
51	0xba0036d9	-0.00048909854
52	0x3b16e800	0.0023026466
53	0xbabc1666	-0.0014349937
54	0xbb73ee3c	-0.0037220856
55	0xbb9d9858	-0.0048094206
56	0xba1ec97c	-0.0006057245
57	0xbb87565d	-0.0041301684
58	0x3a428685	0.00074205577
59	0xba9f72f8	-0.0012165001
60	0xb9f2b9dd	-0.00046296316
61	0xbb1af75b	-0.002364597
62	0xbb95f1db	-0.0045759506
63	0xbb5aa73f	-0.0033363847
64	0xbb33d540	-0.002744034
65	0xbb9c4d14	-0.0047699306
66	0xbb828def	-0.003984205
67	0xbb7e2724	-0.0038780654
68	0xbae256fb	-0.0017268354
69	0xbb81152b	-0.003939291
70	0xbb839fee	-0.004016868
71	0xba725ca5	-0.00092453725
72	0xbb6c0519	-0.003601378
73	0xbb3e90c2	-0.0029077982
74	0xbb6e9df6	-0.003641007
75	0xbbac96d8	-0.0052670054
76	0x3b4b8822	0.0031056483
77	0x3acbe174	0.0015554861
78	0xbbc05192	-0.005869099
79	0xbb3ef05d	-0.0029134967
80	0xbb80a31f	-0.0039256955
81	0xbb574476	-0.0032847202
82	0xbb219b86	-0.002465935
83	0xbb12ec24	-0.0022418583
84	0xb9344161	-0.00017190493
85	0xbb8ba95a	-0.0042621316
86	0xbb72040f	-0.0036928689
87	0xbb9cc2d4	-0.0047839675
88	0x38bbadf8	8.949259e-05
89	0xbb8a69ae	-0.004224024
90	0xbac487b9	-0.0014994062
91	0xbb8ace1d	-0.0042359964
92	0xbb4a5f28	-0.0030879471
93	0x393e07a7	0.00018122663
94	0xbb41f970	-0.002959814
95	0xbaea0f0a	-0.0017857265
96	0xbac780c1	-0.0015220867
97	0xbbd9e910	-0.0066500977
98	0xbbbd1675	-0.0057704994
99	0xbbbbd545	-0.005732211
100	0xbba0b9be	-0.0049049547
101	0x3be0e63e	0.0068633845
102	0xbbbb9619	-0.00572468
103	0xbb9bf6c6	-0.0047596423
104	0xbbbcbc20	-0.005759731
105	0xbbf86f05	-0.007581594
106	0xbb405ae8	-0.002935106
107	0xbb351ed3	-0.002763678
108	0xbaf0343c	-0.0018326114
109	0xbb3fa1f8	-0.0029240828
110	0xb9967a61	-0.0002870141
111	0xbb22cf46	-0.0024842783
112	0xbb43d837	-0.0029883513
113	0xbab9f45a	-0.0014187202
114	0xbb99e73f	-0.004696756
115	0xbb2116c1	-0.0024580213
116	0xb791e1a6	-1.7390423e-05
117	0x3ab1eb88	0.0013574222
118	0x399ea94c	0.00030262244
119	0xba316f14	-0.0006768566
120	0xbb633bce	-0.0034673098
121	0x3acc3dd4	0.0015582391
122	0xbb1959d9	-0.00233995
123	0x3aae396c	0.001329226
124	0xbb1bf504	-0.0023797164
125	0x3b04f453	0.002028723
126	0xbba27256	-0.0049574776
127	0x38bef0af	9.104737e-05
128	0xbb3518ce	-0.0027633193
129	0xbae35d2e	-0.0017346495
130	0x3a3169e1	0.00067677913
131	0x3b702b0b	0.003664675
132	0x3a61c9ce	0.000861314
133	0xbb209dde	-0.0024508159
134	0x3a9391d0	0.0011258665
135	0xb840aa16	-4.5934772e-05
136	0x3a70e40a	0.0009189254
137	0xbb019e17	-0.0019778067
138	0xba81adf6	-0.0009893763
139	0xbb6ee5df	-0.0036452932
140	0xbbc5e762	-0.006039546
141	0xbbc819aa	-0.006106575
142	0xbad5168a	-0.0016257328
143	0x3ac51524	0.0015036208
144	0xba4b1e81	-0.0007748381
145	0xbbaaee30	-0.0052163824
146	0xbb4763b7	-0.0030424425
147	0xba1b36e6	-0.0005920961
148	0xbb06cb09	-0.0020567796
149	0xbb50fc88	-0.0031888802
150	0xbb7f7c07	-0.0038983838
151	0xb94c47e1	-0.00019481733
152	0xbb6f680e	-0.0036530527
153	0x3a5f62eb	0.0008521515
154	0xbb6f125e	-0.0036479454
155	0xbb9f9421	-0.0048699533
156	0x39307509	0.00016828267
157	0xb9c8a787	-0.0003827179
158	0xbb244a4b	-0.0025068696
159	0xbb5db93d	-0.0033832334
160	0xbae03704	-0.001710624
161	0xbb8167ae	-0.003949127
162	0xbaaf7a4f	-0.0013387891
163	0xbab14e31	-0.0013527331
164	0x3a87da42	0.0010364729
165	0xbb66914a	-0.0035181814
166	0x394eb348	0.00019712478
167	0xbad3a4f2	-0.001614718
168	0x3ac26228	0.0014830278
169	0x3a5b5357	0.00083666056
170	0x3a831bfc	0.0010002847
171	0xba1f11e9	-0.00060680375
172	0xbbf892d8	-0.0075858645
173	0xb8d3341b	-0.000100709694
174	0xbac15231	-0.0014749226
175	0xbbad3e09	-0.005286936
176	0xbb00d383	-0.001965732
177	0xbac15550	-0.0014750157
178	0xbb01d10b	-0.0019808437
179	0x3aa2e021	0.0012426415
180	0xbae0f62c	-0.0017163209
181	0xbb935afc	-0.00449693
182	0xbba1de03	-0.004939796
183	0xbab8fdae	-0.0014113688
184	0xbb8ef557	-0.004362743
185	0xba53c4e3	-0.00080783496
186	0xbb8b235e	-0.0042461595
187	0xbae197e6	-0.0017211407
188	0xbb516abe	-0.0031954492
189	0x39548c78	0.00020270224
190	0xbb20bbb2	-0.0024525938
191	0xbb9296f7	-0.004473563
192	0xbb831b59	-0.004001063
193	0xba886b15	-0.001040789
194	0xbad1d384	-0.0016008471
195	0xbae0ac5d	-0.0017141212
196	0xba5f17fe	-0.000851035
197	0xbb5dac04	-0.0033824453
198	0xbb28d619	-0.0025762378
199	0xba0ecd71	-0.0005447483
200	0xbb34bb92	-0.002757762
201	0xbb17ccf7	-0.002316294
202	0xbaa20a76	-0.0012362737
203	0x3ac61bce	0.0015114488
204	0xb9be8681	-0.00036339837
205	0xbb894bb3	-0.0041899323
206	0xbb95fd93	-0.0045773475
207	0xbade2f3e	-0.0016951335
208	0xbba546b7	-0.0050438303
209	0xbbc96cf8	-0.0061470233
210	0xb8053ddc	-3.1767282e-05
211	0xbb11da2f	-0.0022255292
212	0xbb823096	-0.003973077
213	0x39967322	0.0002869601
214	0xba4f6a36	-0.000791225
215	0xbb974a20	-0.0046169907
216	0xb8a65be0	-7.93261e-05
217	0xbb1313b1	-0.0022442157
218	0x39ef5d1e	0.0004565501
219	0xbb5ce323	-0.003370472
220	0xbb321da8	-0.002717832
221	0xba23acf0	-0.0006243726
222	0xba54de58	-0.000812029
223	0xbbab2e50	-0.0052240267
224	0xbb14c3c5	-0.0022699696
225	0xbac70a2c	-0.0015185527
226	0xbbcbd699	-0.0062206504
227	0x3b22e32d	0.0024854646
228	0xbb3b2b14	-0.0028559612
229	0xbb16f6cb	-0.0023035284
230	0xbaa57d96	-0.0012625929
231	0xbb0ce6e8	-0.0021499936
232	0xbb485583	-0.0030568547
233	0xba885d84	-0.0010403846
234	0xbb83b496	-0.0040193303
235	0xbb0692b9	-0.002053423
236	0xbb2a970e	-0.0026029977
237	0xbb8ad002	-0.0042362222
238	0xbbce0069	-0.00628667
239	0xbae54250	-0.0017491076
240	0xbaf8be22	-0.0018977562
241	0xbbc2b148	-0.0059415437
242	0x39c8313b	0.00038183652
243	0xbba399ad	-0.004992685
244	0xbb82e087	-0.003994051
245	0xbba93629	-0.005163927
246	0xbb248e13	-0.0025109097
247	0xbbb5cfda	-0.0055484595
248	0xbb69c8a1	-0.0035672563
249	0xbb2611ff	-0.0025340316
250	0xbb777e1c	-0.0037764376
251	0xbb488699	-0.0030597805
252	0xba27b144	-0.0006396959
253	0x3a1a1c0b	0.00058788125
254	0xba3e13e6	-0.000725089
255	0xbb8ae837	-0.004239108

network_body.linear_encoder.seq_layers.0.weight f4 [256, 416]
0	0x3d085230	0.033281505
1	0xbd7be873	-0.061500978
2	0xbdb1c451	-0.086800225
3	0xbd139bf9	-0.03603742
4	0xbc60e0a2	-0.013725432
5	0x3da4235f	0.08014559
6	0xbc44a932	-0.01200323
7	0x3d1ffe8b	0.03906111
8	0x3d7343ee	0.059390955
9	0x3d03c6a1	0.03217185
10	0xbdc7d46c	-0.09757313
11	0xbcd8f14b	-0.026482245
12	0x3dd093b3	0.101844214
13	0xbd271dad	-0.040799785
14	0xbd1e7867	-0.038689043
15	0x3d7a9512	0.06117732
16	0xbd5c56df	-0.053793784
17	0xbadd3193	-0.0016875736
18	0x3d43423b	0.047670584
19	0x3cf1a573	0.029497838
20	0x3ca35985	0.019940147
21	0x3b8841a0	0.0041582137
22	0xbd1e16d6	-0.038595997
23	0xbd6c44cb	-0.057682794
24	0xbdfb7b47	-0.12279373
25	0xbd8983fa	-0.06714626
26	0xbcebc9fe	-0.02878284
27	0xbcb2354d	-0.021753931
28	0x3c35df56	0.011100611
29	0xbd470fb0	-0.048598945
30	0xbca6ed03	-0.020376688
31	0xb8de2fe0	-0.00010594702
32	0x3d70c4b8	0.058781356
33	0x3ce1284d	0.027485037
34	0xbd68493c	-0.056710467
35	0xbca0ed5f	-0.019644437
36	0xbd87e9a4	-0.0663636
37	0xbd782308	-0.060580283
38	0xbca83566	-0.020533275
39	0x3ce6201c	0.028091483
40	0x3d9c97d6	0.07646148
41	0xbd1047e1	-0.0352248
42	0x3af85042	0.0018944817
43	0x3deb4aa1	0.11488844
44	0x3c30d24f	0.010792329
45	0x3d21e136	0.03952142
46	0xbce8a438	-0.028398618
47	0xbcadfb1a	-0.021237899
48	0xbc7c2613	-0.015389937
49	0xbc7da705	-0.015481715
50	0xbe258bda	-0.1616663
51	0xbb58e7e9	-0.0033097214
52	0xbbccc563	-0.0062491163
53	0xbd51e686	-0.051245235
54	0xbc845843	-0.016155368
55	0x3c4e137e	0.0125778895
56	0x3da2f80e	0.07957469
57	0xbcb8bc65	-0.022550771
58	0x3dadc90f	0.084856145
59	0xbc9e40a2	-0.019317929
60	0x3bea6bfb	0.0071539856
61	0xbc525ae0	-0.012839049
62	0x3c01e50a	0.007928142
63	0x3cfab47a	0.030603636
64	0xbca1da2a	-0.019757349
65	0xbd904f0f	-0.07046329
66	0x3d03e624	0.0322019
67	0xbd498e55	-0.049208004
68	0xbca4da37	-0.020123584
69	0x3c86aa1c	0.016438536
70	0x3cba9b48	0.022779122
71	0xbd3ee75e	-0.046607368
72	0x3ce4d90b	0.027935525
73	0x3c56a10d	0.013099921
74	0xbd296cb6	-0.04136344
75	0xbd2b59d0	-0.0418337
76	0xb9b373a4	-0.000342277
77	0x3da933a8	0.08261806
78	0xbca97199	-0.02068405
79	0x3d874b20	0.06606126
80	0x3d972c53	0.07381501
81	0x3db763eb	0.08954605
82	0xbd36ad38	-0.044598788
83	0xbc91ae6e	-0.01778337
84	0xbb8187e9	-0.0039529693
85	0x3d9baccb	0.07601317
86	0xbdba1526	-0.09086065
87	0x3d95d5c6	0.07316165
88	0xbd46a49a	-0.04849682
89	0x3d647b36	0.055781566
90	0x3c72b10a	0.014812717
91	0x3be6ac08	0.0070395507
92	0xbda5b7ad	-0.08091674
93	0x3bdd34b2	0.0067506665
94	0xbd07da20	-0.033167005
95	0x3bdf2cc4	0.0068107564
96	0xbc908338	-0.017640695
97	0x3c0b07c1	0.008485735
98	0xbcba3551	-0.022730501
99	0x3d05122f	0.032488044
100	0x3c457534	0.012051869
101	0xbdd3cde4	-0.10342005
102	0xbd42257d	-0.047399033
103	0xbc8c3b76	-0.017118197
104	0x3d09b4ba	0.03361962
105	0xbd5f2de5	-0.054487128
106	0xbd83f8b3	-0.0644392
107	0x3d3adde1	0.045621756
108	0xbc281994	-0.010260005
109	0x3d6e5025	0.0581819
110	0xbda622a7	-0.08112078
111	0xbbc8bc67	-0.006125975
112	0xbdb567de	-0.08857702
113	0xbd11a415	-0.03555687
114	0xbbfd1300	-0.0077232122
115	0x3d475b25	0.048670907
116	0x3d9c61fe	0.07635878
117	0xbd1c93a9	-0.038226757
118	0xbd0b1dff	-0.033964153
119	0x3b9c9d7e	0.0047795167
120	0x3da1c5ed	0.078990795
121	0x3c421b6e	0.01184736
122	0x3c15781c	0.009122875
123	0xbc8a97fc	-0.016918175
124	0xbbdcce65	-0.0067384713
125	0xbd429fde	-0.047515742
126	0x3c0bfdbd	0.008544383
127	0xbd17e4ba	-0.037083365
128	0x3c1ddb48	0.0096348
129	0xbcf2ccb1	-0.02963862
130	0xbc5ccf4f	-0.013477161
131	0x3cde5208	0.027138725
132	0xbdb81703	-0.08988764
133	0xbd31f9ec	-0.043451235
134	0x3cd724f7	0.026262743
135	0x3c92c5b0	0.01791653
136	0x3db70a2e	0.089374885
137	0xbdcae421	-0.099067934
138	0xbdb601ff	-0.088870995
139	0x3c1228aa	0.008920828
140	0x3d2b0fe3	0.041763198
141	0xbbaa51ae	-0.0051977253
142	0xbd9b38f7	-0.075792246
143	0x3ce8c2ad	0.028413141
144	0xbd42526d	-0.04744189
145	0xbd4e2321	-0.05032647
146	0xbdb3749f	-0.08762478
147	0x3caa593d	0.020794505
148	0xbd9a2abc	-0.07527682
149	0x3c0d2c0e	0.0086164605
150	0xbd31f45e	-0.043445937
151	0x3cb5b74c	0.02218213
152	0xbb8539d2	-0.0040657306
153	0x3ba390be	0.00499162
154	0x3ce231b0	0.027611583
155	0xbd5bc56d	-0.053655077
156	0xbd4be224	-0.04977621
157	0xbc839416	-0.016061824
158	0x3ccd58ba	0.025066722
159	0xbd33f4a9	-0.043934498
160	0xbcd6c489	-0.026216762
161	0x3c0c4bdd	0.008563009
162	0xbd8ef143	-0.06979611
163	0x3d18255f	0.037145015
164	0xbc8e482e	-0.017368402
165	0x3d0a286a	0.033729948
166	0x3d04049d	0.032230962
167	0x3d32ffa0	0.043700814
168	0xbd8f3466	-0.06992416
169	0x3d596cfa	0.053082444
170	0x3dd9f899	0.10643119
171	0x3aba6e22	0.0014223496
172	0x3d02502a	0.03181473
173	0xbb07ada8	-0.0020702872
174	0xbcd6fcac	-0.02624353
175	0xbd46a6cb	-0.04849891
176	0xbc1e8f6d	-0.00967775
177	0xbbbaec7e	-0.0057044616
178	0xbd171608	-0.036886245
179	0x3d3a6d03	0.045514118
180	0x3d9784f6	0.07398407
181	0xbc36cc0e	-0.011157049
182	0xbcbbf3e0	-0.022943437
183	0xbdcb873d	-0.09937904
184	0xbd40c388	-0.047061473
185	0x3c7490e5	0.014927124
186	0xbd509eba	-0.050932623
187	0x3d8f7588	0.07004839
188	0x3cd5c5f1	0.026095362
189	0xbd233d21	-0.03985322
190	0x3b4acd0a	0.0030944967
191	0x3ca66995	0.020314017
192	0xbbc809d5	-0.0061046877
193	0x3d7d46f4	0.061835244
194	0x3c6fbdbc	0.014632639
195	0xbc9e8676	-0.019351225
196	0xbd3b787b	-0.045769196
197	0xbcb17d6d	-0.021666253
198	0x3bd34d76	0.006448443
199	0xbd2cfcf9	-0.04223344
200	0xbd1ab6cc	-0.037771985
201	0xbdc2dc00	-0.09514618
202	0xbce4e053	-0.027938997
203	0xbdbb71cc	-0.091525644
204	0x3b9972dd	0.004682882
205	0x3c72d851	0.014822082
206	0x3c8c42b7	0.017121656
207	0xbd1bfba1	-0.03808177
208	0xbcff9773	-0.031200146
209	0x3d8cc0f7	0.068727426
210	0x3d9a3d49	0.075312205
211	0x3d0310bc	0.03199838
212	0x3db2a228	0.08722335
213	0xbc466fd5	-0.012111624
214	0xbd504ee9	-0.050856505
215	0xbcf3675f	-0.029712377
216	0xbd13401e	-0.03594982
217	0xbbba6cc9	-0.0056892377
218	0x3cec516b	0.028847417
219	0x3c03d7a9	0.008047023
220	0x3cbfe47f	0.023424385
221	0x3b9eb4b0	0.004843317
222	0x3cd5b32b	0.02608641
223	0xbdebbb25	-0.11510304
224	0x3d809f5c	0.062803954
225	0xbcf0324d	-0.02932086
226	0xbd721b60	-0.059108138
227	0x3d2e8078	0.042602986
228	0xbd16971a	-0.036765195
229	0x3cf5ee53	0.030020868
230	0xbd07bb05	-0.03313734
231	0xbc70cff0	-0.014698014
232	0x3d2019ad	0.039086986
233	0x3bd91ad6	0.0066255135
234	0x3d082a2f	0.033243354
235	0xbd5d66f4	-0.054053262
236	0xbd605e3e	-0.054777376
237	0x3d4a4380	0.04938078
238	0x3d997a50	0.074940324
239	0xbd5d80a8	-0.054077774
240	0xbc86a2fc	-0.016435139
241	0xbbfc3b07	-0.0076974663
242	0x3dcdc14b	0.10046633
243	0xbc4d8289	-0.012543329
244	0x3d0e52ec	0.03474705
245	0x3d1452a2	0.036211617
246	0xbdf9d34b	-0.12198504
247	0xb9fbbd07	-0.00048015287
248	0x3be9f250	0.0071394816
249	0x3cbd9b3d	0.023145312
250	0x3d550c57	0.05201372
251	0xbd31b243	-0.043382894
252	0xbcbfd74e	-0.023418095
253	0xbd3e330d	-0.046435405
254	0x3d0efe89	0.034910712
255	0xbb57c9ba	-0.0032926635

network_body.linear_encoder.seq_layers.2.bias f4 [256]
0	0xbb386547	-0.0028136538
1	0xbadebda5	-0.0016993774
2	0x3a1ec8c6	0.0006057139
3	0xbb9f946e	-0.004869989
4	0xbaae60af	-0.001330396
5	0xbb2592b8	-0.0025264453
6	0x396fc718	0.00022866984
7	0xbb2edd7a	-0.0026682303
8	0xbb116c03	-0.0022189624
9	0xbb7bc01c	-0.0038414067
10	0xbbb21966	-0.0054351566
11	0xbb99c95d	-0.004693194
12	0xbb164bab	-0.0022933285
13	0xbb00c5dd	-0.0019649186
14	0x3b967c52	0.004592457
15	0xbb2b6045	-0.002614991
16	0xbb620283	-0.003448636
17	0xbb8cdde8	-0.004298914
18	0x3a071a99	0.00051538047
19	0xbb3d5fd7	-0.0028896236
20	0xbb213a67	-0.002460146
21	0xba9aedb6	-0.0011820111
22	0xbb5177e2	-0.0031962325
23	0xbb99d807	-0.004694942
24	0xbab5a66e	-0.0013858804
25	0xbab32147	-0.0013666534
26	0xbb32567a	-0.0027212189
27	0xbacedfee	-0.0015783289
28	0xbb39f307	-0.0028373615
29	0xbaf8dc1b	-0.0018986495
30	0xbb06a038	-0.0020542275
31	0x3a01d792	0.0004953082
32	0xbb07ce7f	-0.0020722446
33	0xbb346558	-0.0027526226
34	0xbb302233	-0.0026875853
35	0xbb2f1bb3	-0.002671939
36	0xbb2e75cc	-0.0026620505
37	0xbb4f1206	-0.0031596436
38	0xba27c5f4	-0.0006400042
39	0xbb6a30c7	-0.003573464
40	0x3a12b8c4	0.000559699
41	0xb98b2690	-0.00026540877
42	0xbb444731	-0.002994966
43	0xbb5d4a5f	-0.0033766252
44	0xbb8a8600	-0.0042274
45	0xbb4cdf3c	-0.0031260988
46	0xbb393f7e	-0.0028266604
47	0xbb571426	-0.0032818406
48	0xbac1f990	-0.0014799107
49	0xbaf1a90b	-0.001843722
50	0xbb716c3c	-0.0036838194
51	0xbac35b48	-0.0014904523
52	0xbb5e74dd	-0.0033944168
53	0xba6c05b7	-0.0009003537
54	0xbb43c034	-0.00298692
55	0xbb365ee9	-0.0027827567
56	0xbb1460d8	-0.0022640731
57	0xbb38208c	-0.0028095571
58	0x3a93ec55	0.0011285642
59	0xbba9e60d	-0.005184895
60	0xbb69f110	-0.0035696663
61	0x38aed5e1	8.3368046e-05
62	0xbaa1fde9	-0.0012358996
63	0xbb7926ca	-0.0038017505
64	0xba170576	-0.00057610066
65	0xbb153e61	-0.0022772776
66	0xbab94e4a	-0.0014137712
67	0xbb46b599	-0.0030320643
68	0x3a0a709d	0.0005281063
69	0xbb80f579	-0.0039355126
70	0xbb05d522	-0.0020421227
71	0xbb233a2c	-0.00249065
72	0x3a381e10	0.00070235226
73	0xbb059973	-0.0020385652
74	0xba648e24	-0.00087186904
75	0xbb175426	-0.0023090928
76	0xbacc8460	-0.0015603416
77	0x38f8ef06	0.00011870083
78	0x399a57fd	0.00029438725
79	0xbb1dec15	-0.0024097015
80	0xba1a1617	-0.00058779254
81	0xbb8c1093	-0.0042744367
82	0xbb3cafa7	-0.002879122
83	0xba8f1cbb	-0.0010918597
84	0xbb469662	-0.0030302037
85	0xbb2e11f7	-0.0026561
86	0xba60155d	-0.0008548105
87	0x3a94f2a9	0.0011363822
88	0xbb5eaeef	-0.003397878
89	0xbb717913	-0.0036845847
90	0xbb7e7796	-0.0038828603
91	0xba7dda98	-0.0009683757
92	0xba5e2593	-0.0008474227
93	0xbb0b189e	-0.002122439
94	0xbac00865	-0.0014650939
95	0xbb2767f0	-0.002554413
96	0xbb06d120	-0.0020571426
97	0xba95b865	-0.0011422752
98	0xba3fa3f2	-0.00073105015
99	0xbaf87f1b	-0.0018958779
100	0xbaf64012	-0.0018787405
101	0xbb074661	-0.0020641314
102	0xb9cd6d6f	-0.0003918218
103	0xbbd31365	-0.006441521
104	0xbadfdeca	-0.0017079946
105	0xbae0276e	-0.0017101595
106	0xbb82a187	-0.0039865407
107	0xbab2a12d	-0.0013628356
108	0xbb8f0576	-0.0043646647
109	0xbb8685fb	-0.004105327
110	0xbb82940f	-0.003984935
111	0xbb849258	-0.004045766
112	0x39a01fa6	0.00030541158
113	0xba716159	-0.00092079263
114	0xb8655b53	-5.4682907e-05
115	0xbb0d0ade	-0.002152137
116	0xbb2fa6eb	-0.0026802372
117	0xbb87f931	-0.004149579
118	0xbbbb1547	-0.0057093236
119	0xbb7dbb19	-0.0038716255
120	0xba914f58	-0.0011086268
121	0xbbc5fc0a	-0.0060420083
122	0x3b4aff40	0.0030974895
123	0xbaa7f0df	-0.0012812874
124	0xbb82b8f0	-0.0039893314
125	0xba965b92	-0.0011471382
126	0xbb333125	-0.0027342525
127	0xbbc5180e	-0.0060148304
128	0xbb6b094b	-0.0035863693
129	0xbb414c11	-0.0029494802
130	0xbb7dd265	-0.0038730141
131	0x39c2aaad	0.00037129727
132	0xbb166188	-0.0022946317
133	0xbaf44a12	-0.0018637797
134	0xbb2d9329	-0.002648542
135	0xbb11d645	-0.0022252959
136	0xbafc6df4	-0.0019258843
137	0xbb466b00	-0.003027618
138	0x3a3194ec	0.0006774205
139	0xbb458351	-0.0030138085
140	0xbafbfe0b	-0.0019225491
141	0xbb09839a	-0.0020982982
142	0xbb19a16a	-0.0023442158
143	0xbb047ee4	-0.0020217234
144	0xbaba7ca1	-0.0014227816
145	0xbb4f3657	-0.0031618082
146	0xbb5e68f6	-0.0033937073
147	0xb87a9815	-5.9746282e-05
148	0xbb154767	-0.0022778155
149	0xbb45e9bb	-0.0030199129
150	0xbaca7328	-0.0015445696
151	0xbb1c11c5	-0.0023814302
152	0xbb41ca82	-0.0029570167
153	0xbb822a51	-0.0039723297
154	0xbb47a12e	-0.003046106
155	0xbb22f031	-0.0024862404
156	0xbb6f7764	-0.0036539668
157	0xbaecc726	-0.0018064722
158	0xbb0e79ce	-0.0021740082
159	0xba9104b9	-0.001106403
160	0xb98124bb	-0.00024632164
161	0xba46e3d7	-0.00075870514
162	0xbb5fd675	-0.0034154926
163	0xbb803e09	-0.003913645
164	0xbb901f6a	-0.004398276
165	0xbaee24fa	-0.0018168979
166	0xbb3cf04f	-0.0028829759
167	0xbb1e0d30	-0.0024116747
168	0xbb976aa8	-0.0046208687
169	0xbb0166ba	-0.0019745068
170	0xba959508	-0.0011412213
171	0xbb7910dd	-0.0038004436
172	0xba33e78c	-0.0006862811
173	0xbab11172	-0.0013509227
174	0x3a4dabfb	0.00078457565
175	0xba920b4c	-0.0011142283
176	0xbb6ab1f4	-0.0035811635
177	0xbb4bd917	-0.0031104737
178	0xbb284cd3	-0.0025680556
179	0xbb774b2a	-0.003773401
180	0xbb1e9d82	-0.0024202769
181	0xbb190e4a	-0.0023354464
182	0xbb12c808	-0.002239706
183	0xbb5ba606	-0.0033515706
184	0xbb054654	-0.0020336108
185	0xbb6ce2be	-0.003614589
186	0xbaf9fed9	-0.0019073143
187	0xba247511	-0.0006273548
188	0xbaded588	-0.0017000893
189	0xbb47a023	-0.003046044
190	0xbb202e14	-0.0024441527
191	0xbb33abd0	-0.002741564
192	0xba84817a	-0.0010109388
193	0x3a7aa58f	0.00095614133
194	0xba9cf48a	-0.0011974734
195	0xbb45a0f9	-0.0030155762
196	0xbba011dd	-0.004884942
197	0xba8deb1f	-0.0010827518
198	0xbae530b6	-0.001748583
199	0xbb704391	-0.0036661366
200	0xbb7fe099	-0.0039043783
201	0xba94d3fa	-0.0011354678
202	0x3a09ebd2	0.0005261275
203	0xbb95e5f2	-0.0045745308
204	0xba9aa13e	-0.0011797321
205	0xbb4bbcc5	-0.0031087857
206	0xbaaf613f	-0.0013380422
207	0xbb35c95f	-0.0027738435
208	0xbb39f24c	-0.002837318
209	0xbb705227	-0.003667006
210	0xba2d9bc8	-0.00066226395
211	0xbb23882f	-0.0024952998
212	0xbbabb1d2	-0.0052397037
213	0xb9a9c6fd	-0.0003238245
214	0xbb75c688	-0.0037502367
215	0x3aaf3c21	0.001336936
216	0xbac9dd3c	-0.0015401016
217	0xbb9cd0ed	-0.004785648
218	0xb9674136	-0.0002205417
219	0xbb96ddb2	-0.004604065
220	0xb93758c8	-0.00017485314
221	0xbb2733cb	-0.0025513049
222	0xb9efc820	-0.00045734737
223	0xbbb91073	-0.005647713
224	0xbb1824f0	-0.0023215376
225	0xbb6d9589	-0.003625246
226	0xbb3a38c9	-0.0028415194
227	0xbb1d21c0	-0.0023976415
228	0xbb7fc811	-0.003902916
229	0x3acd981e	0.0015685593
230	0xba47fc0d	-0.0007628806
231	0x38fe853f	0.00012136483
232	0xbbae959f	-0.005327895
233	0xbaa8e7e0	-0.0012886487
234	0xbb4646e1	-0.003025465
235	0x3aa1ce59	0.0012344822
236	0xbb59039e	-0.0033113728
237	0xbb718d28	-0.0036857817
238	0xbb11fa5e	-0.0022274475
239	0xbb37cb45	-0.0028044742
240	0xbaf5d1be	-0.0018754525
241	0xbb290980	-0.0025793016
242	0xbad06406	-0.001589895
243	0xbb3dafe5	-0.0028943953
244	0xbb84718c	-0.004041856
245	0xbb94d477	-0.0045419293
246	0xbb1a4c06	-0.0023543849
247	0xbb88e081	-0.0041771536
248	0x3a5dd608	0.0008462374
249	0xba97f344	-0.0011592885
250	0xb9e7939d	-0.00044169734
251	0xba90865d	-0.0011026372
252	0xba2aa862	-0.00065100763
253	0xbb4c3479	-0.0031159206
254	0x3b01e87d	0.0019822412
255	0xb8c767df	-9.508407e-05

network_body.linear_encoder.seq_layers.2.weight f4 [256, 256]
0	0xbcb86881	-0.022510769
1	0xbd972ea8	-0.07381946
2	0xbd45db86	-0.048305057
3	0x3c047c2f	0.008086248
4	0x3c945b57	0.01810996
5	0x3dbd2044	0.0923467
6	0xbce860a7	-0.0283664
7	0xbd397763	-0.04527987
8	0xbd51ee76	-0.051252805
9	0xbd1f1873	-0.038841676
10	0xbe233909	-0.15939726
11	0x3cbe3b22	0.023221556
12	0x3d98b089	0.074555464
13	0xbcc0f543	-0.02355445
14	0x3dfcd1bd	0.12344692
15	0x3db46961	0.08809162
16	0x3d85c709	0.065321036
17	0x3d7433da	0.059619762
18	0xbd6ea38f	-0.05826145
19	0xbd725971	-0.05916733
20	0xbd311093	-0.043228697
21	0xbdc49f1e	-0.09600662
22	0x3cd2d260	0.02573508
23	0x3cd41ecf	0.025893597
24	0xbc92a467	-0.017900659
25	0x3d92a1d8	0.071597755
26	0xbcfd9202	-0.030953411
27	0x3c39f96f	0.0113509735
28	0x3e026542	0.1273394
29	0xbc47d6f7	-0.012197248
30	0x3a3c4297	0.00071815535
31	0xbe07a541	-0.13246633
32	0x3d49b2e0	0.049242854
33	0x3a92597a	0.0011165582
34	0xbcc3fb0b	-0.023923418
35	0x3c2ccaaa	0.010546366
36	0x3dd29720	0.10282731
37	0xbb49d1d2	-0.0030795229
38	0x3d33cbd1	0.043895546
39	0xbdc4b745	-0.096052684
40	0x3dc76fff	0.097381584
41	0xbdc8b4ae	-0.09800087
42	0x3c04fc48	0.008116789
43	0x3c61b255	0.013775428
44	0x3dfdbc76	0.12389462
45	0x3cd0d7e7	0.025493575
46	0x3a25e7c9	0.0006328789
47	0xbd8d90b2	-0.06912364
48	0xbcaaf1a8	-0.020867184
49	0xbe1cd0ef	-0.15314077
50	0x3d8cbee8	0.0687235
51	0x3d506238	0.05087492
52	0x3be5f7af	0.0070180516
53	0xbc574de3	-0.013141128
54	0xbc61aedd	-0.013774601
55	0x3dbf7870	0.093491435
56	0xbd9069a4	-0.07051399
57	0x3d3dc474	0.04632993
58	0x3d449401	0.04799271
59	0xbd2dd5ee	-0.042440347
60	0x3cc89f0a	0.024489898
61	0x3c72f229	0.014828243
62	0x3d101373	0.0351748
63	0xbd485566	-0.048909567
64	0x3d8826a4	0.06647995
65	0x3de898ce	0.1135727
66	0xbca01ab2	-0.01954398
67	0xbd2f689b	-0.04282437
68	0x3d632c2d	0.05546205
69	0x3d632c68	0.05546227
70	0xbd80fcf4	-0.06298247
71	0x3d471928	0.048607975
72	0xbcfcea6c	-0.0308735
73	0xbca44fc1	-0.02005756
74	0xbdce004e	-0.10058652
75	0x3db4be30	0.08825338
76	0xbd0c2966	-0.034219168
77	0x3df52479	0.11969847
78	0x3d4ee361	0.050509814
79	0x3d810178	0.06299108
80	0x3d4e9472	0.050434537
81	0xbd4d1456	-0.050068222
82	0xbd9ba237	-0.075992994
83	0x3cd2360d	0.025660539
84	0xbd8223b0	-0.06354463
85	0x3b8cf2f9	0.0043014255
86	0xbdb0160f	-0.08597957
87	0x3c71e66f	0.014764412
88	0x3d693a5f	0.056940433
89	0xbd5a1c2f	-0.053249534
90	0x3d92f4d3	0.07175603
91	0xbd2595b8	-0.040425986
92	0x3c9ba1a1	0.01899797
93	0x3d00a53f	0.03140759
94	0xbd415ca0	-0.047207475
95	0xbd2436d8	-0.040091366
96	0xbd335c68	-0.043789297
97	0x3d134093	0.035950255
98	0x3c115fd1	0.008872942
99	0xbe68f1cf	-0.22748493
100	0x3c5c45d3	0.013444382
101	0xbdc5edc8	-0.09664494
102	0x3d371b21	0.044703607
103	0xbd1c42c9	-0.03814963
104	0x3d61ec21	0.05515683
105	0x3c7bdbda	0.015372241
106	0x3d11e8e0	0.035622478
107	0x3d6c96a5	0.057760853
108	0x3d3c35a4	0.045949593
109	0x3d72a9b6	0.05924388
110	0x3baa3d70	0.005195312
111	0x3e1fa028	0.15588439
112	0x3bc3903e	0.0059681227
113	0x3dea094c	0.114275545
114	0xbcbe4097	-0.023224158
115	0x3acc7df1	0.0015601498
116	0xbd14c955	-0.036324818
117	0xbd4f5010	-0.050613463
118	0xbde9ef09	-0.114225455
119	0x3db71058	0.08938664
120	0xbc9f0168	-0.01940985
121	0xbda5ddf7	-0.08098977
122	0xbd1b832e	-0.0379669
123	0xbdac8ac5	-0.08424906
124	0xbc86564f	-0.016398577
125	0xbdd5dc6f	-0.10442435
126	0xbd633a20	-0.055475354
127	0xbcbd8603	-0.02313519
128	0xbd2b70de	-0.041855685
129	0xbc79392d	-0.015211386
130	0xbd544f7b	-0.05183361
131	0x3c188b10	0.009310499
132	0x3c132de6	0.008983111
133	0x3c9593d5	0.018258968
134	0xbaf3a909	-0.0018589805
135	0x3c7097dd	0.0146846445
136	0xbd82dfe4	-0.0639036
137	0xbe023f0b	-0.12719361
138	0xbd93fe4c	-0.07226238
139	0xbd28989b	-0.04116116
140	0x3d8b5f3c	0.06805274
141	0x3d8e1206	0.069370314
142	0x3c94b65d	0.018153364
143	0xbd6ad692	-0.057333536
144	0x3d2ec60a	0.042669334
145	0x3d9d35b0	0.07676256
146	0x3d554140	0.05206418
147	0xbd92e347	-0.07172256
148	0xba87932b	-0.0010343542
149	0x3bd3042b	0.006439706
150	0xbdbdb8c5	-0.092637576
151	0x3d55d2e8	0.05220309
152	0xbcd18700	-0.025577068
153	0x3cd2545c	0.025674991
154	0x3cda4e51	0.026648672
155	0xbd98d4d9	-0.074624725
156	0xbc8ea646	-0.01741327
157	0x3d8df651	0.06931747
158	0x3d27943d	0.040912855
159	0xbdc69a0d	-0.096973516
160	0xbcc3c9a5	-0.023899863
161	0xbbd848cb	-0.0066004745
162	0xbdcc2acb	-0.099690996
163	0xbd61a170	-0.0550856
164	0xbd510e09	-0.051038776
165	0x3d0bbdb4	0.034116462
166	0x3cf55a3e	0.029950257
167	0x3d07b8d2	0.033135243
168	0x3d56960f	0.0523892
169	0xbd617c0e	-0.05504995
170	0x3d8b3a0e	0.067981824
171	0x3d855a2e	0.06511341
172	0xbd5ba1fb	-0.053621273
173	0x3d661cc9	0.056179795
174	0x3d9b3304	0.0757809
175	0xbe0f37bd	-0.13986106
176	0x3d1de215	0.038545687
177	0xbd2fd2e6	-0.042925738
178	0x3d67dc19	0.056606386
179	0xbdf941ad	-0.1217073
180	0x3d6fbf87	0.058532264
181	0xbb7ba1db	-0.0038396034
182	0xbd6c01c0	-0.057618856
183	0x3c922b07	0.017842783
184	0x3d209e7a	0.039213635
185	0xbd97bf60	-0.07409549
186	0xbd2637c1	-0.040580515
187	0xbcc3be80	-0.023894548
188	0x3dc7fc43	0.09764912
189	0xbd54a196	-0.051911913
190	0x3d057ffa	0.03259275
191	0x3db9bc1f	0.090690844
192	0xbe0c54d8	-0.1370424
193	0x3dacc67b	0.08436295
194	0x3da21a4a	0.079151705
195	0x3da111e3	0.0786474
196	0x3b0e2baa	0.0021693506
197	0xbcb975ed	-0.02263924
198	0xbd9bac4f	-0.07601225
199	0xbe066fff	-0.1312866
200	0xbced8fc6	-0.02899922
201	0xbd565e12	-0.052335806
202	0x3d9a12e8	0.07523137
203	0x3cb6dd89	0.022322433
204	0x3cb9c3ec	0.02267643
205	0x3e504d1f	0.2034192
206	0xbe0736e2	-0.1320453
207	0x3db57b6e	0.08861433
208	0x3c8ac29d	0.016938502
209	0x3db881ee	0.09009157
210	0xbe211aa0	-0.15732813
211	0x3c312b8b	0.010813604
212	0x3ca10609	0.019656198
213	0x3d8290bc	0.06375262
214	0x3db1240b	0.08649453
215	0x3e01e39b	0.12684481
216	0xbcd956a4	-0.026530571
217	0x3d866c26	0.065635964
218	0xbc38cc0d	-0.011279118
219	0x3ca2806f	0.019836633
220	0x3d9d74b8	0.07688278
221	0xbc0b86a2	-0.008515986
222	0xbd1b1840	-0.037864923
223	0x3d11f63c	0.035635218
224	0x3b02e856	0.0019974909
225	0xbd020d39	-0.03175089
226	0x3d87bb97	0.06627577
227	0x3c7d1857	0.015447698
228	0x3cfcafce	0.030845549
229	0xbd0b9ed2	-0.03408701
230	0xbd12ab6d	-0.035808016
231	0xbc24910d	-0.010044348
232	0xbb919716	-0.0044430597
233	0xbd9e8fc8	-0.07742268
234	0xbce48209	-0.027894037
235	0xbbd143f7	-0.006386276
236	0x3db1fffd	0.08691404
237	0x3cf90f91	0.03040293
238	0xbd3a1e1f	-0.045438882
239	0xbc2a3d0e	-0.010390533
240	0xba8d77b0	-0.0010793116
241	0x3cb522db	0.022111347
242	0x3d8df389	0.06931216
243	0xbcfbbb6d	-0.03072902
244	0x3d37a0f9	0.04483125
245	0xbd02e490	-0.031956255
246	0xbb5e1de4	-0.0033892328
247	0x3d110333	0.03540344
248	0x3c224191	0.009903328
249	0xbcd96cea	-0.026541192
250	0xbcd0f2e7	-0.02550645
251	0x3d09a9a7	0.03360906
252	0x3dabdc22	0.083915964
253	0xbd5133f5	-0.05107494
254	0xbc755bee	-0.014975531
255	0xbcbdbd4e	-0.023161557
