config/results/Entry_reward05_NoSensors/PathFollowing.onnx (onnx, 277759 bytes, 7 tensors)

action_model._continuous_distribution.log_sigma f4 [1, 3]
-0.0027894021 0.00037355005 0.0005645216
00000000: 67ce 36bb 0ad9 c339 67fc 133a

action_model._continuous_distribution.mu.bias f4 [3]
0.0001457966 0.00017409588 -7.522925e-05
00000000: fae0 1839 828d 3639 65c4 9db8

action_model._continuous_distribution.mu.weight f4 [3, 256]
0.0054608467 0.019030733 -0.01740426 0.0024875489 -0.038682576 0.013458628 0.012321753 0.030221347
-0.004459202 -0.0037577155 -0.0048985938 0.01649295 0.022701764 -0.00025747286 -0.012489169 0.01127584
0.0023811578 -0.0042962413 -0.0052367053 -0.007845653 -0.01253447 -0.0026689586 0.025662227 0.012220136
-0.001959268 0.01905591 -0.010511686 0.010334991 0.011278679 -0.010957174 -0.004124468 0.014957541
-0.028381094 -0.002547696 -0.023480773 -0.0022256563 -0.012594486 0.008061072 -0.0035445413 -0.014974671
0.0035968598 0.02829048 0.024023777 0.006788185 -0.009188749 -0.012536052 0.018628523 0.009290916
-0.013970372 0.003879463 0.0031737688 -0.014878545 -0.009195043 0.02749713 -0.0006938304 -0.021583457
-0.020635977 0.0006739046 -0.030230712 0.0071141054 0.0014982546 0.008554459 -0.0054947124 0.005706484
-0.016608771 0.0022696038 0.01797383 0.0052379104 -0.0145648755 -0.018086484 0.0010503135 0.0017183677
-0.00893596 0.020641064 -0.003600911 0.004098241 -0.0046365135 0.016526062 -0.011375364 -0.0014068251
0.021037098 0.0072457483 -0.009863872 0.00012917482 0.0053000315 -0.003532201 0.0025583117 -0.021016875
-0.018407598 -0.0029850719 0.013738727 -0.014533769 0.014766744 0.021310437 0.0068931472 0.0028959746
-0.0050093657 0.008949931 0.0016569155 -0.015318614 0.00858108 0.0033590056 0.008062746 0.016497541
-0.0075767743 -0.008433923 -0.0050810645 0.00084297254 0.015190842 0.008078918 0.0048237457 0.008411821
-0.0029273517 0.014052468 -0.010692632 -0.0001350912 0.013770028 0.026293058 -0.0033993653 -0.007077824
-0.0032396708 -0.0039695553 0.007784557 0.018163804 -0.006527439 0.0042426838 -0.019742925 -0.0028375569
0.012520526 -0.00640904 0.004434951 -0.011201532 -0.02145163 -0.017768942 -0.011363542 0.013866217
0.021492893 -0.00020130437 -0.010462908 -0.01719915 0.0034686264 -0.004926691 0.009401882 -0.0116742095
-0.006889744 -0.0116224205 -0.007985863 0.017185822 0.013683005 -0.013189876 0.0040405993 0.009629354
0.008593119 -0.021230722 0.0108184405 -0.0018469115 0.012985354 0.0059001194 0.005060311 -0.00615728
-0.010119541 -0.003477496 -0.007957348 0.0035448424 -0.00305551 -0.020490548 -0.016100757 0.029214308
-0.012315152 -0.01318785 0.0013495996 -0.012165802 0.0014064056 -0.003254778 0.0051924544 -0.021608397
0.0142486235 -0.010889564 -0.0069708526 0.00069444376 -0.0064412765 0.0071829753 0.0039358893 0.013177221
0.00020376181 -0.012867648 -0.010548559 0.0062038195 0.03075639 -0.014901367 0.005095986 -0.01092323
0.003509794 -0.0021914775 0.00039070327 0.009233574 -0.010906687 0.0033419274 -0.014207855 -0.012535667
-0.012108162 0.009676235 -0.002817627 -0.0021003848 -0.0068927626 0.015913192 -0.00015129772 -0.0024438568
0.018283397 0.01425053 -0.008641192 0.008788552 -0.002479668 0.009466423 -0.014325058 0.0052107223
-0.014803871 0.024894647 -0.018463245 -0.0011403541 0.007865918 -0.011556836 0.02739842 -0.008514927
-0.012414368 0.025166785 -0.026288262 -0.002027033 -0.0010563219 0.010142466 -0.030316468 -0.018211858
-0.009180871 0.010767897 0.017810313 0.016198607 0.0007126047 0.021024793 -0.0015060457 -0.009066179
-0.004518261 0.020641401 -0.011600953 0.006187282 0.009352523 0.010846123 -0.0003274556 0.025982568
-0.0037709451 0.0025970796 0.014606519 0.021392941 -0.00331974 0.0006145413 0.026150744 0.020811243
00000000: e7f0 b23b 57e6 9b3c 6193 8ebc 2506 233b
00000010: 9f71 1ebd 9481 5c3c 2ee1 493c c292 f73c
00000020: 7f1e 92bb 0144 76bb 6284 a0bb 391c 873c
00000030: 0df9 b93c 6cfd 86b9 5f9f 4cbc 4dbe 383c
00000040: 330d 1c3b 7cc7 8cbb ab98 abbb 0e8b 00bc
00000050: 615d 4dbc b2e9 2ebb 9739 d23c f736 483c
00000060: 1067 00bb 241b 9c3c 3539 2cbc 1854 293c
00000070: 35ca 383c b885 33bc 8c26 87bb 7910 753c
00000080: 787f e8bc 3ff7 26bb c05a c0bc 51dc 11bb
00000090: 1a59 4ebc 9612 043c 894b 68bb 5358 75bc
000000a0: 4bb9 6b3b 70c1 e73c 83cd c43c 6c6f de3b
000000b0: 688c 16bc 0364 4dbc d89a 983c ed38 183c
000000c0: fde3 64bc 973e 7e3b 01ff 4f3b 24c5 73bc
000000d0: cea6 16bc a941 e13c 2ce2 35ba cacf b0bc
000000e0: c80c a9bc f9a8 303a 66a6 f7bc 711d e93b
000000f0: 1561 c43a 0028 0c3c fd0c b4bb 75fd ba3b
00000100: 1e0f 88bc a2bd 143b db3d 933c c7a2 ab3b
00000110: 84a1 6ebc 1b2a 94bc acaa 893a da3a e13a
00000120: 2268 12bc 7317 a93c 43fd 6bbb 8a4a 863b
00000130: e5ed 97bb aa61 873c bc5f 3abc 3865 b8ba
00000140: fe55 ac3c be6d ed3b 149c 21bc 1a73 0739
00000150: e3ab ad3b 807c 67bb 59a9 273b 952b acbc
00000160: 88cb 96bc 32a1 43bb 6618 613c 0c1f 6ebc
00000170: 37f0 713c 3a93 ae3c e9df e13b 64ca 3d3b
00000180: 9b25 a4bb bba2 123c dc2c d93a edfa 7abc
00000190: a897 0c3c c322 5c3b 9c19 043c da25 873c
000001a0: 9746 f8bb 702e 0abc 0f7f a6bb eefa 5c3a
000001b0: 02e3 783c 705d 043c 8310 9e3b bcd1 093c
000001c0: d0d8 3fbb 533c 663c 2630 2fbc 45a7 0db9
000001d0: af9b 613c 8a64 d73c e3c7 5ebb 17ed e7bb
000001e0: a850 54bb 0b13 82bb 9915 ff3b 42cc 943c
000001f0: 21e4 d5bb 3606 8b3b eabb a1bc 4ef6 39bb
00000200: e422 4d3c ed02 d2bb 1153 913b a186 37bc
00000210: 54bb afbc 2c90 91bc 262e 3abc 212f 633c
00000220: dd11 b03c 3b15 53b9 9e6c 2bbc 3be5 8cbc
00000230: e551 633b 1470 a1bb 5a0a 1a3c 2f45 3fbc
00000240: 5dc3 e1bb f76b 3ebc 23d7 02bc 48c9 8c3c
00000250: af2e 603c 5a1a 58bc 0167 843b 70c4 1d3c
00000260: 27ca 0c3c 0dec adbc d43f 313c 1114 f2ba
00000270: 86c0 543c ca55 c13b f7d0 a53b 02c3 c9bb
00000280: 6ecc 25bc b4e6 63bb 895f 02bc 9650 683b
00000290: f43e 48bb cbdb a7bc bce5 83bc d852 ef3c
000002a0: 7ec5 49bc da11 58bc 0ce5 b03a 1253 47bc
000002b0: 2457 b83a 1d4e 55bb 7725 aa3b 1804 b1bc
000002c0: 0f73 693c 246a 32bc c06b e4bb 550b 363a
000002d0: 5811 d3bb 2a5f eb3b a2f8 803b 45e5 573c
000002e0: e5a8 5539 d4d2 52bc ddd3 2cbc 6949 cb3b
000002f0: d3f4 fb3c dd24 74bc 3bfc a63b 59f7 32bc
00000300: 9204 663b e49e 0fbb 4ed7 cc39 6b48 173c
00000310: f6b1 32bc 3d04 5b3b 10c8 68bc 6662 4dbc
00000320: 5061 46bc 1289 1e3c f0a7 38bb 9ca6 09bb
00000330: afdc e1bb 625c 823c aca5 1eb9 1d29 20bb
00000340: 10c7 953c 0e7b 693c c993 0dbc dcfd 0f3c
00000350: ed81 22bb 0e19 1b3c a6b3 6abc b5be aa3b
00000360: ef8b 72bc dcef cb3c 3b40 97bc ef77 95ba
00000370: 0de0 003c e258 3dbc a772 e03c 3182 0bbc
00000380: a265 4bbc 932a ce3c 7b5a d7bc f8d7 04bb
00000390: 4874 8aba 962c 263c 3e5a f8bc 0931 95bc
000003a0: 5d6b 16bc d56b 303c efe6 913c f1b2 843c
000003b0: 18ce 3a3a 303c ac3c 8266 c5ba 508a 14bc
000003c0: ec0d 94bb 2818 a93c ec11 3ebc afbe ca3b
000003d0: 533b 193c f0b3 313c 59ae abb9 65d9 d43c
000003e0: f621 77bb c433 2a3b 2e50 6f3c 4040 af3c
000003f0: ff8f 59bb 2b19 213a 163a d63c 577c aa3c

network_body.linear_encoder.seq_layers.0.bias f4 [256]
0.00067711994 -0.0002143977 -2.9861076e-07 -0.00026458182 -0.0013457217 -0.0006929326 4.4532408e-07 -0.0009160467
-0.00013555745 0.0006148379 -5.8087546e-05 0.0014912337 -0.00080991286 0.0010754121 -0.00019341445 0.000830445
0.000711454 -0.0016027512 -0.0005812021 -0.0005207253 -0.00033118099 0.00026921235 -0.0011498797 -2.2726375e-05
0.00044712945 -1.2493932e-05 -0.001578317 0.00086362456 -0.00016685149 -0.00019725664 0.0005922157 -0.0009008237
-0.0036381755 -0.001175108 4.3348013e-05 -0.00011063797 -0.00059735676 -0.0008983361 -0.0007149177 0.00024661084
0.00034069092 -0.0011607159 0.00026547187 -0.00026436342 -0.00010351039 0.00011872313 -0.0015735498 -0.00033321395
-0.00045521063 -0.0006519158 -3.2813794e-05 -0.00013904582 0.00044673958 0.00027077593 0.0013638313 0.0003351312
0.00020091218 0.0021919608 -0.0002709486 -0.0002414429 -0.0007775179 -0.0011228832 -0.00050291745 -0.00086200435
-0.0009998858 0.0004819901 0.0007154672 -0.0009974047 0.0007722763 0.0007491792 -0.0009426411 0.0008023683
-0.00062163203 0.00013073577 0.0008567935 0.00020838983 -0.00016257106 -0.0004661399 0.00019766677 -0.00035149953
0.00023272856 -7.955142e-05 -0.0010976931 -0.00033531906 -3.550365e-05 0.00026195418 -0.00018764207 0.00058428844
0.00023955162 0.00032938918 0.00083652337 -0.0007929686 -0.0006820974 -0.0003600748 -0.0011848356 -0.00086932245
4.9567563e-05 -0.001167495 -0.0008536873 -5.309407e-05 -0.00020395814 -0.00013270984 -0.00015947796 0.0007017095
0.000505555 -0.000731303 0.00035352242 -0.0004687258 -0.00073895254 -0.00037158496 -0.001743602 -0.0009057933
0.0009779771 -0.0014270882 -0.0006977137 -0.0011465503 0.00010527485 0.00013933079 -0.0012591957 0.0012169754
-0.0002443425 -4.8859958e-05 0.0008781624 8.009797e-05 -0.0010627885 0.0018764408 -0.00043273854 0.00030134065
-0.00028627986 -0.00059071305 -0.00032787945 0.0004719803 -0.0003394019 0.00038163588 -0.0014364156 -3.7463935e-05
-0.0001363696 0.0005055892 -0.0007397291 4.6619258e-05 -0.0007574018 -0.00039442867 -0.00062921824 -0.0003175974
-0.00026797355 0.00021989625 -0.0004336457 -0.00025548038 -0.0014774108 -0.00071904616 -0.00032028288 -0.00019529588
-0.0002628834 -0.00068719365 -5.6141416e-05 -5.6693658e-05 -0.000976639 0.0003844094 -0.00013859879 0.0005267538
0.00034925496 -0.00029959314 -0.001108194 -0.00019368026 -0.0010618514 -0.00015937851 -0.00090951874 -0.00024527306
-4.6891648e-05 -0.00010987752 -6.465991e-05 0.00010456829 -0.0012235183 0.00039134096 -0.0009068357 0.0006185733
0.00012287927 -8.1030375e-05 9.390123e-05 0.0009634313 0.002696503 -0.0006259819 -0.0003264427 0.000723017
-7.2479015e-05 -0.0006071257 0.00065648 -0.0002427489 -6.919721e-05 0.0009042583 0.0007188948 -9.527657e-05
-0.0008493233 -7.25179e-05 -0.00092400884 0.0018147568 -0.00037309775 0.0005556549 -0.00019308546 -0.00032605263
-0.0002157746 0.00019175731 0.00076258316 -0.00011965241 -0.0011318596 -0.0009864918 9.505538e-06 0.0009192298
-0.000892499 -0.00044954504 -0.0010175782 0.00043660283 0.00036540863 0.00052038714 -0.00022926729 0.00038310993
0.00040230522 0.0009375984 0.0012681868 0.00031895816 0.002376272 -0.00037584553 -0.0007364119 -0.00025023692
0.00015592416 -0.00051338715 0.0003921343 0.00028170904 -0.00039242968 -7.433915e-05 -8.2534505e-05 0.00015811944
-6.4070264e-05 -0.0005234969 0.0003047212 -0.000389053 6.876561e-05 -0.00013012682 -2.3881184e-05 -0.002184486
7.6960525e-05 -0.00066407106 -0.0004432825 -0.00093856297 -0.00021230527 0.00094903435 -0.00021505811 0.00070166826
-0.001072881 -0.00018183707 0.00056470773 0.00013682024 -0.0005235343 -0.00045377263 -0.00040223505 0.00096220477
00000000: c080 313a f2cf 60b9 c050 a0b4 92b7 8ab9
00000010: ed62 b0ba eba5 35ba e014 ef34 da22 70ba
00000020: 6d24 0eb9 132d 213a 07a3 73b8 8075 c33a
00000030: 5550 54ba d8f4 8c3a 4ccf 4ab9 38b2 593a
00000040: df80 3a3a 6813 d2ba d05b 18ba 4981 08ba
00000050: 5ca2 adb9 1225 8d39 8fb7 96ba 85a4 beb7
00000060: b36c ea39 089d 51b7 88df ceba dd64 623a
00000070: dbf4 2eb9 add6 4eb9 ec3e 1b3a 4125 6cba
00000080: 756e 6ebb 1506 9aba 93d0 3538 4f06 e8b8
00000090: ef97 1cba 517e 6bba 5169 3bba 8c4b 8139
000000a0: c39e b239 2a23 98ba 082f 8b39 429a 8ab9
000000b0: b813 d9b8 fffa f838 923f ceba 38b3 aeb9
000000c0: 56a9 eeb9 54e5 2aba 8ba1 09b8 d4cc 11b9
000000d0: 5f38 ea39 eef6 8d39 96c2 b23a 8cb4 af39
000000e0: f4ab 5239 00a7 0f3b 1b0e 8eb9 d62b 7db9
000000f0: 58d2 4bba b52d 93ba 38d6 03ba 22f8 61ba
00000100: 9a0e 83ba 9eb3 fc39 318e 3b3a 59bb 82ba
00000110: 9672 4a3a 9164 443a 931b 77ba 0656 523a
00000120: 05f5 22ba 1e16 0939 709a 603a 3883 5a39
00000130: d677 2ab9 3d64 f4b9 c544 4f39 7849 b8b9
00000140: 9908 7439 d8d4 a6b8 78e0 8fba c3cd afb9
00000150: c1e9 14b8 e556 8939 c9c1 44b9 ef2a 193a
00000160: 2630 7b39 deb1 ac39 224a 5b3a 39df 4fba
00000170: c8ce 32ba 6cc8 bcb9 7c4c 9bba 3ee3 63ba
00000180: c4e6 4f38 a206 99ba fcc9 5fba 53b1 5eb8
00000190: 99dd 55b9 0728 0bb9 8a39 27b9 edf2 373a
000001a0: 3987 043a eab4 3fba fa58 b939 50bf f5b9
000001b0: 44b6 41ba 4ad1 c2b9 9389 e4ba c272 6dba
000001c0: 772f 803a 220d bbba c6e6 36ba d847 96ba
000001d0: 01c7 dc38 5319 1239 990b a5ba eb82 9f3a
000001e0: 181b 80b9 fbee 4cb8 7b34 663a 45fa a738
000001f0: 444d 8bba e8f2 f53a 2fe1 e2b9 42fd 9d39
00000200: d517 96b9 15da 1aba 3ce7 abb9 2074 f739
00000210: c0f1 b1b9 4d16 c839 1c46 bcba 9822 1db8
00000220: 70fe 0eb9 8489 043a 61ea 41ba 0c89 4338
00000230: 608c 46ba 52cb ceb9 1ff2 24ba 3483 a6b9
00000240: cd7e 8cb9 f393 6639 f15a e3b9 fff1 85b9
00000250: aea5 c1ba 5f7e 3cba a4eb a7b9 57c8 4cb9
00000260: 9dd3 89b9 c924 34ba 6379 6bb8 5aca 6db8
00000270: 9102 80ba 8e8a c939 d454 11b9 d915 0a3a
00000280: 351c b739 b612 9db9 d240 91ba a616 4bb9
00000290: d22d 8bba d81e 27b9 c56c 6eba fe97 80b9
000002a0: 86ad 44b8 0b6e e6b8 069a 87b8 ac4b db38
000002b0: 765e a0ba e52c cd39 b7b8 6dba c027 223a
000002c0: 27d9 0039 daee a9b8 d7ec c438 c88e 7c3a
000002d0: d0b7 303b ef18 24ba 6626 abb9 d988 3d3a
000002e0: e0ff 97b8 8427 1fba a117 2c3a 698a 7eb9
000002f0: f81d 91b8 bf0b 6d3a 3774 3c3a 38cf c7b8
00000300: 1fa5 5eba c014 98b8 2f39 72ba 22dd ed3a
00000310: 559c c3b9 5ea9 113a fc76 4ab9 0bf2 aab9
00000320: 8e41 62b9 7612 4939 17e8 473a e6ed fab8
00000330: e85a 94ba 2c4d 81ba fa79 1f37 78f8 703a
00000340: 98f6 69ba eab0 ebb9 4260 85ba d7e7 e439
00000350: 5194 bf39 976a 083a 7867 70b9 25dc c839
00000360: 7eec d239 2ac9 753a 4a39 a63a d739 a739
00000370: 3bbb 1b3b 220d c5b9 c40b 41ba 3b32 83b9
00000380: 937f 2339 d494 06ba 6097 cd39 59b2 9339
00000390: 05bf cdb9 87e6 9bb8 6016 adb8 ddcc 2539
000003a0: 765d 86b8 483b 09ba fdc2 9f39 cff9 cbb9
000003b0: 4136 9038 a772 08b9 7454 c8b7 9829 0fbb
000003c0: de65 a138 0e15 2eba 5f68 e8b9 e509 76ba
000003d0: 439e 5eb9 9ec8 783a 3981 61b9 29f0 373a
000003e0: ea9f 8cba 84ab 3eb9 e508 143a 6777 0f39
000003f0: cb3d 09ba 55e8 edb9 13e3 d2b9 783c 7c3a

network_body.linear_encoder.seq_layers.0.weight f4 [256, 8]
0.096276574 0.41863984 0.0091835195 -0.4494973 -0.24287301 0.7722411 0.09262523 0.29412517
0.57225996 0.31347406 0.07825744 0.07234572 -0.17183635 -0.44986746 0.11431653 -0.6334071
0.25629956 -0.31851953 0.30116013 0.02859616 0.4233411 -0.17595275 -0.46987855 0.6317937
-0.5413777 0.39591652 0.18149504 0.5518934 -0.07529693 0.4215259 0.3537396 0.110451736
-0.11606735 0.49190235 -0.23829491 0.03138712 -0.37363333 -0.31491733 0.19682896 0.093700215
-1.0899434 -0.54378843 0.4547829 -0.45607167 0.62429106 0.39901024 0.33594668 -0.05103943
0.039285444 0.3584006 -0.52664334 0.29774168 -0.33641154 0.403983 -0.353367 0.48283267
0.0739091 -0.52390194 -0.0523945 0.22332083 0.20310095 0.14114244 -0.0842709 0.25412887
-0.05014728 -0.08112115 0.25921422 -0.16387337 -0.42721778 0.11132259 0.083944164 -0.5744576
-0.011998023 -0.32127345 0.030575687 -0.027950505 0.0031164167 0.3707637 0.76570725 -0.41554493
-0.13199294 -0.020320741 -0.37272432 -0.22430049 -0.5159464 -0.124587774 0.22375195 -0.27637663
-0.21702215 0.052938934 -0.66119695 0.60193455 -0.32629636 -0.2686029 0.12984236 0.3438283
0.20512785 0.12588494 -0.05967188 0.30510056 0.33396277 -0.35213917 0.4081223 -0.083067045
-0.17056082 -0.046555713 -0.17480363 0.15833755 0.06808137 -0.51689965 -0.026776401 0.129285
-0.41616198 -0.14573163 0.015438484 0.43497747 -0.39864752 0.05672706 0.1944004 0.4360086
0.03339774 -0.025760224 -0.18781872 -0.3563633 -0.23900695 0.119033955 -0.27844766 -0.3534525
0.050064635 -0.04800264 0.056559913 0.112973005 0.28869054 -0.112418085 0.104892515 0.3871669
0.026797988 -0.422872 0.38201278 -0.27724302 -0.08477731 0.28238598 0.57450366 0.121112816
0.10957632 0.85009044 0.5420263 -0.15733136 0.20235524 0.08680266 0.44704482 0.3788615
0.21538545 0.27358305 0.19770701 0.34811613 -0.6883633 0.16116953 0.26899078 -0.012582403
0.6093907 -0.66885537 -0.27474675 -0.13525929 0.41805214 -0.30455154 -0.0016932841 -0.17886215
0.36669245 -0.4197186 0.09881544 0.40836588 0.095521115 -0.3221643 -0.21971352 0.3385072
-0.1606248 -0.06428864 -0.3924351 -0.14210108 -0.5885746 -0.20662637 -0.45777693 0.2666132
-0.6330914 -0.46105847 0.5124698 0.2904694 0.03308913 0.49395022 -0.414948 -0.29447073
0.143578 -0.17336285 -0.016375324 -0.28106767 -0.05390047 -0.33867475 0.44129044 -0.29241765
0.8029033 -0.01115604 -0.30128783 0.36576644 -0.62656677 0.7244405 0.25518295 0.13561949
0.14198585 -0.7593961 0.04989822 -0.021715201 -0.47370428 0.10007297 -0.43548223 -0.5859507
-0.73688054 -0.5133155 0.26108283 0.41883937 0.35673928 0.65906775 -0.2025407 -0.10520584
-0.20563792 -0.42071748 0.06618672 0.3370728 -0.16903125 -0.020885807 0.35056448 0.14844203
-0.45053846 -0.4350174 -0.6929157 -0.3936408 -0.08696988 -0.24437502 1.0359833 0.23350301
0.03574227 -0.2136931 0.15343896 -0.12765704 0.1479553 0.29277012 0.5871015 -0.41521186
0.5612233 -0.0032596865 -0.2941576 -0.011996412 -0.19405597 0.30853778 -0.107603304 0.07459279
00000000: a72c c53d f657 d63e 7976 163c 8324 e6be
00000010: b4b3 78be 98b1 453f 4cb2 bd3d 9397 963e
00000020: a17f 123f ac7f a03e 7045 a03d fe29 943d
00000030: def5 2fbe 0755 e6be c91e ea3d f826 22bf
00000040: b239 833e fe14 a3be a931 9a3e 7e42 ea3c
00000050: 2ac0 d83e f52c 34be ec93 f0be 3bbd 213f
00000060: bb97 0abf 92b5 ca3e d6d9 393e e348 0d3f
00000070: 4735 9abd 3ed2 d73e 5b1d b53e 8534 e23d
00000080: b8b4 edbd a0da fb3e 9503 74be c88f 003d
00000090: de4c bfbe d83c a1be 888d 493e e6e5 bf3d
000000a0: 4483 8bbf b835 0bbf 4ed9 e83e 3a82 e9be
000000b0: 8ad1 1f3f 124b cc3e 3401 ac3e b90e 51bd
000000c0: c6e9 203d 4980 b73e 19d2 06bf 9971 983e
000000d0: 223e acbe dcd6 ce3e 85ec b4be d835 f73e
000000e0: a75d 973d 701e 06bf 9d9b 56bd 37ae 643e
000000f0: b2f9 4f3e a587 103e 3996 acbd 2e1d 823e
00000100: 3c67 4dbd d822 a6bd bab7 843e 6cce 27be
00000110: 4abc dabe 19fd e33d ebea ab3d a70f 13bf
00000120: 5b93 44bc f47d a4be dd79 fa3c 75f8 e4bc
00000130: cc3c 4c3b bdd4 bd3e 6405 443f 4ec2 d4be
00000140: 2829 07be af77 a6bc b9d5 bebe 07af 65be
00000150: 1015 04bf e027 ffbd 3b1f 653e 3d81 8dbe
00000160: 0e3b 5ebe 7fd6 583d 3444 29bf 6218 1a3f
00000170: 5110 a7be 5286 89be 65f5 043e 430a b03e
00000180: 090d 523e fbe7 003e 806a 74bd 2436 9c3e
00000190: 2bfd aa3e 964b b4be 68f5 d03e 0e1f aabd
000001a0: 7fa7 2ebe 34b1 3ebd b9ff 32be 3d23 223e
000001b0: 3f6e 8b3d 8953 04bf 2f5a dbbc 4963 043e
000001c0: 2f13 d5be ac3a 15be b2f1 7c3c 5eb5 de3e
000001d0: 871b ccbe a25a 683d e610 473e 853c df3e
000001e0: 12cc 083d 1b07 d3bc 8d53 40be 4075 b6be
000001f0: 3dbe 74be 13c8 f33d b190 8ebe baf7 b4be
00000200: 9310 4d3d 6b9e 44bd 5eab 673d 645e e73d
00000210: 3fcf 933e 743b e6bd e3d1 d63d bd3a c63e
00000220: 7487 db3c ae82 d8be 2e97 c33e ccf2 8dbe
00000230: ba9f adbd e594 903e ac12 133f ff09 f83d
00000240: 8d69 e03d 879f 593f 3cc2 0a3f 791b 21be
00000250: 3636 4f3e 98c5 b13d 0fe3 e43e 22fa c13e
00000260: 018e 5c3e 1413 8c3e b573 4a3e 473c b23e
00000270: 9438 30bf a009 253e 29b9 893e 6c26 4ebc
00000280: 0701 1c3f 1b3a 2bbf 9bab 8cbe 6981 0abe
00000290: ee0a d63e 2eee 9bbe 30f1 ddba a427 37be
000002a0: 1dbf bb3e 5be5 d6be c05f ca3d 5515 d13e
000002b0: 93a0 c33d b8f2 a4be 95fc 60be d150 ad3e
000002c0: d47a 24be c3a9 83bd 41ed c8be f282 11be
000002d0: d3ac 16bf dd95 53be bd61 eabe 8681 883e
000002e0: 4712 22bf db0f ecbe 3931 033f 68b8 943e
000002f0: 7888 073d 0be7 fc3e 1074 d4be dec4 96be
00000300: 1c06 133e 0886 31be 8b25 86bc 1ae8 8fbe
00000310: bdc6 5cbd c766 adbe d2f0 e13e c4b7 95be
00000320: 128b 4d3f d3c7 36bc 6642 9abe bd45 bb3e
00000330: ae66 20bf ef74 393f 57a7 823e d6df 0a3e
00000340: bd64 113e c867 42bf 1362 4c3d 14e4 b1bc
00000350: 5e89 f2be 0ff3 cc3d 87f7 debe dd00 16bf
00000360: 34a4 3cbf a568 03bf a6ac 853e 1d72 d63e
00000370: 88a6 b63e aab8 283f d466 4fbe 2976 d7bd
00000380: bf92 52be 4868 d7be e78c 873d ce94 ac3e
00000390: 8716 2dbe b618 abbc 307d b33e 3001 183e
000003a0: faac e6be 9aba debe ec62 31bf 498b c9be
000003b0: 441d b2bd 723d 7abe 1a9b 843f 6a1b 6f3e
000003c0: 7d66 123d 5dd2 5abe 1a1f 1d3e 87b8 02be
000003d0: 9881 173e f7e5 953e 494c 163f a696 d4be
000003e0: 55ac 0f3f 77a0 55bb d39b 96be 998c 44bc
000003f0: 9cb6 46be aaf8 9d3e 1f5f dcbd 1bc4 983d

network_body.linear_encoder.seq_layers.2.bias f4 [256]
-0.0007143916 -0.0007624477 -0.0012024425 9.526407e-05 -0.0003389231 -0.00063331745 0.0005467913 0.00065443513
-0.0004127187 0.00013596688 8.354871e-05 0.0006377028 0.0009669169 0.00015908692 -0.000580688 -0.001570439
0.0001401975 -0.0003033652 -0.0014175299 -0.00060149987 -0.00026240613 0.00066311826 -0.0018235872 -1.26242e-05
-0.00078991783 -0.001736348 -9.12023e-05 -0.00033481754 -0.0003466 -0.00067243405 -0.00014462265 1.6344473e-05
-0.0003059912 5.035129e-05 -0.00065113074 0.00023196396 0.00046445747 4.3126318e-05 0.00049661094 0.0028033548
-0.00030819073 -0.00015167928 -0.0005898398 -0.0003266675 0.0006211166 -0.0002702893 0.00035074592 -0.00025350947
-0.00034915272 -0.00018380539 -0.00051252515 -9.9932164e-05 0.0001754133 0.00025176472 -0.0011529308 0.00055483275
-0.00023323782 0.00020526275 0.0004917491 -3.2480577e-05 -0.00024549157 0.0012175855 -7.163988e-05 -0.0004688574
-0.00087507477 0.00014799654 -0.0018120944 0.0002688088 0.00017411268 0.0018975859 0.00031084978 0.00051707437
-0.0001907067 -0.0004169423 -0.0008513314 -0.00033819448 -0.00022521854 -0.000786877 -0.00039360576 -0.00020192386
-1.403708e-05 -0.00031159696 -0.00019535323 -0.0010682958 -0.0016021859 -0.00022706928 0.0005418225 0.00033324334
-1.1476168e-05 -0.0004035693 0.00042667091 -0.00056936254 -0.00030455034 -0.0003815337 0.00019940437 0.000113536255
-0.0005897501 0.00044825047 0.00070677773 -0.0028939457 0.00016070974 0.000480123 0.0002989144 -0.00016667157
-0.000234359 -0.0001889595 -0.001432097 -0.0005319492 0.0004499728 -0.00096090575 -0.00032985804 0.00024304124
-0.00035789647 8.674631e-05 0.0004463744 -0.0005241418 -0.00029946395 -0.0010417303 0.00046284797 -0.00018346368
0.0017973165 6.214809e-06 0.00021801358 -0.00022055808 -0.0006747588 -0.0010867496 -0.0001514905 -0.00036431235
-0.00235704 0.00035822176 0.00150543 -0.0004151432 -0.00028246632 0.002005482 0.00012654651 -3.565571e-05
0.00043922008 -0.00011204602 0.001518254 -0.00044614138 -0.0011809804 -0.0018770397 0.0002828716 -0.00089303707
-0.00018505694 -0.00039655084 -0.00048699655 0.00035400747 -0.0014876255 -0.000781588 0.0007007627 0.000151362
4.965431e-05 -0.0008803597 -0.00068471464 -2.3321494e-05 3.9977735e-05 -0.001946802 0.0016537898 -0.00043516347
-0.00017963488 6.7098217e-06 -0.0013519903 -0.00024050658 -0.001275227 -0.00042387604 0.00024848373 0.002424806
-0.00031366135 -2.401189e-05 -0.0007442543 -0.00079002924 0.0002519343 -0.00032824793 -0.0008642201 -0.00019888922
0.0006815255 -2.4555706e-05 4.9136117e-05 -0.00016812602 -0.00044668387 0.0004631778 4.708181e-05 -0.00042028524
0.00026000477 -0.0004644898 0.0038540508 0.0005764501 0.0018642265 -0.00069682463 -0.00042294263 0.0001802417
-0.0020056942 0.00012777753 -0.00087787054 -0.00012270815 -0.0004327927 -0.00066072587 -0.00061893585 0.00021771263
0.0009821273 -0.00028267084 -0.0006848672 -0.00035130724 -0.000389602 -0.00037299783 -9.64911e-05 -1.2878614e-05
3.0280891e-05 -0.00027852418 -4.1325573e-05 -0.0020659496 -0.0010281453 -0.0009739442 8.1817474e-05 -0.0028807449
-0.00058429927 -0.0010906205 -0.0012623421 4.3348e-05 -0.0003680508 -0.00043217992 -0.00023503137 -0.00043635303
-0.000347651 0.0002214599 -0.00024348359 -0.000838099 -6.523619e-05 0.00074139476 7.872359e-05 8.09364e-06
-0.0002368277 0.00058790826 -0.000559089 -0.0003019436 -0.0001206918 -0.00050478213 0.004883154 0.00019255026
-0.00015682004 -0.00027519983 0.00016173872 -0.0010029717 0.0004898444 0.00061645056 0.00028683007 -0.00060692726
-0.0011537834 -0.00017362238 -0.00031100062 -3.4076354e-05 -0.00038682038 -0.00056647847 0.0008099055 -0.0010241268
00000000: 0246 3bba 00df 47ba 469b 9dba 82c8 c738
00000010: 7db1 b1b9 3705 26ba 8b56 0f3a 668e 2b3a
00000020: 2b62 d8b9 5592 0e39 df36 af38 832b 273a
00000030: b278 7d3a 92d0 2639 5039 18ba 30d7 cdba
00000040: fb01 1339 fd0c 9fb9 69cc b9ba f9ad 1dba
00000050: 8e93 89b9 1dd5 2d3a 6f05 efba 87cc 53b7
00000060: 7d12 4fba 2c96 e3ba dd43 bfb8 738a afb9
00000070: ddb7 b5b9 4946 30ba d9a5 17b9 7d1b 8937
00000080: 726d a0b9 4930 5338 a5b0 2aba 5a3b 7339
00000090: 6d82 f339 88e2 3438 ff2e 023a 7db8 373b
000000a0: a994 a1b9 190c 1fb9 7b9f 1aba 9244 abb9
000000b0: 6ed2 223a 9eb5 8db9 52e4 b739 77e9 84b9
000000c0: 7c0e b7b9 e2bb 40b9 fb5a 06ba ac92 d1b8
000000d0: 26ef 3739 4aff 8339 f01d 97ba 3272 113a
000000e0: 4d91 74b9 cd3b 5739 b9e8 003a c13b 08b8
000000f0: 52b5 80b9 6497 9f3a 5e3d 96b8 fad0 f5b9
00000100: 4665 65ba 852f 1b39 cc83 edba e8ee 8c39
00000110: 0492 3639 6bb8 f83a 8df9 a239 468c 073a
00000120: 71f8 47b9 0c99 dab9 e22b 5fba b24f b1b9
00000130: a428 6cb9 6c46 4eba df5c ceb9 86bb 53b9
00000140: cd80 6bb7 d65d a3b9 bcd7 4cb9 0f06 8cba
00000150: 7000 d2ba 7219 6eb9 1809 0e3a 2ab7 ae39
00000160: c489 40b7 2896 d3b9 cdb2 df39 4641 15ba
00000170: 0eac 9fb9 9608 c8b9 3417 5139 501a ee38
00000180: 7699 1aba 2903 eb39 0d47 393a 5aa8 3dbb
00000190: 3184 2839 05b9 fb39 9db7 9c39 8fc4 2eb9
000001a0: 44be 75b9 6e23 46b9 34b5 bbba 8272 0bba
000001b0: 54ea eb39 4be5 7bba ccf0 acb9 e3d8 7e39
000001c0: 0da4 bbb9 92eb b538 5c07 ea39 9066 09ba
000001d0: 5f01 9db9 ab8a 88ba 67aa f239 2860 40b9
000001e0: ef93 eb3a ce88 d036 939a 6439 9c45 67b9
000001f0: 4ce2 30ba 4471 8eba 6cd9 1eb9 2d01 bfb9
00000200: 9278 1abb b6cf bb39 d951 c53a 94a7 d9b9
00000210: fd17 94b9 686e 033b 92b1 0439 078d 15b8
00000220: 1f47 e639 40fa eab8 2700 c73a 15e8 e9b9
00000230: 20cb 9aba 0007 f6ba 624e 9439 b41a 6aba
00000240: d80b 42b9 27e8 cfb9 9253 ffb9 149a b939
00000250: 6efc c2ba 7ce3 4cba 64b3 373a edb6 1e39
00000260: e943 5038 f0c7 66ba 6c7e 33ba 87a2 c3b7
00000270: c4ad 2738 d62b ffba fac3 d83a a726 e4b9
00000280: 5f5c 3cb9 ee24 e136 4435 b1ba 7e30 7cb9
00000290: 8525 a7ba ae3b deb9 ec46 8239 7ee9 1e3b
000002a0: ea72 a4b9 246d c9b7 101a 43ba f719 4fba
000002b0: 0d16 8439 b118 acb9 d48c 62ba eb8c 50b9
000002c0: 67a8 323a fafc cdb7 8117 4e38 fc4a 30b9
000002d0: e530 eab9 acd6 f239 b579 4538 bb59 dcb9
000002e0: 4051 8839 c486 f3b9 3e94 7c3b e91c 173a
000002f0: 1059 f43a 1cab 36ba 66be ddb9 43ff 3c39
00000300: f771 03bb 05fc 0539 e520 66ba 38ab 00b9
00000310: 74e8 e2b9 9034 2dba 1540 22ba ca49 6439
00000320: b9ba 803a 7033 94b9 a988 33ba a92f b8b9
00000330: 7f43 ccb9 ec8e c3b9 445b cab8 3a11 58b7
00000340: b803 fe37 e206 92b9 ff54 2db8 e264 07bb
00000350: d5c2 86ba 4a50 7fba 6c95 ab38 e1ca 3cbb
00000360: a92b 19ba 27f3 8eba 2c75 a5ba 90d0 3538
00000370: f1f6 c0b9 3596 e2b9 c172 76b9 50c6 e4b9
00000380: ed44 b6b9 b037 6839 a14f 7fb9 dfb3 5bba
00000390: 6acf 88b8 295a 423a 6818 a538 ebc9 0737
000003a0: f454 78b9 db1d 1a3a d48f 12ba 2f4e 9eb9
000003b0: eb1b fdb8 5b53 04ba dd02 a03b 51e7 4939
000003c0: 0f70 24b9 b248 90b9 6898 2939 2576 83ba
000003d0: e768 003a 4c99 213a ae61 9639 331a 1fba
000003e0: 8c3a 97ba 670e 36b9 cc0d a3b9 35ed 0eb8
000003f0: 27ce cab9 ba7f 14ba d74f 543a fe3b 86ba

network_body.linear_encoder.seq_layers.2.weight f4 [256, 256]
-0.012166625 0.023052666 -0.08219579 -0.1984798 -0.15765496 0.059641484 -0.070401184 -0.12224333
-0.015005175 -0.00773678 0.03131703 0.04650462 0.0105386935 -0.040033408 0.023617744 -0.012231583
0.06091854 0.011928523 -0.013536211 0.03372595 0.01621673 -0.0847741 0.013385297 -0.1473773
-0.00037463423 -0.046367783 -0.022705385 -0.06825061 0.032713667 0.011568999 -0.109676555 0.07677314
0.014153164 -0.016515743 0.061646566 0.042045172 0.0023727387 -0.022464633 -0.042682678 0.13850328
0.044891786 -0.063787356 -0.002228455 -0.07997135 0.010511012 -0.0994262 0.029660052 0.029227652
0.012338565 -0.065585904 -0.007783886 0.034411743 -0.0053283484 -0.009345167 0.01580359 -0.07300556
-0.0059036454 -0.02932515 0.02915591 -0.11261981 -0.02111354 0.05927621 -0.005331114 -0.09457349
0.020584524 0.021885984 0.0002123674 -0.03793377 0.08971289 -0.062670425 -0.0038289162 0.033001736
-0.021494746 0.020917261 0.04625601 -0.038613483 0.02181596 -0.0016329604 -0.04286275 -0.053576984
-0.014317502 -0.046477288 0.080155104 0.029328506 -0.06816835 -0.031381667 0.0689116 -0.044614546
-0.011420763 -0.1539055 -0.06880202 -0.0368535 -0.04734209 0.003313351 0.013617956 0.058595546
-0.09027043 -0.055943873 0.009438642 0.052263666 -0.009604958 0.0070359204 0.041801814 0.01616436
0.058010105 0.057058103 -0.030672058 0.050942045 -0.06625319 0.04806695 -0.08985154 0.010670884
-0.030628115 0.019973202 0.027833331 -0.08092287 -0.035238728 0.042378254 0.04122916 -0.026680948
0.0070462236 -0.04768629 -0.05485135 0.020710783 -0.015989458 0.04370883 -0.02293763 -0.055858735
0.05028281 -0.002721943 0.060251452 -0.016977135 0.103075355 0.08003559 -0.039323024 0.0731889
0.054090343 0.0060197143 0.06710358 -0.026591243 0.022808876 0.044288706 0.0068267463 -0.053122457
0.027590074 -0.046115253 -0.08231042 -0.05245245 -0.047083307 -0.022148004 0.005874567 0.017779818
0.0371894 -0.057071254 -0.028523473 -0.06890336 0.0016368933 0.066361636 0.043981947 0.13882132
0.009833267 -0.0018333129 -0.0356454 0.006727517 -0.07288156 -0.08768106 0.0012046447 0.044609062
-0.019304136 -0.046427973 0.0120055685 0.08947956 -0.03146151 -0.024660582 -0.07778039 0.06198745
-0.021694388 0.10333347 0.09344474 -0.10569416 0.08387692 0.09004729 -0.0045971093 -0.16880822
-0.029302593 -0.0581693 0.008618083 -0.12434239 -0.05954699 0.16410106 -0.016671272 0.053750344
0.003745199 0.010129676 0.12754208 -0.0813087 0.061873246 0.04214212 -0.062845394 -0.0015002636
-0.056939546 -0.009027791 -0.002432419 0.029443232 -0.0011303835 0.04778414 -0.028998304 -0.085599504
0.06637173 0.09518129 -0.012852851 -0.093211845 -0.05508562 -0.05275788 -0.11358901 0.057839457
0.0065458277 -0.0124729145 0.050616886 -0.022145055 -0.038939927 -0.06774534 -0.014333838 0.08258798
0.029013468 -0.09481123 -0.030676773 -0.118259855 0.059292797 -0.031772964 0.032139458 -0.07902234
0.10539866 0.14167997 -0.05684413 0.036911856 -0.039137207 -0.073241875 0.075549304 -0.031097947
0.034453813 -0.01725236 0.021663047 -0.05381812 -0.064275496 0.046879996 0.087014325 -0.017193912
-0.020142393 -0.000314396 -0.06289376 0.01156614 -0.093139015 0.07351442 0.052879497 -0.11959818
00000000: 8656 47bc f2d8 bc3c 4456 a8bd 4a3e 4bbe
00000010: 4d70 21be a14a 743d 7f2e 90bd b65a fabd
00000020: 44d8 75bc d184 fdbb 4946 003d a17b 3e3d
00000030: 7caa 2c3c 12fa 23bd 007a c13c fa66 48bc
00000040: b885 793d da6f 433c fcc6 5dbc 3924 0a3d
00000050: f3d8 843c 0b9e adbd 014e 5b3c 13ea 16be
00000060: 8e6a c4b9 25ec 3dbd a500 babc fac6 8bbd
00000070: c4fe 053d e68b 3d3c 1a9e e0bd 3c3b 9d3d
00000080: ace2 673c 064c 87bc 1c81 7c3d 8f37 2c3d
00000090: f37f 1b3b c007 b8bc 08d4 2ebd ced3 0d3e
000000a0: 73e0 373d f2a2 82bd 450b 12bb 05c8 a3bd
000000b0: 6136 2c3c f79f cbbd a3f9 f23c d46e ef3c
000000c0: b127 4a3c e751 86bd f80f ffbb 54f3 0c3d
000000d0: 6d99 aebb 791c 19bc 8876 813c f083 95bd
000000e0: 5e73 c1bb 4c3b f0bc 60d8 ee3c 37a5 e6bd
000000f0: 4df6 acbc 9ccb 723d a0b0 aebb bfaf c1bd
00000100: e0a0 a83c 3c4a b33c f1ae 5e39 7160 1bbd
00000110: 64bb b73d 5a59 80bd 8eee 7abb d42c 073d
00000120: c015 b0bc ad5a ab3c f176 3d3d 2c29 1ebd
00000130: 62b7 b23c 0f09 d6ba da90 2fbd 8a73 5bbd
00000140: f593 6abc f85e 3ebd 5c28 a43d 5642 f03c
00000150: d99b 8bbd 108a 00bd 8621 8d3d bebd 36bd
00000160: 271e 3bbc 6799 1dbe 13e8 8cbd b2f3 16bd
00000170: c8e9 41bd ce24 593b d91d 5f3c e201 703d
00000180: b4df b8bd 6725 65bd 89a4 1a3c 6d12 563d
00000190: 1d5e 1dbc 948d e63b 6138 2b3d 1f6b 843c
000001a0: 019c 6d3d c2b5 693d f843 fbbc 9ba8 503d
000001b0: c1af 87bd dae1 443d 1604 b8bd eed4 2e3c
000001c0: d0e7 fabc d79e a33c ba02 e43c e4ba a5bd
000001d0: 7c56 10bd d294 2d3d e8df 283d 0192 dabc
000001e0: 02e4 e63b b352 43bd cfab 60bd a9a9 a93c
000001f0: 53fc 82bc 0808 333d b2e7 bbbc 21cc 64bd
00000200: 59f5 4d3d a062 32bb 3aca 763d a213 8bbc
00000210: 2c19 d33d b3e9 a33d 2e11 21bd 10e4 953d
00000220: d68d 5d3d 0641 c53b 9a6d 893d e1d5 d9bc
00000230: aed9 ba3c 1368 353d e6b2 df3b ef96 59bd
00000240: 9404 e23c 59e3 3cbd 5e92 a8bd 61d8 56bd
00000250: 6dda 40bd bb6f b5bc 717f c03b fba6 913c
00000260: ea53 183d 8cc3 69bd 0faa e9bc 341d 8dbd
00000270: 068d d63a 9ce8 873d 6a26 343d 2d27 0e3e
00000280: b61b 213c c64b f0ba e900 12bd 8172 dc3b
00000290: ed42 95bd 2192 b3bd 2be5 9d3a feb7 363d
000002a0: b523 9ebc 422b 3ebd 01b3 443c 0f41 b73d
000002b0: c9dd 00bd fd04 cabc 534b 9fbd 8de6 7d3d
000002c0: 6eb8 b1bc 80a0 d33d f55f bf3d 2e76 d8bd
000002d0: aac7 ab3d b76a b83d 59a3 96bb 10dc 2cbe
000002e0: fe0b f0bc ef42 6ebd dc32 0d3c 39a7 febd
000002f0: 8be7 73bd 1c0a 283e 3192 88bc 5229 5c3d
00000300: 0372 753b f1f6 253c 649a 023e 2d85 a6bd
00000310: cd6e 7d3d 379d 2c3d 16b5 80bd 7ea4 c4ba
00000320: 7139 69bd 4de9 13bc 3869 1fbb ef32 f13c
00000330: 6029 94ba 4db9 433d da8d edbc cb4e afbd
00000340: e7ed 873d 68ee c23d c494 52bc dae5 bebd
00000350: 76a1 61bd a618 58bd 5ba1 e8bd 11e9 6c3d
00000360: 627e d63b 325b 4cbc a753 4f3d 8c69 b5bc
00000370: 797f 1fbd 12be 8abd 79d8 6abc e323 a93d
00000380: a7ad ed3c 642c c2bd db4d fbbc 3932 f2bd
00000390: 01dd 723d 5e24 02bd aaa4 033d 77d6 a1bd
000003a0: 41db d73d 8e14 113e 64d5 68bd e330 173d
000003b0: 564e 20bd d6ff 95bd 98b9 9a3d 1fc1 febc
000003c0: 711f 0d3d d254 8dbc b476 b13c 6470 5cbd
000003d0: dfa2 83bd 3d05 403d 9134 b23d 3fda 8cbc
000003e0: a901 a5bc 84d5 a4b9 72ce 80bd e87f 3d3c
000003f0: abbf bebd ba8e 963d 2c98 583d e4ef f4bd
