config/results/Room2/PathFollowing/PathFollowing-1289292.onnx (onnx, 695646 bytes, 7 tensors)

action_model._continuous_distribution.log_sigma f4 [1, 3]
0	0xbe768074	-0.24072438
1	0xbdf1945a	-0.11795874
2	0xbd6a0cc6	-0.057141088

action_model._continuous_distribution.mu.bias f4 [3]
0	0x3bdc2561	0.006718323
1	0x3c4a702d	0.012355846
2	0xbc22d3a0	-0.009938151

action_model._continuous_distribution.mu.weight f4 [3, 256]
0	0x3c895a14	0.016766585
1	0x3cf9c374	0.030488707
2	0x3bb94110	0.005653508
3	0xbbc79caf	-0.006091676
4	0x3c8c790b	0.017147562
5	0x3d0cc7d2	0.03437025
6	0xbc17dbb8	-0.009268694
7	0x3cd0f293	0.025506293
8	0x3c302af5	0.010752429
9	0xbbc0a3a7	-0.005878884
10	0xbcf93681	-0.030421497
11	0x3bd38bfc	0.0064558964
12	0x3d7e71c4	0.062120214
13	0xbca9b455	-0.020715872
14	0x3b5728e7	0.0032830776
15	0xbc2d1cb1	-0.010565923
16	0x3af3048f	0.0018540787
17	0xbb35bbe4	-0.00277304
18	0xbca7f449	-0.020502226
19	0xba0fa2b2	-0.00054792606
20	0xbb30a608	-0.002695443
21	0x3c24f002	0.010066988
22	0x3cbe0c7f	0.023199318
23	0xbbec5a94	-0.007212946
24	0xbd120904	-0.03565313
25	0x3c1bf102	0.00951791
26	0x3cb852e9	0.022500472
27	0x3bdb41f0	0.00669121
28	0xbc1fee73	-0.009761441
29	0xbb2bc951	-0.0026212523
30	0x3bde3ac9	0.00678191
31	0xbcc79a07	-0.024365438
32	0x3bba17a9	0.00567909
33	0x3cfdce76	0.030982237
34	0xbd1fa706	-0.038977645
35	0xbcb0b10f	-0.021568803
36	0xbca6785a	-0.02032106
37	0x3c362366	0.011116838
38	0x3b0a0b54	0.002106388
39	0x3ca1af29	0.019736843
40	0xbc0382de	-0.008026807
41	0xbc0cc2a7	-0.008591331
42	0xbc36a396	-0.0111474
43	0xbcdf3109	-0.027245061
44	0xbc50020b	-0.0126958
45	0x3cc033ab	0.023462137
46	0x3ab07846	0.0013463579
47	0x3b3d2545	0.0028861326
48	0x3b3b1f12	0.0028552455
49	0x3c04ed16	0.008113166
50	0xbc15af41	-0.009136022
51	0xbcc68840	-0.024234891
52	0xbbaf0949	-0.005341683
53	0x3d1702fc	0.03686808
54	0xbbfca167	-0.0077096703
55	0x3cc06eb2	0.023490284
56	0x3c923d94	0.017851628
57	0x3c68980d	0.014196408
58	0x3ba5d672	0.0050609643
59	0x3cddaff2	0.027061436
60	0xbd3d9507	-0.0462847
61	0xbb332f79	-0.0027341528
62	0x3c5e4e90	0.013568535
63	0x3bf7fe9c	0.0075681936
64	0xbd298ab6	-0.04139205
65	0x3c6195ec	0.013768654
66	0x3ce30778	0.027713522
67	0x3c7711b1	0.015079902
68	0xbae11815	-0.0017173315
69	0xbd3dc5e6	-0.04633131
70	0x3cd6f6d2	0.02624074
71	0xbc9c0149	-0.019043582
72	0xbbfe1419	-0.0077538607
73	0xbcfe7ba0	-0.031064808
74	0x3ce3975a	0.027782131
75	0xbca557ee	-0.02018353
76	0xbb14c0a5	-0.0022697833
77	0xbc2a15cc	-0.010381173
78	0x3bd04668	0.0063560493
79	0x3ca2c8b8	0.0198711
80	0xbae758f8	-0.0017650416
81	0xbc9e6761	-0.019336404
82	0xbc0120f9	-0.007881396
83	0x3c0afbbd	0.008482871
84	0xbaa22bb2	-0.0012372641
85	0x3c610d15	0.013736029
86	0xbcf533bf	-0.029931901
87	0x3d2fd8fd	0.042931546
88	0xbb36b489	-0.0027878603
89	0x3c24c7c8	0.010057397
90	0x3cbe9be6	0.023267698
91	0x3ca5b4cb	0.02022781
92	0x3c09238f	0.008370294
93	0x3c34372a	0.01099948
94	0x3b9413c1	0.0045189564
95	0x3b9e85b9	0.0048377183
96	0xbc8c7859	-0.01714723
97	0x3c054de1	0.008136244
98	0xbb8b1332	-0.0042442316
99	0x3cac43a5	0.02102835
100	0x3d20b48f	0.039234694
101	0xba685bf0	-0.00088637974
102	0x3b84c9f9	0.0040523973
103	0xbab79c8e	-0.0014008449
104	0x3b398f4f	0.0028314178
105	0xbd08e65c	-0.033422813
106	0xbad6084c	-0.0016329377
107	0x3cb435ed	0.02199837
108	0xbcdd78c6	-0.027035128
109	0x3ce8aaa3	0.028401678
110	0x3c64904a	0.013950417
111	0xbc7a0088	-0.015258916
112	0xbc07dee3	-0.008292886
113	0x3b88a56b	0.00417011
114	0xbb12dd34	-0.002240968
115	0xbbbf44d9	-0.0058370647
116	0xbc2c7147	-0.010525054
117	0x3c024f5a	0.007953489
118	0xbcdf48b1	-0.027256342
119	0x3b8c7158	0.0042859726
120	0xbc7df229	-0.01549963
121	0x3c836ef3	0.016044116
122	0xbc3bfa1e	-0.011473207
123	0xbbd0c182	-0.006370724
124	0x39b67805	0.00034803167
125	0xbc435dc0	-0.011924207
126	0xbc2274c5	-0.009915535
127	0xbb957fa4	-0.004562335
128	0xbc741e63	-0.014899823
129	0xbbe5db6a	-0.0070146816
130	0xbc9a7daf	-0.018858759
131	0x3b46f98b	0.0030361142
132	0xbd28f44d	-0.04124861
133	0x3c31e96f	0.010858878
134	0xbd38814b	-0.04504518
135	0x3d145e22	0.036222585
136	0xbd4093d6	-0.047015987
137	0x3d2be982	0.041970737
138	0x3ce0bcdc	0.027433805
139	0x3cc0d9a8	0.023541287
140	0x3b09621e	0.0020963023
141	0x3bc09701	0.005877376
142	0xbb2b56a7	-0.0026144178
143	0xbb4eb9fb	-0.0031543958
144	0x3c3790f6	0.011203995
145	0xbab6f1f1	-0.0013957602
146	0xbc47463c	-0.012162741
147	0x3d092a04	0.033487335
148	0x3cd4a772	0.02595875
149	0x3d3aed23	0.045636307
150	0xbb07e31f	-0.002073474
151	0xbd0825c4	-0.03323914
152	0x3cf63ea3	0.030059164
153	0x3ad716a6	0.0016409948
154	0xbd268977	-0.04065844
155	0x3b5313bb	0.0032207805
156	0xbbc054a8	-0.005869467
157	0x3a9cc44a	0.0011960354
158	0xbc116dd0	-0.008876279
159	0xbc5ad5e2	-0.013356658
160	0x3d3c3623	0.045950066
161	0x399b9c77	0.0002968048
162	0xb993b9c5	-0.00028176434
163	0xbc6ee41d	-0.014580754
164	0xbd81d5f9	-0.0633964
165	0xba8843cf	-0.0010396185
166	0xbc5f7ee9	-0.013641098
167	0xbc985c1b	-0.018598607
168	0xbd60b448	-0.05485943
169	0x3d443135	0.04789849
170	0x3c0a17c8	0.008428521
171	0xbd1ad75c	-0.03780304
172	0xbd4e23e7	-0.050327208
173	0xbd1fc7bd	-0.039008845
174	0xbaa3133a	-0.0012441643
175	0xbd0d6cd8	-0.03452763
176	0xbcbef6b8	-0.023311004
177	0xbb79c33a	-0.003811075
178	0x39225483	0.00015481007
179	0x3bec8927	0.0072184983
180	0x390b1603	0.00013264273
181	0xbb215aa5	-0.0024620679
182	0xbd16a0ad	-0.036774326
183	0xbc166267	-0.009178734
184	0xbc0847d5	-0.008317907
185	0xbc204e5a	-0.0097843055
186	0xbc824ee1	-0.015906753
187	0xbcd06ae1	-0.025441589
188	0xbc02cc38	-0.00798326
189	0x3d030d09	0.031994853
190	0x3b8a40ff	0.004219174
191	0xbb772620	-0.0037711933
192	0x3bc83b4e	0.0061105853
193	0xbcbd48a3	-0.023105925
194	0xbb1f8f6f	-0.0024346968
195	0xbcf14618	-0.029452369
196	0xbd4f1cf8	-0.050564736
197	0x3c83d76e	0.016093936
198	0xbd9136db	-0.07090541
199	0xbd029bcb	-0.031886857
200	0x3ca3c1c2	0.019989852
201	0x3b34d2b4	0.002759141
202	0xbc2e871c	-0.01065233
203	0x3ccabb63	0.024747556
204	0x3c5f54c3	0.013631049
205	0xbb453733	-0.0030092716
206	0xbc268c10	-0.010165229
207	0x3c85b4b8	0.016321525
208	0xbcc9aa31	-0.024617286
209	0x3c005afd	0.007834193
210	0x3c41947e	0.011815188
211	0x3c918fd3	0.017768776
212	0xbac4326e	-0.0014968642
213	0xbbc09116	-0.0058766706
214	0xbc9d7cff	-0.019224642
215	0xbbafdf49	-0.005367194
216	0x3be1fd12	0.0068966234
217	0xbceb712e	-0.028740492
218	0xbb8c55ba	-0.0042826803
219	0x3cae304a	0.02126326
220	0x3d37e45a	0.044895507
221	0xbb874dc7	-0.004129145
222	0xbc3ef34d	-0.011654687
223	0x3d0a0bc9	0.033702645
224	0xbd2f13a1	-0.04274333
225	0x3d400200	0.046876907
226	0x3ce5fbbe	0.028074142
227	0x3c86e948	0.016468659
228	0xb9c7d314	-0.00038113503
229	0x3a5b57b0	0.00083672535
230	0xbbbc3bc5	-0.00574443
231	0xbb8c05b7	-0.004273142
232	0x3bfffee1	0.0078123664
233	0xbbe01f00	-0.006839633
234	0x3bdb6bf2	0.0066962177
235	0x3cfc445d	0.030794317
236	0xb8bb5f06	-8.934554e-05
237	0xbcb6d6d1	-0.02231923
238	0x3d1d29ea	0.03837005
239	0x3c317fbf	0.01083368
240	0x3c652cac	0.013987701
241	0xbd229a52	-0.039697953
242	0x3bb3f7e6	0.0054921983
243	0xbc136a04	-0.008997444
244	0x3c25c11c	0.010116842
245	0xbd515c99	-0.0511137
246	0xbc814104	-0.015778072
247	0xbc6bdf90	-0.014396563
248	0x3ca178b3	0.019710874
249	0xbb92b866	-0.0044775484
250	0xbc7402d2	-0.014893251
251	0x3c1b6ca7	0.009486354
252	0xbc45d7b3	-0.0120753525
253	0xbbab1aeb	-0.0052217147
254	0xbc210937	-0.009828857
255	0x3d2ceeb4	0.042219833

network_body.linear_encoder.seq_layers.0.bias f4 [256]
0	0xbabfffb3	-0.0014648348
1	0xbba872a2	-0.0051406184
2	0xb9a573d8	-0.00031557563
3	0x3c371dcf	0.0111765405
4	0xb95cb985	-0.00021049946
5	0x3b9583f5	0.0045628496
6	0xbbc32e78	-0.0059564672
7	0x3bd90e38	0.0066240095
8	0xba66f855	-0.0008810808
9	0x3a64a32c	0.0008721824
10	0xbc96ab0a	-0.018392105
11	0x3ab75fc5	0.0013990334
12	0x371909f7	9.121831e-06
13	0xbb7c6d31	-0.0038517232
14	0x3aac8d6f	0.0013164709
15	0x3b0da9ef	0.002161618
16	0xbc15455e	-0.009110777
17	0x39b43cf0	0.00034377677
18	0xbc52aaee	-0.012858136
19	0x3b387eee	0.0028151828
20	0xbb0d7878	-0.0021586698
21	0x3c31774b	0.010831664
22	0xbbcb7ec0	-0.006210178
23	0xbb3ec0cc	-0.0029106615
24	0xbbf2d205	-0.00741029
25	0xbc3278d3	-0.010893065
26	0x3ac383a9	0.0014916557
27	0xbb21f300	-0.002471149
28	0xbb94d48f	-0.0045419405
29	0x3b8eb59a	0.0043551447
30	0xb8b623f2	-8.6851316e-05
31	0x3c5790cc	0.013157081
32	0x3bc8c20c	0.006126648
33	0xbc2d7cf8	-0.010588877
34	0xbc10448a	-0.0088054035
35	0xbc9836dc	-0.018580846
36	0xbc182ddc	-0.0092882775
37	0x3bb35f66	0.005474019
38	0xbc125d7d	-0.008933422
39	0x3ccb9552	0.024851475
40	0xb9962b23	-0.0002864237
41	0xbc9bc820	-0.019016325
42	0xba80a00d	-0.0009813324
43	0xbbfe14f1	-0.0077539613
44	0xbbec3718	-0.007208716
45	0xbbdf638a	-0.006817286
46	0x3adc2cd8	0.0016798032
47	0xbc3e8393	-0.011628049
48	0xba58cf3c	-0.00082706264
49	0xbbbd75c4	-0.005781861
50	0x3bba30c8	0.0056820847
51	0x3b34b476	0.0027573383
52	0x3b6cb175	0.0036116515
53	0x3a7bb9f2	0.0009602598
54	0x3bd7d6ba	0.0065868767
55	0x37b35e88	2.1382482e-05
56	0xbb927cbb	-0.0044704354
57	0xbbeb6dd2	-0.0071847225
58	0xbc3173c7	-0.010830826
59	0x3b674ad8	0.0035292413
60	0xbb38f444	-0.0028221766
61	0x3b02ef38	0.0019979011
62	0xbba93ee1	-0.0051649665
63	0xbca42578	-0.020037398
64	0xbc7f72ac	-0.015591305
65	0xbc4b6056	-0.012413105
66	0xba4b3d1c	-0.00077529415
67	0xb990b339	-0.00027599352
68	0x3a3f4973	0.00072970166
69	0x3ac0da61	0.001471352
70	0xbb04ca33	-0.0020262122
71	0x3a7cb527	0.0009640031
72	0x3c168bc5	0.009188597
73	0xbb150358	-0.0022737589
74	0xbba8d99a	-0.0051528933
75	0x3b10a93b	0.0022073525
76	0xbb15d81d	-0.002286441
77	0xb9c75d1a	-0.00038025604
78	0xbbb7d937	-0.005610611
79	0x3bebc87e	0.0071955314
80	0xbc35e351	-0.01110156
81	0x3b0e546e	0.0021717804
82	0xbc3f57df	-0.011678665
83	0x3c3fd18d	0.011707676
84	0xbba09a93	-0.004901239
85	0x3b0e6f13	0.0021733686
86	0x3a1637c8	0.0005730358
87	0xbc0cb308	-0.008587606
88	0xbad506a7	-0.0016252593
89	0xbb0d2d48	-0.0021541882
90	0x3c4ba735	0.012430002
91	0xba0d99f5	-0.00054016645
92	0xbbfc378f	-0.007697053
93	0x3beabc3f	0.007163554
94	0x3b9897ce	0.0046567684
95	0xbc331340	-0.0109298825
96	0xbc0b0463	-0.008484933
97	0x3bfbdebb	0.0076864637
98	0x39a11529	0.00030724079
99	0xbb998411	-0.004684933
100	0x3b900734	0.00439539
101	0xbc23e038	-0.010002188
102	0xbb22765b	-0.0024789784
103	0xbcbd03f3	-0.023073172
104	0x3c570e80	0.013126016
105	0xbbe39f55	-0.006946484
106	0xbbe515b6	-0.0069911135
107	0x3b6b6101	0.0035915973
108	0xba09ca6a	-0.00052562973
109	0x3b3fa6d5	0.0029243727
110	0x3b902cae	0.0043998575
111	0xba92c9d7	-0.0011199069
112	0xbb68eea5	-0.0035542634
113	0xbc495b7e	-0.01228988
114	0xbac09b9e	-0.0014694815
115	0xbb9bc726	-0.004753965
116	0xbb4c8f64	-0.0031213397
117	0x3b828714	0.0039833877
118	0x3bc81820	0.0061063915
119	0xbc179750	-0.009252384
120	0xbb1f80c2	-0.002433822
121	0x39344953	0.00017193453
122	0x3b6a77bb	0.0035776931
123	0xbaa298b6	-0.001240513
124	0x3ad15ebb	0.0015973666
125	0xbcaaf602	-0.020869259
126	0x3bf84e85	0.0075777196
127	0xbc5ea069	-0.013588049
128	0xbb0e722e	-0.0021735537
129	0xbbb53ed3	-0.005531171
130	0xbbc9a841	-0.0061540906
131	0xbbf12eba	-0.0073603066
132	0xbabce566	-0.0014411628
133	0x3ca44d65	0.020056436
134	0x3b3e2e35	0.002901924
135	0xbad0fe84	-0.0015944992
136	0x3b01017a	0.0019684718
137	0x3c2f43dc	0.010697331
138	0x3ae02c52	0.0017103052
139	0x3b957ebc	0.004562227
140	0xbc7b3da6	-0.015334522
141	0xbb4ece60	-0.0031556115
142	0xbc3b6e8b	-0.01143993
143	0xbbc76017	-0.006084453
144	0x3c63e03a	0.01390844
145	0x3b968c6c	0.0045943763
146	0xbc07567c	-0.008260366
147	0xbbca358a	-0.006170933
148	0x3ac12a9f	0.0014737434
149	0x3a8d79e8	0.0010793777
150	0xbb28322c	-0.002566467
151	0xbae8ec5a	-0.0017770634
152	0x3b9643b8	0.0045857094
153	0xbbca3d3c	-0.0061718505
154	0xbc474da4	-0.012164507
155	0xbbe08352	-0.006851592
156	0xbc71c198	-0.014755629
157	0xbc1015f5	-0.008794297
158	0xbc6face9	-0.014628627
159	0xbbc992ff	-0.0061515565
160	0xbc230963	-0.009950968
161	0x3bb64e8d	0.005563563
162	0x3b8d9c4b	0.00432161
163	0xbb1bbbbc	-0.0023763021
164	0xbbb9412f	-0.0056535224
165	0xbab0d748	-0.0013491893
166	0x3b088749	0.002083259
167	0xbbc04d0b	-0.0058685592
168	0xbb674af5	-0.003529248
169	0x3a6cb7da	0.00090300816
170	0xbb580cda	-0.0032966645
171	0xbc27e863	-0.010248276
172	0x3c3cf287	0.011532432
173	0x3d0792e3	0.033099066
174	0x3ccb9166	0.024849605
175	0x3ca76f02	0.020438675
176	0xbbd24573	-0.0064169704
177	0x3c855f44	0.016280778
178	0xbb9c74e0	-0.004774675
179	0xbb573671	-0.0032838846
180	0xbb1ddf7e	-0.002408951
181	0xbb0f36a1	-0.002185263
182	0xbbb01251	-0.0053732772
183	0xbb961bf9	-0.0045809713
184	0x3c435df0	0.011924252
185	0xbb83872d	-0.004013917
186	0xbb00ceef	-0.0019654592
187	0x3c3d13d7	0.011540375
188	0xbc0a019f	-0.008423238
189	0xb852102e	-5.008297e-05
190	0xbc099c6e	-0.008399112
191	0xba0b62aa	-0.0005317131
192	0xbc21427a	-0.009842509
193	0xbb8ed8ac	-0.0043593254
194	0xbc278a28	-0.01022581
195	0x3b5f907f	0.0034113226
196	0x3c140628	0.009034671
197	0xba3322de	-0.0006833504
198	0x3c060781	0.0081805
199	0xbb500acb	-0.0031744714
200	0xbaf05fa0	-0.0018339045
201	0xbb8475bd	-0.004042356
202	0xbb740476	-0.0037234104
203	0xbb782e12	-0.0037869257
204	0xbba652c6	-0.0050757853
205	0xbb975a6b	-0.004618933
206	0x39b2ddd6	0.00034116086
207	0xbbba3420	-0.0056824833
208	0x3b94659e	0.0045287153
209	0x3b6c0488	0.0036013443
210	0xbbb86cd4	-0.0056282077
211	0xbb94fdc5	-0.0045468532
212	0xbbcf5ba8	-0.006328065
213	0xbc7e1671	-0.01550828
214	0x3c84caf2	0.016210053
215	0xbc252da7	-0.010081685
216	0xbb9ab567	-0.004721332
217	0xbaecf1d9	-0.0018077447
218	0x3c8b68ce	0.017017748
219	0xbc04821c	-0.008087661
220	0xbcce3633	-0.025172329
221	0xba455ab0	-0.0007528467
222	0x3ca3333c	0.019921891
223	0xba501bf1	-0.0007938734
224	0xbc214df0	-0.009845242
225	0xbb24f485	-0.002517016
226	0xbc6a8e37	-0.014316133
227	0xbc117392	-0.008877652
228	0x3c013da4	0.007888231
229	0x3accb84d	0.0015618891
230	0xbbbce1a8	-0.005764205
231	0xbbe7b127	-0.0070706788
232	0xbb2c22a7	-0.0026265772
233	0xbbf9fdfb	-0.007629154
234	0x3c404932	0.011736201
235	0xbb7ab780	-0.0038256347
236	0xbc21120f	-0.009830966
237	0x3b05da4a	0.00204243
238	0x3bb37411	0.0054764827
239	0xbbb15293	-0.005411455
240	0x3b4e9c62	0.0031526317
241	0xbc4873a5	-0.012234603
242	0xbb7d9c0d	-0.003869775
243	0xbc39afe7	-0.011333442
244	0xbabe480a	-0.0014517319
245	0x3b620c35	0.003449214
246	0xbb2929d3	-0.0025812283
247	0xbaff3e9c	-0.0019473615
248	0xbb77f319	-0.0037834106
249	0xbb01176e	-0.0019697803
250	0x3aeac435	0.0017911257
251	0xba00e9e9	-0.0004917668
252	0xbb22c690	-0.002483759
253	0xbc23a173	-0.009987223
254	0xbc0811f6	-0.0083050635
255	0xbbc69df3	-0.0060613095

network_body.linear_encoder.seq_layers.0.weight f4 [256, 416]
0	0x3ce222d5	0.0276045
1	0x3e1a0ab9	0.15043153
2	0x3d7d0ce3	0.061779868
3	0x3bc68690	0.0060585216
4	0xbdc04453	-0.09388032
5	0xbc94eedd	-0.018180305
6	0x3d070d57	0.032971706
7	0x3dce8505	0.10083965
8	0x3d4a8d3b	0.049451094
9	0xbd887dfa	-0.06664653
10	0xbcf20190	-0.02954176
11	0x3d67d3bc	0.05659841
12	0x3d0bd4f3	0.03413863
13	0xbd2e2c92	-0.042522974
14	0x3c85569d	0.016276652
15	0x3cebd679	0.028788792
16	0xbcfd3654	-0.030909695
17	0xbd539b91	-0.05166203
18	0xbda04395	-0.0782539
19	0x3c422cc1	0.0118514905
20	0x3c6704ec	0.014100295
21	0x3b9661a5	0.004589277
22	0x3d546dd6	0.05186256
23	0xbd41e6dd	-0.04733931
24	0x3d335fca	0.043792523
25	0x3c4af834	0.012388278
26	0x3c126192	0.008934395
27	0xbd721e30	-0.05911082
28	0xbb9aad22	-0.004720346
29	0xbd35545d	-0.04426991
30	0x3c7654dd	0.015034881
31	0x3d1dad0a	0.0384951
32	0xbe183a6a	-0.14866033
33	0x3a17c417	0.00057894125
34	0x3cf954a4	0.030435868
35	0xbd111466	-0.035419844
36	0xbd3afaff	-0.045649525
37	0x3cbf33d2	0.02334014
38	0x3c5286a7	0.012849486
39	0x3d25eafb	0.040507298
40	0xbde36425	-0.111030854
41	0x3c3953bf	0.0113114705
42	0x3cab0f69	0.020881372
43	0x3d1f44df	0.03888404
44	0xbd59aa76	-0.05314108
45	0x3cd1e8c5	0.025623688
46	0xbb4b34e7	-0.0031006874
47	0xbcb86ca5	-0.022512743
48	0x3d1adb57	0.037806835
49	0xbd6c073c	-0.057624087
50	0xbc00b830	-0.007856414
51	0x3c7b6314	0.015343446
52	0x3d9892ea	0.07449897
53	0xbd83ae9f	-0.06429791
54	0x3b9ece8b	0.004846399
55	0xbd8920c0	-0.066957
56	0xbcb135ea	-0.021632154
57	0x3dd02511	0.1016332
58	0x3d970c02	0.07375337
59	0x3c842af6	0.016133767
60	0xbdcc056b	-0.09961971
61	0xbda0be62	-0.07848813
62	0xbce4265e	-0.027850326
63	0x3d338e03	0.043836605
64	0xbd354b36	-0.04426118
65	0x3d763c02	0.06011582
66	0x3d981805	0.07426456
67	0xbcac8d07	-0.02106334
68	0x3d2196bb	0.03945039
69	0xbd6d93b0	-0.058002174
70	0x3bcb3708	0.0062016286
71	0xbd3732a4	-0.04472603
72	0x3d21dde9	0.03951827
73	0x3d6d0854	0.05786927
74	0xbd26af54	-0.04069455
75	0x3cbc806d	0.023010457
76	0xbb45a104	-0.0030155787
77	0x3cce0cfb	0.025152674
78	0xbc872291	-0.016495975
79	0x3c4da12a	0.012550632
80	0xbc861267	-0.016366197
81	0x3c5d78cb	0.013517569
82	0x3c9cf910	0.019161731
83	0x3dacb035	0.08432046
84	0x3c952eb9	0.018210756
85	0x3d3a5525	0.045491356
86	0x3c8693ab	0.016427835
87	0xbc574d43	-0.013140979
88	0x3b806dd5	0.003919343
89	0xbb8f1f6b	-0.004367759
90	0xbd38bacb	-0.045100015
91	0x3dca72ca	0.098851755
92	0xbd3ff4b2	-0.04686422
93	0xbda5d989	-0.08098132
94	0xbd9ee48c	-0.077584356
95	0x3b6b183b	0.0035872597
96	0x3dad4a55	0.08461443
97	0xbd87cc09	-0.066307135
98	0xbc89aeae	-0.016806927
99	0xbcf11797	-0.029430194
100	0xbd3c3d2e	-0.045956783
101	0x3d18e333	0.03732605
102	0xbc150a65	-0.0090967165
103	0x3cf5ecdb	0.030020168
104	0x3c649fee	0.013954146
105	0x3d4c6419	0.049900148
106	0xbd07581a	-0.033043005
107	0xbcf49308	-0.029855266
108	0x3d74a43d	0.059726942
109	0x3d24b1a5	0.040208478
110	0xbd643f43	-0.055724394
111	0xbb73519d	-0.0037127503
112	0x3dcdc272	0.10046853
113	0xbc6fe16b	-0.014641146
114	0xbd39208a	-0.045197047
115	0x3be5b687	0.0070102843
116	0xbcbfceca	-0.023414034
117	0xbd049f43	-0.032378446
118	0xbc1866d8	-0.009301864
119	0xbcfbcde8	-0.030737832
120	0x3ca1540b	0.019693395
121	0x3cfc4a85	0.030797252
122	0xbcd1e5d2	-0.025622282
123	0xbd0de5f2	-0.03464312
124	0x3c666548	0.014062233
125	0xbdcf1bb8	-0.10112709
126	0xbd5c1873	-0.053734254
127	0xbca51617	-0.020152135
128	0xbd8263c5	-0.06366686
129	0xbc84bb4c	-0.016202591
130	0x3cb3d00b	0.021949789
131	0xbc7af375	-0.015316834
132	0x3cedb980	0.029019117
133	0x3c8a579c	0.016887479
134	0x3d173861	0.036919
135	0x3d719440	0.058979273
136	0xbd44c0f2	-0.04803557
137	0xbb827fa6	-0.003982502
138	0xbd7030f8	-0.05864045
139	0x3d8177d2	0.06321682
140	0xbd0a4ddb	-0.033765655
141	0x3d2b867a	0.041876294
142	0x3c35f0b3	0.01110475
143	0x3d1eb8f4	0.038750604
144	0xbd824d38	-0.063623846
145	0x3bb12a0f	0.005406625
146	0x3d7a8f00	0.06117153
147	0xbd063a10	-0.032770216
148	0xbd01d21b	-0.031694513
149	0x3d5804d5	0.052738983
150	0x3d0b2809	0.033973727
151	0x3c4a80e1	0.012359829
152	0x3be03c1a	0.006843102
153	0x3d8703ac	0.06592497
154	0xbc816c5f	-0.015798746
155	0x3d94a96c	0.07258877
156	0x3b7f6434	0.0038969638
157	0x3d88433a	0.066534474
158	0xbcce4520	-0.025179446
159	0x3ca5aac5	0.02022303
160	0xbcbb5524	-0.022867747
161	0xbc5feb3e	-0.013666926
162	0xbb966735	-0.00458994
163	0xbc9fb442	-0.019495133
164	0xbd2f1e52	-0.042753525
165	0xbcb63c8a	-0.022245664
166	0x3c9b2204	0.018937118
167	0x3cdf8d44	0.02728904
168	0x3c9b9936	0.018993955
169	0x3d5942b4	0.05304213
170	0x3b9c5e8c	0.004772013
171	0x3d0b4864	0.034004584
172	0x3cb483f3	0.022035575
173	0x3c6cb95d	0.014448491
174	0xbc89977f	-0.016795872
175	0x3d5b57fa	0.053550698
176	0x3d9d8da1	0.07693029
177	0x3c97e846	0.018543374
178	0x3c7de765	0.015497063
179	0xbd5f20cf	-0.054474648
180	0x3d2c6dfa	0.04209707
181	0xbd8d653f	-0.06904077
182	0x3ca0bacb	0.01962032
183	0xb9c4e201	-0.0003755242
184	0x3dafbf14	0.08581367
185	0x3bcad4b4	0.006189907
186	0x3cf8aa88	0.030354753
187	0xb913f51a	-0.0001411032
188	0xbc7eeb59	-0.015559041
189	0x3d8b84cb	0.068124376
190	0xbc3d6367	-0.011559344
191	0x3a9ca0fb	0.0011949831
192	0x3bf5dce2	0.007503138
193	0xbb14a095	-0.0022678722
194	0xbcae4bfd	-0.021276468
195	0xbd02314b	-0.03178529
196	0x3d5257dd	0.051353324
197	0xbd27d953	-0.04097874
198	0xbc05ec9e	-0.00817409
199	0xbc8d97d4	-0.017284311
200	0xbd607f94	-0.054809168
201	0xbd9e24ad	-0.07721839
202	0x3d47fae8	0.048823267
203	0x3d72396e	0.0591368
204	0x3d8bbcfe	0.06823157
205	0x3d079cce	0.033108525
206	0x3b0269ca	0.001989948
207	0x3cc76832	0.024341676
208	0xbc551215	-0.013004799
209	0x3d613d46	0.054990076
210	0xbcfa141f	-0.030527173
211	0x3d2b97e7	0.041892912
212	0x3d8a347e	0.06748293
213	0xbda30082	-0.07959081
214	0xbca2b872	-0.019863341
215	0xbc9bcf38	-0.019019708
216	0x3d59449e	0.053043954
217	0xbc3309fb	-0.0109276725
218	0x3b49011a	0.0030670823
219	0x3d23095a	0.03980384
220	0xbbd9b9af	-0.0066444497
221	0x3d4de370	0.05026573
222	0x3ac95c7e	0.0015362648
223	0x3d946816	0.07246415
224	0x3e027172	0.12738588
225	0xbd5c1e92	-0.05374009
226	0x3d240df2	0.04005236
227	0xbd3ca4c7	-0.04605558
228	0xbd2ff60f	-0.04295927
229	0xbca7f4b2	-0.020502422
230	0x3c8f0200	0.017457008
231	0xbd238d34	-0.039929584
232	0x3d65dfbd	0.056121577
233	0xbcac9d77	-0.021071179
234	0xbd37ab3b	-0.044841032
235	0xba16cbf7	-0.0005752439
236	0x3c3e3dc5	0.011611407
237	0x3c5d60b5	0.013511826
238	0x3cc1b86d	0.023647511
239	0x3d1e0d37	0.03858682
240	0x3daf08c5	0.085465945
241	0xbce5b523	-0.028040474
242	0xbd9732ee	-0.07382761
243	0x3c83c6c0	0.016085982
244	0xbb973cfa	-0.0046154233
245	0x3d3f32d4	0.046679333
246	0xbd77bd2e	-0.06048315
247	0xbd5d4323	-0.054019105
248	0xbc1ddce6	-0.009635186
249	0x3d4eb626	0.05046668
250	0xbd253e3a	-0.040342547
251	0x3cbd5c44	0.023115285
252	0xbd2bbe3e	-0.041929476
253	0xbdabb333	-0.08383789
254	0xbb118035	-0.0022201661
255	0x3cae445e	0.021272834

network_body.linear_encoder.seq_layers.2.bias f4 [256]
0	0x3c1bf971	0.009519921
1	0x3b4d6359	0.0031339733
2	0x3c08041e	0.008301763
3	0x3bf446ce	0.0074547296
4	0x3c2d88d2	0.010591703
5	0x3c9f5eb0	0.01945433
6	0xbc1febb8	-0.00976079
7	0x3b6dafd0	0.0036268122
8	0x3bd02c6f	0.006352953
9	0x3a31ede3	0.0006787462
10	0xbc0b41a5	-0.008499538
11	0xbb879237	-0.004137303
12	0x3c27c5b8	0.010240011
13	0xb98f4144	-0.00027323712
14	0x3b30c157	0.0026970708
15	0xbaefae00	-0.0018286109
16	0xba839583	-0.0010039065
17	0xbbde257d	-0.0067793713
18	0x3b27906c	0.002556826
19	0x3c24bdf8	0.010055058
20	0x3bd947fc	0.0066308957
21	0x3c57e240	0.013176501
22	0x3bb3139a	0.005464983
23	0xbc8765ff	-0.016528128
24	0x3b613457	0.0034363472
25	0xbc5a1c1f	-0.013312369
26	0x3bb967a9	0.005658109
27	0xbc59292f	-0.013254448
28	0xb9d9d420	-0.0004154751
29	0xbb20bf46	-0.002452807
30	0x3c36953a	0.011143977
31	0x3c009888	0.007848866
32	0x3c497477	0.012295834
33	0x3c141be5	0.009039854
34	0xbb335111	-0.0027361552
35	0xbba0b569	-0.0049044383
36	0xba44cdf7	-0.0007507498
37	0x3c282f5a	0.010265196
38	0xb9aaa4d3	-0.0003254773
39	0x3c0c56f7	0.008565656
40	0x3b38e0d8	0.002821019
41	0x3c52d7dc	0.012868848
42	0x3bd635d1	0.006537177
43	0xbc12ba8a	-0.008955607
44	0xbb9af1ef	-0.0047285478
45	0x3c2e18b3	0.010626006
46	0xbc5469ae	-0.012964649
47	0x3b6e6bf7	0.003638027
48	0x3bcfcb83	0.006341399
49	0xbbb6f653	-0.0055835634
50	0xbba7d8de	-0.005122288
51	0xbba0da6a	-0.0049088495
52	0xbbbd4668	-0.0057762153
53	0x3c4ac6f2	0.012376534
54	0xbb0f2150	-0.0021839924
55	0x3ba88dac	0.0051438417
56	0x3a099e61	0.00052497356
57	0x3ad891f8	0.0016522994
58	0x3bae1759	0.005312842
59	0x3c7c05a8	0.015382208
60	0xbb9309e5	-0.0044872635
61	0xbce3d36d	-0.027810777
62	0xbaf108dd	-0.0018389482
63	0x3c2707c1	0.01019472
64	0x3bcc2d13	0.006230959
65	0xbb97bc8e	-0.004630632
66	0x3bd1275d	0.0063828663
67	0x3c00d34d	0.007862878
68	0x3b6654b9	0.0035145713
69	0x39ae7889	0.00033277672
70	0x3af9ce83	0.0019058738
71	0xbbca4784	-0.006173076
72	0xbb71df45	-0.003690676
73	0xbb3362b1	-0.0027372057
74	0x3bb162ba	0.0054133805
75	0x3c71f255	0.014767249
76	0xbae262af	-0.0017271842
77	0x3a0f6cdf	0.000547124
78	0x3b13687f	0.0022492704
79	0x3b7241ac	0.0036965413
80	0xbc790bdc	-0.015200581
81	0xbc6cbf4b	-0.014449905
82	0xbae75bcf	-0.0017651262
83	0xbb8f7137	-0.00437751
84	0xbca43d18	-0.020048663
85	0x3bd03d91	0.0063549955
86	0x3aa65cfa	0.0012692504
87	0x3bf8c0ce	0.0075913435
88	0xbc02be9a	-0.007980013
89	0x3b8ed75b	0.0043591685
90	0x3b3d0d76	0.0028847135
91	0x3bf0c9f1	0.007348292
92	0xbb46b6e6	-0.0030321418
93	0x3c32a5de	0.010903804
94	0xbaa61488	-0.0012670914
95	0xbaf478d7	-0.0018651736
96	0xbbd51889	-0.006503169
97	0xbc0ddf8e	-0.008659257
98	0x3abf174a	0.0014579084
99	0x3c0fc9bf	0.008776127
100	0x3c76165a	0.015019977
101	0x3c525180	0.012836814
102	0x3b9bf3ec	0.0047593024
103	0x3bd5db2d	0.006526372
104	0xbc33f292	-0.010983126
105	0xbc29d987	-0.010366804
106	0x3c384577	0.01124703
107	0x3c216806	0.009851461
108	0xbc835505	-0.016031751
109	0x3c28a23e	0.010292588
110	0xbb67b113	-0.0035353347
111	0x3add1613	0.001686754
112	0xbb8fab3d	-0.004384427
113	0xbc00c77d	-0.007860062
114	0xba7162df	-0.00092081534
115	0xbc6a814e	-0.014313055
116	0x3bfcc754	0.0077141915
117	0x3b2aac24	0.0026042545
118	0x3b0da65a	0.0021614046
119	0xbbcb6c3f	-0.0062079723
120	0x3b65b192	0.0035048467
121	0x3acfba91	0.0015848448
122	0x3aa66e77	0.0012697716
123	0xbc5fc524	-0.013657842
124	0xbbd26cdb	-0.006421668
125	0x3c388eb3	0.011264491
126	0x394da8ac	0.00019613159
127	0xbc2a5c2a	-0.01039795
128	0xbc50e6ae	-0.012750311
129	0xb9d07e1a	-0.00039766805
130	0x3a2fa65a	0.00067005085
131	0x3bcd5e9e	0.0062673828
132	0xbb94665d	-0.004528804
133	0xbaeb18fe	-0.0017936525
134	0x3bbdd6e7	0.0057934406
135	0x3c7006e3	0.014650079
136	0xbb839a49	-0.004016195
137	0xbb5adce7	-0.0033395828
138	0x3ba1ddde	0.0049397787
139	0xb96cf2a8	-0.0002259711
140	0xbc905d5b	-0.01762264
141	0x3973a29f	0.00023234867
142	0xbc88cb7f	-0.016698597
143	0xbc05ff3b	-0.0081785275
144	0x3b0790a8	0.0020685587
145	0xba399af9	-0.00070802827
146	0x3bbf38ca	0.005835627
147	0x3befb214	0.0073149297
148	0x3bfd61f1	0.007732623
149	0x3cdd5356	0.027017277
150	0x3af10cf4	0.0018390701
151	0x3c00eabc	0.007868465
152	0x3bb0f20a	0.005399947
153	0x3b995927	0.0046798172
154	0xbb3cacf8	-0.002878962
155	0xbb19f217	-0.0023490244
156	0xbc4f1ddf	-0.012641399
157	0xbc93b98d	-0.018032813
158	0x3a06499f	0.0005122665
159	0xbac8a7ac	-0.0015308759
160	0x3b832f66	0.004003453
161	0xbc8f9e27	-0.017531468
162	0xbc62fb65	-0.013853882
163	0xbc5ccd5e	-0.013476698
164	0x3be438c4	0.006964775
165	0xbadec6de	-0.0016996523
166	0xbbc934ff	-0.006140351
167	0x3c041f6c	0.008064132
168	0x3ba0f862	0.004912422
169	0x3c126b91	0.008936779
170	0x3c6b93bf	0.014378487
171	0xbae66f3f	-0.0017580761
172	0xba04486a	-0.0005046191
173	0xbc333cfb	-0.010939832
174	0xbb23672b	-0.002493332
175	0x3b6a73eb	0.003577466
176	0xbaab2d24	-0.0013059718
177	0xbc1c648c	-0.009545457
178	0xbc9ae34a	-0.018907208
179	0x3a48ed74	0.0007664778
180	0xbbc6575a	-0.0060528936
181	0xbc0f49e9	-0.008745649
182	0xb9011744	-0.00012311066
183	0xbc9e66bf	-0.019336103
184	0xbca5cd95	-0.02023963
185	0xbc937594	-0.018000402
186	0xbb39362a	-0.0028261044
187	0xbb6b8651	-0.0035938213
188	0xbc58294e	-0.013193442
189	0x3c55cd30	0.013049409
190	0x3b386b24	0.0028140033
191	0xbc86f813	-0.016475713
192	0x3b4c2fe8	0.0031156484
193	0xbc35b63f	-0.011090814
194	0x3b0bb0b4	0.002131504
195	0xbc0af1cf	-0.008480503
196	0xbc57ffba	-0.013183529
197	0x3c58a57d	0.013223049
198	0x3bf0fb49	0.0073541743
199	0xbc037d4e	-0.00802548
200	0x3c50f53c	0.012753781
201	0xbbcb11ac	-0.006197175
202	0x3ba9d2eb	0.005182614
203	0xba5ce33b	-0.0008426194
204	0xbb2329f5	-0.0024896835
205	0xbad2140c	-0.0016027703
206	0xbc40c737	-0.0117662465
207	0xba8aa431	-0.0010577497
208	0x3b003743	0.0019564189
209	0xba93ff70	-0.0011291336
210	0x3c1b8926	0.009493148
211	0x3b4bbb5c	0.0031087017
212	0xbb2f7dd3	-0.0026777878
213	0xbc1ef253	-0.009701329
214	0x3c837624	0.016047545
215	0xbc2d9b5f	-0.010596125
216	0x3b562e1d	0.0032681294
217	0xbc267fdc	-0.01016232
218	0xbc0e1919	-0.008672976
219	0x3c7e91bc	0.0155376755
220	0x3c54f094	0.012996811
221	0xbc5f421b	-0.013626601
222	0xbb51142b	-0.003190289
223	0x3bdabdc3	0.0066754534
224	0x3c3c9556	0.011510214
225	0x3baec845	0.0053339326
226	0x3c8f69be	0.017506476
227	0x3c28cacb	0.010302256
228	0xbc396582	-0.011315705
229	0xbc1c5b6f	-0.009543284
230	0xbba03281	-0.004888833
231	0xbc949037	-0.018135173
232	0x3bedc60b	0.0072562746
233	0x3bbc4882	0.0057459483
234	0xbb934794	-0.0044946168
235	0x3c1bd9e9	0.009512403
236	0xbc05e76d	-0.008172852
237	0xbc1a7dc7	-0.009429402
238	0x394673bd	0.00018925867
239	0x3c5666ab	0.013086001
240	0x3c4d2c3d	0.012522754
241	0x3bc28bcc	0.0059370752
242	0x3c367e6d	0.011138541
243	0xbc853268	-0.016259387
244	0xbb7c2a66	-0.003847742
245	0x3c17ce57	0.009265504
246	0xbc01578d	-0.007894409
247	0x3be1d38c	0.0068916734
248	0xbb95213c	-0.004551081
249	0xbc71161a	-0.014714742
250	0xbbbe73d8	-0.0058121495
251	0xba34cd32	-0.00068970316
252	0xbc87b6cc	-0.016566657
253	0xbbae5ae6	-0.0053208945
254	0xb9356af6	-0.00017301351
255	0x3bbe9969	0.0058166278

network_body.linear_encoder.seq_layers.2.weight f4 [256, 256]
0	0xbcf0df88	-0.029403463
1	0xbd54b872	-0.051933713
2	0x3c84f948	0.016232148
3	0xbdabb215	-0.08383576
4	0x3d957450	0.072975755
5	0x3d018612	0.031622
6	0xbe06108e	-0.13092253
7	0x3d9e96a9	0.0774358
8	0xbd01dda3	-0.03170551
9	0x3d460baf	0.048350986
10	0xbd3ac7f1	-0.045600835
11	0xbd1cf388	-0.038318187
12	0xbcdd340d	-0.027002359
13	0xbdd0acf4	-0.10189238
14	0xbc18dd8d	-0.009330166
15	0x3cdf3224	0.027245589
16	0x3d16b58b	0.036794227
17	0x3dc3d201	0.095615394
18	0x3d62e7a5	0.055396695
19	0x3e37b80c	0.17941302
20	0x3bf63380	0.0075134635
21	0x3d8b3e07	0.0679894
22	0xbdc1b18f	-0.09457695
23	0xbd3ee003	-0.046600353
24	0xbb3dd609	-0.0028966686
25	0x3d745f9f	0.059661504
26	0xbd839c27	-0.06426268
27	0xbd065217	-0.03279313
28	0xbd65f8c5	-0.05614545
29	0x3d55e6fc	0.052222237
30	0x3b9f5be7	0.0048632505
31	0x3d2ecc3e	0.04267525
32	0xbd76dcc8	-0.060269147
33	0xbd72ea1a	-0.059305288
34	0x3db2ed3a	0.087366536
35	0xbd729231	-0.05922145
36	0xbca85adc	-0.020551138
37	0x3dcd286b	0.10017475
38	0x3d6d148c	0.057880923
39	0x3c894326	0.016755652
40	0xbd2a3a04	-0.041559234
41	0xbd15abf3	-0.036540937
42	0xbd211362	-0.039325126
43	0xbd1d32a0	-0.038378358
44	0xbba97e5c	-0.005172534
45	0x3cec4e02	0.02884579
46	0xbd747eb6	-0.059691153
47	0xbdd01b46	-0.10161452
48	0x3d520beb	0.051280897
49	0xbd29a17c	-0.04141377
50	0x3cfeb6c1	0.031093003
51	0xbc83ccdc	-0.016088895
52	0xbcbd24f3	-0.023088908
53	0x3d9a2baa	0.075278595
54	0x3da03d38	0.078241765
55	0xbc9ab214	-0.018883742
56	0xbd63ee1a	-0.055646993
57	0xbd86f7ed	-0.06590257
58	0x3ae5987e	0.001751676
59	0x3df20f7d	0.118193604
60	0xbdb0237f	-0.0860052
61	0x3d0ba7df	0.03409564
62	0x3dd5911e	0.104280695
63	0xbdae878a	-0.08521946
64	0x3d522536	0.05130502
65	0xbd142879	-0.03617141
66	0x3de14cff	0.11001014
67	0xbc4710bc	-0.012149986
68	0xbd8d7c1b	-0.06908437
69	0xbd1829b3	-0.037149142
70	0x3d67ddcf	0.056608018
71	0xbdc08411	-0.0940019
72	0xbd4571dc	-0.048204288
73	0xbd0209b1	-0.031747524
74	0xbd70561e	-0.058675878
75	0x3d6c7185	0.05772545
76	0xbd99a421	-0.07502008
77	0x3d33e17c	0.04391621
78	0xbd51e9ba	-0.05124829
79	0x3d9bfe7b	0.07616898
80	0x3d3aad77	0.045575585
81	0x3c80859f	0.015688716
82	0xbc3fc1bd	-0.011703906
83	0x3cd11d93	0.025526797
84	0x3d52ef0c	0.051497504
85	0xbe029143	-0.12750725
86	0x3cf958f2	0.03043792
87	0xbdab53e0	-0.08365607
88	0xbb08f6d2	-0.002089907
89	0xbdef41aa	-0.11682446
90	0x3bc4ece2	0.006009684
91	0xba192077	-0.00058413245
92	0x3d6db145	0.058030386
93	0xbe398bd7	-0.18119751
94	0x3d29e7b6	0.041480742
95	0xbcf7a087	-0.030227913
96	0xbd8f7dee	-0.07006441
97	0xbd81a184	-0.06329635
98	0xbd88e8ad	-0.066850044
99	0xbd1230a8	-0.035690933
100	0xbda7537a	-0.08170219
101	0x3c19f625	0.009397064
102	0xbd3da024	-0.0462953
103	0xbc9408b6	-0.01807056
104	0x3dcee5ac	0.101024
105	0xbd1679a8	-0.036737114
106	0x3d1e4a66	0.03864517
107	0xbe0eb267	-0.13935243
108	0x3e1af42a	0.15132204
109	0xbc93c900	-0.01804018
110	0xbd65c00e	-0.05609136
111	0x3d212231	0.039339248
112	0xbdb4501f	-0.088043444
113	0xbdf0dd5d	-0.11760972
114	0x3b39a7f2	0.0028328863
115	0xbcc758d2	-0.024334345
116	0xbdc19bf4	-0.09453574
117	0x3d439f36	0.047759257
118	0x3aa1d673	0.0012347236
119	0x3bef1800	0.007296562
120	0x3c110412	0.008851068
121	0x3d1f14c9	0.03883818
122	0x3da298cc	0.079393
123	0xbda35a7d	-0.07976244
124	0xbd228fda	-0.03968797
125	0xbd00fd34	-0.031491473
126	0xbdae991d	-0.08525298
127	0xbc89d3ef	-0.01682469
128	0x3dceca7d	0.10097215
129	0x3d55eb9a	0.05222664
130	0x3d8a6238	0.06757015
131	0xbd3bd858	-0.04586062
132	0x3e097c43	0.13426308
133	0xbd9f5369	-0.07779581
134	0x3cbaa441	0.0227834
135	0x3e4173a5	0.18891771
136	0xbd05635e	-0.032565467
137	0x3d732a72	0.05936665
138	0x3db7c578	0.08973211
139	0x3dce1617	0.10062807
140	0xbce009d4	-0.027348436
141	0x3d0e2b8d	0.034709502
142	0x3cf1bc4b	0.02950873
143	0xbe1337d3	-0.14376764
144	0xbda89fb8	-0.08233589
145	0x3e1021ac	0.14075345
146	0x3c2712b4	0.01019733
147	0xbd5b460c	-0.0535336
148	0x3d6ceaa1	0.057840947
149	0xbb70dcf2	-0.0036752787
150	0xbdd7c825	-0.105362214
151	0x3dacbe25	0.08434705
152	0xbcee0f60	-0.029060066
153	0xbcaaeb01	-0.020864012
154	0x3cabdf7a	0.020980585
155	0xbdc3e522	-0.09565188
156	0xbdd8c250	-0.10583937
157	0x3e40e731	0.18838193
158	0xbd8f5346	-0.06998305
159	0xbbaea5da	-0.0053298296
160	0x3af0f60f	0.0018383878
161	0x3df1be25	0.11803845
162	0x3d1c4ed9	0.038161132
163	0x3dfa1f81	0.1221304
164	0x3d2af9c5	0.041742105
165	0x3d9444b0	0.072396636
166	0x3e317679	0.1733035
167	0xbd563390	-0.052295268
168	0x3cb32c30	0.021871656
169	0x3d7ff345	0.06248786
170	0xbcb743d6	-0.022371214
171	0xbb51d442	-0.0032017385
172	0x3d213baa	0.03936354
173	0xbd311cdc	-0.043240413
174	0xbc9b98c9	-0.018993752
175	0x3cf98326	0.030458044
176	0xbcb29086	-0.02179743
177	0x3dd090d5	0.101838745
178	0x3d206c07	0.039165523
179	0x3cdea54c	0.027178429
180	0xb9e63018	-0.0004390485
181	0xbdb6183c	-0.08891341
182	0x3d7bd880	0.061485767
183	0x3c7c6ea3	0.015407237
184	0xbd7992a0	-0.060930848
185	0xbc0a069e	-0.008424429
186	0x3c521921	0.012823374
187	0x3dbb9ce5	0.09160785
188	0x3c182cf9	0.009288066
189	0xbd976076	-0.07391445
190	0xbdb898d9	-0.090135284
191	0x3bac9ac4	0.005267473
192	0xbe3997ce	-0.18124315
193	0xbd773407	-0.06035235
194	0xbd35a970	-0.04435104
195	0xbd4d5ced	-0.05013745
196	0xbdf8f7ba	-0.12156625
197	0xbdd51207	-0.10403829
198	0xbdb86cf1	-0.09005154
199	0xbd2bdff2	-0.041961618
200	0x3cf4cf9f	0.029884158
201	0x3dfb8d03	0.12282755
202	0x3cbe2ca2	0.023214642
203	0x3df20e62	0.118191496
204	0xbd55dade	-0.05221068
205	0x3d37296f	0.04471725
206	0x3dc009eb	0.09376892
207	0xbd2d397c	-0.04229115
208	0xbda73aec	-0.08165535
209	0xbc3392f4	-0.010960329
210	0x3d2b70c1	0.041855577
211	0x3b1ce183	0.0023938126
212	0xbd5c60f7	-0.05380341
213	0xbd56f261	-0.052477244
214	0x3de395a9	0.1111253
215	0xbc5a7851	-0.01333435
216	0xbc9f3b56	-0.019437473
217	0xbcb932be	-0.022607204
218	0xbd09e9e9	-0.03367034
219	0x3d3c6027	0.045990136
220	0x3c980e51	0.018561514
221	0xbc1a8ae8	-0.009432532
222	0xbce0f478	-0.027460322
223	0xbca04f25	-0.019568989
224	0xbc88eed6	-0.016715448
225	0xbcc04155	-0.023468653
226	0xbcd07263	-0.025445169
227	0xbd67b030	-0.05656451
228	0xbe050ff4	-0.12994367
229	0xbc8dcd43	-0.01730979
230	0x3df0085c	0.117203444
231	0xbda593d8	-0.080848396
232	0xbd232572	-0.039830633
233	0x3cc300ff	0.023804186
234	0xbdc5161b	-0.09623357
235	0x3c0d1798	0.008611582
236	0x3ad5acd8	0.0016302122
237	0x3ce000c0	0.027344108
238	0x3cbd3074	0.023094393
239	0xbdda8c34	-0.10671273
240	0x3cc8477b	0.024448147
241	0xbc07282e	-0.008249326
242	0xbd28ccd2	-0.041210957
243	0xbe1274f9	-0.14302434
244	0xbd3af25a	-0.04564128
245	0x3d790b69	0.060801897
246	0x3d6378d0	0.055535138
247	0x3db8af0f	0.09017765
248	0x3d48309a	0.048874475
249	0x3d94a75f	0.07258486
250	0xbcb37b2c	-0.021909319
251	0x3b6d15f4	0.0036176415
252	0x3cbb4a85	0.022862682
253	0xbdfa2add	-0.12215207
254	0x3ca1b47c	0.019739382
255	0xbd9c0940	-0.07618952
