config/results/Room1/PathFollowing/PathFollowing-1542798.onnx (onnx, 695646 bytes, 7 tensors)

action_model._continuous_distribution.log_sigma f4 [1, 3]
00000000: 14ed 0bbe f724 97bd 4bdb 5bbd
-0.13664657 -0.07380097 -0.05367593

action_model._continuous_distribution.mu.bias f4 [3]
00000000: d1b8 dd3b 8c4d 8c3b 4d23 00bb
0.0067664166 0.0042817052 -0.001955229

action_model._continuous_distribution.mu.weight f4 [3, 256]
00000000: 825a 823c c436 bb3c 1164 863b 7227 c3bb
00000010: a55f 4d3c 7958 e23c 3192 7abc 0ddd 963c
00000020: c1fa 203c 482c 71bc f936 c9bc e816 4c3c
00000030: 7d04 713d 8c8a cdbc b198 923b 7b40 5ebc
00000040: ffb7 793b cfdd 2cbb 67b5 a2bc 449a 4cba
00000050: 2bde 00bb 288f dc3b 4a4e b63c c1ca 00bc
00000060: ef4b a4bc 58ce f33b 6327 9c3c eb49 0f3c
00000070: b1be 13bc 4a0b a8bb eb8f fb3a f410 d9bc
00000080: ff4b ef3b 9677 ab3c feb7 b4bc 210c c1bc
00000090: 8054 bcbc 1366 003c ce50 aebb a09d b73c
000000a0: 1685 adbb fec8 34bc 2a40 7ebc f1cc c0bc
000000b0: dc07 4ebc 9270 cc3c 1f35 fbbb 7dfe c73b
000000c0: 94c9 b23b 9d60 703c 0071 06bc ae39 cabc
000000d0: 22e6 e1bb 39b7 ee3c 9ebd 25bc a008 a43c
000000e0: 3dcc 883c 2f8e 9a3c e0d7 133b 8ad7 e03c
000000f0: eb74 1bbd 57a5 d4bb 4c67 7a3c 4995 d23a
00000100: a2f6 43bd 8360 3a3c 6224 e13c e40f 6e3c
00000110: 4d9c e93b 8901 ebbc 3776 9c3c cd41 1fbc
00000120: 700d 12bc ac13 f0bc 4c01 fc3c 6b47 8fbc
00000130: 2df2 d93b c7b4 6ebc e2ee 033c c2a1 393c
00000140: e2e9 d3bb e162 babc 745c 3bbc 8bd5 363c
00000150: b6c2 29bc 5e1d 653c 75df abbc a574 c63c
00000160: 0748 373b 4072 ff3a 8e99 9b3c 342e d03c
00000170: cf1d 953b 36c3 2a3c 4841 953b 98c3 c9b9
00000180: 3462 9bbc 54df d23b b32a b3bb a465 8c3c
00000190: 029e 233d bbea 5a3b e268 993b d1b5 2fba
000001a0: 3636 21bc 522b 0bbd 4938 feba 538b 8b3c
000001b0: a47e bfbc c253 853c c8b8 c23b c819 7dbc
000001c0: 1549 31bc 1e89 493c 5e24 8eba cc59 9abb
000001d0: 3f71 debb 09db 7a3b cf8e a4bc 5d13 073c
000001e0: d712 8dbc f7be 303c 57aa fbbb 079e 19bc
000001f0: f013 e9b9 1723 56bc cdae 71bc f902 99bb
00000200: 8433 52bc 5a69 9eba 6266 b9bc 10f6 55b8
00000210: 0afb afbc 571e 893c 398b 35bd 4937 da3c
00000220: c8fb 01bd 929e fc3c 097b cd3c ba49 ac3c
00000230: 3fb3 13ba 5569 d43b 533c e4bb aa48 34ba
00000240: 4a88 da3b e8c2 89bb f657 53bc efe7 a23c
00000250: 0c6e e53c 729a 8d3c 8ce1 28bb 28f1 e2bc
00000260: 5383 9a3c e857 c6bb c185 a2bc a4c9 01ba
00000270: f392 3fbc da5d c9b9 4381 4bbc 6507 52bc
00000280: 50bf ea3c 01a7 c4bb bd1b 153c 1caf bdbb
00000290: ce5b 3cbd d399 44bb 4a38 87bc 6aab 42bc
000002a0: 0ab5 63bd 8ff7 fe3c e6a2 193c d528 b3bc
000002b0: caa1 3dbd aeff 8abc b1a4 5d3b cffb c8bc
000002c0: fd49 5dbc b021 bebb 2c8f 16bb 3f16 113c
000002d0: afd4 81bb e3d7 bfbb 0f94 c7bc 3094 12bc
000002e0: 34f8 3cbc 0735 27bc 6766 9dbc ba9c f0bc
000002f0: 14cf 1fbc 7b2f ca3c e2e9 1d3b 0ae4 59bc
00000300: 30e8 333c 1495 b1bc faaf 06bc f4a1 b5bc
00000310: 2e89 0dbd 9c13 593c 6216 44bd 84d3 26bc
00000320: 8948 a03c a32b 8fbb 25de a3bb a68a e23c
00000330: e530 393c 909a 0abc e6c5 3bbc 9fbb 823c
00000340: 6de2 c5bc a57c 483c 5cf8 4e3c 7018 803c
00000350: 4629 2f3b e008 9abb 2714 32bc 8949 f9bb
00000360: 9e04 c23b 86cd a8bc d4e7 f3bb 0eb2 9d3c
00000370: 6b64 263d f941 d0bb 1e27 09bc c894 143d
00000380: 1267 2abd 7ef5 113d 59fb e63c 5b54 673c
00000390: 2e88 e3bb 56bc 31ba 3353 60bc 7c28 2cbb
000003a0: 4fc2 033c 0e2a 2abb 51fb a63b cdb2 cd3c
000003b0: a77f 1cba f399 65bc 8a52 ce3c 3945 e23b
000003c0: 2082 343c 3fb4 b4bc 377f 153c eff9 56bc
000003d0: 01c1 073c db2d 2abd 4af3 72bc 13dc 67bc
000003e0: cca7 6a3c 0591 31bc a915 6cbc 6c93 803c
000003f0: 4c40 c6bb 0a9a 93bb b32b 83bc b0af 163d
0.015912298 0.022853263 0.0041012843 -0.00595563 0.01253501 0.027630078 -0.015293644 0.018415952
0.009825409 -0.01472003 -0.024562346 0.012456633 0.05884217 -0.025090478 0.0044737686 -0.013565178
0.0038104055 -0.0026377325 -0.01986189 -0.000780497 -0.0019663672 0.0067309327 0.022254128 -0.00786084
-0.02005574 0.0074403696 0.01906175 0.008745651 -0.009017632 -0.005128299 0.0019192671 -0.026497342
0.0073027606 0.020931046 -0.02206039 -0.023565354 -0.022989511 0.007836836 -0.0053196913 0.022414029
-0.005295406 -0.011034248 -0.015518228 -0.023535224 -0.012575116 0.024956021 -0.0076662446 0.0061033354
0.005456159 0.014671472 -0.008205652 -0.024685707 -0.006893889 0.029140102 -0.010116009 0.020023644
0.01669895 0.018866627 0.0022559091 0.027446527 -0.0379533 -0.0064894366 0.015283417 0.0016066219
-0.04784263 0.011375549 0.027483169 0.014530156 0.007129228 -0.028687255 0.019099338 -0.009720278
-0.008914337 -0.029306255 0.030762337 -0.01749011 0.006651184 -0.014569468 0.00805256 0.01133007
-0.00646709 -0.022752227 -0.011435617 0.011159311 -0.010361364 0.013984052 -0.020980576 0.024225542
0.0027966516 0.0019489005 0.018994119 0.025412656 0.0045506726 0.0104225185 0.0045549013 -0.00038483436
-0.018967725 0.006435314 -0.0054677366 0.01713831 0.03994561 0.003340407 0.0046816925 -0.0006702813
-0.009839585 -0.03397686 -0.0019395436 0.017034208 -0.023375817 0.01627529 0.005942438 -0.015448041
-0.010820647 0.012300758 -0.0010844579 -0.0047104117 -0.0067884023 0.0038277528 -0.020087628 0.008244363
-0.017220898 0.010787717 -0.007680218 -0.009376056 -0.00044456078 -0.0130698895 -0.014751148 -0.004669544
-0.012829665 -0.001208584 -0.022631828 -5.101232e-05 -0.02148201 0.0167381 -0.044322226 0.02663769
-0.031734258 0.030837331 0.025083082 0.02103125 -0.0005634315 0.006482283 -0.006965199 -0.0006877283
0.006669079 -0.004204143 -0.0128993895 0.019885985 0.028006576 0.01728556 -0.0025769202 -0.027702883
0.018861448 -0.0060529597 -0.01983917 -0.0004951006 -0.01169275 -0.00038407632 -0.012420955 -0.012819146
0.028655678 -0.0060013537 0.009100852 -0.005788697 -0.04598599 -0.0029998913 -0.016506333 -0.011881689
-0.055592574 0.031123905 0.009377217 -0.021870056 -0.046296872 -0.01696762 0.0033820088 -0.024534134
-0.01350641 -0.0058023557 -0.002297352 0.008855402 -0.0039621214 -0.005854593 -0.024362592 -0.0089464635
-0.011533786 -0.010205514 -0.019213868 -0.029371608 -0.009753961 0.024680844 0.0024095704 -0.013298998
0.010980651 -0.021677531 -0.008220667 -0.022171952 -0.034554653 0.013249304 -0.04787291 -0.010182265
0.019565837 -0.0043692156 -0.005000847 0.027654003 0.011303161 -0.008459702 -0.011460757 0.015958605
-0.02415582 0.012236749 0.012632456 0.015636653 0.0026727482 -0.004700765 -0.0108690625 -0.007607643
0.0059209606 -0.020605814 -0.0074434076 0.019249942 0.04062311 -0.006355521 -0.008371143 0.0362747
-0.0416022 0.03563451 0.028196024 0.014119233 -0.006943724 -0.00067800784 -0.013691711 -0.0026269248
0.008041932 -0.0025965008 0.005095877 0.025109673 -0.00059699494 -0.014013755 0.025185842 0.0069052246
0.011017352 -0.022058604 0.009124569 -0.013121112 0.008285762 -0.041547637 -0.014828512 -0.014151591
0.014322232 -0.010837798 -0.014409461 0.015695296 -0.0060501453 -0.004504447 -0.016012048 0.036788642

network_body.linear_encoder.seq_layers.0.bias f4 [256]
00000000: 9a35 a1bb 2c73 5aba 883f a63a 44dc ca3b
00000010: 2842 c3ba 8753 513b 2303 abbb 1594 833b
00000020: 792f 0dbb bec8 15bb 7f84 45bc 61b9 bf3a
00000030: 63d9 a8ba a4bb 83bb 7d3b 143b b467 653b
00000040: ad83 8e38 8107 2c3b 1de6 ffbb e6ff 243b
00000050: 2d85 2b3a 3834 2bba b5c3 f8bb b7a4 c1ba
00000060: eb81 07bc 0cfe edbb 3777 c3bb 4ca6 26bb
00000070: 2b90 83bb dc8b 653b bea5 63bb 9fee 323c
00000080: 3953 163c 46c2 c5bb ad57 b1bb 0e7b 54bc
00000090: ee8f 2ebb 1b12 823b 2264 e6bb 18c9 a23c
000000a0: e0dc 083b 4372 62bc 24d9 553b edbc e6bb
000000b0: b2e0 f9ba 1ef8 acbb b44c 073b 0de5 22bc
000000c0: 99b4 8fbb 91da b5bb b9e1 913b cb9f 1d3b
000000d0: 8865 48ba 12b7 1dba 8b7a c73b 6eaa 033b
000000e0: 3099 73bb 693e 8b3a 09df e7bb 1ece 143b
000000f0: 4857 1bbb 951f 783a 6a94 02bc e7fe 6dbc
00000100: 7d89 21bc 84b2 3fbc a3ff c13a a918 40ba
00000110: 57b4 6fba d3ce bf39 0b52 d5bb 8b7e 203b
00000120: f931 e63b f147 93b7 03a1 e0bb 00c7 123a
00000130: 9eb1 dc3a d06f 7abb 5bef 96bb 1f50 973b
00000140: 155c 6cbc 79de c038 6c32 a9bb 8979 d43b
00000150: d57d 87bb 5450 a63b ca86 ea38 a84b c2bb
00000160: 2678 c2ba 8179 cbba 4240 1c3c 5f13 703a
00000170: c2f6 49ba e1f3 e93b 582e 813b 03b2 17bb
00000180: 9d5a a8bb 7eb9 a23b 3c00 af3a 6cb6 7dbb
00000190: 6270 b83b d6d6 a8bb b42a 9dba 0515 9abc
000001a0: 7e62 313c 9eb6 24bb 4a00 15bc c874 683a
000001b0: aaa8 54ba be54 7c3b 611b 6dba f70d beba
000001c0: f8c4 d1bb ca40 2ebc e95b 343a 6a6d 12bc
000001d0: 48f4 f539 1d74 4e3b 5d01 b73b 7911 acbb
000001e0: 2a0d 663a f35a 9b39 7f1b 983b 1cd6 113b
000001f0: 131f 44bb 582a 90bc 9549 923b 784e 11bc
00000200: b5bf 013b dcb8 a8bb 8cde d1bb b832 fdba
00000210: 1456 123b ee4c a73c 2023 713a b6b4 af38
00000220: 3c92 263a 91b3 ea3b 7a5f 583b 3b80 5e3b
00000230: 8f93 30bc a8ab c43a 5255 0abc 9a86 18bc
00000240: bcb9 303c 1be6 b03b e09a a4bb 5282 d2bb
00000250: fd1c ce3a ddb7 5a3b a529 baba 607c 0dba
00000260: e483 913b d82b a5bb fcc6 eabb 3078 a4bb
00000270: 88a3 5fbc 20ea 00bc 171f a9bc 73c8 7dbb
00000280: 8d92 d5bb e342 e53b 96d6 3f3b 402b 16bb
00000290: 93c3 18bb 3c78 2e3b 6ad8 88bb b7f2 bfbb
000002a0: 03d6 3abb 79da c0ba 815d a938 197f c7bb
000002b0: b1cd 343c 0af1 f33c 76d8 b13c 151d 8d3c
000002c0: 82a0 2cbb 0e4f 6e3c 4d94 f1bb 7065 bbba
000002d0: 5110 a5ba 9f44 25bb 8854 41bb ac94 66bb
000002e0: 17ae 503c f02b 6fba ee3b 96bb a65e 1f3c
000002f0: 8723 50bb 1c6d 29ba 8244 10bc 0119 313b
00000300: 84e9 85bb 2b0a 98bb be21 2dbc 3c1e 913a
00000310: f848 c73a 5b82 9abb 217c ea3b 9bfd 71b9
00000320: d621 ceba 349d 2abb d581 69ba 34b9 49bb
00000330: ad1f 9fbb 844e 94ba 9e0c 59bb 007b 80bb
00000340: 1565 d73b 7ce9 2438 fabd d9bb b96b c1bb
00000350: d66f 72bb 93c4 c5bb af35 673c 0be1 ffbb
00000360: 9228 31bb 5285 3aba 9ad4 7a3c dce8 e7ba
00000370: 23f7 9bbc fed8 53bb 8b87 843c 1434 9ebb
00000380: a1d9 07bc b96e 12bb 7b70 3cbc ce73 4ebc
00000390: 5f84 c13b 3241 933b 7e07 beba 72d2 1abc
000003a0: 2a56 4e3a 68b3 dabb d6e2 4b3c 4816 deb9
000003b0: 4340 bdbb f5e6 b739 3aba ce3b f5dc 8fbb
000003c0: dab5 70ba c672 22bb d788 b1bb f074 39bc
000003d0: 3070 c1ba b93e 54bb 1dda 7ebb c2d4 6cba
000003e0: 3c62 8cbb 7027 40bb 02ca b53a 060c 74bb
000003f0: 2c07 bd39 c6e3 17bc 61fe 57bb 6989 20bb
-0.00491972 -0.0008333202 0.0012683729 0.0061908085 -0.0014897035 0.0031940655 -0.00521888 0.0040154555
-0.0021543188 -0.0022855247 -0.012055515 0.0014627391 -0.0012882169 -0.0040201712 0.0022618466 0.0035004439
6.795614e-05 0.002624959 -0.007809414 0.0025176941 0.0006542977 -0.00065309135 -0.0075916895 -0.001477382
-0.008270721 -0.0072629508 -0.0059651393 -0.002542871 -0.004014989 0.003502599 -0.0034736241 0.0109211495
0.009175115 -0.006035122 -0.005412063 -0.012968792 -0.0026636082 0.0039694435 -0.0070309797 0.01987128
0.0020883605 -0.013821187 0.0032630647 -0.0070415647 -0.0019064157 -0.0052786013 0.0020645084 -0.009942305
-0.0043855426 -0.005549737 0.004451957 0.0024051543 -0.0007644524 -0.00060163543 0.0060876063 0.0020090598
-0.0037170164 0.0010623458 -0.0070761484 0.0022705863 -0.0023703147 0.00094651553 -0.007969955 -0.0145261055
-0.00985944 -0.011700276 0.0014800917 -0.00073278934 -0.0009143999 0.00036584455 -0.0065100244 0.0024489488
0.007025 -1.7557266e-05 -0.0068551316 0.00055991113 0.0016837602 -0.0038213618 -0.00460617 0.0046177055
-0.014426251 9.196712e-05 -0.0051634815 0.0064842147 -0.0041348734 0.005075494 0.00011183096 -0.005929429
-0.0014836832 -0.0015523882 0.009536805 0.000915816 -0.0007704311 0.0071396683 0.003942292 -0.0023146875
-0.005137755 0.00496596 0.001335151 -0.0038713468 0.0056286315 -0.0051525636 -0.0011990876 -0.018808851
0.010826705 -0.0025133262 -0.009094307 0.00088674994 -0.0008112291 0.0038502659 -0.00090449123 -0.0014500011
-0.0064016543 -0.010635564 0.0006880151 -0.008937219 0.00046912045 0.0031502314 0.0055848793 -0.0052511063
0.00087757653 0.00029631666 0.0046419497 0.0022252863 -0.0029925748 -0.017598316 0.004464338 -0.008868806
0.0019798104 -0.00514899 -0.0064047035 -0.0019317484 0.0022329139 0.020422425 0.00091986544 8.37831e-05
0.0006354188 0.0071625193 0.0033015893 0.0033950943 -0.010777368 0.0015004771 -0.0084431935 -0.009309435
0.01078647 0.0053985245 -0.0050233454 -0.006424227 0.0015725192 0.0033373751 -0.0014203085 -0.00053972565
0.0044407714 -0.005040627 -0.007164834 -0.0050192103 -0.013649829 -0.00786832 -0.020644708 -0.0038724213
-0.0065177144 0.006996499 0.002927219 -0.0022913963 -0.002330993 0.0026621958 -0.004176189 -0.0058577913
-0.0028508909 -0.0014713547 8.0759644e-05 -0.0060881493 0.011035369 0.029778022 0.021709662 0.017225781
-0.0026340787 0.014545215 -0.007372415 -0.0014297199 -0.0012593364 -0.0025217903 -0.0029499847 -0.003518383
0.012736819 -0.00091236737 -0.004584781 0.009727156 -0.0031759457 -0.0006463097 -0.008805396 0.002702296
-0.004086675 -0.004639884 -0.010567127 0.0011071633 0.0015204241 -0.0047152466 0.0071559106 -0.00023078026
-0.0015726637 -0.0026033642 -0.0008907591 -0.0030780556 -0.004856071 -0.0011314903 -0.0033119093 -0.0039209127
0.006573329 3.9318096e-05 -0.0066449614 -0.005902734 -0.003699293 -0.0060353964 0.01411192 -0.0078088096
-0.0027032238 -0.0007115203 0.015309477 -0.0017693299 -0.019038742 -0.0032325382 0.016177913 -0.0048279855
-0.008291633 -0.0022343828 -0.011501427 -0.012600852 0.0059056724 0.004493856 -0.0014498082 -0.009449588
0.0007871116 -0.006674219 0.012444219 -0.0004235974 -0.005775483 0.00035076556 0.006308821 -0.004390354
-0.00091823714 -0.0024787649 -0.005417924 -0.011319384 -0.0014758166 -0.0032386018 -0.003888733 -0.0009034389
-0.0042841714 -0.0029320382 0.0013869407 -0.0037238612 0.00036054233 -0.009270614 -0.0032958018 -0.0024495965

network_body.linear_encoder.seq_layers.0.weight f4 [256, 416]
00000000: fdef e03c b44f 183e bc44 803d 198e 9d3b
00000010: 50ca bfbd 99d7 a0bc ec8b 0a3d 6f8a cc3d
00000020: f11f 433d 7f7f 8bbd a7e7 dbbc b4ed 653d
00000030: 5bed 0d3d 672a 32bd fc3c 9a3c 4006 e43c
00000040: 3b67 e8bc 3458 56bd cb96 99bd 2e74 2b3c
00000050: 96ad 933c 69ba 943b f4a7 5e3d 9065 4abd
00000060: 84e9 4e3d caa9 4d3c 8cca 283c 2d7b 7fbd
00000070: 5c1f ec39 c665 39bd 6786 7d3c 8499 0c3d
00000080: dd12 13be 8747 c2ba 3210 bc3c a298 27bd
00000090: 49fb 4ebd 5c05 a83c acc5 a63b 20a6 0e3d
000000a0: f4bb edbd 2245 073c e872 523c 3c7b 063d
000000b0: 59fe 6cbd e545 b73c 6812 3abc f8b6 eabc
000000c0: 4ad1 013d e402 7cbd d455 80bc 7f11 1e3c
000000d0: 175e 8a3d a574 8bbd 41d4 b4ba f96e 94bd
000000e0: be46 efbc 9a29 c83d db1c 8b3d c89b 333c
000000f0: 7b52 dabd 837b a8bd c39c 07bd 229d 1e3d
00000100: 1095 4dbd 7bb7 653d 9576 8c3d c119 d5bc
00000110: 402a 0c3d fd26 7ebd bccb 0339 31ff 4abd
00000120: 13dc 0d3d ab68 5b3d 9088 3ebd f437 943c
00000130: 1d6b d5bb df6a ab3c 0ebc b0bc 4ec1 fd3b
00000140: b0b4 abbc 1147 173c 5c25 5a3c 0bc6 a23d
00000150: 7cfa 673c 4dee 283d 7b44 373c d6b7 92bc
00000160: f0b1 a83a 836f 06bc fd2b 4fbd 9006 c13d
00000170: eeef 4dbd 1d0e aebd 2e52 a8bd bf13 08ba
00000180: 747c a53d b504 90bd 1e79 adbc 4c16 09bd
00000190: 7e22 4ebd a258 083d 5788 1abc 803e e93c
000001a0: c86c 673c 7fd3 473d 45ae 08bd 4db0 ffbc
000001b0: 2974 793d 86df 213d 5fc0 6bbd 0f39 a6bb
000001c0: 3661 d33d eb45 73bc fb80 36bd 0d00 c93b
000001d0: a553 a4bc 172b 07bd 0170 00bc 4a24 00bd
000001e0: 7c5b c03c abec f33c 86bc b6bc eb4e 0cbd
000001f0: 5da5 913c 26b0 d1bd e4af 41bd 3ac8 a1bc
00000200: 36fd 7cbd ae3b 96bc 6cbb e13c 7bfb 7abc
00000210: 35e0 ff3c fed2 623c ae58 2a3d 5935 6b3d
00000220: 4ad6 53bd 0539 03bc ddcd 81bd e34d 763d
00000230: 495d 13bd 26c2 1b3d 6892 023c 1122 103d
00000240: 2af9 8abd 2c51 9c3a 6c62 6f3d 9d16 14bd
00000250: 07c5 18bd 7ef7 453d 374c f83c 5b90 113c
00000260: 8598 233b 0d88 7b3d cce0 93bc 0daa 8d3d
00000270: 32ef 20b9 85ee 7c3d 72ba e0bc 5891 8a3c
00000280: 3cbd e4bc 0c5f 98bc c74d 14bc 3e7c bfbc
00000290: 83e7 44bd bb10 e3bc d5ce 5a3c cb9e bf3c
000002a0: d589 5f3c 9e0d 443d 8601 6b3a af86 f73c
000002b0: 3e6b 813c ee30 183c 7af7 b3bc f494 493d
000002c0: c78b 903d 4514 603c 17fa 223c 1467 6fbd
000002d0: 204e 153d 0551 97bd 02e6 763c 08c6 8ebb
000002e0: 09e1 a43d 5c87 ce3a e89a d73c f5aa 7abb
000002f0: 598d aabc 957e 823d 7aae 78bc 1713 19bb
00000300: ecb1 313b 30ba d5bb 2bed c8bc 5109 11bd
00000310: 5526 403d 276d 37bd f390 46bc dae4 abbc
00000320: f421 71bd f4a7 a5bd 8858 373d 1933 633d
00000330: 25d4 8d3d c073 023d d6e8 633b 5022 c03c
00000340: 5f94 4cbc f3f6 5b3d 21fc eabc 794d 293d
00000350: f256 873d 65d3 a5bd 5fbd 7bbc cce0 99bc
00000360: 5af3 553d 79c2 41bc e757 0c3c 992d 233d
00000370: 4f3d 71bb 468c 4d3d d806 d23b 2d08 933d
00000380: b5ae 073e a68c 58bd 5a69 3e3d 9270 41bd
00000390: 6c47 1abd 2a23 a3bc cdbc b23c f557 2bbd
000003a0: afeb 773d e25a adbc ecb6 27bd b37f 51bb
000003b0: f07f 783c d7e0 413c 8994 a43c 1109 0f3d
000003c0: 6a37 a43d 9bbb febc 922c 97bd 62c4 503c
000003d0: f4aa 49bc 01a2 313d fa81 78bd a65b 6cbd
000003e0: 43fc 8ebc 1a3e 413d 3720 21bd d9ea a13c
000003f0: 506a 50bd 8acb b2bd b6c8 0aba ca9a 953c
0.027458185 0.14874154 0.0626311 0.004808199 -0.0936476 -0.019634055 0.033824846 0.099873416
0.047637884 -0.06811427 -0.026843859 0.056134894 0.034650188 -0.04349747 0.018827908 0.027835011
-0.028369537 -0.05233021 -0.074994646 0.010464711 0.018027108 0.0045388234 0.05435939 -0.049413264
0.050515667 0.012552688 0.010302197 -0.06237333 0.00045036792 -0.045263074 0.015473939 0.03432609
-0.14362665 -0.0014822342 0.022956941 -0.040917046 -0.050532613 0.020510368 0.0050894823 0.034826398
-0.11608115 0.008256229 0.012844779 0.03283237 -0.057859752 0.022372195 -0.011356927 -0.0286517
0.031693734 -0.061526194 -0.015665926 0.009647726 0.067562275 -0.068093576 -0.0013796167 -0.07247729
-0.029208537 0.0977356 0.06792613 0.010962434 -0.10660263 -0.08226683 -0.033108484 0.038724072
-0.050190985 0.056083184 0.06858555 -0.026013257 0.03421998 -0.0620489 0.0001256903 -0.049559776
0.034633707 0.053566616 -0.046516955 0.018093087 -0.006513013 0.020924984 -0.021574046 0.007743991
-0.020960182 0.009233252 0.013314571 0.0794793 0.014158841 0.041242886 0.011185761 -0.017909925
0.0012870412 -0.008205297 -0.05057906 0.0942508 -0.050277643 -0.08498786 -0.082187995 -0.00051909307
0.08080378 -0.07032148 -0.021175917 -0.03346853 -0.050325863 0.03328765 -0.00943192 0.028472185
0.014125057 0.048785683 -0.03336932 -0.031211996 0.060901795 0.03951981 -0.057556506 -0.00507272
0.10321276 -0.014848213 -0.0445566 0.0061340393 -0.020059416 -0.033000078 -0.007839204 -0.031284608
0.023481123 0.029775938 -0.022306692 -0.03425495 0.017779047 -0.10238676 -0.047286883 -0.019748796
-0.06176492 -0.018339004 0.02755519 -0.015318747 0.03123484 0.01384425 0.041588478 0.057423923
-0.051718034 -0.0080092 -0.063380934 0.060132872 -0.035977636 0.03802695 0.007969476 0.03518874
-0.067858055 0.0011926047 0.05844347 -0.03615438 -0.037297275 0.04833173 0.03030978 0.008884515
0.0024962735 0.061409045 -0.018051527 0.069172 -0.00015347896 0.061750907 -0.027432654 0.016915008
-0.027922265 -0.01860001 -0.009051747 -0.023374673 -0.04807235 -0.027717939 0.013354977 0.023391148
0.013643702 0.04786455 0.00089647656 0.03021559 0.015798207 0.0092890095 -0.021968592 0.04921432
0.070579104 0.013676708 0.009947321 -0.058447912 0.03645146 -0.073885 0.015069487 -0.0043571033
0.080507345 0.0015756893 0.026318982 -0.003824887 -0.020819353 0.063718 -0.015178317 -0.0023357326
0.0027114106 -0.0065224394 -0.024527153 -0.035409275 0.046911556 -0.04478183 -0.0121195195 -0.020983148
-0.05887027 -0.08088675 0.044762164 0.055468652 0.06925229 0.03184867 0.0034776232 0.023453861
-0.012486546 0.053702306 -0.028684678 0.04133365 0.066083804 -0.08096961 -0.015364974 -0.01878395
0.05223403 -0.011826151 0.008565879 0.039838407 -0.0036810224 0.050182603 0.0064095072 0.07179294
0.13250239 -0.052868508 0.04648719 -0.047226496 -0.03766577 -0.019914228 0.021818543 -0.04183193
0.0605275 -0.0211615 -0.040945932 -0.0031966984 0.015167221 0.011833391 0.020090358 0.034920756
0.08018382 -0.031095317 -0.07381548 0.012742134 -0.012308825 0.04336739 -0.06067083 -0.05770459
-0.017454272 0.047178365 -0.039337363 0.019765304 -0.050882638 -0.08730228 -0.00052941905 0.018262286

network_body.linear_encoder.seq_layers.2.bias f4 [256]
00000000: 7a47 903b 2665 a33b bc61 c53b fe45 343b
00000010: 59ec 353c d1b3 963c 8eea 8fbb fa3e bb3b
00000020: d51b 353b 363f 603b dc62 11bc 2ee5 2a3a
00000030: 4670 643c 407f 71ba 6e11 c63b 7961 19bb
00000040: 0611 e2b9 2fe6 bebb 5b72 143b debc 203c
00000050: 6b7b 043b 2d34 ff3b 1fc6 003c fbbe dcbb
00000060: 092a 11bb 69f7 bbbb 6786 cb3b 93bf c3bb
00000070: 8693 f6ba 11b7 7dbb f82f 143c 9f0c 1b3b
00000080: 0885 053c 9c42 d93b e8d4 79bb 0416 68bb
00000090: 759d 29b9 0095 ff3a 2111 98bb 1fac c13b
000000a0: 94ee 473b 5064 d73b 7977 ff3a 6595 20bc
000000b0: afb9 05bb a240 cd3b cc31 f6bb 13dd 363b
000000c0: d33b a83b 6912 61ba 835c ddbb 9bf6 95bb
000000d0: cc3e bcbb 28f0 013c 6cfe 9c3b e116 653b
000000e0: 60b8 353b 4f64 a03b 4243 3f3b 140b 123c
000000f0: b683 49bb b3e7 59bc f4f7 083b 5df9 79ba
00000100: 960a b43b 95ae 82bb a727 083c 9c47 223b
00000110: 39b8 863b 392d 8838 4c1f 753b f3ff 03bb
00000120: c5df a3bb 64e3 69ba 8e53 013c 4a80 153c
00000130: a29d feba 172a a93a 77a0 b53b 2a88 91ba
00000140: 42f2 10bc ce8f 00bc b02b 97bb daa3 f7b9
00000150: c7d9 35bc 18c5 b73b 6782 29bb 59ff d33b
00000160: 2c63 dbbb 8f98 913a e312 813b 6618 d13b
00000170: 4893 9fba 04a8 ac3b 3e0c fdba 5100 80bb
00000180: 3640 803a bba4 80bb 0d8d b3bb 2ea9 1f3c
00000190: 2979 633c 9810 0d3c f0b0 063b 5708 9e3a
000001a0: ed8a d9bb 54a3 86bb 56da 743b 25a9 a53a
000001b0: 43f5 24bc e23c 003b 62de 0ebc 7de4 1d3b
000001c0: 8f75 48bb f0e5 afb9 8221 113b e815 10bc
000001d0: a199 443b f641 3e3b f5ad e4b9 be68 a93a
000001e0: 9051 a6ba 7136 253b 04a7 24bb 45ae 10bc
000001f0: 4865 83bb 1ea8 233b 5f8f ddb8 cecf a6bb
00000200: 5575 e9bb 175a 87bb e4a4 88ba 419c c23a
00000210: 47e0 5cbb cbca 1a3a 97e3 053c 7196 233c
00000220: 0aea 77bb 1a38 133a 3cbc 293c a38a ac3b
00000230: 9265 92bb 55a8 b4ba 185a 42bc 21de 7fbb
00000240: d2f3 07bb dd1d 36bb ec12 de3b 64e6 bf3b
00000250: ca0d 133c 01a2 533c 0778 eb3a 44ec db3b
00000260: 34c6 803b 5d5e f53a 80e2 96bb 7ef4 4b3a
00000270: 2eb6 dfb9 8b3d efbb e149 36bb 7077 3bbb
00000280: 2140 363b 4c00 12bc 425f 8bbb 73c6 19bc
00000290: 4dec d43b 69cf fa3a fd86 9fbb 8459 f73b
000002a0: 569e d63b b4b2 033c 5d62 3b3c 9d89 d0ba
000002b0: 1f32 3a3b dd02 c9bb 6d19 81ba 6c2b cfb9
000002c0: 9c37 a9bb 6633 f9bb 9d8a 03bc 2c71 0138
000002d0: deb6 41bb fd48 14bb 12ae 4f3a 5c6d 0fbc
000002e0: fe61 61bc 599f 73bc b330 67bb 5d0c 0b39
000002f0: 4f4b bbbb 3003 333c f6e4 e639 21a1 1fbc
00000300: b9de 873b da3f 23bc 6e2c 4f3b 86f6 45bc
00000310: d789 0abc 1561 383c ed12 d03b 2fdd 1abc
00000320: 6413 083c 3ef2 21bb 862d f7ba 9df1 523b
00000330: b45d 95ba 02fd 95ba a0a0 13bc a121 163b
00000340: d0f9 e2ba ba96 073b 6043 833b f6af b93a
00000350: 12e8 ef38 8680 d6bb ec52 ba3b 812f f3bb
00000360: 6ff1 723b d925 d9bb fea7 e2bb 5da9 4b3c
00000370: 7ac6 4f3c 7b2b f7bb 6c9e 09bb 40ca e93b
00000380: 0bb7 723c bd4c 803b 47de 5c3c e1d5 3b3b
00000390: 2293 16bc 66fa 2dbb ee1e 833a 2495 04bc
000003a0: 7c01 183b ab23 143b c1b7 60bb 8db8 9b3b
000003b0: e614 2ebb 5492 e9bb ad37 043b 4621 0f3c
000003c0: 8073 273c 2185 a13b 1548 043c bd30 b8bb
000003d0: a361 ca39 26bf 013c 12b0 b7bb d744 163b
000003e0: fb8a b0ba 5431 d7bb 000d 5cbb c20a 8d36
000003f0: 337f 1abc b1a4 eb39 7fd9 16bb c4cc f43b
0.004403052 0.004986423 0.0060236137 0.002750754 0.011103713 0.01839629 -0.004391975 0.0057142945
0.0027634997 0.0034217364 -0.008873668 0.0006519136 0.013942784 -0.0009212382 0.0060445582 -0.0023404045
-0.00043118763 -0.00582578 0.002265117 0.009810654 0.0020215164 0.0077882023 0.007859736 -0.006736634
-0.00221503 -0.0057362807 0.0062110904 -0.005973765 -0.0018812276 -0.0038713852 0.00904464 0.0023658646
0.008149393 0.006630255 -0.0038121287 -0.0035413513 -0.00016175753 0.0019499362 -0.004640714 0.005910411
0.0030507194 0.0065732375 0.0019490562 -0.009801243 -0.0020404865 0.0062638083 -0.0075132605 0.0027902767
0.0051340847 -0.0008585812 -0.006755413 -0.004576517 -0.0057447907 0.007930793 0.0047910716 0.0034956264
0.0027728304 0.00489477 0.0029184376 0.008913774 -0.0030748672 -0.01329987 0.0020899745 -0.0009535754
0.005494426 -0.003988097 0.008310235 0.002476192 0.0041113165 6.493409e-05 0.0037402688 -0.0020141571
-0.0050010406 -0.00089221285 0.007893456 0.009124825 -0.001942564 0.001290622 0.0055428105 -0.0011103202
-0.008846821 -0.007846786 -0.0046133623 -0.0004723359 -0.011099285 0.005608212 -0.002586508 0.006469649
-0.006695172 0.0011108088 0.003939019 0.0063810823 -0.001217463 0.0052690525 -0.0019306017 -0.0039062877
0.0009784761 -0.0039258874 -0.005479461 0.009744925 0.013883867 0.008609913 0.002055224 0.0012056929
-0.0066388757 -0.0041088257 0.0037361584 0.001263891 -0.010068241 0.001956754 -0.008720012 0.0024092488
-0.0030587649 -0.00033549918 0.0022145216 -0.008794285 0.0029998797 0.0029031015 -0.00043617157 0.0012924892
-0.0012689102 0.0025209452 -0.0025123963 -0.008830612 -0.0040098764 0.0024972032 -0.00010564806 -0.00509069
-0.007124583 -0.0041306126 -0.0010425118 0.0014847593 -0.0033703016 0.00059048523 0.008171937 0.0099845985
-0.0037828707 0.0005615965 0.01035982 0.00526555 -0.0044676745 -0.0013783077 -0.0118623 -0.0039042311
-0.0020744693 -0.0027788796 0.006777158 0.005856322 0.008975456 0.012917043 0.0017964848 0.0067115147
0.0039298777 0.0018720139 -0.0046046376 0.00077802676 -0.0004266961 -0.0073010377 -0.0027815031 -0.0028605126
0.002780922 -0.008911204 -0.004253299 -0.009385693 0.006497896 0.0019135299 -0.004868387 0.007548513
0.006549637 0.008038212 0.011437026 -0.0015910153 0.0028411222 -0.0061343745 -0.0009849496 -0.00039514469
-0.0051641 -0.007605004 -0.008028653 3.0861396e-05 -0.002955846 -0.0022626512 0.0007922362 -0.008754101
-0.013756273 -0.014869534 -0.003527683 0.00013260679 -0.0057157646 0.010926053 0.00044039608 -0.009743006
0.0041464237 -0.009963954 0.0031612176 -0.012082702 -0.008455715 0.011253615 0.0063499124 -0.009452148
0.008305404 -0.0024711038 -0.0018858172 0.003218747 -0.0011395724 -0.00114432 -0.009010464 0.0022908228
-0.0017316882 0.0020689205 0.0040058345 0.001416682 0.000114396345 -0.006546083 0.0056861546 -0.0074214344
0.0037070175 -0.0066268262 -0.006916999 0.012430516 0.012681598 -0.007543025 -0.0020998968 0.007134706
0.014814149 0.003915398 0.013480729 0.0028661417 -0.009190353 -0.0026546954 0.0010003725 -0.0080921985
0.0023194244 0.0022604268 -0.0034289213 0.004752225 -0.002656275 -0.0071280394 0.0020174787 0.00873596
0.010220408 0.0049292003 0.008073826 -0.0056210444 0.00038601187 0.0079191085 -0.005605706 0.0022929215
-0.0013469154 -0.0065671597 -0.0033577085 4.20338e-06 -0.009429741 0.00044945398 -0.0023017821 0.007470699

network_body.linear_encoder.seq_layers.2.weight f4 [256, 256]
00000000: b7aa f8bc d4c5 55bd 02e1 d03c 73ce 93bd
00000010: 1f8e 933d 41a6 d83c da2e 06be 86b0 9a3d
00000020: ce1c 14bd c370 3a3d 0e35 22bd 2419 12bd
00000030: e09d d1bc 297a dbbd 66cf ebbb da29 c13c
00000040: 4c5b 023d 4bbd b63d 6b5d 643d 97f6 303e
00000050: 9bba a83b 3e9a 843d 536f bdbd 8f58 5ebd
00000060: 4e33 0b3b cbc9 7d3d 64ca 53bd b5c4 15bd
00000070: 4c93 6cbd c0b9 3a3d 83ed c53a 3eab 2c3d
00000080: 2c87 62bd 445d 4bbd 67da c83d 60de 70bd
00000090: 2e27 b8bc edfa cb3d 218b 6f3d e4b1 9e3c
000000a0: 8db3 23bd 0293 ecbc 2d3d 26bd e098 05bd
000000b0: 733b a8bb 4da5 023d 838e 75bd 255e c6bd
000000c0: 09cd 4e3d 1825 35bd c6ef 053d 8fd5 33bc
000000d0: aa61 2fbc 636a b83d 8479 963d 4125 a9bc
000000e0: 2a0e 67bd 3b37 87bd 6b4b 693a f53e e13d
000000f0: d21f b1bd 2172 073d b21d e73d 08de 95bd
00000100: 723b 523d 73d7 09bd e69e e83d 8c8f 10bc
00000110: bcfa 93bd 2ec9 07bd f46c 643d 4fd5 bcbd
00000120: 3ac4 15bd 1faa 13bd 1e2b 5abd 9017 633d
00000130: aeff a0bd 7f8e 5b3d eac2 63bd 6a2f 8c3d
00000140: f880 3b3d 4fd5 443c faba d7bb b48e cf3c
00000150: f4e1 623d fec3 ffbd 4a53 e03c cbf2 aebd
00000160: d7e2 2c3b e25d e4bd fdcc 363b 3a70 debb
00000170: 5714 6c3d dfab 32be 8f96 383d 6f43 cdbc
00000180: ceb5 83bd f864 3abd d9c7 79bd 2ed1 0dbd
00000190: 6a0b a7bd b3c1 f33b 9f9b 4bbd 27e3 81bc
000001a0: b7c0 eb3d 3b45 1cbd 5ed3 3c3d cb6b 0cbe
000001b0: d1e0 0e3e 4461 d7bc 94ff 13bd 3aa8 523d
000001c0: 6202 bcbd 639d e7bd f080 103b aae4 aabc
000001d0: ceeb d1bd 3689 3b3d 22fe 99bb 9ff5 273c
000001e0: f5fc 4e3b 3c35 1d3d 1d8e a83d 8b29 99bd
000001f0: aea1 bcbc a6d2 d4bc ade8 96bd 33bf 46bc
00000200: 6f96 c83d a61a 543d fbb4 913d ba0a 3bbd
00000210: ab65 083e 5dc2 abbd c04c ae3c 2cc0 393e
00000220: 5e83 edbc 85df 403d 6670 b53d 8997 c03d
00000230: 4618 c1bc 59af 053d eb44 de3c f142 0dbe
00000240: c02c 85bd d3fd 0a3e 9194 3e3c ddee 67bd
00000250: edae 813d 647d b8bb a188 e4bd fa12 a23d
00000260: 6e05 05bd 2388 b7bc 35b0 dc3c 3217 b1bd
00000270: 8350 d3bd f4c3 403e 6466 88bd 6c7b 14bc
00000280: 684b e33b ae78 e93d e2ee 043d 31e2 f83d
00000290: 6069 403d 4646 8a3d e78a 433e 307c 6cbd
000002a0: 8660 8c3c 77ba 733d 39d4 92bc de77 9f3a
000002b0: 629f 3e3d 7968 42bd 61c3 a6bc c02c d53c
000002c0: 2e31 b7bc 7178 cf3d 9250 103d 0fa1 e13c
000002d0: fbf5 e23a bf7a b8bd 7ac2 723d 2bca 8c3c
000002e0: b2e6 83bd 0b34 37bc ddd4 313c 273a b53d
000002f0: 14c1 863c 0d61 93bd 2ac9 b5bd 99d1 193c
00000300: a754 3cbe d463 86bd 51f9 2ebd 353c 40bd
00000310: ce04 06be bf64 cabd 660f a2bd 78f2 1bbd
00000320: 3b55 f53c b848 f93d c9fa 963c 2e82 eb3d
00000330: 64d0 65bd 0c64 333d d344 ba3d 590d 24bd
00000340: 8ddb a4bd b57f 44bb c0ef 1f3d 6f14 dd3b
00000350: 7cdd 65bd 51de 2cbd a3d7 d93d 0e02 aa3a
00000360: 492f 6dbc aceb a2bc 04d7 dbbc f979 5d3d
00000370: 9e7e a43c 29c7 26bc 7a8a c2bc 96c3 abbc
00000380: 73cd 6ebc d536 cfbc 6e3c 9fbc a94c 6fbd
00000390: 89e3 00be f69a 96bc 1efd ef3d c01d a3bd
000003a0: 9065 1bbd 77cc c63c c203 bebd fb3a 163c
000003b0: 14af 963b 3749 cd3c bcf4 053d 51ee debd
000003c0: 3810 303d 837b 0d3b e8f9 07bd 28a9 16be
000003d0: f5b5 41bd 4c7b 843d 9e6a 6a3d 33c4 b13d
000003e0: 15ed 4a3d b8ca ad3d a444 bbbc 25bd 263b
000003f0: 73d7 bb3c 52de f4bd 4355 823c d937 9bbd
-0.03035484 -0.052190617 0.025497917 -0.072171114 0.07204842 0.026446464 -0.1310381 0.075532004
-0.036160283 0.045517694 -0.03960138 -0.035668507 -0.025587976 -0.107166596 -0.0071963547 0.023579527
0.03182535 0.089228235 0.055753153 0.17281567 0.005149198 0.06474732 -0.09249749 -0.054283675
0.0021240297 0.061960023 -0.051706687 -0.036564548 -0.05775766 0.0455873 0.0015100691 0.042155497
-0.05530469 -0.049649492 0.09807282 -0.058805823 -0.02247962 0.0995997 0.058482293 0.019371934
-0.039966155 -0.028878693 -0.040585686 -0.032616496 -0.00513404 0.031895924 -0.059950363 -0.096859254
0.050488506 -0.04422483 0.03269937 -0.010976209 -0.010704437 0.09004667 0.07347396 -0.020647647
-0.056409992 -0.06602331 0.0008899483 0.10998336 -0.08648647 0.033067826 0.11284961 -0.0731774
0.051326223 -0.033652734 0.113584325 -0.008823287 -0.07225558 -0.033150844 0.05576797 -0.09220373
-0.03656409 -0.036050912 -0.053263776 0.055442393 -0.07861267 0.05360269 -0.055605806 0.06844981
0.04577729 0.012013747 -0.0065835686 0.0253366 0.055391267 -0.124885544 0.027383465 -0.08542403
0.0026380324 -0.11150719 0.0027893179 -0.006788281 0.057636585 -0.17448376 0.04506546 -0.025056569
-0.06431161 -0.045506448 -0.060981605 -0.034623317 -0.08156474 0.007438862 -0.04970896 -0.015855385
0.11511367 -0.03815196 0.046100013 -0.13712995 0.13952948 -0.026291497 -0.03613241 0.051429965
-0.09180142 -0.11309316 0.002204951 -0.020860989 -0.10250054 0.04578515 -0.0046994844 0.010251432
0.003158388 0.038380846 0.08230231 -0.07478627 -0.023026314 -0.025979351 -0.07368598 -0.012130546
0.09794318 0.051783226 0.071145974 -0.045664527 0.13320033 -0.08386681 0.021276832 0.18139714
-0.028993305 0.047088165 0.08859329 0.09403903 -0.023571145 0.032637928 0.027132472 -0.13795067
-0.06502676 0.13573389 0.011632101 -0.056624282 0.063321926 -0.005630182 -0.111588724 0.07913776
-0.03247588 -0.022403782 0.02693949 -0.08647002 -0.10318091 0.1882475 -0.066601545 -0.009062629
0.0069364794 0.11399971 0.03245438 0.121525176 0.046975493 0.06751685 0.19095956 -0.057735622
0.01713587 0.059504 -0.017923461 0.001216646 0.046538718 -0.047462914 -0.020356836 0.026022315
-0.022362318 0.10130394 0.035233088 0.027542619 0.001731574 -0.09007787 0.0592675 0.017186245
-0.06440486 -0.011181842 0.010853973 0.08848982 0.016449489 -0.07196245 -0.088762596 0.009388351
-0.18391667 -0.065620095 -0.042718235 -0.046932418 -0.1308777 -0.09882497 -0.07913093 -0.038073033
0.029947868 0.12172073 0.01843013 0.11499439 -0.05610694 0.043796584 0.090951584 -0.04005179
-0.080496885 -0.0029983346 0.039047003 0.0067468206 -0.056119427 -0.042204205 0.106368326 0.0012970583
-0.014476606 -0.019887768 -0.026835926 0.0540714 0.020079907 -0.010179319 -0.023747671 -0.020967286
-0.01457535 -0.0252947 -0.019437995 -0.05842272 -0.12586798 -0.018384438 0.117182 -0.07964659
-0.037938654 0.024267418 -0.092780605 0.0091693355 0.0045985077 0.025059326 0.0327041 -0.10885299
0.042984217 0.0021588511 -0.033197314 -0.14712965 -0.04729267 0.064688295 0.057230584 0.0868
0.049542505 0.08485931 -0.022859879 0.0025442329 0.022929883 -0.11956467 0.015909797 -0.075790115
