config/results/Room1/file_spostati/PathFollowing-2714485.onnx (onnx, 695646 bytes, 7 tensors)

action_model._continuous_distribution.log_sigma f4 [1, 3]
000000 cd 27 8b be 2c cb e1 bd a4 14 86 bd
       -0.27178803 -0.1102508 -0.06546906

action_model._continuous_distribution.mu.bias f4 [3]
000000 ca a6 f7 3b cc ff bc 3b 67 c0 27 bb
       0.0075577246 0.005767798 -0.0025596858

action_model._continuous_distribution.mu.weight f4 [3, 256]
000000 c5 07 8e 3c 3d 85 0d 3d 99 7e d4 3b 59 7d f9 bb
       0.01733769 0.034550894 0.006484818 -0.0076138196
000010 72 0a ba 3c 7a ac 09 3d 4a ef 85 bc 0f c8 f5 3c
       0.022710059 0.033611752 -0.016349453 0.030002622
000020 f4 8f 4b 3c 5f f0 28 bc dc 7c fe bc f5 3e 53 3c
       0.012424458 -0.010311215 -0.031065397 0.012893428
000030 7c 51 8f 3d cc 36 cb bc b4 89 66 3b 96 24 4f bc
       0.06997964 -0.024806403 0.0035177292 -0.012643
000040 2b 23 a1 3b 39 6b d6 ba 3b 43 b4 bc 8e cb 80 3a
       0.0049175224 -0.0016358859 -0.022004714 0.0009826289
000050 1f c0 da ba 96 1e 62 3c 79 cf c6 3c af 44 27 bc
       -0.0016689337 0.013801238 0.024268853 -0.010209247
000060 28 e1 21 bd b2 51 14 3c c6 c3 c7 3c 57 32 25 3c
       -0.039521366 0.009052681 0.024385344 0.010082803
000070 94 f8 78 bc a2 e8 88 bb 18 76 9a 3a bc fa d9 bc
       -0.015195984 -0.0041781226 0.0011784462 -0.026608817
000080 ac 6b f3 3b dc 4b 0f 3d c4 6b 1d bd 0e f4 d9 bc
       0.007428607 0.034984455 -0.03843285 -0.026605632
000090 d4 42 cf bc 43 24 69 3c b5 ba d0 bb c3 71 bc 3c
       -0.02530042 0.014229837 -0.0063699135 0.023003465
0000a0 b8 22 bf bb a2 34 1a bc 62 40 8b bc cc d1 ef bc
       -0.005832996 -0.009411963 -0.016998474 -0.029274844
0000b0 fd ec 75 bc 6a c3 da 3c 41 30 22 bc e4 3e 90 3b
       -0.015010116 0.026704509 -0.0098992 0.0044020284
0000c0 85 69 f6 3b 9c f6 80 3c 8c a9 26 bc c7 f0 e6 bc
       0.007519903 0.015742593 -0.010172259 -0.028190983
0000d0 06 4f 30 bc a5 4c 28 3d f8 63 2e bc ad cc d7 3c
       -0.010761028 0.04108872 -0.010643952 0.026342714
0000e0 99 7f a8 3c a2 f3 b7 3c 2d 00 46 3b 78 31 01 3d
       0.020568656 0.02245504 0.0030212507 0.031541318
0000f0 b8 26 3b bd 8b 7f c5 bb de 13 95 3c 78 d0 e0 3b
       -0.045691222 -0.006027167 0.01819795 0.006860789
000100 82 4d 4d bd 36 c3 71 3c f9 34 0f 3d d9 22 71 3c
       -0.050122745 0.014756015 0.034962628 0.014717781
000110 ab da bf 3b c4 98 62 bd ed 63 ed 3c 70 68 d4 bc
       0.0058549247 -0.05532147 0.028978312 -0.025928706
000120 78 a0 18 bc 10 d7 01 bd df e1 15 3d 24 b4 a0 bc
       -0.0093156025 -0.03169924 0.03659236 -0.019617148
000130 ab cc 3f 3b 4d b6 60 bc f3 2c ec 3b 04 f2 b0 3c
       0.0029266279 -0.013715339 0.007207507 0.021599777
000140 08 23 f4 bb ec 0d c0 bc ed 8f 42 bc 31 de ef 3b
       -0.007450465 -0.023444138 -0.011875135 0.0073201885
000150 e9 0d cb bb 2a e0 7e 3c 26 54 08 bd 69 7f 4b 3d
       -0.0061967266 0.015556375 -0.033283375 0.049682055
000160 d6 01 45 3b f0 0a b9 3b 77 32 d1 3c e9 10 c9 3c
       0.0030060909 0.005647056 0.025536759 0.024544196
000170 b4 76 f9 3b ea 9d 4e 3c 57 6b 7f 3b d6 fe 71 3b
       0.0076130275 0.012610892 0.0038973892 0.0036925576
000180 fa 68 d2 bc de e4 3b 3c ff 66 b5 bb 9c 3f 96 3c
       -0.025684822 0.01146814 -0.0055359597 0.018340878
000190 27 7f 35 3d e4 15 78 ba 43 58 72 3b 15 73 73 b9
       0.044310715 -0.0009463711 0.0036978878 -0.00023217157
0001a0 f1 75 cb bb fb 69 25 bd 40 80 06 bb f5 7c b7 3c
       -0.006209128 -0.040384274 -0.002052322 0.022398451
0001b0 75 0e e0 bc f7 3a 07 3d be cb 72 3c 1b cf 99 bc
       -0.027350644 0.033015218 0.014819084 -0.018775513
0001c0 31 7d 40 bc 18 a6 5f 3c 92 6e 66 bb 3e 67 a5 bb
       -0.011748598 0.01365044 -0.003516112 -0.005047708
0001d0 ec d3 56 bc 1c 5d ef 3b ac 9e 0f bd 44 b6 f2 3b
       -0.01311205 0.0073048007 -0.03506343 0.0074069817
0001e0 a8 dc 8e bc cd 55 a8 3c 67 6e 4c bc d4 d2 32 bc
       -0.017439201 0.020548726 -0.012477494 -0.010914523
0001f0 f4 2e 7a 3a 2d 00 4f bc cd 28 5b bc 23 af d8 bb
       0.000954374 -0.012634319 -0.013376427 -0.006612675
000200 a6 62 90 bc 65 39 e3 bb 7f 54 d7 bc 40 ce 11 3b
       -0.017625164 -0.006934332 -0.026285408 0.0022248179
000210 c2 b1 41 bd de bb 65 3c 0c ed 52 bd 2f bc 21 3d
       -0.047288664 0.014021842 -0.051495597 0.039486106
000220 09 56 41 bd 34 79 3b 3d d9 64 fc 3c f8 ba da 3c
       -0.04720119 0.045769885 0.030809807 0.026700482
000230 a9 2e c3 3a 9c ee ae 3b 14 bc e4 bb ff 67 21 bb
       0.0014891225 0.005338503 -0.0069804285 -0.0024628637
000240 6f 54 56 3c 35 43 99 bb 06 5f 8b bc b8 45 2b 3d
       0.013081654 -0.004677201 -0.017013084 0.041814536
000250 dd 6b 0d 3d 83 80 3a 3d 72 fd 38 bb 9a a7 1e bd
       0.034526695 0.045532715 -0.0028227237 -0.038734056
000260 01 71 1c 3d 95 25 ee b9 ca ab 38 bd 95 c3 a6 3a
       0.038193706 -0.00045422898 -0.045085706 0.0012723083
000270 1c 95 f3 bb c8 05 f1 3a 9b 23 58 bc 21 64 8c bc
       -0.0074335467 0.0018388564 -0.013192083 -0.017137589
000280 8a 57 4f 3d bd 1b aa ba 43 49 fe 3b c1 c3 c6 bb
       0.050620593 -0.0012978237 0.0077601983 -0.006065816
000290 fe 16 8b bd eb db 2e bb 4a 01 87 bc 07 4a b0 bc
       -0.06791495 -0.0026681374 -0.016480107 -0.021519674
0002a0 39 80 82 bd 90 e1 58 3d cc 4d 1e 3c b6 09 18 bd
       -0.06372113 0.05294949 0.009662103 -0.037118636
0002b0 5d f1 64 bd 78 73 39 bd 95 77 6f 3a ab f7 23 bd
       -0.055894244 -0.045276135 0.00091349456 -0.040031116
0002c0 4f 46 e5 bc 3e fd c5 bb 6c e9 81 bb 5d 1a 0b 3c
       -0.027987627 -0.0060421517 -0.0039645936 0.008490172
0002d0 2e 56 7c bb 01 b8 26 bb e2 0d 2f bd ca 13 42 bc
       -0.0038503516 -0.0025439265 -0.04273785 -0.011845538
0002e0 64 e6 43 bc d6 ab 54 bc 54 5f ac bc 7b f0 fb bc
       -0.011956785 -0.012980422 -0.02104155 -0.030754318
0002f0 d0 98 3d bc 7b b3 15 3d 06 7c 8a 3b 0a f4 2d bc
       -0.011572078 0.03654812 0.0042262105 -0.0106172655
000300 8b f1 4f 3c 36 01 cd bc 4a b6 06 bc 37 df e8 bc
       0.012691866 -0.025024991 -0.008222172 -0.02842675
000310 4d 8b 5e bd eb 2c 9c 3c 81 a4 a1 bd d7 46 13 bd
       -0.054332066 0.019064387 -0.07892705 -0.03595623
000320 c1 19 b0 3c be e4 e0 bb 64 73 58 bc 32 7b e7 3c
       0.021496655 -0.0068632057 -0.013211105 0.028256986
000330 18 5d 65 3c ae f5 bc bb a1 d1 4f bc 6b d2 8c 3c
       0.013999246 -0.005766592 -0.012684257 0.017190179
000340 d3 bd d7 bc 49 2a 53 3c 5b 76 59 3c 1f 0e 9a 3c
       -0.026335632 0.0128885 0.013272847 0.018805562
000350 a2 22 9e ba 4c aa 58 bc 1b bd 9b bc a7 f9 e8 bb
       -0.0012064765 -0.013224196 -0.019011071 -0.007109839
000360 b5 c8 37 3c 95 9c 09 bd c3 52 cb bb b8 ad a8 3c
       0.011217286 -0.033596594 -0.0062049343 0.020590648
000370 57 f6 48 3d ba 1e 03 bc ea 7f 82 bc aa 4b 2d 3d
       0.049063053 -0.008002931 -0.015930135 0.042308487
000380 37 5c 44 bd 7e 76 59 3d bc 0e 03 3d 58 b5 9f 3c
       -0.047939505 0.05309152 0.031996474 0.019495651
000390 79 b7 c8 bb d7 31 76 bb 2d 07 4c bc d3 8f a1 ba
       -0.0061253873 -0.0037566328 -0.012452883 -0.0012326188
0003a0 07 3c 21 3c de 39 95 bb 4d 3c 5f 3b 26 b7 fe 3c
       0.009840972 -0.0045540174 0.0034063042 0.031093191
0003b0 2e c6 ca ba d4 45 e5 bc 9e e8 3e 3d 73 41 21 3c
       -0.0015470439 -0.027987398 0.04660856 0.0098422645
0003c0 71 5c 74 3c 53 14 37 bd df 94 e7 3b a5 4c 42 bc
       0.014914618 -0.044697117 0.0070673074 -0.011859094
0003d0 ba e8 30 3c dc 32 53 bd 5d f2 81 bc ca 20 8a bc
       0.010797674 -0.051562175 -0.015862638 -0.016861338
0003e0 1c e5 b3 3c 73 55 d6 bb fa b9 82 bc 88 8f 3e 3c
       0.021959834 -0.006540948 -0.015957821 0.0116309
0003f0 53 d3 83 bc 06 82 0b bc e1 b5 6f bc 44 62 30 3d
       -0.016091978 -0.008514887 -0.014630766 0.043062463

network_body.linear_encoder.seq_layers.0.bias f4 [256]
000000 4b ed 79 bb 77 98 92 ba a5 97 3c 3b 9a 04 40 3c
       -0.0038135822 -0.0011184354 0.002877691 0.011719847
000010 df c7 8f ba 84 3b 8d 3b 79 49 61 bb e3 98 ae 3a
       -0.00109696 0.0043100733 -0.0034376069 0.001332071
000020 08 4e 85 ba 75 88 49 bb 58 56 6b bc 1e de 84 3a
       -0.001017035 -0.00307515 -0.014363848 0.0010136997
000030 0a d8 e8 b9 b2 f3 68 bb fd 5b a7 3b 72 87 1c 3b
       -0.0004441145 -0.0035545644 0.0051074014 0.0023884443
000040 c9 65 e7 ba 4d ab 3c 3b 1f 0f c6 bb 52 f6 6c 3b
       -0.0017654236 0.0028788627 -0.006044283 0.003615756
000050 4a 97 c4 39 19 5f b5 3b e3 e1 03 bc 5d da a0 b9
       0.00037496752 0.005535018 -0.008049461 -0.0003068027
000060 04 f9 13 bc cb ba d3 bb 4d 3a aa 3a 06 18 de ba
       -0.009031538 -0.0064614764 0.0012987346 -0.0016944415
000070 93 37 85 bb 88 74 6f 3b b8 cd b6 bb 9d 2c 66 3c
       -0.004065463 0.0036537964 -0.005578723 0.014048723
000080 33 d0 26 3c ac c1 04 bc 67 13 d9 bb 0f a2 77 bc
       0.0101814745 -0.008102816 -0.0066246274 -0.015114321
000090 e8 7a 72 bb 52 1c 96 3b 5b 1b ff bb 9f 26 b3 3c
       -0.0036999527 0.0045810128 -0.0077852434 0.021869002
0000a0 97 19 14 3b 42 85 4a bc 49 5b 1d 3b b4 17 bb bb
       0.002259826 -0.012360873 0.002401071 -0.0057096127
0000b0 ea d6 7d bb 9a 79 89 bb ee 25 33 3b b2 88 21 bc
       -0.0038732835 -0.0041954042 0.002733584 -0.009859251
0000c0 04 ae 77 bb 5b 46 7c bb cb 9d ad 3b 82 b9 80 3b
       -0.003779293 -0.0038494084 0.0052983514 0.0039283643
0000d0 9b 0f 83 3b ca 45 97 39 e6 cf c9 3b 67 b3 13 3b
       0.003999663 0.0002885296 0.0061588166 0.0022537352
0000e0 40 a9 97 bb ce 8b 0e bb df d4 c1 bb 0f ac 5f 3b
       -0.0046283305 -0.002175081 -0.005915269 0.0034129655
0000f0 9f f8 96 38 e0 c8 0a 3b 27 d5 e8 bb f7 c0 6b bc
       7.198867e-05 0.002117686 -0.007105488 -0.014389268
000100 c1 6e 46 bc 70 3f 59 bc df 73 32 3b cc 51 42 ba
       -0.012111367 -0.013259754 0.002722971 -0.00074127014
000110 1d 20 35 ba a3 e1 95 39 5e cb a5 bb c2 fe 26 3b
       -0.00069093873 0.00028587607 -0.0050596436 0.0025481437
000120 8f c8 06 3c 33 ab 11 b9 20 e6 c4 bb 32 05 2c ba
       0.008226528 -0.00013892054 -0.0060088784 -0.00065620535
000130 5d 5a 19 3b a2 a6 7d b9 74 e6 45 bb 54 cb 94 3b
       0.0023399808 -0.00024190036 -0.0030197175 0.00454084
000140 a6 ce 45 bc 78 8b 90 3a d0 90 dc bb e3 f7 18 3c
       -0.012073195 0.0011027893 -0.00673113 0.009336445
000150 a7 ed 98 bb a6 16 ec 3b 06 84 27 3a bc 18 f7 bb
       -0.0046670022 0.0072048483 0.00063902175 -0.0075407904
000160 89 98 3c ba 15 55 65 ba 30 2c 1b 3c 3f 0e 32 3a
       -0.00071943604 -0.0008748335 0.009470984 0.0006792284
000170 e7 6d aa ba 14 1f 12 3c 3b ac aa 3b 72 44 5a bb
       -0.0013002724 0.008918542 0.0052085198 -0.0033304957
000180 ca ff b3 bb ef 2b 1c 3c 3f 14 cf 3a fb fe 7e bb
       -0.005493139 0.009531959 0.001579888 -0.0038909304
000190 53 56 c2 3b 0f e3 c3 bb 0e 64 2a bb 53 c7 b2 bc
       0.005930701 -0.005977995 -0.0025999579 -0.02182356
0001a0 93 93 5d 3c 31 e2 75 bb 25 48 a3 bb 52 22 42 3b
       0.013523954 -0.0037518854 -0.0049829655 0.0029622507
0001b0 49 96 10 ba 95 ca 87 3b 06 0e 86 3b 1b 94 bd 3a
       -0.00055155583 0.0041440227 0.004091027 0.0014463695
0001c0 66 c4 cd bb 7e 66 21 bc bb 1f dc ba 0e 0b 24 bc
       -0.006279516 -0.009851096 -0.0016794124 -0.010012401
0001d0 7d 66 06 ba d9 6e a1 3b fd 7a bb 3b a9 5e 6b bb
       -0.0005126966 0.004926544 0.0057214485 -0.0035914576
0001e0 4a 94 6e 39 aa b1 8e 3a 39 72 9b 3b 1d 5b 36 3b
       0.0002275269 0.0010886688 0.004743841 0.0027825304
0001f0 73 44 4c ba b5 62 98 bc 6f cc 0f 3c c7 68 1b bc
       -0.0007792182 -0.018601755 0.008776768 -0.00948543
000200 81 26 13 3b 42 d2 8f bb c8 00 c4 bb 6c 37 82 bb
       0.002245337 -0.0043890784 -0.0059815384 -0.003973892
000210 17 c9 c4 3a bb 6f b3 3c eb dd 16 3b 73 af 35 3a
       0.0015013543 0.021903863 0.0023020457 0.0006930746
000220 ba f6 93 3a 06 35 0a 3c 90 61 8d 3b 1f f5 81 3b
       0.001128874 0.008435493 0.004314609 0.0039659883
000230 0c 21 3a bc 57 43 aa 39 61 c6 b8 bb 21 8e 87 bb
       -0.011360418 0.000324751 -0.005638883 -0.004136816
000240 fc f0 3b 3c 84 cb 97 3b 5b 7a 95 bb 22 66 45 bb
       0.011471029 0.0046324152 -0.004561705 -0.003012069
000250 89 41 95 3a 02 53 67 3b 25 39 09 bb 2e 38 7c 3a
       0.0011387329 0.003529728 -0.0020938602 0.00096214085
000260 7d 4e 88 3b 84 6d af bb dc a3 bf bb 5b 67 f8 ba
       0.004159747 -0.0053536315 -0.005848391 -0.0018951701
000270 cd 28 1b bc 40 30 07 bc aa 7e 82 bc 27 a9 5e bb
       -0.009470177 -0.00825125 -0.015929539 -0.0033975334
000280 e5 a6 de bb 35 ba 05 3c 4e fe 85 3b 69 86 07 3b
       -0.0067947977 0.008162071 0.0040891534 0.002067948
000290 54 dd 7a bb 79 8d 1f 3b 1a 5e f0 3a ae 97 97 bb
       -0.0038278894 0.00243458 0.0018338591 -0.004626236
0002a0 34 14 e7 ba 3f 31 20 ba 1e 5c 8e 3a 1a 4f dc bb
       -0.0017629922 -0.0006110854 0.0010861193 -0.006723297
0002b0 35 f5 46 3c ed db 03 3d b1 2e d8 3c e2 a9 99 3c
       0.012143423 0.03219216 0.026389452 0.018757764
0002c0 00 42 6e bb 40 65 8a 3c d5 22 9a bb e8 9a 2f bb
       -0.0036355257 0.016893983 -0.0047038593 -0.0026795212
0002d0 15 39 87 ba 20 d8 26 bb 65 a1 3a bb 59 b3 59 bb
       -0.0010316694 -0.002545841 -0.0028477546 -0.0033218472
0002e0 b8 a9 6d 3c d3 c2 f0 ba e7 91 42 bb 24 0d 3b 3c
       0.014505796 -0.0018368609 -0.0029689015 0.011416707
0002f0 e7 19 8f bb 52 80 72 3b da 78 c1 bb 7b bd 29 3b
       -0.0043671015 0.0037002754 -0.005904299 0.0025900293
000300 3c d3 f1 bb a5 88 a0 bb 6d bb 24 bc f7 73 8b 3b
       -0.0073799174 -0.004899102 -0.010054451 0.0042557674
000310 db 78 60 3b e5 8e 1e bb 37 64 1a 3c 0a c2 12 39
       0.0034251723 -0.0024194058 0.009423307 0.0001399593
000320 5d 9a 5a ba 28 de 4b bb fc 81 31 ba 88 fe 64 bb
       -0.0008339042 -0.0031107757 -0.00067713833 -0.0034941752
000330 f2 b8 b6 bb f4 7a fc b9 08 18 09 bb 91 93 19 bb
       -0.0055762464 -0.00048156793 -0.0020918865 -0.0023433904
000340 1e 5e fb 3b 2f fc 43 3b 29 db b3 bb 3f 32 91 bb
       0.0076711318 0.0029904952 -0.0054887724 -0.0044310386
000350 0a ba 89 bb 0f aa 04 bc c2 63 6d 3c 00 ce f2 bb
       -0.004203086 -0.008097186 0.014489116 -0.007409811
000360 c7 fd 60 ba 95 ab 80 ba ab dd a0 3c aa 31 00 bb
       -0.00085827376 -0.000981676 0.01963695 -0.0019560852
000370 de b1 a4 bc ff 32 86 ba 34 89 8b 3c fe cd 81 bb
       -0.020104345 -0.0010238587 0.017033197 -0.0039613238
000380 03 94 fe bb 4e 96 29 bb 04 41 48 bc fb c1 22 bc
       -0.007769109 -0.0025876942 -0.012222532 -0.009933944
000390 29 78 e5 3b 01 21 2f 3b 45 b7 49 bb 1b d7 10 bc
       0.0070028496 0.0026722553 -0.0030779403 -0.008840348
0003a0 65 f8 8a ba 85 c5 e5 bb 4e f3 53 3c e9 43 d8 b7
       -0.0010602592 -0.0070120716 0.012936426 -2.578083e-05
0003b0 b5 37 e5 bb f2 2c 15 3a bd 1b cd 3b cf 85 32 bb
       -0.006995166 0.00056905963 0.00625941 -0.00272404
0003c0 13 bd aa b7 90 c3 cc bb d3 ae 58 bb 6d 6a 20 bc
       -2.0353624e-05 -0.006248899 -0.0033063188 -0.009790999
0003d0 99 68 2a bb 0b 5c ed ba a1 ec c4 ba 74 1a b4 b9
       -0.0026002286 -0.0018109096 -0.0015024134 -0.00034351985
0003e0 57 a6 17 bb 94 50 b1 38 dc 0d 0b 3a 18 5c 8b bb
       -0.0023139918 8.4550265e-05 0.00053044944 -0.004252922
0003f0 ec 2f 19 39 78 a0 fc bb ca ac 25 bb ae 59 f8 ba
       0.0001460907 -0.007709559 -0.0025279992 -0.0018947625

network_body.linear_encoder.seq_layers.0.weight f4 [256, 416]
000000 25 dc e5 3c e1 8b 19 3e 7a e2 83 3d 01 30 cd 3b
       0.028059075 0.14994766 0.06439681 0.006261826
000010 cb 6e be bd 98 c3 95 bc 2a 18 14 3d cc 60 cf 3d
       -0.09298476 -0.018281743 0.036155857 0.101258844
000020 4e 2f 50 3d bc 20 88 bd d7 38 ca bc 74 56 6c 3d
       0.050826363 -0.066468686 -0.024685306 0.057699636
000030 cf d0 14 3d 25 2c 2c bd 70 fd ad 3c c3 59 f3 3c
       0.036331948 -0.042034287 0.021239012 0.029705888
000040 53 40 e7 bc 10 95 52 bd 2b 26 93 bd 79 c7 4f 3c
       -0.028228914 -0.05141169 -0.07185014 0.012681835
000050 9f b5 8d 3c f9 50 a0 3b e8 04 6d 3d 00 39 41 bd
       0.017298518 0.004892465 0.057866007 -0.0471735
000060 77 b3 49 3d 7b ba 4c 3c f4 4b 6b 3c 57 2d 76 bd
       0.049243417 0.012495632 0.01436137 -0.060101833
000070 e0 bd e1 3a b4 ac 36 bd 5c 7b a0 3c 96 53 15 3d
       0.0017222725 -0.044598296 0.019590072 0.036456667
000080 42 10 10 be 19 9d 15 ba 92 d4 e0 3c 54 6b 1e bd
       -0.14068702 -0.00057073083 0.027445111 -0.038676575
000090 be 3a 3d bd 06 a8 b1 3c 09 f5 16 3c 55 29 18 3d
       -0.0461986 0.021686565 0.009213694 0.037148792
0000a0 07 ca e5 bd b4 97 1c 3c c0 7c 84 3c 0b 66 10 3d
       -0.11220174 0.009557653 0.016172767 0.035253566
0000b0 b6 02 5d bd 0e cc c1 3c 20 44 0d bc cd 0e d7 bc
       -0.053957663 0.023656871 -0.008622199 -0.026252175
0000c0 87 13 15 3d 84 1e 75 bd 39 28 4d bc 1f 22 43 3c
       0.036395576 -0.059843555 -0.012521797 0.011909991
0000d0 f0 04 96 3d 95 a2 87 bd e3 c3 72 3a 6b 0b 90 bd
       0.073251605 -0.06622807 0.0009260757 -0.07033428
0000e0 6f 6c c1 bc 82 eb cb 3d 5b 97 8f 3d 8f 24 53 3c
       -0.023611275 0.09957029 0.07011291 0.012887134
0000f0 39 6d d1 bd 0c 6f a5 bd 1f 1f 00 bd e5 05 27 3d
       -0.10225911 -0.08077821 -0.03127968 0.040777106
000100 78 d7 3f bd ad 62 6b 3d ac 5c 92 3d 14 c0 c3 bc
       -0.046836346 0.05746715 0.07146582 -0.0238953
000110 d9 13 17 3d 65 a5 79 bd 38 da 39 3b 33 14 43 bd
       0.036884163 -0.06094875 0.0028358828 -0.047626685
000120 5d 24 14 3d c0 ce 5f 3d bd ac 35 bd 65 c7 a3 3c
       0.03616749 0.05464053 -0.04435419 0.01999254
000130 79 e1 b4 bb 54 4d b5 3c 64 72 9f bc 57 e0 1c 3c
       -0.0055200425 0.0221316 -0.019463725 0.009574971
000140 a6 7c a2 bc c1 0a 2e 3c 56 f1 77 3c cb 71 a6 3d
       -0.019834828 0.010622681 0.015133223 0.08127173
000150 9e 73 7f 3c 49 f9 2e 3d b9 b6 52 3c b7 a4 84 bc
       0.01559153 0.042718206 0.012860947 -0.016191823
000160 c7 d4 2f 3b 62 47 dd bb 95 76 48 bd 26 79 c4 3d
       0.0026829706 -0.0067528943 -0.048941214 0.0959342
000170 48 90 47 bd 2b f2 aa bd 64 b3 a3 bd 08 5c 8a 3a
       -0.04872158 -0.08346971 -0.079932004 0.0010555992
000180 b6 82 a8 3d f6 e3 8c bd 95 2e 9f bc 0b d8 02 bd
       0.08228056 -0.068794176 -0.019431392 -0.031944316
000190 2f fd 46 bd e3 96 0e 3d aa 2e 20 bc 2e d0 ee 3c
       -0.0485813 0.034811866 -0.009776751 0.029152002
0001a0 71 30 7b 3c 5f b1 4b 3d 01 a4 07 bd 99 9a f8 bc
       0.015331374 0.0497297 -0.03311539 -0.030347155
0001b0 ef ac 7d 3d b1 74 25 3d e7 f4 62 bd b7 ac 82 bb
       0.0619325 0.04039449 -0.05540934 -0.0039878744
0001c0 34 31 d6 3d 93 4c 61 bc e4 a5 32 bd b9 b8 e9 3b
       0.104586035 -0.013751167 -0.043615237 0.0071326164
0001d0 37 b5 94 bc 4f fb 00 bd f1 60 04 bc e0 a4 fc bc
       -0.018152816 -0.031489667 -0.008079753 -0.030840337
0001e0 19 0f d5 3c b9 82 01 3d 83 1a bf bc 49 ce 0c bd
       0.026008176 0.031618807 -0.023328071 -0.034376416
0001f0 9c d8 ac 3c 1d 12 ce bd 1e a5 46 bd d5 a7 a3 bc
       0.021099381 -0.100620486 -0.04849731 -0.01997749
000200 96 13 70 bd 73 3f 87 bc a9 10 dc 3c 65 44 7b bc
       -0.05861243 -0.016509747 0.026863413 -0.015336131
000210 0d 16 0c 3d 3e ef 7d 3c ad d6 2c 3d 74 29 6c 3d
       0.034200717 0.015498934 0.04219692 0.05765672
000220 f4 93 49 bd db ec cd bb 9a f6 7a bd c6 4d 78 3d
       -0.049213365 -0.006284339 -0.061270334 0.060621046
000230 cd 33 0c bd 60 35 22 3d 32 ac 20 3c 0e 99 12 3d
       -0.03422909 0.039601684 0.00980668 0.035790496
000240 6a 2a 88 bd 44 8e 38 3b 43 44 75 3d 7e 74 11 bd
       -0.06648715 0.0028160969 0.059879553 -0.035511486
000250 f2 bb 13 bd 09 c1 4c 3d 6f 2f 02 3d dd 0a 1c 3c
       -0.03606791 0.04998878 0.031783517 0.009524074
000260 e3 fd 46 3b 4e 11 81 3d 77 4a 8a bc e1 ee 8e 3d
       0.003036373 0.06302129 -0.01688121 0.06979156
000270 b3 8b 82 36 fd 8d 81 3d 47 c7 d3 bc d8 37 8e 3c
       3.890565e-06 0.0632591 -0.025851859 0.017360613
000280 2d 55 e4 bc e0 4a 8c bc b7 e8 fd bb 0b ad ba bc
       -0.027872646 -0.017125547 -0.007748689 -0.022787591
000290 b6 bd 40 bd 25 38 d5 bc 2f d1 6a 3c 17 4a c4 3c
       -0.047055922 -0.026027748 0.0143321 0.02396111
0002a0 ce f7 84 3c b2 31 4b 3d cc e4 72 3a f7 55 fb 3c
       0.016231444 0.04960794 0.0009265661 0.03068064
0002b0 c0 43 98 3c c8 c4 32 3c 75 9e ad bc 4b e0 4c 3d
       0.018586993 0.010911174 -0.021193722 0.05001859
0002c0 47 03 96 3d 0a 2c 79 3c 66 34 32 3c 83 ed 6b bd
       0.07324844 0.015208254 0.010876751 -0.057599556
0002d0 2f 90 1d 3d d1 4a 94 bd e4 50 82 3c 27 85 5d bb
       0.038467582 -0.072408326 0.015907712 -0.0033801289
0002e0 d4 f0 a7 3d f5 ed 42 3b 6a a8 df 3c a0 9e 3c bb
       0.08200231 0.0029743884 0.027301986 -0.0028781071
0002f0 f6 22 9e bc a1 27 85 3d 60 5e 67 bc 73 40 b3 ba
       -0.01930378 0.06501699 -0.014121622 -0.0013675824
000300 9f 51 78 3b 57 fe ac bb f0 7b bf bc 3e e2 0c bd
       0.0037890447 -0.005279343 -0.023374528 -0.03439545
000310 8f 55 47 3d e9 d4 32 bd 15 d2 31 bc 38 24 a3 bc
       0.04866558 -0.04366008 -0.01085331 -0.019914731
000320 0b 0b 6c bd b3 7c a3 bd 71 6f 3c 3d 70 89 67 3d
       -0.05762772 -0.07982769 0.046004716 0.056527555
000330 1a ae 8d 3d 71 32 05 3d f3 83 99 3b 77 b0 c7 3c
       0.06917973 0.032518808 0.004684919 0.024376137
000340 3e ae 49 bc 80 54 5f 3d c0 00 de bc 31 19 2d 3d
       -0.012309609 0.054523945 -0.027099967 0.042260353
000350 a5 69 8b 3d fa b9 a3 bd 95 36 68 bc 72 80 91 bc
       0.068072595 -0.079944566 -0.01417317 -0.017761443
000360 79 85 59 3d ca 8b 31 bc 61 ea 1f 3c 2e 4e 28 3d
       0.053105805 -0.010836551 0.00976047 0.041090183
000370 3d 98 98 bb 4f 76 4e 3d 8b af 06 3c c6 3a 96 3d
       -0.00465682 0.050405797 0.008220564 0.07335429
000380 37 03 07 3e 64 e0 58 bd 79 4b 45 3d 8b 82 3a bd
       0.1318482 -0.05294837 0.04816768 -0.04553465
000390 85 0e 1e bd 0c 02 a4 bc 49 04 c0 3c 40 79 24 bd
       -0.038588066 -0.020020507 0.023439543 -0.040154696
0003a0 b7 31 74 3d 8d b4 ac bc 8d c6 1f bd d6 21 d7 ba
       0.059617724 -0.021082187 -0.039007712 -0.0016413282
0003b0 ef ea 7a 3c aa 84 4c 3c ce 16 b8 3c 08 62 15 3d
       0.015314802 0.012482801 0.022471812 0.036470443
0003c0 ba 27 a7 3d 97 a1 f8 bc b8 31 95 bd 34 27 69 3c
       0.08161874 -0.03035049 -0.07284874 0.014230538
0003d0 db 1f 33 bc 3a aa 34 3d e5 46 76 bd 23 ea 65 bd
       -0.010932888 0.044107653 -0.060126204 -0.056131493
0003e0 f4 5e 77 bc 92 cc 43 3d 2f aa 22 bd 30 22 ae 3c
       -0.015098322 0.047802515 -0.03971308 0.021256536
0003f0 c9 36 45 bd 2e e6 b1 bd 6e e6 39 ba da c9 a0 3c
       -0.04814795 -0.086864814 -0.00070915266 0.0196275

network_body.linear_encoder.seq_layers.2.bias f4 [256]
000000 15 24 c4 3b 3f 78 cd 3b 9c df f5 3b 25 67 a7 3b
       0.0059857466 0.006270438 0.007503463 0.0051087313
000010 46 a1 6a 3c 6f 9a c7 3c 6f 66 9b bb 72 7c f9 3b
       0.014320677 0.024365632 -0.0047424356 0.007613712
000020 94 fd 6f 3b a9 b8 96 3b d4 14 2f bb e6 42 a5 37
       0.003661965 0.00459965 -0.0026715295 1.9700685e-05
000030 61 67 84 3c 63 b5 bb b9 95 da ac 3b 72 fc 5c bb
       0.016162576 -0.00035802563 0.0052750804 -0.0033719805
000040 66 37 14 3a 2e 44 b7 bb db eb 19 3b 15 cb 28 3c
       0.0005654007 -0.0055928444 0.0023486528 0.010302325
000050 ec 95 d0 3b d1 97 4f 3c 79 ca 0a 3c 80 f3 03 bc
       0.0063655283 0.012670473 0.008471125 -0.00805366
000060 bb 9c 68 3a 43 d5 d2 bb 39 d3 0a 3c a1 63 89 bb
       0.00088734523 -0.006434114 0.008473211 -0.004192785
000070 60 72 3a ba e8 a2 80 bb 20 df 79 3c 46 bc 8f 3b
       -0.000711238 -0.00392567 0.015250951 0.0043864576
000080 f2 c3 17 3c f3 dc 2c 3c c8 67 69 bb dd dd 53 bb
       0.009263026 0.010550725 -0.0035614837 -0.0032328286
000090 72 be 82 3a ff ce 1e 3c e8 28 86 bb 58 b2 04 3c
       0.000997497 0.009692906 -0.004094232 0.008099161
0000a0 02 94 e0 3a 2f c5 03 3c 28 8d 19 3b f5 45 26 ba
       0.0017133954 0.008042618 0.0023430083 -0.0006342822
0000b0 e2 ce 6b 3a ca 09 0a 3c 8b ed ee bb 4d 9a 8d 3b
       0.00089953665 0.008425185 -0.007291501 0.0043213726
0000c0 7c f1 ad 3b 3a 87 02 bb 23 b6 bd bb d1 66 21 b9
       0.005308328 -0.0019917027 -0.0057895347 -0.00015392459
0000d0 04 21 ce bb 02 cf 3b 3c 70 60 e8 3b 37 67 8f 3b
       -0.006290557 0.011462929 0.0070915744 0.004376318
0000e0 45 1c bd 3b 60 36 f2 3b f5 60 88 3b e9 52 5d 3c
       0.0057711923 0.007391736 0.004161949 0.013508537
0000f0 d1 ca 11 bb 34 fb 8e bc f3 cf 02 3b 8a 1c 64 3b
       -0.0022246132 -0.017453767 0.0019960373 0.003480705
000100 5a 03 cb 3b 60 2e 74 bb 3f 79 1f 3c 90 86 2f 3b
       0.006195468 -0.0037259087 0.009733497 0.0026783086
000110 77 a0 91 3b 8a a7 19 3b 5c eb ad 3b ee 0f 59 ba
       0.0044441777 0.0023445808 0.005307598 -0.0008280267
000120 5b 54 77 bb b8 0d 72 ba 72 e9 2f 3c 29 19 3d 3c
       -0.0037739489 -0.00092336116 0.01073681 0.011541643
000130 da 46 4f 3b ac e0 24 3b a9 3c 95 3b ca bc d5 3a
       0.0031627924 0.002515833 0.0045543504 0.0016306874
000140 3b 2c 28 bc 76 d1 42 bc 90 13 8a bb 1c 4f c2 b9
       -0.010264452 -0.01189076 -0.004213758 -0.00037061505
000150 4f 5a 6a bc e5 30 ed 3b 2a aa 9f b9 c7 19 2a 3c
       -0.014303758 0.0072384947 -0.00030453625 0.010382122
000160 c3 e8 0a bc 16 41 25 3a 51 9f a5 3b cf 8f f8 3b
       -0.008478346 0.0006303949 0.0050543924 0.0075855027
000170 ce d0 c4 ba c1 a5 d1 3b 1a 9f ba ba ac de f8 ba
       -0.0015015842 0.0063979332 -0.001423809 -0.001898726
000180 19 31 16 3b dc 47 4b bb 76 74 75 ba fb 56 18 3c
       0.0022917448 -0.0031018173 -0.00093633623 0.0092980815
000190 00 e6 5d 3c d1 53 2e 3c b0 30 9a 3b 67 d1 d0 3a
       0.013543606 0.010640101 0.004705511 0.0015931547
0001a0 1d a3 09 bc 09 97 bc bb 17 84 b7 3b 98 19 25 3b
       -0.008400706 -0.0057553095 0.005600463 0.0025192257
0001b0 55 76 1c bc 82 3f de 3b d0 80 01 bc d4 94 3c 3b
       -0.009549697 0.006782473 -0.007904246 0.0028775232
0001c0 02 50 6e 3a 5f c8 09 bb 3f e4 68 3b 38 2a 10 bc
       0.00090909016 -0.0021023971 0.0035536436 -0.008799128
0001d0 47 09 a6 3b fb 78 e2 3b 23 df b0 3a a1 e0 b6 39
       0.005067024 0.0069113947 0.0013494234 0.00034881107
0001e0 26 de 23 39 86 56 b1 3b e8 4c d4 3a cd 99 06 bc
       0.00015627648 0.0054119257 0.0016197236 -0.00821538
0001f0 69 b2 73 bb 6e a7 5a 3b 23 12 c1 b9 53 51 bd bb
       -0.0037185198 0.0033363956 -0.00036825342 -0.005777517
000200 3b f7 f5 bb fb fe 75 b9 a0 8c 45 ba 68 62 10 3c
       -0.007506279 -0.00023460008 -0.00075359084 0.008812524
000210 31 6c 9c b9 43 5f 78 ba 63 2b 19 3c 52 11 61 3c
       -0.00029835248 -0.00094746443 0.009348723 0.01373704
000220 b3 f4 64 bb a2 ca 6a 3a 63 b9 36 3c d8 96 b8 3b
       -0.003493589 0.0008956586 0.011152598 0.0056332164
000230 03 57 dd bb f3 e0 9c 3a 43 25 6d bc 2e 07 dd bb
       -0.0067547574 0.0011968896 -0.014474216 -0.0067452407
000240 9f e1 1c 3a 57 d3 ec ba 75 13 f5 3b 5e ca 0b 3c
       0.0005984548 -0.0018068355 0.007479126 0.008532135
000250 d9 01 2a 3c 96 dc af 3c ce 08 69 3b bd 92 07 3c
       0.010376417 0.021467488 0.0035558227 0.008274731
000260 10 00 0e 3c d0 f2 6e 3b 9d 16 0a ba 51 c0 7d 3b
       0.008667007 0.0036460645 -0.0005267652 0.0038719366
000270 d0 ff 7e bb d2 03 16 bc 36 39 cd ba 58 81 87 ba
       -0.00389098 -0.009156184 -0.0015657309 -0.001033823
000280 08 bf b3 3b 07 de 2d bc 4d e7 d7 bb fb c3 22 bc
       0.005485419 -0.0106120175 -0.0065888525 -0.009934421
000290 c0 94 f9 3b f9 0a f6 3a 21 59 ac bb 42 d9 27 3c
       0.0076166093 0.0018771581 -0.0052596484 0.010244669
0002a0 70 54 fc 3b c7 5f 29 3c 98 b2 51 3c a3 40 92 39
       0.0077004954 0.0103377765 0.012798928 0.00027895448
0002b0 06 3a 00 3b 5c a9 a3 bb 19 21 0c 3b 29 65 14 3b
       0.0019565835 -0.0049945544 0.0021382032 0.0022643304
0002c0 ac 53 30 bb 39 62 f5 bb d5 ba 6b bc 31 43 3b 3a
       -0.002690534 -0.0074885157 -0.014387806 0.0007143496
0002d0 20 97 11 bb 72 e4 2e ba 45 83 1f 3b a1 56 43 bc
       -0.0022215322 -0.0006671614 0.0024339717 -0.011922509
0002e0 2b 0d 74 bc fa ef 8a bc a9 96 4b 3a 4f 49 47 ba
       -0.014895718 -0.016960133 0.00077662856 -0.00076021714
0002f0 30 bf 65 bb 3b c9 69 3c 34 87 c4 3a 05 a4 40 bc
       -0.0035056584 0.0142691685 0.0014993907 -0.011757855
000300 35 93 d4 3b f3 0a 05 bc 6c 58 bd 3b 09 e5 2e bc
       0.006487275 -0.008120286 0.005778363 -0.010674723
000310 e1 13 eb bb aa 5f 86 3c 1d ef 20 3c 2f a2 c6 bb
       -0.0071740006 0.016403038 0.009822634 -0.0060618143
000320 c7 dd 34 3c de 1a 2e bb 0e f5 e7 b9 f0 b3 6e 3b
       0.011039204 -0.0026566307 -0.00044242333 0.003642317
000330 f0 2d 7e 39 d6 8a 44 ba ea 79 e4 bb 1f 5a 91 3b
       0.0002424044 -0.0007497495 -0.006972541 0.004435792
000340 a7 a3 b7 ba dc ef 8a 3a 82 bc a5 3b 36 fb 47 3b
       -0.0014010564 0.0010600048 0.0050578723 0.0030514724
000350 f9 c6 10 3b b8 b6 d9 bb 6f 59 31 3c c8 29 e3 bb
       0.0022091253 -0.006644096 0.010824545 -0.006932471
000360 71 8a ea 3b 77 67 d9 bb 40 c9 f7 bb cd bf 7c 3c
       0.007157617 -0.0066346484 -0.0075618327 0.015426588
000370 14 33 59 3c a8 6d fd bb f7 a3 3b 3a ba 93 1c 3c
       0.013256807 -0.0077340193 0.00071579166 0.009556705
000380 7d f2 86 3c 15 d9 a9 3b bc fb 88 3c b6 fc c0 3b
       0.01647305 0.005183349 0.016721599 0.0058895005
000390 99 75 44 bc ff 42 58 bb 9e 80 bf ba 89 09 14 bc
       -0.011990928 -0.0032998917 -0.0014610474 -0.0090354765
0003a0 6b 90 74 3b f0 11 d8 3b e2 3b bf bb ed 4b d8 3b
       0.0037317525 0.006593935 -0.005835996 0.006600848
0003b0 7c cf 21 bb 39 9f ab bb 56 fd 57 3b 23 63 3b 3c
       -0.002469032 -0.0052374867 0.0032957396 0.01143721
0003c0 31 a6 45 3c 18 38 fd 3b 98 6a 58 3c 24 a2 c9 bb
       0.012063549 0.007727634 0.013209008 -0.006153362
0003d0 75 05 27 ba d9 fa 10 3c 2b 84 51 bb 11 18 60 3b
       -0.00063713576 0.008848869 -0.0031969647 0.0034194032
0003e0 62 e6 a6 39 51 5a c2 bb 55 19 78 bb 19 4c 13 3b
       0.00031833636 -0.0059311767 -0.0037856896 0.0022475778
0003f0 b6 67 2b bc 76 a1 01 b9 a9 f7 48 bb 01 a7 15 3c
       -0.010461738 -0.00012362548 -0.0030665195 0.009134055

network_body.linear_encoder.seq_layers.2.weight f4 [256, 256]
000000 5c 6f e3 bc cf 61 50 bd ac dc b3 3c 1f dc a0 bd
       -0.027763061 -0.050874528 0.02195581 -0.07854485
000010 a0 d6 94 3d d9 d4 ea 3c 58 22 0a be 47 4b 9d 3d
       0.07267499 0.028665947 -0.13489664 0.07680374
000020 a5 1a fa bc 27 0f 43 3d 30 50 28 bd b0 a3 14 bd
       -0.030530283 0.047621872 -0.041092098 -0.036288917
000030 17 e2 ce bc 17 28 d6 bd d8 41 88 bb 9d e3 cc 3c
       -0.025254292 -0.10456865 -0.00415824 0.025010878
000040 2f 0b 07 3d 55 fe bc 3d cb d6 62 3d 92 df 33 3e
       0.03296965 0.092281975 0.055380624 0.17565754
000050 3b 40 df 3b 2f c9 8d 3d d5 be c1 bd 2f 03 50 bd
       0.006813077 0.06923138 -0.094602264 -0.050784286
000060 0d 53 8a 3a 9a 37 85 3d d1 eb 69 bd 8c 69 1b bd
       0.0010553316 0.06504746 -0.057109658 -0.037942454
000070 f4 74 65 bd 45 49 45 3d 94 39 ef b9 6f a0 38 3d
       -0.05601974 0.04816558 -0.0004562853 0.045074876
000080 20 d7 5f bd 87 9a 54 bd 43 a4 cc 3d 09 fc 79 bd
       -0.05464852 -0.05190518 0.09992268 -0.061031375
000090 db a6 b4 bc 3b ab d0 3d 12 8c 76 3d 51 80 ac 3c
       -0.02205222 0.101889096 0.060192175 0.02105728
0000a0 72 56 30 bd 94 45 f8 bc 5b 3b 1c bd b4 48 09 bd
       -0.04305119 -0.030306615 -0.038142543 -0.0335166
0000b0 82 c2 8a bb 6d c3 ed 3c 6e 6d 6f bd 8b a8 c9 bd
       -0.004234613 0.02902385 -0.05845397 -0.098466
0000c0 0e c6 53 3d ed 4f 34 bd b2 41 0a 3d 09 c9 2e bc
       0.05170255 -0.044021536 0.03375406 -0.010668048
0000d0 d5 df 60 bc 38 67 b0 3d 2e 4e 9b 3d b5 a5 9a bc
       -0.013725241 0.086134374 0.07583271 -0.018877843
0000e0 54 c2 62 bd 33 84 85 bd 40 8c 68 b4 be 23 e3 3d
       -0.055361107 -0.065193556 -2.1657706e-07 0.11090802
0000f0 ef 82 b8 bd 43 83 0f 3d 88 4d e0 3d 2d d1 99 bd
       -0.090093486 0.03503729 0.10952288 -0.075106
000100 6f 77 4d 3d 4b 8d 17 bd f0 d8 ea 3d e6 9d 3b bc
       0.05016273 -0.03699998 0.11467159 -0.01145122
000110 b1 52 90 bd 80 ad 12 bd 85 f8 67 3d 89 6f bc bd
       -0.07047022 -0.035809994 0.05663349 -0.09200961
000120 1f 09 1e bd 04 5a 08 bd bd 1a 5d bd 42 54 6a 3d
       -0.038582917 -0.03328897 -0.053980578 0.05720926
000130 09 b7 9b bd e2 f4 51 3d 6b f8 55 bd da 5f 92 3d
       -0.076032706 0.05125893 -0.052238863 0.071471885
000140 5d d0 3d 3d 8c 93 5d 3c 5f 5a 17 bc c3 ad f7 3c
       0.04634129 0.013523947 -0.009237855 0.030234223
000150 04 98 52 3d e2 c5 01 be da e1 f5 3c 8b d1 a7 bd
       0.051414505 -0.12673143 0.030014921 -0.08194264
000160 ec 8c 44 bb a6 5a ea bd ce 22 7b 3b 0a 13 2d bb
       -0.0029991223 -0.11443071 0.0038320306 -0.0026409053
000170 b5 8c 7a 3d 92 c0 35 be 9c 14 28 3d 16 d4 d1 bc
       0.061169345 -0.17749241 0.04103528 -0.025613826
000180 12 85 83 bd 5e ce 5f bd df 47 83 bd 62 ca 1f bd
       -0.064218655 -0.054640166 -0.06410193 -0.039011367
000190 43 d5 a1 bd cf 2f 1d 3c 86 99 50 bd 48 07 7a bc
       -0.079020046 0.009593918 -0.05092766 -0.015260525
0001a0 3c 0f e6 3d de 89 12 bd fd e5 2e 3d e8 08 09 be
       0.112333745 -0.03577601 0.042699803 -0.13382304
0001b0 5a ed 10 3e 60 47 aa bc 61 a9 3b bd 5b 8c 3f 3d
       0.14153042 -0.020785987 -0.04581583 0.046764713
0001c0 b1 05 b7 bd b9 1d ec bd ad cb 10 ba 38 8c cc bc
       -0.089366324 -0.11529107 -0.0005523514 -0.024969205
0001d0 90 ac cb bd d3 3e 3a 3d 7b 09 df ba 7a 93 3b 3c
       -0.09945023 0.04547007 -0.0017016375 0.011448735
0001e0 fd 98 93 3b ea 83 24 3d 25 cf aa 3d 91 9d 94 bd
       0.0045043216 0.040164866 0.08340291 -0.07256616
0001f0 2b 72 d9 bc 91 7a da bc 68 29 9d bd 27 8c 63 bc
       -0.026543697 -0.026669772 -0.07673913 -0.013888395
000200 04 01 cd 3d 2f 80 70 3d da a4 8e 3d 1b 40 37 bd
       0.10009959 0.058715995 0.06965037 -0.04473887
000210 36 c5 08 3e 8a a5 a4 bd 1f d6 d1 3c 2b 4e 3c 3e
       0.1335648 -0.080393866 0.025614796 0.18389194
000220 83 ff 01 bd 45 9b 6f 3d 65 74 c1 3d 19 be c7 3d
       -0.031737816 0.058497686 0.094460286 0.09753055
000230 f4 7c cb bc 25 f7 05 3d 48 b3 f3 3c 78 d8 0b be
       -0.024839856 0.0327064 0.029748574 -0.13656795
000240 6b 41 93 bd 65 fd 0d 3e 46 c7 c5 3b 13 31 65 bd
       -0.07190212 0.13866194 0.006035718 -0.055955004
000250 dc db 74 3d f0 4e 01 bc 41 22 e8 bd 1a df a9 3d
       0.059779987 -0.007892355 -0.113346584 0.08294506
000260 7c 7f fc bc 8f f1 aa bc 95 f8 d5 3c 10 b9 b2 bd
       -0.030822508 -0.020867137 0.02611951 -0.08726704
000270 d2 f2 cc bd 45 81 42 3e 93 3c 91 bd d0 97 c7 bb
       -0.10007252 0.18994625 -0.07091632 -0.0060910955
000280 5d 70 76 3b cf ad ec 3d 60 73 1a 3d 83 27 f1 3d
       0.0037603595 0.11556589 0.037707686 0.117751144
000290 5e a2 37 3d aa 31 8f 3d d1 10 3f 3e 70 fd 66 bd
       0.04483258 0.069918945 0.18658759 -0.05639404
0002a0 d2 f9 80 3c c9 29 80 3d 12 60 8f bc 71 72 44 3b
       0.015744124 0.0625797 -0.017501865 0.002997544
0002b0 c4 9c 30 3d c5 ba 1d bd 76 61 85 bc 8e e9 01 3d
       0.043118253 -0.038508195 -0.016281825 0.031716876
0002c0 14 e3 b1 bc cc 2f ce 3d 5f fb 24 3d 06 74 d5 3c
       -0.021714725 0.1006771 0.04027879 0.0260563
0002d0 b0 22 d0 3a 17 92 b6 bd 9a 6f 7b 3d 11 ad 70 3c
       0.0015879478 -0.08914583 0.06138573 0.0146897
0002e0 14 24 84 bd 5e d5 4c bc ab 0d 53 3c 32 cb bf 3d
       -0.06452194 -0.012502043 0.012881677 0.09364928
0002f0 fb 03 8d 3c 98 5d 9a bd 4d d9 b4 bd 8e 3c 36 3c
       0.017213812 -0.07537383 -0.08830509 0.011122836
000300 dd dc 3e be b8 9d 80 bd 1b 7b 3e bd 40 77 2c bd
       -0.1863894 -0.062800825 -0.04650412 -0.042105913
000310 9e 12 f9 bd 0d a0 ce bd 01 86 b3 bd 50 86 27 bd
       -0.12161754 -0.10089121 -0.087657936 -0.040899575
000320 f5 e1 ee 3c c1 34 ff 3d 44 e1 b4 3c f2 dc f1 3d
       0.02916048 0.12461234 0.022080071 0.1180972
000330 27 c2 6c bd 2b e6 39 3d 81 7d be 3d 48 14 17 bd
       -0.057802346 0.04538552 0.09301282 -0.036884576
000340 35 eb a8 bd 63 45 8f bb 79 90 2d 3d c4 bc de 3b
       -0.08247987 -0.004372285 0.042374108 0.006797405
000350 30 6b 62 bd b2 5b 38 bd 61 c9 db 3d 56 fb 8f bb
       -0.055278003 -0.045009322 0.10731769 -0.0043939753
000360 5a 4f 8e bc 91 f1 ad bc c8 e3 ee bc 48 8d 4f 3d
       -0.017371822 -0.021233352 -0.029161349 0.050671846
000370 a0 4f 95 3c 60 0b 24 bc 63 87 c3 bc 2d 78 92 bc
       0.018226445 -0.010012478 -0.023868268 -0.01787957
000380 a7 fb 63 bc d8 94 f6 bc 8d 50 af bc b8 92 6a bd
       -0.013914979 -0.030100271 -0.021400714 -0.05726883
000390 c7 ec 04 be 33 3a a0 bc 56 62 f2 3d 25 4c a9 bd
       -0.12980948 -0.019559002 0.11835162 -0.082664765
0003a0 6a f9 1e bd 98 e8 c7 3c bb 7f bd bd 8b 4d 12 3c
       -0.03881208 0.024402902 -0.09252878 0.0089296205
0003b0 78 19 6e 3b 04 ec df 3c d0 1a ee 3c 63 24 dc bd
       0.0036331099 0.02733422 0.02906552 -0.10749128
0003c0 d2 ca 21 3d 18 c5 05 3a 67 a3 15 bd 4c ab 13 be
       0.039500065 0.00051029166 -0.036532786 -0.14420813
0003d0 6e c8 39 bd 4a 8d 7f 3d c2 c6 6b 3d 27 1b b6 3d
       -0.04535716 0.062390603 0.057562597 0.08891898
0003e0 de 40 54 3d a0 1c ab 3d f2 f8 ac bc 73 53 72 3b
       0.051819675 0.08355069 -0.0211148 0.003697601
0003f0 c1 1e b4 3c 40 9b 00 be 1d d0 9f 3c 08 fc 99 bd
       0.02198732 -0.12559223 0.019508416 -0.07518774
