config/results/entry_initFromBasic/PathFollowing/PathFollowing-499956.onnx (onnx, 695646 bytes, 7 tensors)

action_model._continuous_distribution.log_sigma f4 [1, 3]
0	0xbdb05cee	-0.08611475
1	0xbe1d2d0a	-0.15349212
2	0xbd550897	-0.052010145

action_model._continuous_distribution.mu.bias f4 [3]
0	0xba14fe75	-0.0005683669
1	0x3ba5d571	0.0050608446
2	0xbb5f8f99	-0.003411269

action_model._continuous_distribution.mu.weight f4 [3, 256]
0	0x3d128cfa	0.035778977
1	0xbc20dd01	-0.009818316
2	0x3bb7eaa3	0.0056126877
3	0x3ca6520d	0.020302797
4	0xbc974947	-0.018467559
5	0xbd0c29fc	-0.034219727
6	0x3cb00457	0.021486444
7	0xbbad3f7c	-0.005287109
8	0x3bbe434c	0.0058063623
9	0x3d0f5a15	0.03499802
10	0x3c1f60f3	0.009727704
11	0xbbe2dd0d	-0.006923324
12	0xbbf5343b	-0.007483033
13	0xbb884347	-0.0041584107
14	0x3ba4aad7	0.0050252485
15	0xbcca6eff	-0.02471113
16	0x3c539a2a	0.012915174
17	0xbcf27300	-0.029595852
18	0x3c513047	0.012767858
19	0xbb8270b6	-0.0039807213
20	0x3cb30489	0.021852748
21	0xbca0b3dc	-0.019617014
22	0x3b6d755f	0.0036233289
23	0x3b3fcaf9	0.0029265268
24	0x3b1ad365	0.0023624536
25	0x3a7b485d	0.0009585673
26	0x3ca614aa	0.020273525
27	0xbc272303	-0.010201219
28	0x3b36ff2f	0.0027923097
29	0xbd061cb8	-0.032742232
30	0xbcb0669f	-0.021533309
31	0xbc81a8ff	-0.015827654
32	0x3c04f04a	0.00811393
33	0xbb2c43cd	-0.002628553
34	0x39d0f98f	0.00039858787
35	0xbd3979b0	-0.045282066
36	0xbd157bf7	-0.036495175
37	0xbc24ac76	-0.0100508835
38	0x3bcc4925	0.0062343054
39	0x3bf7fd71	0.0075680544
40	0x3d080bfc	0.033214554
41	0x3a01d4cf	0.00049526704
42	0xbca1d9d4	-0.019757189
43	0x3c0d841e	0.008637456
44	0x3cad8eae	0.021186199
45	0x3c4b0113	0.012390393
46	0x3b21bc14	0.0024678754
47	0xbb66b86e	-0.0035205144
48	0x3c9b4606	0.018954288
49	0xbb20c56e	-0.002453174
50	0x3ca400e5	0.020019958
51	0xbc112f67	-0.008861399
52	0xbcffdf9e	-0.031234559
53	0xbc057eec	-0.008147936
54	0x3cf549bf	0.029942391
55	0xbc1dc18b	-0.009628664
56	0x3b9b56bf	0.0047405655
57	0xbbb291a9	-0.005449493
58	0xbcfb51f7	-0.030678732
59	0xbcab5b23	-0.02091748
60	0xbcb725d3	-0.022356903
61	0x3d1bf83e	0.03807854
62	0x3cbbd2b5	0.022927621
63	0x3c883a6e	0.016629424
64	0x3c0e3f9c	0.008682158
65	0x3c59e516	0.013299247
66	0x3d455d38	0.048184603
67	0xbc9c207c	-0.019058459
68	0xbb496d4d	-0.0030735314
69	0xbc4b8ead	-0.012424153
70	0x3c25ab59	0.010111653
71	0x3c868a96	0.016423505
72	0xbc971ff7	-0.01844786
73	0xba053ddd	-0.0005082766
74	0xbc70e66e	-0.014703376
75	0x3c6b965e	0.014379112
76	0x3b617562	0.003440224
77	0xbc33ae9c	-0.010966923
78	0x3c695337	0.014241031
79	0x3bccb8d8	0.006247621
80	0x3c625e0d	0.013816369
81	0xba7db142	-0.00096775976
82	0x3cbf1754	0.023326553
83	0x3c8d19ee	0.017224278
84	0x3b884a9c	0.0041592848
85	0x3bb3d8de	0.005488499
86	0xbbbdf935	-0.00579753
87	0xbcb59fe1	-0.022170963
88	0x3c6ad966	0.014334058
89	0xbc55ab94	-0.013041396
90	0xbc005549	-0.007832834
91	0xbb779582	-0.0037778323
92	0x3bd42d9d	0.006475164
93	0x3ac5ef35	0.0015101196
94	0x3c09f44b	0.00842006
95	0x3acf7751	0.0015828406
96	0x3ab4f190	0.0013804901
97	0x3c0cfa78	0.008604638
98	0xbcc760ad	-0.02433809
99	0xbb73bcd5	-0.003719141
100	0x3d114250	0.03546363
101	0x3b88f4d3	0.004179576
102	0xbc71d900	-0.0147612095
103	0xbc08f71d	-0.008359698
104	0x3a39ddb8	0.00070902286
105	0xbb33ef30	-0.00274558
106	0xbbde9cc6	-0.006793591
107	0x3d27849d	0.040897954
108	0x3ba30e25	0.0049760514
109	0xbc8bce9b	-0.01706629
110	0x3c692c07	0.014231688
111	0xbc8a81b5	-0.016907552
112	0x3c99ea2b	0.018788418
113	0xbc3116ca	-0.010808656
114	0x3c323174	0.010876048
115	0x3c95577b	0.01823019
116	0x3c8594bf	0.01630628
117	0x3be9a90e	0.0071307486
118	0xbb1fa87e	-0.0024361904
119	0xbcc9d7a2	-0.024638955
120	0xbb852218	-0.004062902
121	0xbc002057	-0.00782021
122	0xbc3889f6	-0.011263361
123	0x3c932e08	0.017966285
124	0xbd377c6c	-0.044796392
125	0xbc551f17	-0.013007901
126	0x3c9fb485	0.019495258
127	0x3bb8f7c7	0.0056447717
128	0xbca486e9	-0.020083861
129	0x3c15ed73	0.009150851
130	0x3bcfeb64	0.0063451994
131	0x3b18898a	0.002327534
132	0x3c3fea5c	0.0117135905
133	0xbc97dd2d	-0.018538082
134	0x3cff2359	0.031144785
135	0xbc283c8e	-0.010268344
136	0x3c918436	0.017763238
137	0x397d8e55	0.00024180983
138	0x3d2753da	0.04085145
139	0xbc9248bb	-0.017856946
140	0x3d03aa77	0.03214499
141	0xbb505aab	-0.0031792324
142	0x3c50c00d	0.012741101
143	0xbbb6feec	-0.0055845883
144	0xbbe3e8c2	-0.006955237
145	0xbd13953f	-0.036031004
146	0xbc9f23c9	-0.019426243
147	0xbd44e98f	-0.0480743
148	0x3cfd76fb	0.030940523
149	0xbc66d0bb	-0.014087851
150	0x3bf2e83f	0.00741294
151	0xbc480c06	-0.012209898
152	0xb989fc23	-0.00026318533
153	0xbc9b0165	-0.018921563
154	0x3c940f42	0.018073682
155	0x3c37c57f	0.01121652
156	0x3c17fe6d	0.009276968
157	0xbc5c9dbb	-0.01346534
158	0xbc2f6ef5	-0.010707607
159	0xbbcb7716	-0.0062092645
160	0xbd24c0c3	-0.040222894
161	0x3be58a12	0.0070049847
162	0xbb0043ae	-0.001957159
163	0x3940bc4d	0.00018380694
164	0x3d0ca425	0.034336228
165	0xbadd7b2c	-0.001689767
166	0xbbc9741b	-0.006147874
167	0x3bca12ac	0.0061667766
168	0xbc9acdaf	-0.018896906
169	0x3b8a181e	0.004214301
170	0xbcc3043c	-0.02380573
171	0x3c9dbcc7	0.019255055
172	0x3c9a99c4	0.01887215
173	0x3c572b0a	0.01313282
174	0x3c79a521	0.015237124
175	0x3d2b6394	0.041843012
176	0xbb7b8858	-0.0038380828
177	0xbb88a094	-0.004169533
178	0x3c518584	0.01278818
179	0x3b832820	0.004002586
180	0xbb590484	-0.0033114264
181	0x3c807b1e	0.015683707
182	0x3cbcc98e	0.023045328
183	0xbbd1ac0c	-0.0063986834
184	0x3c65a23a	0.014015729
185	0x3cc42851	0.023945006
186	0x3c705519	0.014668726
187	0xbbc60b4f	-0.0060438286
188	0x3cc364a2	0.023851696
189	0xbc147f4b	-0.009063552
190	0x37ad7910	2.0679581e-05
191	0x3d07922b	0.03309838
192	0x3bb2fb0b	0.0054620556
193	0xbb82bddc	-0.003989918
194	0x3b92c247	0.004478726
195	0x3cb71dff	0.02235317
196	0x3cad9993	0.021191394
197	0xbcc53a82	-0.02407575
198	0x392833da	0.00016041045
199	0xba88f04a	-0.0010447588
200	0xbc347508	-0.011014231
201	0x3c4aa072	0.012367355
202	0xbc9f3fc3	-0.019439584
203	0x3d300368	0.042972
204	0xbbb0cf10	-0.0053957775
205	0xbb2e1ef9	-0.0026568754
206	0xbb53d08c	-0.0032320349
207	0xbb91e731	-0.004452609
208	0x3d243980	0.0400939
209	0x3c525433	0.0128374575
210	0x3d21aef2	0.03947348
211	0x3c2b5b4d	0.0104587795
212	0x3cb1f460	0.021722972
213	0x3d141859	0.036156032
214	0x3cb034e0	0.021509588
215	0x3c504de2	0.012713881
216	0xbc1a01e1	-0.009399862
217	0xbd18ab71	-0.037272874
218	0x3b008148	0.0019608308
219	0x3aa1112e	0.0012288445
220	0xbb2358e9	-0.002492482
221	0x3c8974ed	0.016779387
222	0xbb81369c	-0.0039432775
223	0xbc9d8f20	-0.019233286
224	0xbcfcbe43	-0.030852443
225	0x3c4d9b27	0.012549198
226	0xbbd39ff1	-0.0064582755
227	0xbb62f14c	-0.0034628687
228	0x3bcf53c9	0.0063271266
229	0xbc5e307b	-0.013561363
230	0xbc73879a	-0.014863873
231	0xbc00ba1a	-0.00785687
232	0xbc25b5c1	-0.010114134
233	0xbcc02b97	-0.023458285
234	0x3b7bfa4c	0.003844875
235	0x3afc1867	0.0019233347
236	0x3c439921	0.011938364
237	0x3b471876	0.003037957
238	0x3c4a6af9	0.012354606
239	0x3c9f9a3c	0.019482724
240	0xbc8a212e	-0.016861524
241	0xba5c3819	-0.0008400693
242	0x3a8342ce	0.0010014416
243	0xbc077db7	-0.008269719
244	0x3b152501	0.0022757652
245	0xbc69fec1	-0.0142819295
246	0xbbd8dfc2	-0.006618471
247	0x3c062d09	0.008189448
248	0x381e5b18	3.7754973e-05
249	0x3cba5172	0.022743914
250	0x3ccd28ca	0.025043864
251	0x3c65c123	0.014023098
252	0x3b7c3a7e	0.0038487012
253	0xbc9da0a6	-0.019241642
254	0x39f3f479	0.00046530718
255	0xbc0efbf1	-0.00872706

network_body.linear_encoder.seq_layers.0.bias f4 [256]
0	0x3c200cbb	0.00976866
1	0x3b4aa877	0.0030923167
2	0xba1f7aea	-0.0006083684
3	0x3ae042d0	0.0017109755
4	0x3a1354ff	0.00056202704
5	0xbab1e654	-0.0013572671
6	0xbb79d2c8	-0.003812002
7	0xbb5f3c91	-0.00340632
8	0xbbd7fcd3	-0.0065914183
9	0x3a42d8bc	0.00074328086
10	0xbb0b0ca6	-0.0021217256
11	0xbbbad9e4	-0.005702244
12	0xbc003066	-0.007824039
13	0x3bb662f8	0.005565997
14	0xba8546e6	-0.0010168224
15	0x3b93bd75	0.004508669
16	0xbb8bfc0b	-0.004271989
17	0xbb86fb64	-0.0041193236
18	0x3abe26aa	0.0014507372
19	0x3b591345	0.0033123058
20	0xbbcd1d8a	-0.006259625
21	0xbb1097b6	-0.0022063083
22	0xbac0eca2	-0.001471896
23	0xbbdb8f2f	-0.0067004184
24	0xbb4eb847	-0.0031542943
25	0xbb8f5d6e	-0.0043751514
26	0x3b747496	0.0037300936
27	0xba88eeba	-0.0010447123
28	0xb9032abf	-0.00012509058
29	0x3ba437b6	0.005011524
30	0x3b3e941b	0.0029079977
31	0xbc48e48c	-0.012261521
32	0x3b1d2a2a	0.002398143
33	0xbaca8008	-0.0015449533
34	0x3b96ddf1	0.004604094
35	0xb9f7a642	-0.00047235383
36	0xbc1d672c	-0.009607118
37	0xb86b9c6e	-5.6174053e-05
38	0x3bb33196	0.0054685576
39	0xb9be677a	-0.0003631672
40	0x3c2e23fe	0.010628698
41	0x3b96e89b	0.0046053655
42	0x39c11849	0.00036829922
43	0xbb3f095d	-0.0029149868
44	0x3b1ce7f5	0.0023941968
45	0xbb1ccf4c	-0.002392727
46	0x3af40769	0.0018617931
47	0xbc10425f	-0.008804887
48	0xbb67a0b9	-0.00353436
49	0xbb859496	-0.0040765507
50	0x3b8a960a	0.004229312
51	0x3a878ff2	0.0010342582
52	0xbc07c413	-0.008286494
53	0xbb1417ce	-0.0022597197
54	0xbbf3710c	-0.0074292477
55	0xbb16de5a	-0.0023020715
56	0xbbea66e1	-0.0071533774
57	0x3b7e70de	0.0038824598
58	0xbbce19ee	-0.006289712
59	0xbb28360b	-0.0025666978
60	0xbb7836b2	-0.0037874398
61	0x3bf7791a	0.007552278
62	0x3be95378	0.007120546
63	0x3ba42546	0.005009326
64	0x3b8974b4	0.0041948203
65	0xbb7e1ac9	-0.003877329
66	0x3b02c8d2	0.0019956124
67	0x3c309ce8	0.010779597
68	0x3b2ceb69	0.0026385433
69	0xbb0c21c8	-0.002138244
70	0x3ad0e8df	0.0015938542
71	0xbbe29784	-0.0069150347
72	0xb9d62f11	-0.00040852328
73	0x3ac94b63	0.001535755
74	0xbb3dfcde	-0.0028989832
75	0xbbed29b8	-0.0072376393
76	0xba30afcc	-0.0006740063
77	0x3b99ced3	0.004693845
78	0xb9e9816d	-0.00044537653
79	0x3bcb0e8a	0.0061968016
80	0xbbdfe5e3	-0.0068328246
81	0xbb802369	-0.003910471
82	0xbbb8de96	-0.0056417687
83	0x3aebce4f	0.0017990562
84	0xbbc2e519	-0.0059477207
85	0xbbb6d535	-0.0055796155
86	0xbc05fd81	-0.008178116
87	0x3b205171	0.0024462605
88	0xbc060105	-0.008178954
89	0x3a0e20c9	0.00054217555
90	0x3a3e2a33	0.0007254213
91	0x3c3337ac	0.010938566
92	0x3b651bb3	0.0034959137
93	0xbc03d6d0	-0.008046821
94	0x38fba5c6	0.000119994904
95	0xbb11a1e0	-0.002222173
96	0x3a7d5468	0.00096637616
97	0x3b98f009	0.0046672863
98	0xbbb50823	-0.0055246516
99	0x3b7d67cd	0.0038666606
100	0xbc32e0f2	-0.010917889
101	0xbad3f8d5	-0.001617218
102	0xbb07615c	-0.0020657396
103	0x3ab92704	0.0014126007
104	0x3ba66fb7	0.0050792354
105	0xbb49fc8f	-0.0030820703
106	0xbb0c00d7	-0.0021362805
107	0x3acc6064	0.0015592691
108	0xb949302a	-0.00019186796
109	0xba196c35	-0.0005852611
110	0x3bc999ea	0.006152381
111	0xbb23a312	-0.0024969024
112	0x3a406dda	0.0007340588
113	0x3ba54f96	0.005044888
114	0x396984c8	0.00022270076
115	0x3a2ddb09	0.0006632065
116	0x3c23d13b	0.009998615
117	0xba7e528d	-0.0009701632
118	0x3c3fbfa6	0.011703407
119	0xbb658ad8	-0.0035025384
120	0xbc207592	-0.009793656
121	0x3a758956	0.0009366473
122	0xbbbb2263	-0.0057108863
123	0xbac8a63d	-0.0015308332
124	0x3a6d811e	0.00090600725
125	0x3b1102d0	0.002212692
126	0xbb685c85	-0.0035455537
127	0x3aa408bb	0.0012514809
128	0x3bc7b387	0.0060943994
129	0xbab736c9	-0.0013978119
130	0x3b727ab4	0.0036999406
131	0xbb0557da	-0.0020346553
132	0xba351a89	-0.0006908556
133	0xbb889e17	-0.0041692364
134	0xb7ce62e0	-2.4603156e-05
135	0x3aabfaa9	0.0013120967
136	0xbb6fcdb3	-0.0036591112
137	0xbb89bdc2	-0.004203529
138	0x3b0bef44	0.002135233
139	0x3b2a549d	0.0025990375
140	0xbadcbd8e	-0.001684116
141	0x393aa21c	0.00017798733
142	0xbb96c0b1	-0.0046006073
143	0xbba54aaa	-0.005044301
144	0x3b0923a8	0.0020925794
145	0xbb3c4706	-0.0028728857
146	0x3ac7cba2	0.0015243182
147	0xbc02329c	-0.0079466365
148	0x3bddc474	0.006767804
149	0x3ba22dce	0.004949308
150	0x3942e7ed	0.00018587681
151	0xbba566dc	-0.005047662
152	0xbbaedbd1	-0.0053362628
153	0x3b4e86da	0.0031513483
154	0x3c1a3325	0.009411608
155	0xba7d6806	-0.0009666685
156	0x3b23fd17	0.002502268
157	0x3b12dbf8	0.0022408944
158	0xbbb15b5f	-0.0054125036
159	0x3af91aa2	0.001900513
160	0x3b9d53b4	0.004801238
161	0xbb9c2f4e	-0.0047663813
162	0xbb9d7acb	-0.004805898
163	0xbb64c84c	-0.0034909425
164	0x3b1e1d08	0.002412619
165	0x3a5b7e67	0.00083730224
166	0xbbd0be0a	-0.0063703107
167	0x3a43c3ee	0.00074678555
168	0xbbdb9fff	-0.0067024226
169	0x3b186403	0.002325297
170	0x3b590357	0.0033113563
171	0xbc3dde23	-0.011588606
172	0x3b2588bf	0.002525851
173	0x3b98e198	0.0046655647
174	0xbb409c5a	-0.0029390068
175	0x3a4db5dd	0.0007847229
176	0xba816c25	-0.0009874149
177	0xbaa22e39	-0.0012373395
178	0x3aa17ed0	0.0012321118
179	0xbbcf1623	-0.0063197776
180	0xbad849e2	-0.0016501511
181	0xb9dbb982	-0.0004190915
182	0x3b8f69e9	0.004376639
183	0x3aa953b3	0.0012918621
184	0xbb411eb4	-0.0029467763
185	0x3a06e677	0.0005146036
186	0x3925a363	0.00015796493
187	0x3bae386f	0.005316786
188	0xbb01e4a2	-0.0019820114
189	0xbbad1ad5	-0.0052827396
190	0xbb315b31	-0.002706241
191	0xbb50b265	-0.0031844613
192	0x3b72de04	0.00370586
193	0x3b58ff6f	0.0033111235
194	0xbbc4bfcd	-0.0060043097
195	0xbc054939	-0.008135133
196	0xbbe31c66	-0.0069308756
197	0x3b89c607	0.004204515
198	0x399da881	0.0003007092
199	0x3b959509	0.0045648855
200	0xbb98b6bd	-0.004660456
201	0xbbf95945	-0.0076095187
202	0x3ab4b325	0.0013786299
203	0xba945a0e	-0.0011318342
204	0x3bbf4abb	0.005837766
205	0xbb36c251	-0.0027886818
206	0x3b5d968d	0.003381166
207	0x3ae2abfd	0.0017293688
208	0xbb5e2259	-0.0033894985
209	0xbb885ac3	-0.0041612103
210	0x3adeba73	0.0016992822
211	0x3ba67d35	0.005080844
212	0x395c624c	0.00021017453
213	0x3a6f5a00	0.00091305375
214	0xbb7022d3	-0.003664185
215	0x3b38722e	0.0028144228
216	0x39556092	0.00020349238
217	0xba410384	-0.00073628896
218	0x3bc8401e	0.006111159
219	0x3b5a0e35	0.0033272628
220	0x3a3e6b20	0.00072638877
221	0xba127444	-0.0005586783
222	0x3c2d9cf9	0.010596507
223	0xbbe6768f	-0.0070331763
224	0xbb8d4a18	-0.004311811
225	0xbaa7c57e	-0.0012799946
226	0xbbcdbe25	-0.0062787705
227	0x3b897991	0.0041954
228	0xbb1948a1	-0.0023389237
229	0x3b227139	0.0024786724
230	0xba7cac9e	-0.0009638759
231	0xbb720a9a	-0.0036932589
232	0x394a99ce	0.00019321518
233	0x3c101b1e	0.008795528
234	0xbc0901e8	-0.008362271
235	0x3a61d2df	0.0008614491
236	0x393f4098	0.00018239242
237	0xbae22a1f	-0.0017254985
238	0xbbf9b8ad	-0.007620892
239	0xbb42a2c8	-0.0029699076
240	0x3ac531cc	0.0015044748
241	0xbaaad6b5	-0.0013033958
242	0xba9c6a1d	-0.001193348
243	0x3ba8d4da	0.005152327
244	0xbc173907	-0.009229905
245	0xbbf49083	-0.007463516
246	0x3afb6ae7	0.001918164
247	0x3b704624	0.00366629
248	0xbb6d32c3	-0.0036193586
249	0xbb248e78	-0.0025109332
250	0xbb27f010	-0.0025625266
251	0x3ac281f3	0.0014839753
252	0x3956fd32	0.00020502953
253	0xbaa0b4ff	-0.0012260972
254	0x3b831323	0.004000084
255	0xba58bc4e	-0.00082678057

network_body.linear_encoder.seq_layers.0.weight f4 [256, 416]
0	0x3dc232eb	0.09482368
1	0x3ce7d620	0.028300345
2	0xbc9f32f6	-0.01943348
3	0x3c9219f7	0.017834647
4	0xbc823cf6	-0.015898209
5	0xbd610459	-0.054935787
6	0x3cd9c500	0.026583195
7	0x3d18f6eb	0.037344854
8	0xbc895e30	-0.016768545
9	0xbd624f0b	-0.055251162
10	0xbc91be67	-0.017790986
11	0xbdbb6e6b	-0.0915192
12	0x3d52bce2	0.051449664
13	0x3cf0d199	0.029396819
14	0x3d4c86c2	0.049933203
15	0x3ce9359b	0.028467944
16	0xbd1c544b	-0.038166326
17	0x3d27c5cf	0.04096013
18	0xbc2dc2ec	-0.010605555
19	0xbd9393d6	-0.07205932
20	0x3d976dcd	0.0739399
21	0xbbd4c977	-0.006493743
22	0x3cc77031	0.02434549
23	0xbd143587	-0.03618386
24	0x3d00a4cc	0.031407163
25	0xbd1a66fa	-0.037695862
26	0x3ce33213	0.027733838
27	0x3d7ff2a7	0.06248727
28	0x3b94a00b	0.00453568
29	0xbd1e6254	-0.03866799
30	0xbd0b2b02	-0.033976562
31	0xbcfa3506	-0.030542862
32	0xbc0561ed	-0.008141023
33	0x3d782dc6	0.060590528
34	0xbd4cd13f	-0.05000424
35	0xbccabbc4	-0.024747737
36	0x3cc6d9d2	0.024273787
37	0x3d795c5f	0.060879108
38	0xbd0402b2	-0.032229133
39	0xbd3fc341	-0.046817068
40	0xbd944f02	-0.07241632
41	0xbd37defc	-0.04489039
42	0xbd6dca2d	-0.058054138
43	0x3ca395c1	0.01996887
44	0x3d2810dd	0.041031707
45	0xbc79ead6	-0.015253743
46	0xbdf601ad	-0.120120384
47	0xbcc0d7c9	-0.023540394
48	0xbd8bd748	-0.06828171
49	0xbb40bd26	-0.0029409616
50	0x3ca9fdc2	0.020750884
51	0xbd356646	-0.04428699
52	0x3b233b31	0.0024907107
53	0xbccf87f7	-0.025333388
54	0xbd408105	-0.046998043
55	0x3d5c952c	0.0538532
56	0x3cccba3c	0.024991147
57	0x3d767fa6	0.06018033
58	0xbc390f37	-0.011295131
59	0xbcd9d64f	-0.026591448
60	0xbd1759da	-0.036950924
61	0xbcdc271a	-0.026874114
62	0xbd24eec2	-0.04026676
63	0x3dd98f1e	0.106230006
64	0x3c88d612	0.01670364
65	0xbd85c843	-0.065323375
66	0x3d3ae322	0.045626767
67	0xbd86d8ea	-0.06584342
68	0x3ce4a4fb	0.0279107
69	0x3b1e6860	0.00241711
70	0xbd184330	-0.03717345
71	0xbb5bfd5c	-0.0033567762
72	0xbd148e0d	-0.036268283
73	0xbd85d440	-0.06534624
74	0xbd4f42e7	-0.050600912
75	0xbb628924	-0.0034566605
76	0xbd37754a	-0.04478959
77	0x3b9051e9	0.0044042957
78	0xbda56153	-0.08075204
79	0xbd0438d2	-0.03228075
80	0xbd2a77b0	-0.04161805
81	0xbcf032b8	-0.02932106
82	0xbc898c2d	-0.016790474
83	0x3cdda202	0.02705479
84	0x3d46df4e	0.048552804
85	0xbd2e7060	-0.042587638
86	0x3d4f14b4	0.050556853
87	0x3c841461	0.016122999
88	0x3cce59b4	0.025189258
89	0xbce33c58	-0.027738735
90	0xbc9b9c75	-0.018995503
91	0xbc140a2f	-0.009035631
92	0xbd7f7da9	-0.0623757
93	0x3d19ef9d	0.03758203
94	0x3d8128c8	0.063066065
95	0xbc12b42c	-0.008954089
96	0xbd8d6ca6	-0.06905489
97	0x3c12568f	0.00893177
98	0xbd447fc7	-0.04797342
99	0xbd6ad5d2	-0.05733282
100	0x3c070d0f	0.0082428595
101	0xbddabcf1	-0.10680569
102	0x3dd20d19	0.102564044
103	0x3b82791a	0.0039817216
104	0xbc8edcfb	-0.017439356
105	0x3c147dea	0.009063223
106	0x3d800c5b	0.062523566
107	0xbbe96957	-0.007123153
108	0xbc1e0c9b	-0.00964656
109	0xbcec6e29	-0.028861122
110	0xbd4a48b8	-0.049385756
111	0x3d3f6564	0.046727553
112	0x3b41da0c	0.002957943
113	0xbd29340a	-0.041309394
114	0xbc195020	-0.009357482
115	0x3b0031fa	0.0019561038
116	0x3bc46eae	0.0059946394
117	0x3db82ba7	0.08992701
118	0xbdb687f8	-0.08912653
119	0x3d2f7115	0.042832453
120	0xbd3a50d4	-0.04548724
121	0xbc02ebcb	-0.007990788
122	0x3dd232d1	0.10263599
123	0xbb84e3a4	-0.004055457
124	0xbd85facf	-0.065419786
125	0xbcff5f5b	-0.031173399
126	0xbd894a13	-0.06703582
127	0xbc2cc02d	-0.010543865
128	0xbd039691	-0.032126013
129	0xbd4b3b27	-0.04961696
130	0xbde626f1	-0.11237896
131	0xbda57857	-0.08079594
132	0xbca89363	-0.020578092
133	0x3d22ed34	0.039776996
134	0x3b74b252	0.0037337733
135	0xbd839a87	-0.06425958
136	0x3d0e15ad	0.03468864
137	0x3a812aea	0.0009854708
138	0xbd67d4f3	-0.05659957
139	0xbd00a79e	-0.031409852
140	0xbb2168d5	-0.0024629135
141	0xbd603214	-0.05473526
142	0xb9823466	-0.00024834572
143	0xbbc90f72	-0.0061358744
144	0x3d63b99e	0.05559694
145	0x3c869a52	0.016431008
146	0xbc0f9665	-0.008763884
147	0x3d35cc98	0.04438457
148	0xbccc6169	-0.024948793
149	0xbd3e1744	-0.046408907
150	0x3c64a9b8	0.01395648
151	0xbdb9f12c	-0.09079203
152	0xbab3573d	-0.0013682615
153	0xbd282650	-0.041052163
154	0xbc378b28	-0.011202611
155	0xbda4ed3e	-0.08053063
156	0xbd4dc022	-0.05023206
157	0xb9c7dbab	-0.00038119903
158	0xbcc95ad1	-0.024579437
159	0x3d438177	0.04773089
160	0xbd5b5b62	-0.053553946
161	0xbd6ea2fb	-0.0582609
162	0x3c9532de	0.018212732
163	0xbd8d695a	-0.0690486
164	0xbd1fc38c	-0.039004847
165	0xbd245aee	-0.04012578
166	0x3bb4a34f	0.005512632
167	0x3d45f4db	0.048329215
168	0x3d9fd7fb	0.07804867
169	0xbd163002	-0.036666878
170	0x3d6f57d7	0.05843338
171	0xbb38e0fa	-0.0028210268
172	0x3d351817	0.044212427
173	0x3aedc45e	0.0018140187
174	0x3ce96cb5	0.028494218
175	0xbd822835	-0.06355325
176	0xbd08c7ad	-0.03339355
177	0x3b1a1ed6	0.0023516915
178	0x3c5a5b9e	0.013327507
179	0xbb8217fc	-0.0039701443
180	0xbbdcf53f	-0.006743103
181	0xbd122a07	-0.03568461
182	0x3db64e7d	0.08901689
183	0xbc694177	-0.014236799
184	0xbdbc7f28	-0.09203941
185	0xbd40a445	-0.04703166
186	0xbcb58cdc	-0.022161894
187	0x3af3da41	0.0018604473
188	0xbd72f76e	-0.059318
189	0x3cc3f496	0.023920339
190	0x3d93618d	0.07196341
191	0xbd2caf73	-0.04215951
192	0xbd148f93	-0.036269736
193	0xbd18344e	-0.037159257
194	0xbcf4a231	-0.029862495
195	0xbc5e9a01	-0.013586522
196	0xbc20f5f5	-0.009824266
197	0xbdc1b59a	-0.09458466
198	0x3c88b03b	0.016685596
199	0xbc573a15	-0.013136406
200	0xbd36e45d	-0.044651378
201	0xbcf35df4	-0.029707886
202	0x3d00e517	0.031468477
203	0xbd421776	-0.047385655
204	0x3c62a181	0.013832451
205	0xbd94388f	-0.0723735
206	0x3d50193f	0.050805327
207	0x3d7bdea3	0.06149162
208	0xbcb5c9b5	-0.022190908
209	0xbd4beb85	-0.049785156
210	0xbd396655	-0.045263607
211	0x3da9ce67	0.08291321
212	0x3dd3656f	0.10322081
213	0x3d986427	0.074409775
214	0x3d147c7c	0.03625153
215	0x3d979942	0.074022785
216	0x3ccebd6c	0.025236808
217	0x3bb7c947	0.005608711
218	0xbde08472	-0.10962762
219	0x3ca8c340	0.020600915
220	0x3dac829f	0.084233515
221	0x3c4816ee	0.012212498
222	0xbd228247	-0.039675023
223	0x3dfd0577	0.12354558
224	0xbc6d9ea5	-0.014503156
225	0xbda21272	-0.079136744
226	0xbd77f545	-0.06053664
227	0x3d0cc206	0.034364723
228	0xbc733d55	-0.014846166
229	0x3c872f47	0.016502036
230	0xbcac696e	-0.021046367
231	0xbcac9bd1	-0.021070393
232	0xbd27a8e6	-0.04093256
233	0xbd0a9515	-0.033833582
234	0xbe0134d3	-0.12617807
235	0x3d83e45d	0.06440041
236	0xbd0a2cc8	-0.033734113
237	0x3c1c75ac	0.00954954
238	0x3caf29d5	0.021382252
239	0x3d5ca433	0.05386753
240	0x3d4e771c	0.05040656
241	0x3d620a98	0.055185884
242	0xbd0e16cb	-0.034689706
243	0x3dfa9ecd	0.1223732
244	0xbc7f71e0	-0.015591115
245	0x3db1affb	0.08676144
246	0x3d91b289	0.07114131
247	0x3cecb238	0.028893575
248	0x3d007a48	0.031366616
249	0xbceb5a52	-0.028729592
250	0xbc26c413	-0.010178584
251	0xbd0e7130	-0.034775913
252	0xbc9edd5a	-0.019392658
253	0x3ddcd697	0.10783117
254	0xbc223b59	-0.009901845
255	0xbce52e73	-0.02797625

network_body.linear_encoder.seq_layers.2.bias f4 [256]
0	0xbb9f29e6	-0.0048572896
1	0x3c027f51	0.007964925
2	0xbb276774	-0.002554384
3	0xbbbecc6c	-0.005822709
4	0x3bba66f0	0.0056885406
5	0x3beb83f5	0.0071873614
6	0x3b7b40c1	0.0038338157
7	0xbab3694c	-0.0013687997
8	0xbb12e8ba	-0.0022416548
9	0x3aa75440	0.0012766197
10	0x3bb6abf3	0.005574697
11	0xbc54e1c2	-0.012993278
12	0x3c45aa35	0.012064506
13	0xbc051e4a	-0.008124897
14	0xbb56616d	-0.003271188
15	0x3b6e5339	0.0036365523
16	0x3b84c240	0.0040514767
17	0x3a25fe7a	0.00063321705
18	0xbbfd0669	-0.0077217114
19	0x3af74f55	0.0018868247
20	0x3aba8616	0.0014230635
21	0xbb8d74cb	-0.0043169013
22	0x3c176739	0.009240919
23	0x3bffa5d1	0.0078017493
24	0xb8bd7aac	-9.035072e-05
25	0x3b3e5b4c	0.0029046116
26	0xba09c3f0	-0.0005255332
27	0x3b3caa1c	0.0028787917
28	0x3a4b0cce	0.00077457435
29	0xbaaa551d	-0.0012995336
30	0x3b3837ba	0.0028109387
31	0x3b918b03	0.0044416203
32	0x3b5a1678	0.0033277553
33	0x39dfa16c	0.00042654143
34	0x3ba281e7	0.004959333
35	0x3b4defcb	0.0031423445
36	0x3bf64c5e	0.007516428
37	0x3aaddfc8	0.0013265545
38	0xba2252f8	-0.0006192173
39	0x3b0a43dd	0.0021097579
40	0x3ba87f58	0.0051421337
41	0xbb019a1d	-0.0019775697
42	0xbb01e0ba	-0.0019817785
43	0xbc360e32	-0.011111783
44	0xbb447710	-0.0029978193
45	0x3b3f3bc2	0.0029179906
46	0x3bbbd315	0.00573195
47	0x3b20e17a	0.0024548457
48	0x3ab3dbac	0.0013722084
49	0x389328ab	7.017081e-05
50	0x393002df	0.00016785738
51	0x3b22788e	0.0024791094
52	0x3c030176	0.007995954
53	0x3a7631b4	0.00093915616
54	0x3b933bd6	0.004493217
55	0x3babba8a	0.005240743
56	0xbc1b7762	-0.009488912
57	0x3af08cc2	0.0018352496
58	0x3b273cc1	0.002551839
59	0x3bc571a2	0.006025509
60	0x3a64cdc2	0.000872817
61	0x3b2be740	0.0026230365
62	0x3be87e08	0.007095102
63	0xbb05ba12	-0.0020405096
64	0xb8461f88	-4.7236244e-05
65	0x3b8f3101	0.0043698554
66	0x3adef4a1	0.0017010161
67	0x39962114	0.00028634875
68	0xbc05b331	-0.008160398
69	0x39098d42	0.00013117961
70	0x3a1bc0b2	0.00059414946
71	0xbbadcad5	-0.0053037205
72	0x3bca2f9f	0.0061702277
73	0xbbeece4a	-0.007287775
74	0xbc0a91fe	-0.008457659
75	0xbb4340b6	-0.002979321
76	0x3b769026	0.003762254
77	0x3b61495d	0.0034376003
78	0xbb9df125	-0.0048200064
79	0xbb3d69d4	-0.002890219
80	0x3b9ad224	0.0047247577
81	0x3b268c5c	0.002541325
82	0xbbee8eb6	-0.007280196
83	0x3bddf4bb	0.006773559
84	0xbbf9482c	-0.0076074805
85	0xbb2900e3	-0.0025787882
86	0xbbb23e31	-0.0054395427
87	0x3c7272fb	0.014797921
88	0x3abca37e	0.0014391986
89	0xba9c59e5	-0.0011928646
90	0x3c88a6d3	0.01668111
91	0x3a8dfa39	0.0010832018
92	0x3b8e22c4	0.0043376405
93	0x3b367214	0.0027838992
94	0xbc159ca3	-0.009131583
95	0xbba65e72	-0.0050771767
96	0x3b94ed27	0.0045448723
97	0xbbb969fb	-0.005658386
98	0xbb1645c2	-0.0022929762
99	0xb9a05b9c	-0.00030585832
100	0xbaa59bc5	-0.0012634924
101	0xbc0b6e67	-0.008510209
102	0x3b8f4528	0.0043722577
103	0xbc1b4883	-0.009477737
104	0xba2dfebe	-0.0006637386
105	0xbb7a86bb	-0.0038227278
106	0x3c1f706d	0.009731394
107	0x3b158527	0.002281496
108	0xb9ffd107	-0.00048793128
109	0x3beabfd5	0.0071639814
110	0x3b7d68ca	0.0038667195
111	0x3b5f51e1	0.0034075903
112	0xbc1b3cef	-0.009474977
113	0xbb6624b2	-0.0035117087
114	0xb8460f4d	-4.722113e-05
115	0xbb1f56fd	-0.0024313324
116	0x3a41d280	0.00073937327
117	0x3bd15d5b	0.0063893027
118	0x3bbad538	0.005701687
119	0x3c16edce	0.0092119705
120	0xba8fad63	-0.0010961707
121	0x3b97d77a	0.004633841
122	0x3b66b0d5	0.0035200615
123	0xb98e8243	-0.00027181403
124	0x3b228de7	0.0024803819
125	0xbad0b7ac	-0.0015923879
126	0xbaf48a85	-0.0018657005
127	0xbc0a4e59	-0.008441531
128	0xb8f3a0a7	-0.00011617067
129	0x3b8d5ab4	0.004313791
130	0xbbc68b07	-0.006059054
131	0x3c1e8ae4	0.009676669
132	0xbba6098b	-0.0050670556
133	0x3b5a39e8	0.0033298675
134	0x3a81f4a0	0.0009914823
135	0x3b6638e0	0.0035129115
136	0xbbab82e8	-0.005234111
137	0xba0b5692	-0.0005315329
138	0x3ab2f35e	0.0013652851
139	0x3a90bcdf	0.0011042616
140	0x3a94e552	0.0011359847
141	0xb973453f	-0.00023200082
142	0xbb01dbd6	-0.001981487
143	0x3ad0e929	0.0015938628
144	0x36263d36	2.4771557e-06
145	0x3b7114cf	0.0036786085
146	0x3a49102b	0.0007669951
147	0xb9064004	-0.00012803084
148	0x3c1f0697	0.009706161
149	0xbb556147	-0.0032559203
150	0x3906aab0	0.00012842822
151	0x3b4da6f7	0.0031380036
152	0xbbba6a14	-0.005688915
153	0xba5c5050	-0.00084043015
154	0x3a54f342	0.00081234064
155	0x3b64b942	0.0034900461
156	0x3b959bec	0.0045657065
157	0xbb8a4997	-0.0042201984
158	0xba91b0da	-0.0011115328
159	0xbb811436	-0.003939177
160	0x3bbd671f	0.0057801153
161	0x3b9d5752	0.004801669
162	0x3b9e5853	0.0048323064
163	0xbb963030	-0.004583381
164	0xbb3ea8fc	-0.0029092422
165	0xbac715f4	-0.0015189038
166	0xbb7c871f	-0.0038532687
167	0x3b73608d	0.0037136406
168	0x3b5803d1	0.003296126
169	0x3b9168a5	0.0044375234
170	0x3a746be9	0.0009323941
171	0x3b8777aa	0.004134138
172	0x3bbfac2f	0.0058493833
173	0x3b8f7f00	0.0043791533
174	0xbc0fa20c	-0.008766662
175	0x3be21573	0.0068995296
176	0xbb2ac32f	-0.002605628
177	0xb9513356	-0.00019950917
178	0x3c2bcf23	0.010486397
179	0xbc102e3f	-0.008800088
180	0xbc74f91f	-0.014951973
181	0x3b7084c0	0.003670022
182	0x3b4aee1b	0.0030964676
183	0x3b0a79de	0.0021129767
184	0xbad5cc5c	-0.0016311514
185	0xb94dd406	-0.00019629308
186	0xb9ed1eb5	-0.0004522704
187	0x3a0b05bb	0.0005303283
188	0x3b06667e	0.0020507867
189	0x3b845a9a	0.004039121
190	0xbc1694f9	-0.009190791
191	0x3ba26b2d	0.004956624
192	0xbbed204d	-0.0072365166
193	0x3a47d28c	0.00076226215
194	0xb9074c73	-0.00012903083
195	0x3ae20ef8	0.0017246893
196	0x3bfd1d02	0.0077244053
197	0xb91bf808	-0.00014874351
198	0x3b83bbe2	0.0040202
199	0xbbefd857	-0.007319491
200	0x3ab833c7	0.0014053517
201	0x3b12cee3	0.0022401146
202	0x3b90ee25	0.0044229203
203	0x3c23bcef	0.009993776
204	0xbbb24f91	-0.005441614
205	0x3b400fe6	0.0029306351
206	0xbbef19af	-0.007296763
207	0xbc81d1dc	-0.015847139
208	0x3b80da7e	0.0039322963
209	0xbc147605	-0.009061341
210	0x3bc3daf0	0.005977027
211	0xbbe61e19	-0.007022631
212	0x39634e0a	0.00021677479
213	0xbac103c0	-0.0014725849
214	0x3adc2de2	0.0016798342
215	0xbb835f50	-0.004009165
216	0xbc25d4a2	-0.010121496
217	0x3ae90db2	0.0017780571
218	0xbbe4a72a	-0.0069779353
219	0xb9c3f501	-0.0003737584
220	0xbb2e7452	-0.0026619625
221	0x3bc0db68	0.0058855303
222	0xbb1f57ee	-0.0024313885
223	0xbbaea731	-0.0053299894
224	0x3b579caa	0.0032899776
225	0xbacbd339	-0.001555062
226	0x3bd4b8f5	0.006491775
227	0xbb620652	-0.003448863
228	0xbb32de2e	-0.0027293074
229	0x3b37d1e5	0.002804869
230	0xbb9774e9	-0.004622091
231	0x3a9c71d5	0.001193578
232	0xbb8fafae	-0.0043849563
233	0x3b1a8279	0.0023576303
234	0x3af8dc7b	0.0018986607
235	0xbae9577d	-0.0017802563
236	0xbb84d615	-0.004053841
237	0x3bc5b19d	0.006033136
238	0xbaf10ff4	-0.0018391595
239	0xba1824eb	-0.0005803841
240	0x3b020928	0.0019841883
241	0xbb4f5a4a	-0.003163951
242	0xbb37e86c	-0.0028062118
243	0xbbea65f3	-0.0071532666
244	0xbc2a584e	-0.01039703
245	0xbb2fc0ac	-0.0026817722
246	0xbb48f82c	-0.00306655
247	0xbad561e8	-0.0016279789
248	0xbb9be46c	-0.0047574546
249	0xba7cadcc	-0.0009638935
250	0x3ac8b7b0	0.0015313532
251	0xbb9e8f92	-0.0048388923
252	0xbb48532a	-0.0030567148
253	0x3ae37a23	0.0017355125
254	0xbbebc64e	-0.0071952706
255	0xb8f5c837	-0.00011719803

network_body.linear_encoder.seq_layers.2.weight f4 [256, 256]
0	0x3df70468	0.12061387
1	0xbcdc87bb	-0.02692019
2	0x3e16fc6c	0.14744729
3	0x3cf0bbba	0.02938639
4	0xbb58b266	-0.0033065318
5	0xbd594f1f	-0.05305397
6	0xbcbcf47e	-0.023065802
7	0xbc85b759	-0.016322779
8	0xbc90e947	-0.01768936
9	0xbd2d1ed6	-0.042265736
10	0x3c367866	0.011137104
11	0x3d800bea	0.062522724
12	0x3db6fb01	0.08934594
13	0x3c74d0e3	0.014942381
14	0x3d90e034	0.07074013
15	0x3d22866f	0.039678987
16	0x3d527260	0.051378608
17	0x3da13118	0.07870692
18	0xbd3de1e7	-0.046358015
19	0xbbbf9a2f	-0.0058472375
20	0xbd384838	-0.04499075
21	0x3d6d86ac	0.05798976
22	0x3d3231a0	0.043504357
23	0x3d6e8135	0.05822869
24	0x3df387a2	0.11891104
25	0x3c1d95d0	0.009618238
26	0x3cd93c82	0.02651811
27	0xbd2e8edc	-0.04261671
28	0x3dd24811	0.10267652
29	0xbb3bb8a5	-0.0028643992
30	0x3d06bd4c	0.03289537
31	0x3b90b5e5	0.004416215
32	0x3ca89066	0.020576667
33	0xbc8c73f6	-0.017145138
34	0x3cb84fe5	0.022499034
35	0x3cfa4b33	0.030553436
36	0x3ce04952	0.027378712
37	0x3d434ca1	0.0476805
38	0xbe3af403	-0.18257146
39	0xbd0af900	-0.03392887
40	0xbce83232	-0.028344247
41	0x3b5b61f4	0.0033475133
42	0x3c0a66c4	0.008447353
43	0x3d492a43	0.04911257
44	0xbcd7e13d	-0.02635252
45	0x3de59f5f	0.11212038
46	0xbd5e5bb6	-0.05428668
47	0x3d3df75e	0.046378486
48	0xbd99c3bc	-0.075080365
49	0x3d16dd46	0.036832117
50	0x3c1e743f	0.00967127
51	0x3cc1f49b	0.023676207
52	0x3d0c7568	0.034291655
53	0xbda33c92	-0.07970537
54	0x3d86f6ec	0.06590065
55	0xbc80be8f	-0.015715865
56	0x3c70d386	0.014698869
57	0x3d8af359	0.06784696
58	0xbdf1e31d	-0.118108965
59	0x3b8ac707	0.0042351517
60	0xbcb7a5c1	-0.022417905
61	0x3c567344	0.013089005
62	0xbdefcfca	-0.117095545
63	0x3d0afcaa	0.033932365
64	0xbd626b6a	-0.05527822
65	0x3d0a3bf6	0.03374859
66	0x3c935d67	0.017988874
67	0xbd9103b9	-0.07080788
68	0x3e588414	0.21144134
69	0x3cfa69fd	0.030568117
70	0xbd9568c8	-0.07295376
71	0xbc436eb3	-0.011928248
72	0xbdcbfbcf	-0.09960138
73	0xbd4f2ee3	-0.050581824
74	0xbd53bf56	-0.051696144
75	0x3c8c6db1	0.017142149
76	0x3cfa737b	0.030572644
77	0xbc86938c	-0.016427778
78	0x3c9b35ca	0.018946547
79	0x3d6b54d5	0.05745395
80	0x3d1bc059	0.038025234
81	0xbc0b2e19	-0.008494877
82	0xbd33dc42	-0.043911226
83	0x3d71e1b4	0.059053138
84	0xbd02196e	-0.031762533
85	0xbdca905d	-0.09890816
86	0xbda678b8	-0.08128494
87	0x3d634041	0.0554812
88	0x3d9c6f43	0.07638409
89	0x3c8883c4	0.016664393
90	0x3d15107e	0.03639268
91	0xbb1b4fd8	-0.0023698714
92	0xbdc1afb8	-0.09457344
93	0x3cf81b7b	0.030286541
94	0xbc0d99b3	-0.008642602
95	0xbd6afef9	-0.057372067
96	0x3d0e853f	0.034795042
97	0x3cc96ba4	0.02458746
98	0x3cae08fb	0.021244517
99	0x3e30dd7a	0.17271987
100	0x3ce5de6c	0.02806016
101	0xbdccf8f1	-0.10008419
102	0xbc1b71b4	-0.009487558
103	0xbce96b68	-0.028493598
104	0x3d6d29b8	0.057901114
105	0xbd363366	-0.04448261
106	0x3da49a87	0.08037286
107	0x3bdfb8e5	0.006827461
108	0xbe02cdbf	-0.12773798
109	0x3d1f884e	0.03894835
110	0x3ce704a6	0.028200459
111	0xbde5bb13	-0.11217322
112	0xbe1a50f0	-0.15069938
113	0xbdb34c2c	-0.08754763
114	0x3d8c313f	0.068453304
115	0xbd0b9b8c	-0.034083888
116	0x3bd06fb4	0.0063609723
117	0x3d84f8cc	0.06492767
118	0x3c82e610	0.015978843
119	0x3daf1792	0.085494176
120	0xbdd90df1	-0.10598362
121	0xbdb9a0eb	-0.09063896
122	0xbdf9a666	-0.12189941
123	0xbda98299	-0.08276863
124	0x3c840ea6	0.016120266
125	0x3d87b4c1	0.06626273
126	0xbd4446b2	-0.047918983
127	0x3d6a4f35	0.057204444
128	0x3d480ca7	0.04884019
129	0x3dfc7f30	0.123289466
130	0x3d04354d	0.032277394
131	0x3d220b4b	0.03956155
132	0x3da9207e	0.082581505
133	0x3d84cada	0.06484003
134	0xbe3b1b2d	-0.18272085
135	0xbd7b8a27	-0.06141105
136	0x3d1d7489	0.038441215
137	0x3c42df18	0.01189401
138	0x3bd420e1	0.006473646
139	0xbdb7caaa	-0.08974202
140	0xbc21c3ec	-0.009873372
141	0xbbcef7a4	-0.006316142
142	0xbd0a60db	-0.033783775
143	0x3cc45157	0.023964567
144	0xbda739d7	-0.08165329
145	0x3d01be6f	0.031675752
146	0x3d867958	0.06566113
147	0x3d1a73f6	0.037708245
148	0x3d46cde0	0.04853618
149	0x3cfc592e	0.030804243
150	0xbc825a79	-0.015912281
151	0x3bde23e7	0.0067791822
152	0xbd0bf817	-0.034172144
153	0x3ddcdc5c	0.10784218
154	0xbd8bdd79	-0.06829352
155	0xbca6687a	-0.02031349
156	0xbd4cf3b4	-0.0500371
157	0xbd8467a9	-0.06465084
158	0xbd8a6a33	-0.06758537
159	0xbd7b997a	-0.061425664
160	0xbd98f62b	-0.07468828
161	0xbcb0fc80	-0.021604776
162	0x3dd181ce	0.102298364
163	0xbcdfa0a1	-0.027298274
164	0xbdf4a76c	-0.11945996
165	0xbdaa0f35	-0.08303682
166	0x3d44e352	0.048068352
167	0xbd8debe3	-0.069297574
168	0x3e22de19	0.15905036
169	0xbddb45da	-0.107066825
170	0x3cc1cf93	0.02365855
171	0x3dc46968	0.09590417
172	0x3d7acd61	0.06123102
173	0x3d8a24ba	0.06745286
174	0x3d20f92b	0.039300125
175	0x3d1e5954	0.03865941
176	0xbdc56ec6	-0.09640269
177	0x3b894d57	0.004190128
178	0xbd5ad3e5	-0.053424735
179	0x3d503fa7	0.050841954
180	0x3d155c5e	0.03646504
181	0x3e16c94d	0.14725228
182	0x3dbe47b9	0.09291024
183	0xbd5836b7	-0.052786555
184	0x3df78375	0.1208562
185	0x3bf51eae	0.007480464
186	0x3dffb865	0.12486342
187	0x3d8400e6	0.06445484
188	0xbc8588ff	-0.016300676
189	0x3bbf99e7	0.005847204
190	0x3ce1cd7c	0.027563803
191	0xbca72ba4	-0.020406552
192	0x3cbf39b7	0.02334295
193	0xbe0d6076	-0.13806328
194	0x3c97e9a2	0.018544022
195	0xbce4530a	-0.027871627
196	0xbc8d9316	-0.01728205
197	0x3d4bb64d	0.049734402
198	0x3b637c95	0.0034711708
199	0xbd1eec86	-0.038799785
200	0x3c2b0c8e	0.010440005
201	0xbd1fd707	-0.039023425
202	0xbc8e4f74	-0.01737187
203	0x3cd9a1da	0.026566435
204	0xba477d34	-0.0007609904
205	0xbd210096	-0.0393072
206	0x3dea34f1	0.11435879
207	0x3dca375f	0.098738424
208	0x3d42d3b9	0.047565196
209	0x3d6cdbc2	0.057826765
210	0x3c2ee4d2	0.010674672
211	0xbe1e8a43	-0.1548243
212	0x3c1f5489	0.009724745
213	0xbd61cb55	-0.055125553
214	0x3e3ed730	0.18636775
215	0xbdfbeb07	-0.12300687
216	0xbd3574b3	-0.044300746
217	0x3ae37805	0.0017354494
218	0x3bbfbeeb	0.0058516166
219	0xbc401eec	-0.011726122
220	0x3cc2bd8c	0.023772024
221	0x3d890ad3	0.06691518
222	0xbc85270a	-0.016253967
223	0x3b65efa4	0.0035085464
224	0x3c1560dc	0.009117331
225	0x3d758e47	0.05995014
226	0x3d498911	0.049202982
227	0x3c488edf	0.012241094
228	0xbd94041b	-0.072273456
229	0xbd7b8c3a	-0.061413027
230	0xbb8337f0	-0.004004471
231	0x3cb4e634	0.022082426
232	0x3cfbef15	0.030753652
233	0x3d41b7ee	0.04729455
234	0x3db3eaa2	0.08784987
235	0x3d54f40a	0.051990546
236	0x3d90a086	0.070618674
237	0x3d5b20c1	0.053498033
238	0xbc40bbe4	-0.011763547
239	0x3cd1d9b1	0.025616499
240	0xbd5148a2	-0.05109466
241	0xbca5b010	-0.020225555
242	0xbd1d245e	-0.03836476
243	0x3d7f7451	0.062366787
244	0xbd40a349	-0.04703072
245	0x3cbf481c	0.023349814
246	0xbd1480ad	-0.036255527
247	0x3d81f49d	0.063454844
248	0xbc6ba743	-0.01438314
249	0x3cd564dc	0.02604907
250	0xbd97bd31	-0.07409132
251	0x3cfdbfb7	0.030975206
252	0xbb0b25b7	-0.0021232197
253	0x3d453329	0.048144493
254	0x3c60afd0	0.013713792
255	0xbd89e80a	-0.06733711
