config/results/Entry_reward02/PathFollowing/PathFollowing-7999946.onnx (onnx, 695646 bytes, 7 tensors)

action_model._continuous_distribution.log_sigma f4 [1, 3]
0	0x3e4cee2e	0.20012733
1	0xbc2d473d	-0.010576067
2	0x3de21b1e	0.110403284

action_model._continuous_distribution.mu.bias f4 [3]
0	0xbcb9cfca	-0.02268209
1	0xbb32f2d8	-0.002730539
2	0xbbd763b8	-0.0065731667

action_model._continuous_distribution.mu.weight f4 [3, 256]
0	0x3cf6e247	0.030137194
1	0x3d239269	0.03993455
2	0xbbc16545	-0.005901965
3	0x3c752c70	0.014964208
4	0x3bb30640	0.0054633915
5	0x3d1b6890	0.037941515
6	0x3d58a3d8	0.05289063
7	0x3c1a05f6	0.009400835
8	0xbc2b3c86	-0.010451442
9	0x3cd50992	0.02600554
10	0xbc958c12	-0.018255267
11	0x3b91d423	0.0044503375
12	0x3b548d8c	0.0032433001
13	0x3c28e370	0.010308132
14	0x3cac05ae	0.020998802
15	0x3d1eb476	0.03874632
16	0x3d323ea4	0.04351677
17	0xbcc83c0a	-0.024442691
18	0xbc252293	-0.010079044
19	0x3b47e292	0.0030500037
20	0xbc539703	-0.012914422
21	0x3c617253	0.013760167
22	0xbd215180	-0.039384365
23	0xbb8651e7	-0.004099119
24	0xbd253e6e	-0.04034274
25	0x39a9b04e	0.0003236555
26	0xbbf8bff3	-0.0075912415
27	0xbce5b29a	-0.028039265
28	0xbc2c4491	-0.010514394
29	0x3ca00124	0.019531794
30	0x3c6ea6dd	0.0145661505
31	0x3cb5d7d8	0.022197649
32	0x3b1a6df8	0.0023564082
33	0x3c2855d5	0.01027437
34	0x3c050efe	0.00812125
35	0xbb2dff41	-0.0026549848
36	0x3c962a9c	0.018330865
37	0x3d3b523d	0.045732725
38	0x3be9ac21	0.007131115
39	0x3b973802	0.004614831
40	0xbcc59609	-0.024119394
41	0x3c2ce0aa	0.010551611
42	0xbcdc624a	-0.026902337
43	0x3cd5e2e4	0.026109166
44	0xbca78b32	-0.020452116
45	0xbc241baa	-0.010016361
46	0xbc8d5202	-0.017251018
47	0x3aaf34c1	0.0013367162
48	0xbc8c037c	-0.017091505
49	0x3c9df524	0.019281931
50	0xbb9d8ebd	-0.0048082755
51	0x3d15a76e	0.036536627
52	0xbaf195cc	-0.0018431484
53	0x3c649b93	0.013953107
54	0x3d67f824	0.05663313
55	0x3c063105	0.008190398
56	0x3d53d951	0.05172092
57	0xbc3e1b5c	-0.011603203
58	0x3cf77c8a	0.030210752
59	0x3c88802e	0.016662683
60	0x3b9e520c	0.004831558
61	0xbc418348	-0.011811085
62	0xbcba1553	-0.022715246
63	0xbbf42912	-0.007451185
64	0xbaa85f55	-0.0012845794
65	0x3ca9354f	0.020655302
66	0xbc01f771	-0.00793253
67	0xbc9e204a	-0.019302506
68	0xbba0ebf7	-0.0049109417
69	0xbc917565	-0.017756173
70	0x3c89fc36	0.016843896
71	0xbb91b15e	-0.0044461926
72	0xbbea2329	-0.0071453047
73	0xbc1c88fb	-0.009554143
74	0xbc927153	-0.017876303
75	0xbc9602e5	-0.018311927
76	0xbcb9da84	-0.022687204
77	0xbc17db70	-0.009268627
78	0xbc3b36ed	-0.01142667
79	0xbd280d95	-0.041028578
80	0x3b0294f6	0.0019925213
81	0x3c1a7a6a	0.0094286
82	0xbc7d0370	-0.015442714
83	0x3d0a89ba	0.033822753
84	0x3ca047d4	0.0195655
85	0x3c49dc8b	0.012320648
86	0x3c710d80	0.014712691
87	0x3cbfac72	0.023397658
88	0xbca554b4	-0.020181991
89	0x3b55d8f0	0.0032630526
90	0x3c31965f	0.010839074
91	0xbc266ed3	-0.0101582585
92	0x3beeab72	0.0072836215
93	0xbc9051cd	-0.01761713
94	0x3ca59d44	0.020216592
95	0x3c9d6ffb	0.019218436
96	0x3c36d8db	0.011160101
97	0xbba39aaa	-0.0049928026
98	0xbd23e998	-0.040017694
99	0x3c20a4cc	0.009804916
100	0xbbf68674	-0.0075233523
101	0x3c737322	0.014858993
102	0x3c942175	0.01808236
103	0x3b36f76b	0.0027918469
104	0x3c3a077b	0.011354323
105	0x3bba23b1	0.0056805243
106	0x3c08015f	0.008301108
107	0xbc13713c	-0.008999165
108	0xb90c78ff	-0.00013396515
109	0xbd03cab3	-0.03217573
110	0xbcaf6ec2	-0.021415118
111	0xbcddc09f	-0.027069388
112	0x3c82cb8f	0.015966205
113	0xbc56bedf	-0.013107031
114	0xb99af547	-0.00029555915
115	0x3c620349	0.013794729
116	0x3cd10d8e	0.025519159
117	0x3d4402ce	0.047854237
118	0xbd5a32b0	-0.053270996
119	0x3cbbf1b4	0.022942401
120	0x3d13031b	0.035891633
121	0xbc0c55c0	-0.008565366
122	0x3bacdf0d	0.005275613
123	0xbc6faad0	-0.014628127
124	0xbc713c38	-0.01472383
125	0x3cd7187e	0.026256796
126	0x3cd4289b	0.025898268
127	0x3d2f901b	0.04286204
128	0x3bd17027	0.0063915434
129	0x3ca42d4c	0.02004113
130	0x3d069cb6	0.032864295
131	0xbd5e8b7a	-0.054332234
132	0x3ba72881	0.005101264
133	0x3b995a19	0.00467993
134	0x3c815c48	0.015791073
135	0x3a0e0727	0.0005417936
136	0x3be0a156	0.0068551702
137	0x3cd3317b	0.02578043
138	0xbc5f4cd7	-0.01362916
139	0x3ce75ec2	0.028243426
140	0xbccaad5a	-0.024740864
141	0x3d1927c9	0.037391458
142	0x3c2fb178	0.010723464
143	0xbb79455d	-0.0038035729
144	0x3cef0b95	0.029180327
145	0x3c96b44e	0.018396523
146	0x3ce4c4f0	0.027925938
147	0xbc88d816	-0.0167046
148	0xbcc9c4e7	-0.024630023
149	0xbc93556c	-0.017985068
150	0xbd2b6686	-0.04184582
151	0xbb230f5e	-0.0024880986
152	0x3ceb8e82	0.028754476
153	0xbd24d18e	-0.04023891
154	0x3c23741f	0.009976416
155	0xbd15cec5	-0.036574144
156	0xbac7b2df	-0.0015235803
157	0x3d03bbc6	0.032161497
158	0xbca1ec6d	-0.019766057
159	0x3be51efc	0.006992219
160	0xbcf1768a	-0.02947547
161	0xbb072141	-0.0020619186
162	0xbc9812f8	-0.018563733
163	0x3b7beb40	0.003843978
164	0xbc9ce291	-0.019151004
165	0xbbc09697	-0.0058773267
166	0x3d0ce48b	0.034397643
167	0xbba1dc9d	-0.004939629
168	0xbc9e4c3d	-0.019323463
169	0x3d04dc2e	0.032436542
170	0x36f51134	7.3035717e-06
171	0xbb20d2f4	-0.00245398
172	0x3c555a7c	0.013022061
173	0x3d18a879	0.037270043
174	0x3c23b18a	0.009991059
175	0xbc1ad92f	-0.009451195
176	0x3d1010af	0.03517216
177	0x3d06286d	0.032753397
178	0x3c83d67f	0.01609349
179	0x3ced0aa8	0.028935745
180	0x3d22bc3f	0.039730307
181	0x3d2fc8eb	0.04291622
182	0x3d1999b4	0.0375001
183	0xbcaf4795	-0.021396438
184	0x3b7e36c8	0.0038789976
185	0xba098d26	-0.0005247168
186	0x3cb8685b	0.022510698
187	0xb91c206a	-0.00014889395
188	0x3d2b453f	0.041814085
189	0xbc902827	-0.017597271
190	0xbc51ffeb	-0.012817363
191	0xbc7946f1	-0.015214668
192	0xbcf82640	-0.030291677
193	0xbb8e5972	-0.004344159
194	0xbc1bb591	-0.009503738
195	0xba6f4141	-0.000912685
196	0x3d026911	0.03183848
197	0xbbda5ace	-0.006663657
198	0xbbacadfc	-0.005269764
199	0x3ceecea4	0.029151268
200	0xbc2f55ec	-0.010701638
201	0x3cad98b0	0.021190971
202	0x3c8c443f	0.017122386
203	0x3d1eceaa	0.03877131
204	0x3c9d84b5	0.019228319
205	0x3b8300de	0.003997906
206	0x3c5c8517	0.0134594655
207	0x3d171ec1	0.036894564
208	0x3c825519	0.015909718
209	0x3c976843	0.018482333
210	0xbbad2263	-0.00528364
211	0x3b14a87a	0.0022683428
212	0x3d19f834	0.03759022
213	0x3cb3958d	0.021921897
214	0x3d45d423	0.048298012
215	0x3d16e8e6	0.036843203
216	0x3a00e6b9	0.0004917193
217	0xbc5bd96f	-0.013418539
218	0x3c1848a9	0.009294667
219	0xbc97e0a5	-0.018539736
220	0x3c0bc6af	0.008531257
221	0xbc80594d	-0.015667582
222	0x3c2ab697	0.010419509
223	0x3cb5d391	0.02219561
224	0x3ca62ea1	0.020285906
225	0x3c95962d	0.018260086
226	0xbc92ebee	-0.017934766
227	0xbce44c89	-0.027868526
228	0xbb5392cb	-0.003228354
229	0xbcbcaefd	-0.02303266
230	0x3ca2d740	0.01987803
231	0x3cd5a318	0.026078746
232	0x3cf2b712	0.02962831
233	0xbcfabd72	-0.030607913
234	0xbb09b8cd	-0.002101469
235	0xbbcbb330	-0.006216429
236	0x3d80d1f4	0.062900454
237	0xbc699aaf	-0.014258071
238	0x3c8e5eab	0.017379126
239	0x3b77fdc7	0.0037840472
240	0xba5ddd80	-0.0008463487
241	0x3bc42d24	0.0059868265
242	0x3d3e894a	0.046517648
243	0x3cf85ed8	0.030318663
244	0xbcbed89d	-0.023296649
245	0xb9a5e345	-0.0003164058
246	0x3c784739	0.0151537
247	0x3c46c31f	0.012131481
248	0x3b6e15b1	0.0036328847
249	0xbc5c6bf1	-0.01345347
250	0x3beb8503	0.007187487
251	0xbc09ddb7	-0.008414677
252	0xbb15871f	-0.0022816134
253	0xb8387f70	-4.3987704e-05
254	0xbc936869	-0.017994123
255	0xbb610019	-0.0034332334

network_body.linear_encoder.seq_layers.0.bias f4 [256]
0	0x3bc1bdc0	0.0059125125
1	0xbc4b36ba	-0.012403185
2	0xbada1b94	-0.0016640299
3	0xba3d23d9	-0.00072151195
4	0xba9d0c23	-0.0011981766
5	0xbcdcf135	-0.026970485
6	0x3b5c8fd0	0.0033655055
7	0xbba31c07	-0.0049777064
8	0xbb31fb27	-0.0027157755
9	0x38aaa4d9	8.136937e-05
10	0xb81cc42b	-3.7375994e-05
11	0xba105e74	-0.00055072387
12	0x39a68370	0.00031759916
13	0xbab53012	-0.001382353
14	0xbb0d8953	-0.0021596744
15	0xbb9f1840	-0.0048551857
16	0x3be8a431	0.0070996513
17	0x390fe35f	0.00013722245
18	0xbb2f83bc	-0.00267814
19	0x3ade71f5	0.0016971218
20	0xbd02e446	-0.03195598
21	0xb93ea48e	-0.00018181113
22	0x3b04d0a6	0.0020265966
23	0xbb86d2f8	-0.004114505
24	0xbc54206c	-0.012947183
25	0xbac1fd49	-0.0014800216
26	0xb9cd907b	-0.00039208293
27	0xbbb9b093	-0.0056668012
28	0xbc275876	-0.010213962
29	0xbcc91fba	-0.024551261
30	0x3b911cf7	0.0044285017
31	0xb9722ef0	-0.00023096404
32	0xbca977c6	-0.020686995
33	0xbce290f1	-0.027657004
34	0xbb499076	-0.0030756271
35	0xbb0f7925	-0.0021892276
36	0x3bb4e5a4	0.0055205394
37	0xbb20c596	-0.0024531833
38	0xbbdf57ec	-0.006815901
39	0xbcb98a07	-0.022648824
40	0x3ab737ef	0.0013978462
41	0xbc62ebe0	-0.013850182
42	0x3a0eef49	0.00054525264
43	0x3a11c8c5	0.0005561228
44	0x3ac6aab2	0.0015157072
45	0xbbee5aa2	-0.007273988
46	0xbba1886e	-0.0049295938
47	0xbc0d99dc	-0.00864264
48	0xbb3eeacc	-0.002913165
49	0xbb236c68	-0.0024936441
50	0x3baefb6b	0.00534003
51	0x3a42a41c	0.0007424967
52	0xbc01a113	-0.007911938
53	0x3a1c42db	0.000596089
54	0xbb4d0332	-0.0031282422
55	0xbaf105a4	-0.0018388522
56	0xbc522d31	-0.012828157
57	0x3bb87d71	0.005630188
58	0x39c102f8	0.0003681404
59	0xba86319f	-0.0010238177
60	0x3b0d3d28	0.0021551345
61	0xbd02fbab	-0.03197829
62	0x384ce20c	4.8847913e-05
63	0xbc2cecdd	-0.0105545195
64	0xbb1a970d	-0.0023588568
65	0xbcb7da53	-0.022442972
66	0x3bb21e17	0.005435716
67	0x3b9542bf	0.004555076
68	0x3ad3a6f1	0.0016147775
69	0xbc501026	-0.012699163
70	0x3a971dd1	0.0011529272
71	0xbc586447	-0.013207502
72	0xbc620bb5	-0.0137967365
73	0xbab0c079	-0.0013485096
74	0xbbd80bf9	-0.006593224
75	0xbb499a70	-0.0030762218
76	0x3a93605e	0.001124393
77	0xbb56de2d	-0.0032786236
78	0xbb38ff19	-0.0028228222
79	0x3b89f7f9	0.004210469
80	0x3b9fd250	0.004877366
81	0x3b369511	0.0027859847
82	0xbc715b0d	-0.014731181
83	0x3bd9e2a1	0.0066493307
84	0xbb9bd3b0	-0.0047554597
85	0xbc5463cf	-0.012963249
86	0xbb8f5334	-0.0043739323
87	0xbb1bc9ab	-0.0023771327
88	0xbc10a404	-0.008828167
89	0x3bac7ab6	0.0052636517
90	0xbce08a7c	-0.027409784
91	0xbb045416	-0.002019172
92	0xbd3c8219	-0.04602251
93	0xbb35b9b0	-0.0027729087
94	0xbbece187	-0.0072290334
95	0x3a812669	0.0009853366
96	0xbb7bc59e	-0.003841735
97	0xbc6c38a0	-0.014417797
98	0xbbdf9d97	-0.006824206
99	0xbb962285	-0.004581752
100	0x3b2df070	0.0026541017
101	0x3bc7000d	0.006073004
102	0x3b4236dd	0.0029634752
103	0xba059d7f	-0.0005097016
104	0xbc09a4ce	-0.008401109
105	0x38179ca4	3.614709e-05
106	0xbc68bdbc	-0.014205392
107	0xbb0ad9bd	-0.002118691
108	0xbba3df30	-0.0050009713
109	0xbc88421b	-0.016633084
110	0xbc5ce052	-0.0134812165
111	0xbc95d600	-0.01829052
112	0xbaa49d4f	-0.0012559089
113	0x3b2e1439	0.0026562347
114	0x39db6ba6	0.0004185114
115	0x3a873618	0.0010315804
116	0x398a7e21	0.00026415384
117	0xbb99b0e0	-0.0046902746
118	0xbaf492d3	-0.001865948
119	0x3b9b7324	0.0047439504
120	0xbb5f742d	-0.0034096346
121	0x3b6c97e7	0.0036101283
122	0xbcd00b27	-0.025395943
123	0xbcb08511	-0.021547826
124	0xbb52d225	-0.0032168713
125	0x3a8647c9	0.0010244782
126	0xba0d84c0	-0.00053985044
127	0xbb6cde7f	-0.003614336
128	0xbc23c4a7	-0.009995616
129	0xba3495c4	-0.0006888772
130	0xbc9787c2	-0.018497352
131	0xbc106e9b	-0.008815433
132	0xbaecf421	-0.0018078127
133	0xbae62611	-0.0017558952
134	0xbc3564e5	-0.011071418
135	0x3b7627a6	0.0037560253
136	0xbbe4a9ab	-0.006978234
137	0xbbf2ec0a	-0.007413392
138	0xbc683fb7	-0.014175347
139	0xbaa3e939	-0.0012505419
140	0x3ae53350	0.0017486606
141	0x3b7f5b8a	0.0038964474
142	0x3b881982	0.0041534314
143	0x3a81e09b	0.0009908857
144	0x3b9ed97d	0.004847704
145	0xbbd3df3e	-0.0064658215
146	0x3aeec05c	0.0018215287
147	0x3a8fb5dc	0.0010964232
148	0xbb8fd98a	-0.0043899463
149	0x3bdcb95b	0.0067359633
150	0xba9c4bff	-0.0011924504
151	0xbc44ab5f	-0.012003749
152	0x3ac5a8b5	0.0015080186
153	0xbb9761b8	-0.0046198033
154	0xbaa2748d	-0.0012394354
155	0xbb89dcee	-0.004207245
156	0x3ad232ab	0.0016036829
157	0x394bade4	0.00019424368
158	0x3c2dafa3	0.010600957
159	0xbbe9c71f	-0.007134333
160	0xbaa89178	-0.0012860736
161	0x3bcb32f9	0.006201145
162	0x3bbd4513	0.0057760566
163	0xbcd3ff9a	-0.025878716
164	0x3b222174	0.0024739178
165	0xbb2cdf73	-0.0026378303
166	0xbbcfeb2a	-0.0063451724
167	0xbccc27ca	-0.024921317
168	0xbb7fb727	-0.003901908
169	0x3a11dc2c	0.0005564119
170	0x3b2778df	0.0025554223
171	0x39147b2c	0.00014160265
172	0xbb9e44e0	-0.004829988
173	0xbc86f29f	-0.016473113
174	0xbb99a996	-0.0046894057
175	0xbbae1314	-0.005312333
176	0x39a6c290	0.00031806948
177	0xbc8fca13	-0.017552411
178	0xbc162252	-0.009163456
179	0xbaf622dd	-0.0018778701
180	0xbc72f14b	-0.014828037
181	0x3a54f0f7	0.0008123065
182	0x3ae75a96	0.0017650898
183	0xbac69a05	-0.0015152103
184	0xbce0ea95	-0.027455607
185	0x3b09dd28	0.002103636
186	0x3b16c11c	0.0023003286
187	0xbc4f0870	-0.012636289
188	0xbc6e84c1	-0.014558018
189	0xbc89fd43	-0.016844397
190	0xba90c744	-0.0011045714
191	0x3bdb1544	0.0066858847
192	0xbab20cb0	-0.0013584103
193	0xbc4bcb3d	-0.0124385925
194	0xbc78bc4a	-0.01518161
195	0xba79573f	-0.0009511597
196	0xbba34e8a	-0.004983728
197	0x3a980d0e	0.001160057
198	0xbc459067	-0.012058354
199	0xbc2726a5	-0.010202085
200	0xba91df36	-0.0011129144
201	0xbc73f421	-0.014889748
202	0xbbe23a63	-0.006903933
203	0xbb63f17d	-0.003478139
204	0x3b99a0ea	0.004688372
205	0xba09a22d	-0.00052503013
206	0xbc6fac67	-0.014628506
207	0xbb62a8cc	-0.0034585474
208	0xbc7925c9	-0.015206763
209	0x3b980ef3	0.004640454
210	0xbc0268d8	-0.007959567
211	0xba3a0e54	-0.0007097472
212	0xbbf20d72	-0.0073868567
213	0xbbc64870	-0.0060511157
214	0x3abdc87b	0.0014479303
215	0xbb7a2301	-0.0038167837
216	0xbc97a48e	-0.018511083
217	0xbcac0a27	-0.021000935
218	0x3ba3bc96	0.0049968464
219	0x3b115cd9	0.0022180586
220	0xbba1adf3	-0.0049340664
221	0x3a9f794e	0.0012166889
222	0x3b1f6ea1	0.0024327415
223	0xbc2adb56	-0.01042827
224	0xbb2e062b	-0.002655397
225	0x3ad0e8dd	0.0015938539
226	0xbccbf707	-0.024898065
227	0xbc0ed9a0	-0.008718878
228	0xbb90a199	-0.004413795
229	0xb8ef464b	-0.00011409501
230	0x3a5d1cda	0.000843478
231	0xbc9367a7	-0.017993761
232	0xbb27e317	-0.0025617534
233	0xbc127d0d	-0.008940947
234	0xbb1676c8	-0.0022958983
235	0xba9e7a87	-0.0012090959
236	0xba985382	-0.0011621567
237	0x3a515cbc	0.0007986536
238	0xbbcc2c97	-0.0062309015
239	0xbcd560c3	-0.026047116
240	0xbb5beb08	-0.0033556838
241	0xbc7a82f7	-0.0152900135
242	0xbad0cb4f	-0.0015929731
243	0xbb16f73e	-0.0023035551
244	0x39d7c9bb	0.00041158297
245	0xbc9b89e9	-0.01898666
246	0xbc9dcfb2	-0.019264076
247	0xbb275629	-0.0025533533
248	0x39d218ea	0.00040072884
249	0x3b9e22a8	0.0048259087
250	0x3b28effb	0.0025777805
251	0x3afb1e7e	0.0019158868
252	0x3a8f9576	0.0010954577
253	0x3afb1bbf	0.0019158049
254	0xbb843fbd	-0.0040359185
255	0xbb3a33c5	-0.0028412205

network_body.linear_encoder.seq_layers.0.weight f4 [256, 416]
0	0x3d31ac5d	0.04337727
1	0x3c4f5f6c	0.012657028
2	0xbe033fb6	-0.12817273
3	0x3bbbae9e	0.005727603
4	0x3e38a547	0.18031798
5	0x3d56ec09	0.052471194
6	0xbcbfa8f5	-0.023395995
7	0xbd40856e	-0.04700225
8	0x3cb79459	0.022409605
9	0xbc5858bb	-0.013204749
10	0x3c29fc40	0.0103750825
11	0x3daa3bf4	0.083122164
12	0x3dca3d3e	0.09874962
13	0xbcf6a3f1	-0.03010747
14	0x3c05c20e	0.008163942
15	0x3dc8caad	0.09804282
16	0xbdd05b1d	-0.101736285
17	0xbd4bab0d	-0.049723674
18	0x3c3fd847	0.011709279
19	0x3c3f58cc	0.011678886
20	0x3d9ebd88	0.07750994
21	0x3d352297	0.04422244
22	0x3c7d8902	0.01547456
23	0xbd5e4dff	-0.0542736
24	0x3d77a505	0.06046011
25	0x3d663c07	0.05620959
26	0xbd9306cb	-0.0717903
27	0x3d1999cf	0.0375002
28	0x3d8c1be5	0.06841258
29	0x3cd094a5	0.025461504
30	0x3d2a0773	0.04151101
31	0x3cd9b8c1	0.026577355
32	0x3d7b2225	0.06131186
33	0x3d32407f	0.04351854
34	0xbd81039f	-0.06299519
35	0x3d80e15f	0.06292986
36	0x3d0d57b2	0.03450746
37	0xbc0a7b22	-0.008452209
38	0xbd232412	-0.03982932
39	0xbd79701d	-0.060897935
40	0x3d1fcf4e	0.03901606
41	0x3dbe0ccf	0.09279787
42	0xbc006ec0	-0.007838905
43	0xbd6939c4	-0.056939855
44	0x3d568120	0.052369237
45	0xbcbae86f	-0.022815911
46	0x3cbdabd3	0.023153221
47	0x3daf943c	0.08573195
48	0x3bcba041	0.006214172
49	0x3d312e15	0.043256838
50	0xbd25d7e8	-0.040489107
51	0xbc50973e	-0.012731371
52	0x3c2c49be	0.010515628
53	0x3c0bae68	0.008525468
54	0x38dd7dd8	0.000105615414
55	0x3d3c5c3d	0.045986403
56	0x3d5d125a	0.05397258
57	0x3bbca902	0.005757452
58	0xbc847e75	-0.01617358
59	0xbc16fc47	-0.009215421
60	0x3dd05025	0.10171536
61	0x3d74ab4c	0.059733674
62	0xbaff0bbc	-0.0019458453
63	0x3db98bbc	0.09059855
64	0x3c175da2	0.009238632
65	0x3a96f85e	0.0011518111
66	0xbe06b4a7	-0.13154851
67	0xbbe76e23	-0.00706269
68	0x3c3b4a57	0.011431298
69	0xbd913880	-0.07090855
70	0x3d4a1231	0.049333755
71	0xbc4bcd77	-0.012439123
72	0x3d6e68af	0.058205303
73	0xbd96301a	-0.073333934
74	0x3d49f54f	0.04930621
75	0xbc7e18b2	-0.0155088175
76	0x3db966fa	0.09052844
77	0x3d781346	0.060565256
78	0x3bb2c3f4	0.0054554883
79	0xbba2e29f	-0.004970863
80	0x3d34d521	0.044148568
81	0xbcbaf4bd	-0.022821778
82	0x3d89fd26	0.06737737
83	0x3d1a400c	0.037658736
84	0xbda58519	-0.08082027
85	0x3bb9db5a	0.0056719007
86	0xbd7ff963	-0.062493693
87	0xbcd5d241	-0.026101233
88	0xbcb3100e	-0.021858241
89	0xbd2d7769	-0.042350207
90	0x3da5c3f3	0.08094015
91	0xbcc7e9ac	-0.024403416
92	0x3d386991	0.04502255
93	0xbdc667bd	-0.09687755
94	0x3d7a6bf4	0.06113811
95	0xbd72d966	-0.05928936
96	0x3cdb298b	0.026753208
97	0x3c845151	0.016152056
98	0x3c02d31f	0.0079849055
99	0xbc2d8cf6	-0.01059269
100	0x3d29c5f8	0.041448563
101	0xbca539a9	-0.020169096
102	0xba3ed7db	-0.000728009
103	0x3d2af0a2	0.04173339
104	0xbcff2120	-0.031143725
105	0xbd23ad76	-0.039960347
106	0x3cf88f96	0.030341905
107	0x3d6071fe	0.05479621
108	0xbc6b1667	-0.014348603
109	0xbb743f7b	-0.0037269283
110	0xbbeda0fc	-0.007251857
111	0x3dc0932c	0.09403071
112	0xbd885eff	-0.06658744
113	0xbc8f7a9d	-0.017514521
114	0x3d9a9a01	0.07548905
115	0xbd804a74	-0.06264201
116	0x3c4543b9	0.012040072
117	0xbd371b6b	-0.044703882
118	0xbd32ca8d	-0.0436502
119	0xbd02d66c	-0.03194277
120	0x3b6dd8a2	0.0036292453
121	0xbb562164	-0.003267371
122	0x3c576110	0.0131457
123	0x3cc3232d	0.023820484
124	0x3bd7e84b	0.006588971
125	0xbd7b7ec3	-0.061400186
126	0x3c952371	0.018205376
127	0x3ce6c56d	0.028170312
128	0xbbf8f760	-0.007597849
129	0xbd1414cf	-0.036152657
130	0x3c8ed5cd	0.017435933
131	0x3c167b31	0.009184645
132	0x3ca14ec2	0.019690875
133	0x3db80784	0.089858085
134	0x3d232cd2	0.039837666
135	0xbd8be8b3	-0.06831493
136	0xbd85f608	-0.06541067
137	0xbd4ad78a	-0.04952196
138	0xbd846397	-0.06464308
139	0x3d82460c	0.06361017
140	0x3c7c623a	0.015404278
141	0x3d62f154	0.05540593
142	0x3cc5f09e	0.024162587
143	0x3d538f26	0.05165019
144	0xbcfea28b	-0.031083366
145	0xbc83d5b0	-0.016093105
146	0xba1d2325	-0.00059943117
147	0x3d3b22ab	0.04568736
148	0x3b7b6872	0.0038361815
149	0xbcea9f04	-0.028640278
150	0xbcb0d1f0	-0.021584481
151	0xbac82456	-0.0015269618
152	0x3c82fdfe	0.015990254
153	0xbc88474a	-0.016635556
154	0x3b8a32d8	0.004217487
155	0xbd8bbfed	-0.06823716
156	0xbddb874d	-0.10719166
157	0x3d19ad7f	0.037518974
158	0x3cfa5fe5	0.030563304
159	0xbd49c87f	-0.049263474
160	0xbdca2c01	-0.09871674
161	0x3cbbbde7	0.022917701
162	0x3c0bc918	0.008531831
163	0x3c0db2fd	0.008648631
164	0xbd94e664	-0.07270506
165	0x3bca9f19	0.0061835167
166	0x3d6535fd	0.05595969
167	0xbd28af89	-0.04118303
168	0xbc44af25	-0.012004648
169	0xbc4f92d2	-0.012669282
170	0x3d041800	0.03224945
171	0x3cab5d9b	0.020918658
172	0x3c49a79c	0.012308028
173	0x3dc8010a	0.09765823
174	0x3836e183	4.3602206e-05
175	0x3dc2cf91	0.095122464
176	0x3cc4be27	0.024016453
177	0x3d5bcfff	0.053665157
178	0x3c60a80b	0.01371194
179	0x3bff9c56	0.007800619
180	0xbdb74d0f	-0.08950245
181	0x3dd42eeb	0.103605114
182	0x3d3b1c45	0.045681257
183	0x3dbedd8a	0.09319599
184	0xbbaa3d24	-0.005195277
185	0x3b30ca33	0.002697599
186	0xbd59ed40	-0.053204775
187	0xbc551e21	-0.013007672
188	0xbcd411ee	-0.025887456
189	0xbd645431	-0.055744354
190	0xbc4f31c7	-0.012646145
191	0xbcbbc63e	-0.022921678
192	0x3c9df625	0.01928241
193	0x3c920733	0.017825698
194	0xbbad59df	-0.0052902545
195	0x3d8605fb	0.065441094
196	0x3daa8c99	0.08327598
197	0x3c40a4e7	0.011758066
198	0x3c1de89d	0.009637979
199	0x3d7d61e5	0.061860938
200	0xbd813b08	-0.063100874
201	0x3d3353d4	0.043781117
202	0x3d120e72	0.035658307
203	0xbda780f9	-0.081788965
204	0x3dddfc15	0.108390965
205	0xbc8d5463	-0.017252153
206	0x3d7955ce	0.060872845
207	0xbce9c8e3	-0.028538173
208	0x3d5c4f93	0.053786825
209	0x3d48e28e	0.049044184
210	0xbcf1d46d	-0.029520238
211	0xbd73e871	-0.059547845
212	0x3d45ce09	0.048292194
213	0xba79a5ec	-0.00095233205
214	0xbd17cf8a	-0.03706316
215	0x3a3e249f	0.0007253382
216	0x3d0d0d77	0.03443667
217	0xbc78f038	-0.015193991
218	0xbc438de9	-0.0119356895
219	0xbd919510	-0.071085095
220	0x3da80a1c	0.08205053
221	0xbc83873f	-0.016055701
222	0xbdb16bc2	-0.08663131
223	0x3b40805d	0.0029373385
224	0xbd555140	-0.05207944
225	0x3c9c8bbd	0.019109601
226	0xbc0a5185	-0.008442287
227	0xbcda65e3	-0.026659911
228	0x3cf3828d	0.029725337
229	0x3c39104c	0.011295389
230	0x3d7e35c1	0.062062982
231	0x3d405176	0.046952687
232	0x3d728e12	0.05921752
233	0xbd880bfb	-0.0664291
234	0xbd786546	-0.060643457
235	0xbdc841fa	-0.09778209
236	0x3d25f17e	0.040513508
237	0xbd521f72	-0.05129952
238	0xbdfe35f0	-0.124126315
239	0x3d758145	0.059937734
240	0xbc1bfdff	-0.009521007
241	0x3c902faa	0.017600853
242	0xbcd6c259	-0.026215719
243	0x3d0da829	0.0345842
244	0x3df86418	0.12128466
245	0x3c43a3a8	0.011940874
246	0x3d8aab9b	0.067710124
247	0x3c2557a4	0.010091696
248	0xbcd42569	-0.025896745
249	0x3df7c191	0.12097467
250	0xbdb799e0	-0.08964896
251	0x3aa36c83	0.0012468252
252	0xbd460029	-0.048339996
253	0xbccc1fd6	-0.024917524
254	0x3918e400	0.00014580786
255	0xbc8426e6	-0.01613183

network_body.linear_encoder.seq_layers.2.bias f4 [256]
0	0xbc9de320	-0.01927334
1	0xbc325477	-0.010884396
2	0x3b37cab1	0.0028044397
3	0xbba982dc	-0.0051730704
4	0xbc790c30	-0.01520066
5	0xbc156d68	-0.009120323
6	0xbc94dbfa	-0.0181713
7	0xbcf48f5a	-0.029853512
8	0xbb07943d	-0.0020687722
9	0xbb4d0f89	-0.0031289777
10	0x3b6ab674	0.0035814317
11	0xbbf6d960	-0.0075332373
12	0xbc013370	-0.007885799
13	0xbc4c75f7	-0.012479297
14	0x3a54c028	0.0008115792
15	0xbc978572	-0.018496249
16	0xbc539d91	-0.012915985
17	0xbc236581	-0.009972931
18	0x3b244122	0.0025063236
19	0xbbf82de6	-0.007573831
20	0xbb311f73	-0.0027026802
21	0xbca8326e	-0.02053186
22	0x3bf13ccc	0.007361984
23	0x3b649dd6	0.0034884117
24	0xb9e0af21	-0.0004285509
25	0xbbe98805	-0.0071268105
26	0xbb9c930e	-0.0047782725
27	0x3bf28189	0.0074006957
28	0xbc2fa7b2	-0.010721134
29	0xbcbd4d85	-0.023108253
30	0xbaa2d4b8	-0.0012423014
31	0xbc69195d	-0.0142272385
32	0x3c1c107b	0.009525414
33	0xbc2ee5b2	-0.010674881
34	0xbc2ac16e	-0.010422094
35	0xbc2bf51d	-0.010495451
36	0xbd04d6d7	-0.03243145
37	0xbc99ea48	-0.018788472
38	0xbc77c3d3	-0.015122372
39	0xbad74ae2	-0.0016425515
40	0xbc1a9f10	-0.0094373375
41	0xbb86b12b	-0.0041104755
42	0xba18234f	-0.0005803601
43	0xbc792c1e	-0.015208272
44	0x3b422626	0.002962479
45	0x3b86bcb6	0.0041118516
46	0xbb4fbaab	-0.0031696956
47	0x3c11c4d6	0.008897027
48	0x3c0326e1	0.008004875
49	0xbc59ceeb	-0.013293962
50	0xbc243a34	-0.010023642
51	0xbcdced87	-0.02696873
52	0x3aee6274	0.00181873
53	0xbcb6c08d	-0.022308612
54	0x3b0eab86	0.0021769716
55	0xbc2fddfa	-0.010734076
56	0xbb7a1ea7	-0.0038165243
57	0xbbe1b3f2	-0.006887906
58	0x3c80c28c	0.015717767
59	0xbcde00d4	-0.027100004
60	0xbc5fda78	-0.013662927
61	0xbc1e5fd6	-0.009666404
62	0x3a7aace1	0.0009562504
63	0x3a22e834	0.00062144105
64	0xbc0f39fe	-0.008741854
65	0xbcc26fda	-0.023734976
66	0xbc1d006f	-0.009582623
67	0xbc28b210	-0.01029636
68	0xbb657ca0	-0.003501691
69	0x3c2b34dd	0.010449615
70	0xbc79578f	-0.0152186295
71	0xbc77ff5f	-0.015136569
72	0xbaeff37c	-0.0018306817
73	0x3c9f6457	0.019457025
74	0x3c0468e0	0.008081645
75	0xbb3c0d5e	-0.002869449
76	0xbc1e0e8d	-0.009647024
77	0xbb153e36	-0.0022772676
78	0x3badbd89	0.0053021354
79	0xb95fc6f6	-0.00021341056
80	0xbbb5d7df	-0.0055494155
81	0x3972d1e9	0.00023157116
82	0x3c9127af	0.017719118
83	0xbc72592c	-0.014791768
84	0xbc2897ee	-0.010290129
85	0xbc4fa937	-0.012674621
86	0xbc66a6e0	-0.014077872
87	0xbc8c8df4	-0.017157532
88	0xbb830c7e	-0.003999292
89	0xbc32f811	-0.010923401
90	0xbcbff3a0	-0.0234316
91	0xbc8c91f9	-0.017159449
92	0xbc020484	-0.007935647
93	0xbc0865d5	-0.00832506
94	0xbcc4229f	-0.02394229
95	0xbb94a357	-0.004536073
96	0xbc5d70a3	-0.013515624
97	0x3b8aa3c4	0.004230948
98	0x3a60dc3a	0.0008577738
99	0xbc3558d5	-0.0110685425
100	0x3be15fd4	0.0068778787
101	0xbce1394e	-0.027493145
102	0xbcb6fd82	-0.022337679
103	0xbc662a8e	-0.014048232
104	0x3b69ee0a	0.003569486
105	0x3c39216e	0.011299474
106	0xbb2282ae	-0.002479713
107	0xbc260d75	-0.010135044
108	0x3a09d171	0.00052573445
109	0xbc3a9c73	-0.011389839
110	0xbc105389	-0.008808979
111	0x3b2cb2dc	0.0026351726
112	0xbc761e10	-0.015021816
113	0xba22fab2	-0.0006217166
114	0x3c2517e4	0.010076497
115	0xbbd6ffe2	-0.0065612653
116	0xbb570b31	-0.0032813067
117	0xbb465644	-0.003026382
118	0xbc5e8d28	-0.013583459
119	0xbba44bbe	-0.005013912
120	0x3bb4638b	0.0055050305
121	0xbb429e3b	-0.0029696363
122	0xbc93d5cd	-0.018046284
123	0xbc03974f	-0.00803168
124	0x3b62b1cb	0.0034590836
125	0xbc74ce24	-0.014941726
126	0xbbd3f170	-0.0064679906
127	0xbbe23097	-0.006902765
128	0xbc5f2471	-0.013619528
129	0xbcb2bcdb	-0.021818569
130	0xbc0a7dd8	-0.008452855
131	0x3c153651	0.009107188
132	0xbc91e091	-0.017807277
133	0x3a1ca19a	0.0005975008
134	0xbc8c3fee	-0.017120328
135	0xbb8452bd	-0.0040381835
136	0xbc811209	-0.01575567
137	0xbc34d4e7	-0.011037088
138	0x3b82be76	0.00398999
139	0xbc31f6fa	-0.010862106
140	0x3b28a92c	0.00257356
141	0xbc213e35	-0.0098414915
142	0x3bc1501a	0.0058994414
143	0x3bd29ad5	0.006427149
144	0xbca7c0db	-0.020477703
145	0xbc23e69b	-0.010003711
146	0xbc11fd31	-0.008910463
147	0x3c15542f	0.009114309
148	0x3bc972a2	0.0061476985
149	0xbbdbc3a9	-0.006706674
150	0x3bb64b05	0.0055631422
151	0xbc3e4c7e	-0.011614917
152	0xbc014943	-0.007891002
153	0x3c04ddc9	0.008109518
154	0xbc376391	-0.011193172
155	0x3c1ef571	0.0097020725
156	0xbc809c8c	-0.015699647
157	0xbc17ca91	-0.009264604
158	0x3c23547e	0.009968875
159	0xbc983b63	-0.018583005
160	0xbcb05a05	-0.0215273
161	0xbb7d687d	-0.0038667016
162	0x3b16b7d2	0.002299775
163	0xbc857d8c	-0.016295217
164	0xbb741acf	-0.0037247424
165	0xbad67e84	-0.0016364609
166	0xbb8f1111	-0.004366048
167	0xbc1b0c22	-0.009463342
168	0x3ba60d75	0.005067522
169	0xbbaeb405	-0.0053315186
170	0xbb4de9cd	-0.0031419874
171	0xbb2304c7	-0.0024874674
172	0xbb931e91	-0.004489728
173	0xbc6423a3	-0.013924512
174	0xbcab8eb9	-0.020942079
175	0x3ae13e62	0.0017184729
176	0xbbd53585	-0.006506624
177	0xbcbf90e0	-0.023384511
178	0xbc9a018d	-0.018799568
179	0xbcbc8df8	-0.023016915
180	0x3c1e8885	0.0096761035
181	0xbc3a15ce	-0.011357738
182	0xbbce7cba	-0.0063014897
183	0x3c134f06	0.008991009
184	0xbb23cd8d	-0.0024994344
185	0x3aa44fc3	0.0012535978
186	0xbcb1c766	-0.021701526
187	0xbbea44ee	-0.0071493303
188	0xbc1f4410	-0.009720817
189	0x39db069e	0.00041775865
190	0x39301989	0.0001679418
191	0xbb622101	-0.0034504535
192	0xbbcf37e1	-0.0063238
193	0xbb0ce544	-0.0021498958
194	0x3b3e1910	0.0029006638
195	0xbc134b64	-0.0089901425
196	0xbcbdd119	-0.023170995
197	0x3bc98c2c	0.006150743
198	0xbbdfab7f	-0.006825864
199	0xbbfc56b7	-0.007700767
200	0xbbd4228c	-0.006473845
201	0xbcb298ca	-0.021801371
202	0xbc01867d	-0.0079056
203	0xbc9882ae	-0.018617
204	0xbc24255b	-0.010018672
205	0x3b521b8a	0.0032059872
206	0x3ad43036	0.0016188684
207	0xbc330dac	-0.010928553
208	0xbd10fad5	-0.035395462
209	0x3b320f60	0.0027169809
210	0xbc2e4e5b	-0.010638799
211	0xbbf53da5	-0.0074841552
212	0xbc58c267	-0.013229943
213	0xbc185257	-0.009296975
214	0xbca6e2c0	-0.020371795
215	0xbbb2b86a	-0.005454113
216	0x3a3ffd2e	0.00073237985
217	0x3ac07cbc	0.0014685611
218	0xbc9281a1	-0.017884078
219	0x38cb5de0	9.69728e-05
220	0xbc4ce6b5	-0.012506177
221	0x3a29e9e6	0.0006481692
222	0xbcbf6b57	-0.023366613
223	0xbc5615ca	-0.013066718
224	0xbca4e138	-0.020126924
225	0x3afaf6a8	0.0019146996
226	0xbc968748	-0.018375054
227	0x3c801e8e	0.01563957
228	0xbc14381f	-0.009046583
229	0xbb772419	-0.0037710725
230	0xbcd873f5	-0.02642248
231	0xbc530d7f	-0.012881636
232	0xbc598e26	-0.01327852
233	0xbc1cdb5b	-0.009573783
234	0xbbc3c336	-0.0059741987
235	0xbc5c70de	-0.013454644
236	0xbb2c47cc	-0.0026287911
237	0x3baaadfc	0.005208729
238	0xbbee8118	-0.007278573
239	0xbae62cd1	-0.0017560964
240	0x3ab612ae	0.0013891065
241	0x3c06d632	0.008229779
242	0xbd014bc5	-0.0315664
243	0xbbfe48e5	-0.0077601545
244	0xbc1cb4b8	-0.009564571
245	0xbc7816eb	-0.015142183
246	0xbc9fc210	-0.019501716
247	0xbc241241	-0.010014118
248	0xbc5f1ee6	-0.013618207
249	0x3aed98bf	0.0018127187
250	0xbbefa909	-0.0073138517
251	0xbbec3522	-0.0072084824
252	0xbbace695	-0.005276511
253	0xbc93698e	-0.017994668
254	0x3c211f4a	0.00983412
255	0xbc16b849	-0.00919921

network_body.linear_encoder.seq_layers.2.weight f4 [256, 256]
0	0xbdfa4b2b	-0.122213684
1	0xbd1ac5f1	-0.037786428
2	0x3d622127	0.055207398
3	0xbd6ea49b	-0.05826245
4	0x3d9a5b2b	0.0753692
5	0x3d1c45ba	0.038152434
6	0xbcdc8af8	-0.026921734
7	0x3d1d2875	0.03836866
8	0xbdf550e5	-0.1197832
9	0xbd85309e	-0.065034136
10	0x3c814ff4	0.015785195
11	0x3d486435	0.04892369
12	0x3df96ec2	0.121793285
13	0xbdf96c47	-0.121788554
14	0x3d3c80f5	0.04602142
15	0xbd64d935	-0.055871207
16	0x3cfcf582	0.030878786
17	0x3ce15064	0.027504154
18	0x3dd11383	0.102088
19	0xbd89a17f	-0.06720256
20	0x3da062fa	0.07831378
21	0x37b6a51e	2.177298e-05
22	0xbcbffeb4	-0.023436882
23	0xbdbb2240	-0.09137392
24	0x3d5c92bb	0.05385087
25	0xbc2c09f0	-0.010500416
26	0xbd472346	-0.048617624
27	0x3d075975	0.033044297
28	0x3d694da0	0.056958795
29	0xbd7b6c7b	-0.061382752
30	0xbe0c4908	-0.13699734
31	0x3bebb6be	0.0071934154
32	0xbc9fba7b	-0.0194981
33	0x3c8269d1	0.015919598
34	0x3d99cc0a	0.075096205
35	0x3d3fc538	0.04681894
36	0x3d0b3fd1	0.033996407
37	0xbd892496	-0.06696431
38	0xbd545f22	-0.05184854
39	0x3d69b0a3	0.05705322
40	0xbcd09413	-0.025461232
41	0xbcbfd506	-0.023417007
42	0xbdd6120c	-0.10452661
43	0x3d437efe	0.04772853
44	0xbd36a596	-0.04459151
45	0xbd541b4a	-0.051783837
46	0xbdf63ae7	-0.120229535
47	0x3db56b32	0.088583365
48	0xbdfd2a1d	-0.12361548
49	0x3d099056	0.033584915
50	0xbdae9277	-0.0852403
51	0xbd1982a6	-0.03747811
52	0x3caa22fd	0.020768637
53	0x3d4e76cf	0.050406273
54	0xbe3dc866	-0.18533477
55	0x3d1cdb47	0.038295057
56	0xbdce549e	-0.10074733
57	0xbd9bb990	-0.076037526
58	0xbcb5131b	-0.022103837
59	0x3b98914c	0.0046559926
60	0xbcc44c38	-0.023962125
61	0x3d51322e	0.051073246
62	0x3d7a3708	0.06108764
63	0xbd72c093	-0.059265684
64	0x3d69f0e5	0.0571145
65	0xbd34977a	-0.04408977
66	0xbd52686d	-0.05136912
67	0xbe3b7199	-0.18305053
68	0x3d1ca041	0.038238768
69	0x3ce448fe	0.027866837
70	0xbb9bd730	-0.004755877
71	0xbdc10386	-0.094245
72	0xbde85057	-0.113434486
73	0xbc80c1f4	-0.015717484
74	0x3d81089c	0.0630047
75	0xbc9b26d8	-0.01893942
76	0xbe08bd8d	-0.13353558
77	0x3cbdf51e	0.02318817
78	0xbd9af6d1	-0.07566608
79	0x3ae645cb	0.0017568407
80	0xbd4d5222	-0.050127156
81	0x3c6ed13a	0.014576251
82	0x3ca56c3c	0.020193212
83	0x3c9aa92c	0.018879496
84	0xbde86cd5	-0.11348883
85	0x3c66149f	0.014043002
86	0x3d33b847	0.043876912
87	0x3df86cc6	0.12130122
88	0xbbb57ff3	-0.0055389344
89	0xbcb23861	-0.0217554
90	0xbca973a9	-0.020685034
91	0xbcfdc61e	-0.030978259
92	0xbd88d547	-0.066813044
93	0xbd0f1bb9	-0.034938548
94	0x3b8ecbf8	0.004357811
95	0xbe213f33	-0.15746765
96	0x3db492e3	0.08817079
97	0xbda296bf	-0.07938909
98	0xbe02da7b	-0.12778656
99	0xbb275ab9	-0.0025536253
100	0xbe00de0f	-0.12584709
101	0xbc6c6b25	-0.014429842
102	0x3d725caa	0.059170403
103	0x3d1f432b	0.038882416
104	0xbd749953	-0.059716534
105	0xbd87b890	-0.066269994
106	0xbdc08165	-0.0939968
107	0xbd416e6f	-0.04722446
108	0xbda70904	-0.081560165
109	0x3dea9bc3	0.114554904
110	0xbda3c489	-0.079964705
111	0xbc875ab2	-0.01652274
112	0xbb43706c	-0.0029821647
113	0x3d2e7d8c	0.0426002
114	0x3ccc6a54	0.024953045
115	0xbd4948dd	-0.049141753
116	0x3b9b3a1a	0.004737151
117	0xbbb96c90	-0.0056586936
118	0x3b85cb35	0.004083062
119	0x3cb8f295	0.02257661
120	0xbd2798cb	-0.0409172
121	0x3e01d405	0.12678535
122	0x3bbf8c9b	0.005845619
123	0x3bfba236	0.007679249
124	0xbc9f2c3b	-0.01943027
125	0x3d5e8976	0.05433031
126	0xbc90e538	-0.017687425
127	0x3d3deb1e	0.046366803
128	0x3c1c9ed7	0.009559355
129	0xbd767b13	-0.060175966
130	0xbc1960de	-0.009361474
131	0x3d3b9ccc	0.04580383
132	0x3d8c156f	0.06840026
133	0xbaca81fd	-0.0015450116
134	0xbdca3d6b	-0.09874996
135	0xbbc46b82	-0.0059942612
136	0xbcda80c7	-0.026672734
137	0x3df82fee	0.12118517
138	0x3d66fa91	0.056391302
139	0xba6cc9d1	-0.00090327585
140	0xbd007ba2	-0.031367905
141	0xbc9bea83	-0.019032722
142	0x3dacfda7	0.08446818
143	0x3cf1f29b	0.029534629
144	0xbce84f69	-0.028358178
145	0x3d6cd8d7	0.057823982
146	0x3d1efc84	0.038815036
147	0x3b2b93cb	0.002618062
148	0x3d400173	0.046876382
149	0x3db8684c	0.09004268
150	0x3d7f3b3a	0.062312342
151	0x3ce22ff9	0.027610766
152	0xbcdac089	-0.026703136
153	0xbd44e7ca	-0.048072614
154	0x3dac26f8	0.0840587
155	0x3d74a589	0.05972818
156	0x3d69b160	0.057053924
157	0xbd4e382d	-0.050346542
158	0x3d84689e	0.06465267
159	0xbd57e846	-0.052711748
160	0x3e1df71e	0.15426299
161	0x3e0d76b2	0.1381481
162	0x3cdf30de	0.027244981
163	0x3b74ee06	0.0037373318
164	0xbcac9d14	-0.021070994
165	0xbb68eaf6	-0.0035540438
166	0xbd669a83	-0.056299698
167	0x3cbdb08d	0.023155475
168	0x3d83bb3a	0.06432195
169	0xbcd62d6c	-0.026144706
170	0xbe3a7d98	-0.18211973
171	0xbd42f275	-0.047594506
172	0xbd99388e	-0.0748149
173	0xbcdf162a	-0.027232248
174	0xbc1ee242	-0.009697499
175	0xbdebb90b	-0.115099035
176	0x3cbe85c6	0.023257148
177	0x3d6a0dd7	0.057142105
178	0xbcc9ff49	-0.024657862
179	0xbcde4583	-0.027132755
180	0xbe100151	-0.14063002
181	0x3b05654a	0.0020354562
182	0x3dfda8c8	0.12385708
183	0x3c9a3e8d	0.018828655
184	0xbd2ac301	-0.041689876
185	0x3c92c484	0.017915972
186	0xbc427cc9	-0.011870571
187	0xbd5471d8	-0.051866382
188	0xbe19c7f2	-0.1501768
189	0xbd026971	-0.031838838
190	0x3e33ebdf	0.17570446
191	0xbc7edbde	-0.01555535
192	0xbca3ba32	-0.019986246
193	0xbd86c1a8	-0.06579906
194	0xbc929f53	-0.017898237
195	0xbd51f6e1	-0.051260833
196	0x3d017d46	0.03161361
197	0xbdd6ba41	-0.10484744
198	0x3d250980	0.040292263
199	0xbcfa0984	-0.030522116
200	0xbce5127c	-0.027962916
201	0xbbd68100	-0.0065461397
202	0x3ccc853c	0.024965875
203	0xbddf80c5	-0.10913233
204	0x3baa49a0	0.005196765
205	0xbd8bd182	-0.0682707
206	0x3e07371a	0.13204613
207	0xbc948025	-0.01812751
208	0x3d082e1e	0.033247106
209	0x3a633934	0.0008667887
210	0x3da99ea9	0.08282215
211	0x3d8950f7	0.06704896
212	0x3d421d7d	0.047391403
213	0x3d633371	0.05546898
214	0xbc1cd3a2	-0.009571942
215	0x3d6fd54d	0.05855303
216	0xbb377291	-0.002799187
217	0x3c8f42b7	0.017487867
218	0x3d37af24	0.04484476
219	0xbd0b0414	-0.033939436
220	0xbc03c406	-0.008042341
221	0x3cce887d	0.025211567
222	0xbd0f8988	-0.03504327
223	0x3d97afb3	0.07406559
224	0xbc8fda34	-0.017560102
225	0xbd6abfd0	-0.057311833
226	0x3e374beb	0.17900054
227	0x3d5b6fc1	0.053573374
228	0x3db9ef3c	0.090788335
229	0xbba45fe7	-0.0050163153
230	0xbd0c97ea	-0.034324564
231	0x3e0a4b1e	0.13505217
232	0x3d2f7496	0.042835794
233	0x3d8ba1d7	0.06817978
234	0xbdfdd9e6	-0.123950765
235	0xbdb42e99	-0.0879795
236	0x3b0723af	0.0020620634
237	0xbc9b7065	-0.018974492
238	0x3dc807c0	0.09767103
239	0xbcdbd303	-0.026834017
240	0x3cbb04a8	0.022829369
241	0xbc47d87d	-0.012197611
242	0x3d3d826c	0.046266958
243	0x3cf09155	0.029366175
244	0xbdb85ce4	-0.090020925
245	0xbc12cd42	-0.00896007
246	0x3d994c4f	0.07485258
247	0x3d5b1d7b	0.05349491
248	0x3d422a1d	0.047403444
249	0xbd504b9a	-0.05085335
250	0xbc1a1cf2	-0.009406315
251	0xbd890bda	-0.06691714
252	0xbda7c960	-0.08192706
253	0xbe02682c	-0.12735051
254	0xbb92e224	-0.0044825245
255	0xbd3e0e7e	-0.04640054
