config/results/Entry_reward02/PathFollowing/PathFollowing-8568029.onnx (onnx, 695646 bytes, 7 tensors)

action_model._continuous_distribution.log_sigma f4 [1, 3]
00000000: 77ee 443e abd5 38bc 812f c73d
0.19231592 -0.011281411 0.097258575

action_model._continuous_distribution.mu.bias f4 [3]
00000000: cc46 c9bc 755d 1dbb 8a05 12bc
-0.024569891 -0.0024012004 -0.008912453

action_model._continuous_distribution.mu.weight f4 [3, 256]
00000000: 2152 df3c 99b8 283d 6c05 49bb 1384 443c
00000010: 24dd 043c 35d7 2f3d 57e8 793d 4a73 683c
00000020: 030c 9ebc a4e8 0f3d 6560 d0bc b6c3 063c
00000030: 530b 97b9 2973 833c 4cf0 af3c 8983 3a3d
00000040: 65ae 393d 29c1 adbc 900e 3bbc e2f3 bc3a
00000050: 877b 5cbc 5d82 8c3c 1004 28bd 4fc5 16bb
00000060: bc5f 2abd abc0 7bba 9b2b 5abb 3f35 f8bc
00000070: 1020 67bc df72 b03c 0e75 3d3c ccb7 d23c
00000080: 72b4 6c3b d239 653c 2abd f63b 8385 d5bb
00000090: dbc3 a63c 9a48 403d 1266 303c 0b7d 9c3b
000000a0: ac2b ebbc 4d96 7e3c 0254 b6bc 0d48 f63c
000000b0: 0974 a7bc 1cd5 76bc 59cb afbc 727b c5bb
000000c0: 0be8 45bc 9a98 b03c 9d4e 1bbb 7fee 1e3d
000000d0: e33c f4bb 61f7 7c3c 1b96 883d 78d9 193c
000000e0: 1736 5f3d 1159 94bc 84fa 143d 20db 803c
000000f0: 9f92 063c 9bb6 66bc cd1d 80bc 8a51 34bc
00000100: dbb4 0c3a a6e3 be3c c54a b4bb f739 c9bc
00000110: a87e 4cbb a4f8 9abc 7c55 893c e389 dfbb
00000120: 79f9 cbbb 51b0 a1bc 4db2 88bc b292 c5bc
00000130: e5b7 f1bc 4137 a3bb d8e3 91bc 18ff 34bd
00000140: 04e5 8e3b d0ed 8b3c c614 7ebc 7fe4 2f3d
00000150: 2bcc 743c 44ff 893c 9a76 853c 7dd7 cc3c
00000160: 9ea8 dbbc c6eb a939 759d 663c 1ac8 fdbb
00000170: fdf2 003c 7c30 93bc 5533 ae3c 8cd5 b03c
00000180: 3b28 5c3c a2d3 6abb ca11 13bd 14de 033c
00000190: d4aa 21bc 9f4e b03c bd09 c53c 10c2 41bb
000001a0: d33d 013c 0241 bf3b 72f4 4f3c d94f 04bc
000001b0: 5c66 f939 a54c 1abd 6a25 acbc e639 adbc
000001c0: ab37 303c 3e0d 84bc c3f5 bab9 f73f 583c
000001d0: 213f 023d e1da 653d 7b1c 6dbd 42a9 153d
000001e0: 174c 343d 7bfb 5ebc 82b4 c43b 188c 85bc
000001f0: 0786 85bc 3e11 ef3c 6b08 e93c 6041 5b3d
00000200: 3af5 373c 6984 c93c b772 1b3d ce15 6ebd
00000210: 8809 e63b 06b7 133c 33fc 873c 6267 b0bb
00000220: c33f 6c3b b267 de3c 4960 7abc 00f2 ee3c
00000230: b919 9ebc 6fcd 213d bc2f 263c 0404 ca3a
00000240: 6388 db3c 3ed7 be3c 9bb7 083d 6cb2 aabc
00000250: 1306 b8bc e16b cebc 17aa 1cbd a39e bbba
00000260: 1c16 003d 7e4a 32bd 749b 743c ae1d 22bd
00000270: bf5d 7eba ce29 163d 7dc2 93bc fdbd 153c
00000280: 0186 06bd 64fd 1ebc ff8f 9dbc 19be 803b
00000290: 6c81 9dbc 0f94 e9bb 9ac2 033d 5f48 18bc
000002a0: 20f7 a5bc 12c8 1d3d 68e9 103b 852f f5ba
000002b0: d88b 593c 31e4 2e3d dba0 793c 3bfa 14bc
000002c0: df64 223d ce1d 0a3d b118 843c 2ff4 cc3c
000002d0: cf6c 363d 7df5 343d 5bef 363d aec4 a7bc
000002e0: 4f81 363b d961 d5bb 7bd3 d53c 0da0 a63a
000002f0: 0fa5 2e3d ea96 a7bc 7582 f1bb 7ba7 6cbc
00000300: 1e51 2abd 8738 f7bb 66db 5cbc 926f e53b
00000310: 82f9 2b3d 42d5 5dbc eec9 5abb 7f43 153d
00000320: 83b7 9bbc b963 eb3c c583 8b3c 1c19 483d
00000330: 9515 dc3c b497 ad3b aec2 d73b b838 473d
00000340: 4cf9 663c 90b3 d03c 8cd5 35ba f28d 963b
00000350: 0a42 173d 28de d03c 0370 673d d131 3d3d
00000360: 077f 9cbb 2cb0 57bc 53df 1f3c f800 b9bc
00000370: 476c 3f3c 3106 b9bc 5d33 443c 9265 df3c
00000380: 0319 923c 18a8 b13c 7e8f 87bc 8673 ddbc
00000390: cb5c cabb 1fb5 cfbc cb77 df3c c238 cf3c
000003a0: b6b3 0f3d 5a57 1fbd cbef b7ba 7ea9 dfbb
000003b0: d020 823d 8d89 37bc 0d43 823c 32dd d13b
000003c0: bd40 e63a d335 ca3b 22d6 473d 0b36 ed3c
000003d0: 6705 13bd bc92 fa39 d351 af3c 2465 1f3c
000003e0: f45a e63b 8347 1ebc 92ac 293c 7374 d9bb
000003f0: eb85 adbb c926 babb 1984 9abc 247f 1cbc
0.027260842 0.04119167 -0.0030673398 0.01199438 0.008109365 0.042929847 0.061012592 0.014187643
-0.019292837 0.035133973 -0.02543659 0.008225372 -0.00028809402 0.016046124 0.021476887 0.045535598
0.04533233 -0.02121027 -0.011417046 0.0014415944 -0.013457186 0.017152006 -0.0410195 -0.0023005789
-0.041595206 -0.00096036 -0.003329015 -0.030298827 -0.014106765 0.02153915 0.011563553 0.025722407
0.0036118296 0.013990836 0.0075298743 -0.00651616 0.020357063 0.04694424 0.010766523 0.0047756485
-0.028707348 0.015538764 -0.022256855 0.030063653 -0.020441072 -0.015065458 -0.021459268 -0.0060266787
-0.012079249 0.021557141 -0.002369798 0.038801666 -0.0074535473 0.015439839 0.06669255 0.0093902275
0.054494943 -0.018108876 0.036371723 0.015729487 0.008213668 -0.0140816225 -0.01563921 -0.011005769
0.0005367526 0.02330191 -0.0055020773 -0.024563773 -0.0031203423 -0.01891739 0.016764395 -0.0068218573
-0.006224808 -0.019737395 -0.016686583 -0.024117801 -0.029506633 -0.004980952 -0.01780884 -0.04418859
0.004360797 0.017081171 -0.015507882 0.04294252 0.014941256 0.016845353 0.016291905 0.025005097
-0.026813801 0.00032409857 0.014075627 -0.007744801 0.007870433 -0.017967455 0.021264711 0.021586202
0.013437326 -0.003583171 -0.035905637 0.008048553 -0.009867389 0.021521864 0.024052495 -0.0029565133
0.007888275 0.005836607 0.012692558 -0.008075678 0.00047569245 -0.03767075 -0.021013934 -0.021145772
0.01075546 -0.016119596 -0.0003565979 0.013198844 0.031798486 0.056116942 -0.05788849 0.03653837
0.044017877 -0.013609762 0.0060029635 -0.016302153 -0.01629926 0.029183026 0.028446397 0.053529143
0.0112279 0.02459927 0.037951197 -0.058126263 0.007020179 0.009015804 0.01659975 -0.005383418
0.0036048747 0.027149055 -0.015281745 0.029168129 -0.019299375 0.039502557 0.010143217 0.0015412574
0.026798433 0.023295995 0.033378225 -0.020837031 -0.022463834 -0.025197925 -0.038248148 -0.0014314245
0.031271085 -0.043528073 0.014929641 -0.039579086 -0.00097033003 0.03666096 -0.018037075 0.009139535
-0.03284264 -0.009703968 -0.019233702 0.0039289114 -0.019226752 -0.0071282457 0.03216801 -0.009294598
-0.02025944 0.03852088 0.0022111777 -0.0018706179 0.01327797 0.04269809 0.015236105 -0.009092863
0.03964698 0.03371983 0.016125055 0.02501878 0.04453736 0.04417943 0.04466186 -0.020479526
0.002784807 -0.0065119085 0.026101818 0.0012712494 0.04263788 -0.020457704 -0.007370288 -0.014444227
-0.041581266 -0.0075445804 -0.013480043 0.0070018256 0.041985996 -0.013539614 -0.003338452 0.036441322
-0.019008404 0.028734075 0.017030606 0.04885207 0.02686576 0.0052976254 0.006584487 0.048638076
0.014097523 0.025476247 -0.0006936423 0.004594558 0.036928214 0.025496557 0.056503307 0.046190087
-0.004775885 -0.013164561 0.0097578345 -0.02258347 0.01168353 -0.02258596 0.011975137 0.027270112
0.017834192 0.021686599 -0.016547915 -0.027032625 -0.0061756126 -0.02535492 0.027278801 0.025295619
0.035083495 -0.038901664 -0.0014033256 -0.006825625 0.06353915 -0.011202228 0.015901113 0.0064045424
0.0017566901 0.006170967 0.048788197 0.028956434 -0.035893824 0.0004779304 0.021401322 0.009728704
0.0070298854 -0.009660604 0.010356085 -0.0066361963 -0.0052955053 -0.005680893 -0.018861817 -0.009551797

network_body.linear_encoder.seq_layers.0.bias f4 [256]
00000000: cd3d d53b 5454 50bc 707f 843a 5222 13ba
00000010: 0a0f 6bbb 8e8a 11bd c244 cb3b 1230 b2bb
00000020: d5b1 b0ba 9f63 9cba 7e34 093a 27d2 35ba
00000030: e48c 653b 3346 feba 0bdd bfba 01b6 5ebb
00000040: 22ab fc3b c41a 223b 1820 02bb 9ede f93a
00000050: 8ffd 03bd dade 76bb a344 fb3a dc7c 57bb
00000060: 5015 7abc 8977 d2ba 4ad3 3f39 a9a6 b4bb
00000070: 9613 51bb 3cc9 cdbc c7fd 323b a28b b3bb
00000080: 578e b1bc 28c7 b3bc 14d8 0dbb 373d e8ba
00000090: f3e1 cd3b 3e09 bfb9 a330 15bc 4e78 0dbd
000000a0: b4ab c83a 016f 41bc 2b2f 993a cc9e e739
000000b0: ad9c 0d3b 7dbf d3bb c3c9 b5bb 18d3 fdbb
000000c0: 7bff 12bb dc18 76bb 1259 9a3b 64c2 8739
000000d0: cc4e 5bbc 6f65 0d3b 2463 1bbb 4d2e 88ba
000000e0: 1a46 51bc 834b dc3b 2123 f93a a411 de38
000000f0: 446c 8c3b 40f7 11bd 21d9 97b9 4c17 12bc
00000100: 079f 0fbb 776d d6bc 286f 753b 842b a73b
00000110: 2ef1 d7ba 13a4 42bc 6995 2f39 2457 66bc
00000120: b90f 1dbc daa4 8c3a 3f48 bfbb 9f47 adba
00000130: bd8c d63b bc6b e7ba 544f 8ebb 6a13 3339
00000140: 24f7 b23b 0241 383b 5146 82bc 075a f73b
00000150: 4812 61bb b43b 2ebc a3a8 bdbb b2fe 8ebb
00000160: 1538 0ebc 6cb9 a33b c710 b0bc 8f54 eb3a
00000170: 7953 43bd d0fd 26bb b3bb 18bc c197 223b
00000180: 6fb0 ddbb 6f29 71bc 71bc 9dbb 3191 04bc
00000190: bc16 fb3a 5c6b 503b de04 e93a 875c 3c3b
000001a0: bbd9 49bc 42be 4b3a c12a 0dbc 3345 8dba
000001b0: 62b2 afbb 5e7d adbc e01a 13bc 76b1 a4bc
000001c0: 5c8c 5bba 1871 0e3b 9f2b 5eba 2fc6 843b
000001d0: 79c8 e53a dd96 e0bb ea8c e13b c055 903b
000001e0: d97a 57bb b9ce 863b 8568 e5bc 9523 a9bc
000001f0: dfaa 80bb 51e9 f23a 83e7 4dba 91b0 96bb
00000200: 20af 15bc cd2a 14bb 9cd4 aebc 49ea ecbb
00000210: bac6 85bb 0f12 b2ba 10aa 45bc f7a1 1d3b
00000220: 3713 b8bb 607f 02bc 898f 74bc 69ba 1539
00000230: 8695 5a3b c545 903b 099a 583b 0c93 c2b9
00000240: 541c a23b 0be9 ccbb 99b1 bf3a 66ef c73a
00000250: b8cb 69bb 4d84 c43b 3d6f 30bb 11a3 84bb
00000260: f43f 343b 487d 89bb be15 d4ba 3534 89bb
00000270: f08b 373b 2d5e bbba a4a7 bf3c bbd4 d9bb
00000280: 6831 83bb 3108 c73b 6a2c e43b bfe2 00bd
00000290: 7133 173b 8f66 eeba a98e 2ebc cf67 b9bc
000002a0: bcd7 87bb a9af ae3a 0649 853b c10b eb3a
000002b0: a9f6 9fbb e185 86bc 1954 d5bb e138 afbb
000002c0: 9d3e fd3a cfed 99bc 76eb 13bc 92ba b2ba
000002d0: 5bf1 93bc 34a6 f2ba 4605 df3a a3a6 aebb
000002e0: 531c 0cbd 03bc fa3a 6956 903b 99b3 7abc
000002f0: 6717 78bc fda6 9abc 4e73 72ba 8be4 b43b
00000300: f0fe 35bb 0ef8 54bc 3f8b 4cbc 1394 0d3a
00000310: 294b abbb 92ad 2c3a 2cdf 42bc c0b5 eabb
00000320: 32f6 04ba ce72 d3bb e41e e4bb 5ec1 29bb
00000330: 75fb ab3b 565f 4b3c 54a7 81bc 2b72 84bb
00000340: 4141 6fbc e4bb b73b 4355 3bbc 8412 01bb
00000350: 80f9 21bc 7173 8dbb f7f8 b23a e8ce aebb
00000360: 152d a1bc 22cc c1bc 8a38 a93b f79d bf3a
00000370: 429f 6dbb 5712 ab3a a4ae 1c3b bd07 3dbc
00000380: 79c3 12bb fc2c 0e3b 403d 83bc c25a 0abc
00000390: ddf1 6dbb e34f 453a 162f 9c3a df90 2ebc
000003a0: 8109 1bbb 93e0 39bc f808 ceba 942e 1fbb
000003b0: c1ad f73a acc8 e23a a1c3 b4bb e995 ecbc
000003c0: 5e8c e2ba 5a4d 8abc 859f a83a 6e08 87b9
000003d0: 45ad 9cba 0c2a babc 615f b1bc 09bd c0ba
000003e0: 3dcf 813a b705 a13b 9e53 cd3a 4ed2 e93a
000003f0: b1be 1b3b 7daf 043b 674c 1ebb e8e2 42bb
0.0065076114 -0.012715418 0.001010878 -0.0005612719 -0.0035867118 -0.035532527 0.006203265 -0.0054378593
-0.0013480732 -0.0011931545 0.0005233957 -0.0006935917 0.0035026604 -0.0019399583 -0.001463802 -0.0033982995
0.0077108303 0.0024735192 -0.0019855555 0.0019063537 -0.032224234 -0.003766945 0.0019170236 -0.0032880818
-0.01526387 -0.0016057353 0.00018293891 -0.0055130315 -0.0031902543 -0.02512037 0.0027311908 -0.005479292
-0.021674318 -0.021945551 -0.0021643685 -0.0017718439 0.0062830388 -0.00036437245 -0.009105834 -0.03453856
0.001530996 -0.011806251 0.0011687031 0.00044178066 0.0021608279 -0.006462036 -0.0055477335 -0.0077461116
-0.002243011 -0.0037551438 0.004710325 0.0002589404 -0.013385486 0.0021575352 -0.0023710215 -0.0010389775
-0.012773061 0.006722869 0.0019007662 0.00010589071 0.004285367 -0.035636187 -0.00028962738 -0.008916687
-0.0021914856 -0.026175244 0.0037450287 0.005101623 -0.0016475075 -0.011879939 0.0001674496 -0.014058862
-0.009586268 0.0010730282 -0.00583747 -0.0013220197 0.006547539 -0.0017656009 -0.0043429527 0.00017078003
0.0054615904 0.002811492 -0.01590267 0.007548574 -0.0034343172 -0.0106343515 -0.0057879253 -0.004363858
-0.008680363 0.0049964692 -0.021492375 0.0017954278 -0.047687028 -0.0025480874 -0.009322095 0.002480969
-0.0067654173 -0.014719351 -0.0048137237 -0.008091257 0.0019156556 0.0031802272 0.001777794 0.0028741674
-0.012319977 0.0007772186 -0.00861615 -0.0010778069 -0.005361841 -0.021177944 -0.0089785755 -0.020104151
-0.0008375102 0.002173489 -0.0008475128 0.0040519456 0.0017531059 -0.006853922 0.0068832533 0.0044047534
-0.003287962 0.0041139987 -0.02800394 -0.02064685 -0.0039266194 0.0018532668 -0.00078546273 -0.004598685
-0.009135991 -0.002260852 -0.021341614 -0.0072300774 -0.004082528 -0.0013585704 -0.012064472 0.0024052837
-0.005617525 -0.007964939 -0.0149268 0.0001427919 0.0033353283 0.0044028484 0.0033050796 -0.00037112122
0.0049472246 -0.006253367 0.0014625072 0.0015253841 -0.0035674404 0.005997217 -0.0026921772 -0.0040477593
0.002750394 -0.004195843 -0.0016180796 -0.0041871318 0.0028006993 -0.0014295034 0.023395367 -0.006647674
-0.0040036924 0.0060739745 0.0069633024 -0.031466242 0.0023071433 -0.0018188524 -0.01065413 -0.022632508
-0.0041455906 0.0013327497 0.004067543 0.001793258 -0.004881699 -0.01642126 -0.0065102694 -0.0053473567
0.0019321028 -0.018790154 -0.009028306 -0.0013635925 -0.018059423 -0.0018512667 0.0017015121 -0.0053299232
-0.0342067 0.0019129518 0.004404832 -0.0153016085 -0.015142298 -0.018878454 -0.0009248749 0.0055204085
-0.0027770363 -0.012998594 -0.012484371 0.0005400788 -0.0052274656 0.0006587143 -0.011894029 -0.0071627796
-0.00050720864 -0.006452895 -0.0069616903 -0.002590261 0.005248482 0.012412867 -0.015826859 -0.00404193
-0.01460296 0.005607115 -0.011433902 -0.0019694874 -0.009886146 -0.00431674 0.001365452 -0.0053347237
-0.019674817 -0.023656908 0.0051642107 0.0014619221 -0.0036258255 0.001305173 0.0023907805 -0.0115374895
-0.0022394343 0.0021694293 -0.016020417 -0.00844449 -0.0036307492 0.00075268577 0.0011915888 -0.010654657
-0.0023656788 -0.011345047 -0.0015719226 -0.0024289237 0.0018896387 0.0017302237 -0.005516485 -0.028880076
-0.0017284264 -0.016882587 0.0012864923 -0.00025755487 -0.0011953494 -0.022725128 -0.021651926 -0.0014704774
0.0009903681 0.0049140113 0.0015665179 0.0017839165 0.0023764784 0.00202462 -0.0024154426 -0.0029737297

network_body.linear_encoder.seq_layers.0.weight f4 [256, 416]
00000000: bd66 363d 892d 563c 7c19 04be 3586 c23b
00000010: 8a7a 393e 9f67 583d 3431 bcbc 04aa 3ebd
00000020: 5115 b63c 23ba 54bc fb5f 253c 534d ab3d
00000030: 30fd c83d 02e1 f4bc 941f f93b cab2 c93d
00000040: 6e67 d1bd 7cf4 4abd 4e6c 343c 3981 423c
00000050: a040 a03d 004e 363d dfaf 843c 7eff 5cbd
00000060: dcb2 783d ba36 673d 0179 92bd ec07 1b3d
00000070: 090e 8d3d 2477 d23c 402e 2d3d 4441 dd3c
00000080: 8322 793d 00b0 323d 8b13 7abd 5cd4 813d
00000090: 4cef 0c3d 7c6c 07bc cbd7 1ebd e1b0 76bd
000000a0: 55ad 1f3d 2761 be3d 423f bcbb 0d79 66bd
000000b0: bb82 573d 42cc b9bc a097 cd3c 8817 b13d
000000c0: 70c3 cf3b be46 313d 86fc 19bd 05aa 40bc
000000d0: c7fa 233c 9908 0d3c cd78 403b a433 403d
000000e0: 80fe 5d3d 9f80 c63b 3417 55bc 3363 08bc
000000f0: 923c d13d 6b89 753d bbe3 1eba 4f63 ba3d
00000100: c48d 1d3c 435b b93a 8bf0 04be 319b d0bb
00000110: ee5e 3a3c 21f4 90bd 08be 4e3d 711f 47bc
00000120: 2567 6d3d 35d4 95bd a5d7 4f3d 0754 76bc
00000130: fc4a ba3d 2b33 793d e103 f43b 8da4 83bb
00000140: a1de 383d c08d b7bc 1fc6 8e3d a559 1e3d
00000150: 74f0 a4bd 1a0a cc3b b807 78bd 0e1e d0bc
00000160: 313a aebc 622e 2bbd d1b9 a93d d0a3 c3bc
00000170: 6548 3a3d dc58 c5bd bb61 7c3d 4ad4 71bd
00000180: 2eb6 de3c 12f9 863c 9d02 053c aa2b 28bc
00000190: b851 2a3d f088 a2bc 7b54 143a db01 2e3d
000001a0: 96bf 01bd 4ad9 21bd bfa1 fb3c 97da 623d
000001b0: 1596 6bbc 3b2c 47bb 43a9 e4bb 2ba1 c13d
000001c0: b5de 88bd 95e4 89bc ea07 9a3d 527d 7ebd
000001d0: cdd9 413c 6e45 34bd e61d 33bd d310 01bd
000001e0: 2610 583b 44fa 32bb ede9 683c f406 c83c
000001f0: 63e5 de3b eb31 79bd 1e9a 963c 7d0d eb3c
00000200: cf78 f6bb 160c 12bd b957 933c d274 1f3c
00000210: c2f6 a83c 1881 b93d 9f49 223d 7d02 8bbd
00000220: c27f 81bd 5e70 47bd 6cec 83bd 4151 833d
00000230: 94fb 8b3c 107c 673d 0cd1 c63c fd52 553d
00000240: d67a ebbc bfe0 73bc 799d 0439 ae61 3d3d
00000250: af1d ce3b fbfc e2bc 9e04 afbc e506 a0ba
00000260: de10 993c 608d 7fbc 6029 813b 3d0c 8bbd
00000270: 3113 d5bd d750 1e3d 688a 003d 9950 47bd
00000280: 17a3 c3bd 2f91 c33c ec2b 193c 8acf 173c
00000290: e81c 91bd 747a dc3b e9cf 663d 0a6a 26bd
000002a0: 63c1 2abc 7744 45bc 567f 033d 91a1 ae3c
000002b0: 3889 673c 4ca4 c93d d841 30b9 98b8 c33d
000002c0: 68eb d53c d6a8 603d 15bf 6b3c 3414 093c
000002d0: 94a9 b2bd ebf2 d63d 0817 3f3d 7f4e c03d
000002e0: a463 2ebb a371 813b ee85 56bd 49f6 46bc
000002f0: d2e2 bfbc 9e3b 60bd 1ac3 3abc cdf5 b4bc
00000300: 1d0d b23c 36d9 983c 3c08 8bbb 6da1 873d
00000310: 4248 ac3d feed 493c 5667 293c acb0 7f3d
00000320: bdf8 7ebd 4fee 353d ce8b 153d a533 a6bd
00000330: d4cc df3d 5f8d 88bc f0c8 753d 68b1 e7bc
00000340: c37d 5c3d 888c 4a3d 5fec f3bc 3dc0 71bd
00000350: 4b33 443d 01c7 22ba 125b 18bd 3cc7 9d3a
00000360: a0c7 083d d35a 74bc 8848 4dbc 88a6 90bd
00000370: 808d a73d 09aa 81bc 6708 b3bd 3559 4e3b
00000380: f74c 52bd c9cc 9f3c c197 11bc 32a1 d7bc
00000390: 8417 f33c bda2 3e3c f5d7 7b3d c79d 413d
000003a0: e929 733d 383c 87bd 7757 79bd 927c c7bd
000003b0: d2dc 243d 6efa 50bd 4821 fbbd 3fbe 783d
000003c0: d926 17bc 8ec6 923c e91b cdbc 49bf 103d
000003d0: 9305 f83d 8e60 483c 011b 8e3d 8a23 313c
000003e0: 492c d3bc fd55 f83d 7b28 b5bd 5f8f db3a
000003f0: a4e5 45bd 5a0b cabc 1978 8f3a 424d 81bc
0.044531573 0.01307238 -0.12900347 0.005936409 0.18113151 0.052833196 -0.02297268 -0.04654886
0.022226961 -0.012983832 0.010093684 0.08364358 0.09813917 -0.029892448 0.0076026414 0.098485544
-0.10224806 -0.049549565 0.01101215 0.011871629 0.07824826 0.04450798 0.016197143 -0.053954594
0.06071745 0.056448676 -0.07151986 0.03784935 0.068874426 0.025691576 0.042280436 0.02700866
0.06082393 0.043624878 -0.061053794 0.063393325 0.0344079 -0.008265611 -0.038780015 -0.06022728
0.03898366 0.09295874 -0.0057448456 -0.056267787 0.05261491 -0.022680406 0.025096714 0.08647066
0.0063404366 0.043280356 -0.03759434 -0.011759286 0.01000852 0.008608007 0.0029368878 0.04692425
0.05419779 0.0060578133 -0.01300602 -0.008324432 0.10216631 0.059945505 -0.0006061156 0.09100973
0.009616319 0.0014141578 -0.12982385 -0.0063661565 0.011375172 -0.07077814 0.050474197 -0.012153492
0.057959694 -0.07315866 0.050742764 -0.015034682 0.090963334 0.060839813 0.0074467515 -0.0040174187
0.04513419 -0.022406459 0.06971382 0.03865971 -0.08053675 0.00622679 -0.060554236 -0.025404956
-0.021267982 -0.04179228 0.08287395 -0.023881823 0.045479197 -0.09636089 0.06161664 -0.059040345
0.02718648 0.016476188 0.008118299 -0.010264317 0.04158184 -0.019840688 0.00056583405 0.04248224
-0.03167685 -0.039513864 0.030716775 0.055384245 -0.014379044 -0.0030391354 -0.0069781854 0.094545685
-0.06683103 -0.01683263 0.07521041 -0.062131234 0.011831713 -0.044011526 -0.043729685 -0.031510185
0.003296861 -0.0027309814 0.0142159285 0.024417378 0.0068022474 -0.06083862 0.018384036 0.028692955
-0.0075217257 -0.035656057 0.017986165 0.009732442 0.020625476 0.09057826 0.03962099 -0.06787584
-0.06323196 -0.048691146 -0.06441578 0.06411982 0.017087735 0.0565148 0.024269603 0.052081097
-0.028745096 -0.014885127 0.00012647164 0.046235733 0.0062901597 -0.027708521 -0.021364506 -0.0012209086
0.0186848 -0.015597671 0.0039417 -0.06789444 -0.10404051 0.038651314 0.031381994 -0.04866085
-0.09552591 0.02387294 0.009348851 0.00926579 -0.070855916 0.0067284647 0.056350622 -0.04062847
-0.010422084 -0.012040249 0.03210386 0.021317275 0.014131837 0.0984579 -0.00016809197 0.09556693
0.026113227 0.054848514 0.014388819 0.008366633 -0.08723751 0.10495552 0.046652824 0.09389972
-0.0026609683 0.003950314 -0.05237382 -0.01214368 -0.023423586 -0.054744355 -0.011399055 -0.022089863
0.021734769 0.018658262 -0.004242925 0.066225864 0.084122196 0.012324808 0.010339579 0.062424347
-0.062248934 0.044416722 0.03651028 -0.08115319 0.1092774 -0.016668973 0.060006082 -0.028282836
0.053830873 0.049450427 -0.029775796 -0.059021223 0.04790048 -0.00062094635 -0.037196226 0.0012037526
0.033393502 -0.014914232 -0.0125295 -0.07063013 0.08181286 -0.01582815 -0.08741837 0.0031486277
-0.05134293 0.019506829 -0.008886279 -0.026321981 0.029674299 0.0116354795 0.06148525 0.04726961
0.05936614 -0.06603283 -0.06087443 -0.09740557 0.040249653 -0.05102008 -0.12262207 0.060728308
-0.009225571 0.017916944 -0.025037723 0.035338674 0.12110438 0.012230052 0.06938744 0.010811696
-0.025777953 0.12125776 -0.08845612 0.0016751102 -0.048314705 -0.024663616 0.0010945826 -0.01578391

network_body.linear_encoder.seq_layers.2.bias f4 [256]
00000000: db05 8fbc 11a7 07bc 7bc6 803b 6613 d7bb
00000010: 3054 8abc 99f3 18bc 5f92 84bc 758e f8bc
00000020: bfa8 0abb eddc 1abb 2107 b13b 9a63 67bc
00000030: 3982 f3bb ae43 5abc 78a7 e73a 24d3 9abc
00000040: 8fc7 98bc ecd3 5bbc 7748 243b 72a4 01bc
00000050: 65cd 423b 84d0 a2bc b34e c83b 60e6 403b
00000060: d92b 793b 84dc 11bc b85f 9ebb 60cc 0b3c
00000070: 0c68 15bc c60b c1bc 3b8c 3a3a e07e 8abc
00000080: 53f1 113c 0e45 7abc 20b8 58bc 3898 0fbc
00000090: 2415 07bd ceb1 adbc e488 80bc c691 5cbb
000000a0: 3bb2 0abc 3589 a0bb 6eda 11bb 3723 8fbc
000000b0: a1ab 883b 429c a83b dd10 5dbb d60c 203c
000000c0: 5603 ff3b d4d6 5bbc 2130 29bc dd04 c5bc
000000d0: bb15 563b 384a d2bc adee 093b fc21 51bc
000000e0: 026f 5a3a 7da7 dcbb 350d 953c 07f4 cfbc
000000f0: 75b9 21bc 60d3 25bc a49d b6ba 592b d6b9
00000100: d76a 38bc f90c dabc 0a86 30bc d34c 20bc
00000110: c037 73bb 5731 3b3c 016f a8bc ed06 85bc
00000120: 4ace 05bb 8143 a23c d6cb 183c 4eba 74bb
00000130: 7cfb 16bc b047 3fbb 2205 8e3b f821 70b9
00000140: a52d e9bb cb70 1dbb ae67 8c3c 5b14 58bc
00000150: 75cd 56bc 83c2 4fbc d9d0 32bc 0ab7 88bc
00000160: 7919 3bbb 094f 80bc b243 eebc 41e6 88bc
00000170: 8c50 06bc e72e e6bb 59d8 c0bc 0217 b1bb
00000180: 0a69 84bc 10c7 973b 6280 17bb 7088 33bc
00000190: 3af1 bf3b d9ab c9bc 28a5 8bbc b4df 7cbc
000001a0: 57ec 443b 75cb 433c f8c2 fcbb fd65 85bc
000001b0: 49af 1439 be1c 27bc f133 0bbc f603 c43a
000001c0: 6435 9abc 6cce 66bb 6090 083c 688b cfbb
000001d0: 09b6 8fbb 1a9b 5cbb 963d 3bbc d008 2cbb
000001e0: e2f6 dd3b 8433 5ebb ae2c b2bc 5627 fcbb
000001f0: 8313 803b 19ab 6bbc 7c17 aabb e30a 40bb
00000200: 7212 9ebc ab64 93bc 0d83 0cbc 74c8 3c3c
00000210: 454a ccbc ed16 3fba 3738 77bc a10c d3bb
00000220: 6673 89bc 7282 5bbc 194c 9e3b f416 b3bb
00000230: 3107 213a 50fa 43bc d633 a43b 914e b23b
00000240: c337 adbc 2d05 43bc 074f f4bb f56f 2b3c
00000250: 16ef be3b b1fd aabb a458 393b 5f74 9ebc
00000260: 3dfd 27bc 8940 093c 231f 64bc 0bd1 383c
00000270: ca1d 91bc bccb 13bc e860 2b3c 71a3 cdbc
00000280: 96d3 a7bc ce97 68bb 39d1 c63b 0eb5 94bc
00000290: dd88 a4bb f19d 043b 394b 9fbb b3ae 28bc
000002a0: 2a3e e63b e084 a7bb cbf7 3dbb 505e a9ba
000002b0: 277e c6bb 45c0 6cbc 3a2f a9bc 3fdb 53b9
000002c0: 516b 03bc abeb b1bc 906d 93bc fc13 bfbc
000002d0: d646 3e3c 8756 7fbc c3db 88bb c619 ec3b
000002e0: 4e7c 87bb d78c 223b 905a b9bc ccd1 0ebc
000002f0: e537 48bc b232 273b 0851 043a e1bd 75bb
00000300: 69cf 30bb 3614 d6ba 63d1 323b 301b f8bb
00000310: 85f7 9bbc d998 b63b 3969 dcbb 7d74 c4bb
00000320: 8944 cdbb 532d a7bc 5026 27bc a7bd 94bc
00000330: f45a 2fbc 1258 643b 0236 ce3a fa2b b7bb
00000340: 8c1a 10bd 36a4 253b dce5 86bc 8596 12bc
00000350: 450f 6fbc 8872 3cbc 259a b9bc ecbe 10bb
00000360: eec1 883a ef7f a13a 164a a8bc 1dd3 453a
00000370: 1044 34bc 6530 883b 054b c9bc 5707 61bc
00000380: b034 afbc 1799 333b 80a4 a3bc 8e13 853c
00000390: d496 30bc fe3d 1fbb a7f8 c9bc 1941 58bc
000003a0: d603 69bc 5271 01bc 9a76 01bc 2ca5 9fbc
000003b0: 2fef 9738 42f0 633b c333 00bc b6b0 88bb
000003c0: 7efd 5c3a d87b 013c ea92 aebc eb6b 0dbc
000003d0: 6c8c dfbb 621c 75bc 3a2a a8bc 300e 04bc
000003e0: 0611 97bc c83c ef3a 000c 24bc 6f6c 00bc
000003f0: 23c0 6bbb 7ab7 a6bc 0c70 073c 4e97 42bc
-0.017458847 -0.008279578 0.0039299107 -0.006563592 -0.016885847 -0.009335422 -0.016183076 -0.030341366
-0.002115771 -0.0023630217 0.005402461 -0.014122868 -0.0074312952 -0.0133218 0.0017673811 -0.018899508
-0.018649844 -0.013417225 0.0025067606 -0.007912742 0.0029724475 -0.019874819 0.0061128973 0.002943419
0.003802052 -0.008902673 -0.004833188 0.0085326135 -0.009119045 -0.023565184 0.0007116233 -0.016906202
0.008907634 -0.015275253 -0.013227493 -0.008764319 -0.032979146 -0.021202948 -0.015690275 -0.0033656224
-0.008465345 -0.004899169 -0.0022255438 -0.017472846 0.0041708504 0.0051455805 -0.0033731975 0.009768685
0.00778238 -0.013417918 -0.010326416 -0.02405017 0.003266676 -0.025670156 0.0021046803 -0.01276445
0.00083325815 -0.0067338333 0.018194774 -0.025384916 -0.009870877 -0.0101211965 -0.0013932479 -0.00040849557
-0.011255941 -0.026617514 -0.010774145 -0.009783941 -0.0037112087 0.011425338 -0.020560743 -0.016238654
-0.0020417147 0.019807579 0.009325942 -0.0037342492 -0.009215232 -0.0029187016 0.004334108 -0.00022900838
-0.007116037 -0.0024023529 0.017139282 -0.013188447 -0.013110508 -0.012680653 -0.010914051 -0.016688842
-0.0028549118 -0.015662687 -0.029085014 -0.016711356 -0.008197915 -0.007024634 -0.023540663 -0.005404354
-0.016163368 0.0046318844 -0.0023117294 -0.010957822 0.005857614 -0.024618076 -0.017046526 -0.015434194
0.0030048096 0.011950363 -0.007713672 -0.016283983 0.00014179679 -0.010199724 -0.0084962705 0.0014954794
-0.018824287 -0.0035218252 0.008335203 -0.006333757 -0.004385714 -0.0033661784 -0.011428257 -0.002625037
0.0067738155 -0.0033905217 -0.02174982 -0.007695119 0.003908576 -0.014384055 -0.005190788 -0.0029303364
-0.019295905 -0.017992338 -0.008576167 0.011522401 -0.024937758 -0.0007289488 -0.015089086 -0.0064407145
-0.01677866 -0.0133978 0.004830849 -0.0054653827 0.0006142734 -0.011961535 0.005011062 0.0054414948
-0.021144753 -0.0119030895 -0.00745571 0.010463704 0.005826841 -0.0052182307 0.0028281594 -0.0193426
-0.010253248 0.008377203 -0.013923439 0.0112803085 -0.0177144 -0.009020742 0.010460116 -0.025102349
-0.020486634 -0.0035490873 0.0060674218 -0.01815274 -0.005021198 0.0020235742 -0.004861262 -0.010295558
0.0070264535 -0.0051122755 -0.0028986807 -0.0012921784 -0.006057519 -0.0144501375 -0.020652402 -0.00020204204
-0.008021192 -0.02171882 -0.01799658 -0.023324959 0.011613568 -0.015584595 -0.0041765883 0.007205221
-0.0041346913 0.0024803185 -0.022626191 -0.008717012 -0.012220358 0.0025512394 0.0005047475 -0.003749721
-0.0026979095 -0.0016332928 0.0027285449 -0.0075716004 -0.019038925 0.00557242 -0.0067264107 -0.005995332
-0.0062642735 -0.020407354 -0.0102020055 -0.01815684 -0.010702837 0.0034842533 0.0015732648 -0.005589959
-0.035181567 0.002527488 -0.016467027 -0.008947019 -0.014591043 -0.011501916 -0.02265651 -0.0022086455
0.0010433772 0.0012321452 -0.02054314 0.0007546412 -0.0110025555 0.0041561597 -0.024571905 -0.01373466
-0.021387428 0.002740448 -0.0199759 0.016244676 -0.010778148 -0.0024298425 -0.0246547 -0.013199114
-0.014222106 -0.007900553 -0.007901812 -0.01948794 7.2447925e-05 0.0034780656 -0.007824841 -0.004171456
0.0008430107 0.007903062 -0.021310288 -0.008631687 -0.0068221595 -0.01496038 -0.020527948 -0.008060023
-0.018440735 0.0018252367 -0.010012627 -0.007838353 -0.0035972677 -0.02035116 0.00826646 -0.011876894

network_body.linear_encoder.seq_layers.2.weight f4 [256, 256]
00000000: 5bed f5bd 91dc 13bd cb4f 433d a38a 5abd
00000010: 42f6 9c3d 168e 323d 6afa e9bc 039b 1f3d
00000020: 1455 00be d406 85bd 64ae 853c e407 4e3d
00000030: 9142 fb3d f030 f8bd 56b7 443d 1f3b 76bd
00000040: 28a8 d33c ab19 e53c e251 cd3d ae6a 8fbd
00000050: a804 a63d 3102 7b3a cdb0 46bc 1ac7 bbbd
00000060: 4791 793d 7586 fabb 5ef0 57bd 08ab 053d
00000070: f4c7 4c3d ca7b 5dbd e568 0bbe 5919 a93b
00000080: 0135 6cbc ecc0 c53c d872 9c3d 08fb 893d
00000090: a549 1c3d 51cc 88bd adcf 52bd aee8 793d
000000a0: 125c a5bc 0ea2 69bc f851 d7bd aa2c 393d
000000b0: d433 36bd 6af6 62bd a416 fcbd 5452 b83d
000000c0: 56bf f4bd b0d6 1b3d efb3 b4bd b5ed 13bd
000000d0: 45cd 8c3c b265 6f3d e30a 42be 5721 403d
000000e0: 364e c9bd 96c5 a0bd 836c cabc 22ee 1f3b
000000f0: 1f7e d4bc 2528 4e3d 4d13 763d 0638 79bd
00000100: ac1f 5e3d 7e39 3fbd 4373 5fbd ab94 3dbe
00000110: e027 1b3d 05ae e53c 39d3 47bb 1319 d2bd
00000120: 3605 d9bd 710c a2bc 6085 853d 1a5b b5bc
00000130: 0bf9 09be 2bb3 b13c 1345 99bd e860 06bc
00000140: ed64 4bbd ae35 8a3c bd19 e63c 7463 8f3c
00000150: f28d f0bd 6bfb 6a3c 5c5a 2a3d 4653 f83d
00000160: 8a53 16bc c1b2 9ebc fbb6 9bbc b5db a4bb
00000170: 7d9d 6dbd 1dea 06bd 6be1 ac3b f7a2 1ebe
00000180: e559 b43d 689f 8cbd 3ee5 00be 7d9f d43a
00000190: 0b30 04be 46d3 28bc bb13 6e3d 963c 193d
000001a0: 0a68 75bd ab75 87bd c32d 9cbd ced4 4bbd
000001b0: 7e55 a8bd f8a7 f23d 6b9a 68bd 6454 f1bb
000001c0: 5a5a 41bb b6df 233d ccb4 c93c caae 40bd
000001d0: f33b 793b 025e d3bb 676f 2d3d 0126 b23c
000001e0: 369b 21bd 9275 013e 5015 583c 1247 413c
000001f0: f010 a4bc d118 4f3d 8713 68bc 378c 2b3d
00000200: 810e 2c3c e55a 6bbd 8385 a63a 071b 363d
00000210: 18d5 8b3d 6161 9aba 89d6 c3bd 4679 8fbb
00000220: 6520 febc 547f f13d ebcf 7d3d 3d45 92bb
00000230: fc1a 07bd cdc3 91bc b535 ae3d 540d f33c
00000240: 34a0 d9bc 9438 8f3d c8d0 1a3d f7ff f43a
00000250: e6c0 413d 21ff a13d d0fb 893d b3aa 093d
00000260: add4 f6bc ee52 4bbd fd74 a43d 0734 803d
00000270: c303 643d cb7a 53bd be70 c73d 640b 56bd
00000280: 0260 293e fb2f 0f3e 7709 a83c 4ab8 143c
00000290: 6c09 a9bc 4d6a 56bb 46f0 76bd 0ec8 dc3c
000002a0: 4e54 943d 3cda bebc da86 39be 51f4 44bd
000002b0: f487 a1bd 4b52 b4bc dd03 36bc 6e7f f0bd
000002c0: 9b3d d23c 4a88 763d 873d e1bc 5768 fdbc
000002d0: 8cef 0dbe 8cd1 1fbc db92 013e 0b3c 973c
000002e0: db28 0bbd 8bba a93c f612 b9bc 2791 20bd
000002f0: dfae 1abe 68d7 01bd 9d61 343e acb9 46bc
00000300: 04c3 9fbc 83db 83bd 346f ccbc a19b 54bd
00000310: de1b db3c 470d d4bd 3798 023d edb6 04bd
00000320: 09f5 d7bc 3f42 f8bb 130b c63c d423 e1bd
00000330: 32ae 433b eb63 2ebd b523 083e cf06 a4bc
00000340: 2424 293d 9abe 8d3a 42df a43d bcfe 8c3d
00000350: 756c 353d 7ca3 573d 0fb7 63bc 21a9 623d
00000360: 6fcc 023b 7d0e 3d3c 67d7 583d 0eba f1bc
00000370: 8dae 1abc 4521 d53c 82a6 f5bc fa40 973d
00000380: 919c 9ebc f823 73bd 8efc 403e ab7e 5f3d
00000390: 2a0d b83d 5485 ebbb 3fc9 0ebd 028e 103e
000003a0: aeee 363d f69f 983d 7672 00be 6a96 b9bd
000003b0: a9d6 dd3b 71ac bcbc 3f79 cc3d f36d f7bc
000003c0: ce4d ac3c b280 9ebc e008 403d 5e45 eb3c
000003d0: 57c4 bdbd 30f0 fcbb 3588 a13d ef6f 563d
000003e0: e56a 333d 06ab 51bd 982b 22bc 4c2e 86bd
000003f0: 9514 a6bd df21 00be d646 98bb 946c 3cbd
-0.120081626 -0.03609902 0.04768352 -0.05335487 0.076641575 0.043592535 -0.02856179 0.03896619
-0.12532455 -0.06495443 0.016318507 0.050300494 0.12268556 -0.12118709 0.048026405 -0.060114976
0.02583702 0.027966341 0.100253835 -0.070027694 0.08106357 0.00095752167 -0.0121271135 -0.09168835
0.060929563 -0.007645423 -0.052719466 0.03263381 0.049995378 -0.054073133 -0.13614233 0.0051604924
-0.014416934 0.024139844 0.07639092 0.067373335 0.03815617 -0.06679595 -0.051467586 0.061012916
-0.020185504 -0.014259828 -0.10513681 0.04520861 -0.04448302 -0.05541078 -0.12309006 0.09000078
-0.11950557 0.03804654 -0.08823382 -0.036115367 0.017187724 0.058446594 -0.18949465 0.046906795
-0.09829371 -0.078501865 -0.024709946 0.0024403413 -0.025939045 0.050331254 0.060077 -0.060844444
0.054229423 -0.04668569 -0.05455328 -0.18513744 0.037879825 0.02803708 -0.0030490889 -0.10258689
-0.10596697 -0.019781323 0.0651958 -0.022138167 -0.13473909 0.02169188 -0.07483878 -0.008201815
-0.049656797 0.0168713 0.028088445 0.017503478 -0.11745824 0.014342169 0.04159008 0.12125258
-0.009175191 -0.019372346 -0.01900815 -0.005031074 -0.05801152 -0.03293811 0.0052758954 -0.15491854
0.088062085 -0.06866342 -0.12587449 0.0016221848 -0.12908952 -0.010304278 0.058124285 0.037411295
-0.059913673 -0.0661424 -0.07625916 -0.049763493 -0.08219431 0.11848444 -0.05678789 -0.0073647965
-0.0029503317 0.04000827 0.024622343 -0.04704169 0.0038030117 -0.0064504156 0.04234257 0.021746637
-0.03945466 0.12642506 0.013188675 0.01179673 -0.020027608 0.050560776 -0.014164812 0.041881766
0.010501505 -0.05745973 0.0012704585 0.04445937 0.06827754 -0.0011778289 -0.09562404 -0.0043784706
-0.031021306 0.11791864 0.061965864 -0.0044638203 -0.03298472 -0.01779356 0.085063376 0.029669441
-0.026565649 0.06993213 0.037796766 0.0018692006 0.047303103 0.0790999 0.067374825 0.033610057
-0.030130709 -0.049639635 0.08030126 0.062599234 0.05566765 -0.051630776 0.09738301 -0.052256957
0.1654053 0.13983147 0.020512326 0.009077141 -0.020634376 -0.0032717169 -0.060287736 0.026950862
0.07242642 -0.023297422 -0.18117848 -0.04808456 -0.07887259 -0.022011897 -0.0111093195 -0.11743055
0.025664141 0.06018857 -0.027495159 -0.030933542 -0.13860911 -0.00975455 0.12653677 0.018461248
-0.03397451 0.020718833 -0.02259205 -0.039200928 -0.1510577 -0.031699568 0.17615362 -0.012129229
-0.01950217 -0.06438353 -0.02495537 -0.05190623 0.026746687 -0.10354095 0.031883445 -0.032401014
-0.026361959 -0.0075762565 0.024175202 -0.10993162 0.0029858467 -0.042575758 0.13294871 -0.020022778
0.041294232 0.001081425 0.080503955 0.06884524 0.044292886 0.052646145 -0.013898625 0.055337075
0.0019958278 0.011539099 0.0529398 -0.029507663 -0.00944103 0.02601684 -0.029986624 0.0738544
-0.019361766 -0.059360474 0.18846342 0.05456416 0.08986886 -0.007187525 -0.034859892 0.14116672
0.044661216 0.07452385 -0.12543663 -0.09061892 0.0067699743 -0.023031445 0.09984063 -0.030203795
0.021033194 -0.019348476 0.046883464 0.0287196 -0.092659645 -0.0077190623 0.078873076 0.052352842
0.043803114 -0.05118849 -0.009898089 -0.06551799 -0.081093945 -0.12512921 -0.004647116 -0.046001986
