config/results/Entry_reward02/PathFollowing/PathFollowing-7499878.onnx (onnx, 695646 bytes, 7 tensors)

action_model._continuous_distribution.log_sigma f4 [1, 3]
000000 f9 c3 3a 3e 76 fb a8 bc b6 75 cd 3d
       0.1823882 -0.020627718 0.10032217

action_model._continuous_distribution.mu.bias f4 [3]
000000 00 4a a8 bc b4 60 46 bb cf 49 9e bb
       -0.020543098 -0.0030270042 -0.004830576

action_model._continuous_distribution.mu.weight f4 [3, 256]
000000 9a 80 ca 3c 87 3f 10 3d 65 e2 06 bc 61 7f 68 3c
       0.024719525 0.035216834 -0.008232688 0.014190526
000010 57 fb d5 3b a9 50 10 3d d8 d5 30 3d a2 1b f6 3b
       0.006530206 0.035233174 0.043172687 0.0075106183
000020 c4 f4 8d bb cf 9e 99 3c 0a 79 91 bc 5f 69 f3 b8
       -0.004332157 0.018752484 -0.017757911 -0.0001160677
000030 96 0b 4d 3a 79 3d 02 3c 3d 4a 5f 3c db ac 03 3d
       0.0007821856 0.007949227 0.01362854 0.03214727
000040 28 24 27 3d 53 9f 87 bc 11 a7 57 bc 30 58 fe 3a
       0.040805966 -0.016555464 -0.01316239 0.0019404944
000050 e1 7a 99 bc 2c 59 6b 3c 1c 44 08 bd 63 fa b4 3a
       -0.018735351 0.014364522 -0.03326808 0.0013807531
000060 6a 03 11 bd 9d 39 6b 3b 4c 33 c0 bb 50 bf de bc
       -0.035403647 0.0035892494 -0.00586549 -0.027190834
000070 69 8e 08 bc 57 96 97 3c c2 f8 37 3c ef b9 84 3c
       -0.0083347345 0.018504305 0.011228742 0.016201941
000080 5a 16 9a ba d8 3d 21 3c f5 ed b3 3b 45 43 a5 3b
       -0.0011755929 0.009841405 0.005491013 0.0050434195
000090 5a c8 96 3c 58 05 29 3d 2c 15 a3 3b 67 23 87 3a
       0.018406082 0.04126486 0.004976889 0.0010310233
0000a0 ec a2 58 bc 42 5e 63 3b 7f 93 dd bc 7e 5f b9 3c
       -0.013222437 0.0034693633 -0.02704787 0.022628542
0000b0 cd 73 a3 bc 0a 1b 0f bc b5 5f 4a bc d8 af a2 bb
       -0.019952679 -0.008734474 -0.01235192 -0.00496481
0000c0 0c f9 76 bc f8 85 90 3c 7f 07 09 3b 27 05 03 3d
       -0.015074026 0.017642006 0.002090901 0.031987336
0000d0 f1 6f ce ba 29 3c 37 3c e4 1d 51 3d 65 fb a8 3b
       -0.0015749914 0.011183777 0.051053897 0.0051569217
0000e0 0e d2 43 3d e6 78 20 bc 50 80 d8 3c 6e 05 7e 3c
       0.047807746 -0.009794449 0.026428372 0.015504224
0000f0 60 f5 01 3b 4c 50 35 bc 45 05 c6 bc 03 f3 31 bc
       0.0019830093 -0.011066508 -0.024172435 -0.010861161
000100 26 c9 0a bb 93 10 7f 3c ab f0 d3 bb 98 df 36 bc
       -0.0021177023 0.015567916 -0.006467899 -0.011161707
000110 b8 d6 5d bb 5f 98 3e bc 00 d9 38 3c db fc 57 bb
       -0.0033849906 -0.011633008 0.011282206 -0.003295711
000120 fe 2b ae bb a4 28 0b bc 66 cd 96 bc b8 b1 44 bc
       -0.005315303 -0.008493576 -0.018408488 -0.012005262
000130 90 f3 83 bc bc e3 f5 bb 48 41 ff bb e4 d4 10 bd
       -0.01610735 -0.0075039547 -0.0077897646 -0.03535928
000140 49 e8 7c ba ca 7c 90 3b 00 f5 0c bc fb 32 f4 3c
       -0.00096476503 0.0044094073 -0.008603334 0.029809466
000150 a4 3a 8d 3c 0b 0a fd 3b 1a 14 35 3c e4 2d a3 3c
       0.017239876 0.0077221445 0.011052156 0.019919343
000160 24 23 8d bc 22 14 93 3a 12 a4 00 3c b7 08 3b bc
       -0.01722867 0.001122121 0.007851617 -0.011415652
000170 44 e9 60 3b 3e 9d 65 bc 1f 09 a2 3c 36 d5 93 3c
       0.0034318725 -0.01401454 0.01977974 0.018046003
000180 f1 66 20 3c a8 a1 23 bc 8c 53 29 bd da 20 7e 3b
       0.009790168 -0.009987272 -0.041339442 0.0038776905
000190 34 fd 72 bb 84 74 41 3c 65 eb 7d 3c 02 cc 3c 3b
       -0.003707719 0.011807565 0.015498017 0.0028808122
0001a0 38 e2 07 3c 5d 21 83 3b e4 b9 31 3b 05 50 2b bc
       0.008293681 0.00400178 0.0027118856 -0.01045609
0001b0 a5 fb c2 ba bc 60 ec bc ac 75 b8 bc a2 95 e5 bc
       -0.0014876021 -0.02885472 -0.022517048 -0.028025452
0001c0 62 28 95 3c 3e 8a 48 bc 61 3a c7 ba 33 73 4a 3b
       0.018207733 -0.012239991 -0.0015199893 0.0030891418
0001d0 1d cb 9d 3c 9f eb 2d 3d a7 ba 2f bd 13 01 80 3c
       0.019261891 0.042461034 -0.042902615 0.015625512
0001e0 b2 40 f7 3c 3d 11 14 bc 3b d4 a3 3b 2c 20 0e bc
       0.030182216 -0.009037313 0.004999665 -0.008674663
0001f0 3b 03 26 bc 9c b2 a7 3c a9 81 c0 3c 39 88 13 3d
       -0.010132606 0.02047091 0.023499327 0.036018584
000200 99 60 70 3b 40 c6 9a 3c 2a fe ee 3c ad 15 42 bd
       0.003667867 0.018893361 0.02917393 -0.047383953
000210 40 3e 31 3b 60 35 e6 3a 9c 11 6b 3c 60 8c 8a 39
       0.002704516 0.0017563514 0.01434746 0.00026426
000220 1f 8e 15 3c a1 db b5 3c 05 64 78 bc a3 76 cf 3c
       0.009128123 0.022199454 -0.015160565 0.025325125
000230 d9 b3 cd bc 65 8a 0a 3d ea 38 e5 3b b7 62 32 bb
       -0.025110172 0.03382339 0.00699531 -0.0027219483
000240 99 20 d9 3c 9b 2d 6d 3c fa ec c2 3c c3 d5 36 bc
       0.026504802 0.014476205 0.02379464 -0.011159363
000250 e6 4b a1 bc 07 2f 65 bc 52 2c 26 bd 89 8d e4 ba
       -0.019689512 -0.013988263 -0.04056961 -0.00174372
000260 df 26 d0 3c d3 05 17 bd 2b 9d 84 3b 1d 91 25 bd
       0.02540916 -0.03687079 0.004047056 -0.040421594
000270 ef 02 8c ba 2a 82 e8 3c 99 3f ab bc 25 a5 75 3b
       -0.0010682027 0.02838238 -0.02090435 0.0037482467
000280 91 21 be bc 13 b5 44 3a 90 ae a0 bc ef cc ec 39
       -0.023209365 0.0007503789 -0.019614488 0.00045166115
000290 c0 97 72 bc c0 ad 75 bb a8 b6 01 3d c6 b5 94 bb
       -0.014806688 -0.0037487596 0.031668335 -0.0045382706
0002a0 7b 87 bb bc 1f 9d cd 3c 16 ce 0b bb f2 66 a5 bb
       -0.02289175 0.025099335 -0.0021332554 -0.0050476724
0002b0 b2 cb 36 3c ec b2 03 3d 7e dc 09 3c c8 72 b4 bb
       0.011156963 0.032153055 0.008414386 -0.005506847
0002c0 aa 1e d6 3c 59 ff 04 3d 2c 31 7e 3c 3c fe ce 3c
       0.026137669 0.03247008 0.015514653 0.025267713
0002d0 76 69 0f 3d 83 a4 1e 3d 14 8d 09 3d 20 4e a2 bc
       0.035012685 0.03873111 0.03358181 -0.019812644
0002e0 56 89 f3 3b 95 27 43 3c 87 e1 9f 3c 91 19 99 ba
       0.007432143 0.011911293 0.01951672 -0.0011680593
0002f0 df b2 1c 3d d3 87 88 bc 26 43 6e bc 26 d3 79 bc
       0.038256522 -0.016666329 -0.014542377 -0.015248096
000300 bf 9c f5 bc 97 16 ad bb d3 53 3c bc a3 f2 f0 ba
       -0.029981969 -0.005282234 -0.011494595 -0.0018382858
000310 eb 46 f9 3c 6d c2 35 bb dd cd 57 bb 49 2a 09 3d
       0.030429324 -0.0027734295 -0.00329291 0.033487592
000320 d5 df e3 bb b1 c6 b0 3c 3f a2 5f 3c 74 e7 04 3d
       -0.006954173 0.021579118 0.013649522 0.032447293
000330 67 52 5a 3c ff 5b b5 3b c9 68 a4 3b 7a c1 e5 3c
       0.01332531 0.0055346484 0.005017374 0.028046358
000340 be 86 33 3c 0f 2e 70 3c 89 26 f0 bb 8c 76 e8 39
       0.010957418 0.014659419 -0.0073288125 0.00044338813
000350 c7 da 1a 3d 09 5c 90 3c be 2f 2d 3d 64 e4 e8 3c
       0.0378063 0.01762201 0.04228186 0.028429218
000360 9f 1a 30 ba e3 15 4d bc 92 d2 19 3c 71 e6 c6 bc
       -0.0006717834 -0.012517425 0.009388583 -0.024279805
000370 9f 36 d6 3b f7 3d 26 bc d7 4e ec 3b 25 99 94 3c
       0.006537273 -0.0101466095 0.007211547 0.018139431
000380 15 de 61 3c 28 de 79 3c f7 54 80 bc 47 70 d3 bc
       0.013785859 0.01525072 -0.015665514 -0.025810374
000390 b0 7b ea bb 7d dc 8b bc f5 f8 a6 3c 16 64 e4 3c
       -0.007155858 -0.01707291 0.020382384 0.027879756
0003a0 45 da cc 3c 57 48 b3 bc ce 9c 5f bb 10 5e c4 bb
       0.025006423 -0.02188508 -0.0034120562 -0.0059926584
0003b0 02 c3 7a 3d 8b f3 78 bc d9 9e 54 3c fe d1 01 3b
       0.06122113 -0.015194784 0.012977325 0.0019809003
0003c0 7f 19 f4 3a 47 9a 9f 3b 56 15 2c 3d 51 77 e6 3c
       0.0018623321 0.004870686 0.042012535 0.028133066
0003d0 bb a9 70 bc 33 2e bc 3a e9 a5 2b 3c 75 7d 42 3c
       -0.014688904 0.001435703 0.010476568 0.011870732
0003e0 4d 84 98 39 70 49 38 bc d8 a3 43 3b 9c 83 c5 bb
       0.0002909027 -0.011247978 0.0029852297 -0.006027652
0003f0 7f 05 3d bb 43 34 83 ba 90 c8 86 bc 38 50 2c b9
       -0.0028842387 -0.0010010082 -0.016453058 -0.00016433082

network_body.linear_encoder.seq_layers.0.bias f4 [256]
000000 ae 44 6e 3b 50 dd 44 bc 2e 00 1e 3b 1f c5 a5 ba
       0.0036356854 -0.012015656 0.0024108994 -0.0012647248
000010 91 7e fb ba 88 d6 c8 bc 0b 51 7e 3b 5b bd d1 bb
       -0.00191875 -0.024516359 0.003880563 -0.0064007468
000020 84 05 76 bb 88 7d 13 b9 82 ba e2 b9 2d 10 69 bb
       -0.0037539909 -0.00014065776 -0.00043245038 -0.003556262
000030 85 ab 96 b9 42 e2 6a ba 5c 8e 80 bb 01 2f d9 ba
       -0.00028738022 -0.00089601066 -0.0039232206 -0.0016569794
000040 52 c4 eb 3b ce 6d 2a 3a 64 66 76 bb 6b fd 43 3b
       0.007195034 0.00065013475 -0.003759765 0.0029905688
000050 03 04 ec bc 02 43 c6 bb 64 9b d7 3a 16 20 d8 bb
       -0.028810507 -0.0060504684 0.0016449508 -0.006595622
000060 49 af 4b bc a9 11 3a bb dc bc d1 b9 09 97 e8 bb
       -0.012431928 -0.0028391874 -0.00040004298 -0.007098083
000070 5f 96 d9 bb 74 fe ec bc 90 6e f3 3b 78 4f f9 38
       -0.00664024 -0.028929926 0.0074289516 0.000118880474
000080 dc ee f3 bc 6d 1c d2 bc bd d6 41 bb 58 36 0f bc
       -0.029776983 -0.02564832 -0.0029577457 -0.008740984
000090 9c 05 9f 3b fe 6f 8d ba ce 67 bb bb b8 66 97 bc
       0.0048529636 -0.0010790823 -0.0057191616 -0.018481597
0000a0 0d 09 80 ba ee 15 66 bc 11 5e 47 3b 24 59 d6 ba
       -0.0009768322 -0.014043314 0.0030421058 -0.001635347
0000b0 ff 6a ec 3a 85 50 29 bc 03 af a1 bb 0e 04 03 bc
       0.0018037258 -0.010334139 -0.004934193 -0.007996572
0000c0 29 37 a2 bb 5a fc 4b bb 7a 81 ab 3b df 5d 84 3a
       -0.0049504233 -0.0031125755 0.0052339407 0.0010098777
0000d0 c0 7f c2 bb c7 23 ad 3a dd e2 8e bb 92 d0 38 bb
       -0.005935639 0.0013209515 -0.0043605403 -0.002820049
0000e0 db 92 5d bc aa 9c d2 3b 30 02 2d 3a 09 2b 3b ba
       -0.013523783 0.006427367 0.0006599752 -0.00071398966
0000f0 e4 21 55 3b f3 94 08 bd a7 72 1b 3b c9 c7 42 bc
       0.003252142 -0.033345174 0.0023719461 -0.011888453
000100 9b d5 1c 39 f7 a3 a0 bc 58 a2 95 3b 34 07 74 3b
       0.00014956894 -0.019609435 0.004566472 0.0037235739
000110 d1 d0 c8 b9 32 be 53 bc 5a b1 4a 3a 84 ac 4d bc
       -0.00038302553 -0.012923764 0.0007732116 -0.012553338
000120 f2 c2 86 bc cd 94 62 ba 9d 1b dd bb b0 9c c8 b9
       -0.016450379 -0.0008643389 -0.0067476765 -0.00038263714
000130 5d a2 87 3b eb a0 30 bb e9 49 43 bb 1b 11 9d 3b
       0.0041392283 -0.0026951383 -0.0029798693 0.004793299
000140 61 c7 ab 3b 7d 28 2f 3b a8 c5 5a bc dd f1 f4 3b
       0.0052422737 0.0026727014 -0.013352789 0.0074751214
000150 7a ac c2 bb 3d 39 3c bc cb e6 c1 bb 6c 32 cd bb
       -0.005940971 -0.011488256 -0.0059174052 -0.0062621143
000160 97 3f 05 bc 31 4c f0 3b a2 44 bd bc 2a 54 b0 bb
       -0.008132837 0.0073333015 -0.023104016 -0.005381127
000170 d8 47 16 bd b3 92 63 bb 7d 97 a5 bb 29 f0 11 3a
       -0.03668961 -0.003472489 -0.005053459 0.00055670977
000180 55 a6 dc bb 22 76 62 bc 2c 6a 04 bc b2 e1 13 bc
       -0.0067336955 -0.01382211 -0.008081954 -0.009025978
000190 7a a4 2e 3b 3d dd 98 3b c9 55 2c bb 7a 9e 1e 37
       0.0026648329 0.0046650455 -0.002629625 9.454432e-06
0001a0 1b e2 42 bc 21 af 76 39 a2 32 c9 bc e3 1e 17 39
       -0.011894728 0.00023525629 -0.024560276 0.00014411988
0001b0 ae be c2 bb 0e fb 6c bc 94 3c b9 bc 9f 8e f4 bc
       -0.005943141 -0.014464153 -0.022611894 -0.029853163
0001c0 32 59 40 bb 67 d4 fb 3a 8b 8b 45 bb 80 42 5e bc
       -0.002935004 0.0019213081 -0.0030142989 -0.0135656595
0001d0 fd 54 aa 3a 24 0f a5 bb f7 17 2d bc 7a 49 88 3b
       0.0012995299 -0.0050372053 -0.010564796 0.0041591497
0001e0 e9 9f b8 bb 5e ad 41 3b 60 59 9a bc 6d 36 03 bd
       -0.005634297 0.0029552798 -0.018841445 -0.032034326
0001f0 94 c2 5c bb 49 5f 00 3a 24 06 b9 b9 bf 27 8c bb
       -0.0033685314 0.0004897011 -0.00035290525 -0.004277199
000200 c2 48 74 bc 49 ef a0 bb 8a 54 5e bc a6 87 0e bc
       -0.014909925 -0.0049113375 -0.01356996 -0.008699333
000210 0d 36 8c bb ba d3 9c ba a1 ca 6c bc b2 da 9f 3b
       -0.0042789043 -0.0011964955 -0.014452607 0.0048783654
000220 ab 81 d3 bb 70 1a 16 bc c6 63 51 bc e8 1a 05 3b
       -0.0064546666 -0.009161577 -0.0127801355 0.0020310227
000230 62 22 24 38 76 be 8e 3b 59 cd ae 3b 91 cd 98 b8
       3.913267e-05 0.004356201 0.005334538 -7.2862145e-05
000240 11 86 a6 3b e7 50 18 bb 46 c1 77 3a b4 34 1a 3a
       0.0050819 -0.002324158 0.0009451102 0.0005882487
000250 63 6e f5 bb 0a a5 1f 3c 9a 0e 8a ba b0 dc 44 bc
       -0.0074899658 0.009743938 -0.0010532916 -0.012015507
000260 b4 4d cc 3a 3a 7a 4c bb c6 2b d9 ba a9 28 70 bb
       0.0015587122 -0.0031200782 -0.0016568832 -0.003664533
000270 e3 13 5b 3b 60 b9 20 bb 80 88 d0 b9 cc c1 eb bb
       0.0033428601 -0.0024524555 -0.00039774552 -0.0071947332
000280 0c 3d 3c bc 08 c6 d1 3b 65 da ab 3b 60 0d dd bc
       -0.011489164 0.006401781 0.0052445405 -0.026983917
000290 ac 07 3d 3b 2f 94 a8 bb ad 1a 07 bc 2d d8 c1 bc
       0.0028843684 -0.005144618 -0.008246106 -0.023662651
0002a0 5c c3 8b bb e8 62 20 3a 33 34 35 3b c4 95 3b 3a
       -0.004265232 0.0006118254 0.0027649521 0.00071558007
0002b0 b6 e9 5a bb 95 1e c6 bc 47 5e a5 bb 29 ef b1 bb
       -0.0033403463 -0.024184505 -0.005046639 -0.0054301214
0002c0 bc 0b 01 bb 08 77 92 bc 00 19 fc bb b4 47 6a bb
       -0.0019690832 -0.017879024 -0.00769341 -0.0035748305
0002d0 6c 49 71 bc 78 e6 b0 3a 1d 2e 16 3b 25 cd 50 ba
       -0.014726978 0.0013496419 0.002291567 -0.0007965139
0002e0 a3 a6 d7 bc 28 4f 5c 3b 5c 3f 23 3c ae 79 f4 bb
       -0.026324576 0.0033616517 0.0099638365 -0.0074607944
0002f0 9a 7f 61 bc 1e eb 9b bc 6f 0a 41 ba 8c 9b e3 3b
       -0.013763333 -0.019033011 -0.00073639204 0.006946033
000300 49 e5 67 ba 8b e2 5e bc 05 60 58 bc 9f 3d 32 ba
       -0.0008846117 -0.013603817 -0.013206487 -0.00067993434
000310 5a 01 98 bb ac 9f 01 3a 0a 71 4f bc 8f 73 8b bc
       -0.004638833 0.00049447524 -0.012661228 -0.017022876
000320 3c 98 30 b9 32 6b 4d bc 20 92 a7 bb 96 07 65 bb
       -0.0001684138 -0.012537764 -0.005113855 -0.0034947149
000330 80 60 8b 3b fb a4 97 bb 30 bd 42 bc 52 6f 53 bb
       0.004253447 -0.0046278215 -0.011885926 -0.0032262397
000340 d4 85 6e bc c4 f1 a6 3b 88 49 e7 bb 69 75 e1 ba
       -0.014558274 0.0050947387 -0.007058326 -0.0017201129
000350 f2 79 62 bb f4 96 8b bb 14 ca 6d 3a a2 72 f9 bb
       -0.0034557548 -0.0042599384 0.00090709445 -0.0076125422
000360 fa 3a 9b bc 1f 49 cf bc df 69 db 3b 33 f4 cd 3a
       -0.01894902 -0.025303422 0.0066959704 0.0015713036
000370 c2 e7 a1 bb e8 60 d6 b7 f4 d1 58 3b b7 43 1a bc
       -0.0049409578 -2.5555913e-05 0.0033084126 -0.009415559
000380 df d2 4e bb b0 1e 31 3b b3 b6 bf bc 56 b5 ef bb
       -0.0031558794 0.0027026348 -0.023402547 -0.007315318
000390 37 5e 97 bb d8 ea c0 b9 a3 65 86 39 06 a4 af bc
       -0.0046193856 -0.00036796066 0.00025634197 -0.021440517
0003a0 f3 a8 44 bb 5b 86 e8 bb 0c e8 05 bb 1a 23 c2 ba
       -0.0030007928 -0.0070960945 -0.00204325 -0.0014811486
0003b0 94 7e 59 bb 5b 12 9a 3a 77 b5 bb bb d5 a8 ce bc
       -0.0033187019 0.0011754738 -0.0057284194 -0.02522699
0003c0 d1 ab 2b bb bb eb 85 bc 14 c2 81 ba 00 5f a5 ba
       -0.002619494 -0.016347757 -0.0009899759 -0.0012616813
0003d0 0b 38 fd ba 7d be ac bc 47 46 96 bc 57 dd d7 bb
       -0.001931907 -0.021086926 -0.018344058 -0.006587665
0003e0 1d a7 e1 b9 d6 14 7b 3b 04 80 86 bb a7 4b ed 3a
       -0.00043039853 0.003831198 -0.004104616 0.0018104211
0003f0 77 64 89 3a 6a 49 0f 3b 9c 6c 8a bb 28 b0 2c bb
       0.0010482211 0.0021863827 -0.004224373 -0.0026350114

network_body.linear_encoder.seq_layers.0.weight f4 [256, 416]
000000 d5 bd 2c 3d 5f 40 2d 3c 36 29 03 be 11 73 75 3b
       0.042173225 0.010574429 -0.1280869 0.0037452618
000010 ed ae 36 3e 6b ea 4d 3d f7 48 af bc ea a8 47 bd
       0.17840166 0.050272387 -0.021397097 -0.048745073
000020 97 7d a5 3c e0 b1 7e bc 6e 84 37 3c cb e0 a7 3d
       0.020201487 -0.015545338 0.011201007 0.08197173
000030 17 bd c6 3d ff d4 04 bd 49 36 03 3c fd bc c6 3d
       0.09704035 -0.03242969 0.008008548 0.097040154
000040 ad b6 d4 bd 61 fa 54 bd b3 66 2b 3c 91 51 2a 3c
       -0.10386405 -0.051996592 0.010461497 0.0103954235
000050 c4 04 9a 3d 9f de 2b 3d e4 4e 7b 3c 0c 83 64 bd
       0.0752044 0.041960355 0.015338633 -0.05578904
000060 70 3d 6e 3d 38 ba 5c 3d e1 8a 93 bd de 3b 13 3d
       0.05816406 0.05388853 -0.072042234 0.035945766
000070 bb c0 87 3d f8 da bc 3c 39 6c 27 3d 51 68 cc 3c
       0.06628557 0.023053631 0.040874694 0.024952086
000080 ff c4 71 3d db ca 28 3d ed d6 81 bd 88 fe 7a 3d
       0.05902576 0.041209083 -0.06339822 0.061277896
000090 05 0d 04 3d 04 ba 30 bc 2d 6c 25 bd d4 54 80 bd
       0.03223898 -0.010786537 -0.040386368 -0.0626618
0000a0 8d a4 13 3d 67 9a b8 3d 19 3e 15 bc 9d 1d 71 bd
       0.0360456 0.09013825 -0.0091090435 -0.058866132
0000b0 1a 99 47 3d ae ee d1 bc 81 2a b3 3c cd 66 ab 3d
       0.048729993 -0.025626507 0.021870853 0.08369217
0000c0 95 8d 57 3b 55 83 26 3d c7 8d 2b bd ad 85 72 bc
       0.0032890786 0.04065259 -0.041883256 -0.014802379
0000d0 26 70 05 3c 30 01 c7 3b c3 94 28 bb 76 2f 33 3d
       0.008144414 0.0060731396 -0.0025723435 0.043746434
0000e0 62 b9 51 3d 7a 79 5a 3b 9e 62 96 bc d3 dc 3e bc
       0.051202185 0.0033336566 -0.018357571 -0.011649328
0000f0 82 18 ca 3d 8e 6b 6a 3d 30 6c 8d bb ff 99 b4 3d
       0.09867956 0.05723148 -0.0043158755 0.08818435
000100 3c f6 d7 3b 66 28 bd ba 88 06 0a be 47 26 1b bc
       0.0065906327 -0.0014431595 -0.13479054 -0.009469575
000110 0a fa 14 3c 0d 4b 96 bd a7 1f 3e 3d 69 de 70 bc
       0.009092817 -0.073385336 0.046416905 -0.014701464
000120 74 35 64 3d 9c 5d 9b bd 2f ca 3f 3d 83 b9 90 bc
       0.05571504 -0.07586214 0.046823677 -0.017666584
000130 b6 8f b4 3d f3 3e 6e 3d e8 84 34 3b 3c 81 e9 bb
       0.08816473 0.0581655 0.0027545039 -0.0071260016
000140 39 d4 2d 3d 80 01 ce bc ee 1d 83 3d ee e7 10 3d
       0.04243872 -0.0251472 0.06402193 0.035377435
000150 c7 82 aa bd 80 68 5d 3b 29 35 85 bd 5e c0 e7 bc
       -0.08325725 0.003378421 -0.0650428 -0.02828997
000160 01 12 b9 bc 23 de 35 bd 76 66 a2 3d 45 28 d9 bc
       -0.022591593 -0.0444013 0.07929699 -0.02650846
000170 c4 e5 32 3d 73 66 ca bd cf 98 6a 3d aa e2 7c bd
       0.043676153 -0.09882822 0.057274636 -0.0617396
000180 bc 1b d6 3c d0 d1 6b 3c 13 32 f0 3b 06 52 4b bc
       0.026136272 0.014393285 0.007330188 -0.012409693
000190 6a 17 27 3d 45 1c b4 bc a6 b3 d5 ba 5d 41 22 3d
       0.040793814 -0.021986136 -0.001630415 0.039613117
0001a0 12 d9 fe bc 93 c3 2b bd a3 e6 ec 3c d8 73 57 3d
       -0.031109367 -0.04193456 0.02891857 0.05260071
0001b0 f7 ea 46 bc 9d 05 af bb ea 19 17 bc 14 b9 bb 3d
       -0.012140981 -0.0053412453 -0.009222487 0.0916616
0001c0 42 9e 86 bd 83 99 97 bc 9d af 96 3d 6f 1a 85 bd
       -0.06573154 -0.018505817 0.07357714 -0.064991824
0001d0 cb f3 43 3c 14 57 3b bd fc 3a 3a bd e1 12 0c bd
       0.01195998 -0.04573734 -0.045466408 -0.03419769
0001e0 f1 74 23 3b 12 40 93 bb df ca 33 3c fe 71 b0 3c
       0.0024941529 -0.0044937218 0.010973661 0.02153873
0001f0 2d 21 d4 3b 82 c3 80 bd d2 e0 84 3c 43 d2 d3 3c
       0.0064736814 -0.0628729 0.016220484 0.025857097
000200 9b 1f f7 bb 8b 8e 1a bd bc ab 7a 3c 93 b3 de 3b
       -0.0075416095 -0.037733596 0.015299734 0.0067963093
000210 92 cb 9a 3c b1 b6 b4 3d 93 e5 19 3d 22 ac 90 bd
       0.018895898 0.08823908 0.037572455 -0.07064082
000220 f9 eb 88 bd 85 91 52 bd b9 7b 89 bd 83 ab 7a 3d
       -0.06685633 -0.05140831 -0.06713051 0.061198723
000230 50 c2 73 3c 2a 99 5b 3d 9d 44 ac 3c ff 61 48 3d
       0.014877871 0.053612866 0.021028811 0.04892158
000240 93 3b 03 bd bd 69 94 bc 34 74 8e bb 29 69 2f 3d
       -0.032039236 -0.018116826 -0.0043473486 0.042824898
000250 37 fa 3b 3b 06 36 fb bc 3a e3 c5 bc f7 5c 87 bb
       0.0028683075 -0.030665409 -0.024156202 -0.0041309553
000260 30 4d 66 3c 11 74 99 bc 65 ac 25 3b bd ba 90 bd
       0.014056489 -0.018732103 0.0025279757 -0.070668675
000270 bc 10 e0 bd 97 e1 10 3d 09 9d e4 3c d6 c5 53 bd
       -0.10940692 0.03537139 0.027906911 -0.051702343
000280 bc 57 ce bd 89 1a a8 3c 75 ed c0 3b 45 ca ca 3b
       -0.10075328 0.020520465 0.005887682 0.006188663
000290 76 b1 99 bd aa 53 72 3b 6c cf 5b 3d 77 30 33 bd
       -0.07504551 0.0036976137 0.05366461 -0.04374739
0002a0 69 d9 79 bc 57 43 79 bc 3f 9a f9 3c 2a 69 97 3c
       -0.0152495885 -0.015213809 0.030469058 0.018482763
0002b0 a9 37 16 3c 48 fd c2 3d 40 4b 0e bb 17 b9 bd 3d
       0.009168544 0.09520966 -0.0021712333 0.09263819
0002c0 28 aa ad 3c 47 71 52 3d bd 40 3a 3c 0e 59 b1 3b
       0.0211993 0.05137756 0.011367974 0.0054122275
0002d0 6c ab bd bd d4 97 cf 3d 80 0b 35 3d 53 15 ba 3d
       -0.09261212 0.10136381 0.04420042 0.090860985
0002e0 d7 0a 0a bc f3 e0 b7 39 46 cc 62 bd e6 c3 7a bc
       -0.008425436 0.0003507208 -0.05537059 -0.015305495
0002f0 ae 39 eb bc d4 8c 6d bd d3 7e 59 bc 7d 73 cc bc
       -0.028714027 -0.057995632 -0.013274866 -0.024957413
000300 92 72 8e 3c 88 1d 80 3c a1 13 ca bb 4c 07 82 3d
       0.017388616 0.015639082 -0.0061668907 0.06349048
000310 90 07 a3 3d 5e 7e 17 3c e5 4e 0f 3c 2f 36 76 3d
       0.07960427 0.009246437 0.008746837 0.060110267
000320 2e 6f 84 bd fe 9b 2b 3d 61 a6 0b 3d f9 5c ab bd
       -0.06466518 0.041896813 0.03409422 -0.083673425
000330 f9 74 dc 3d 74 f1 9e bc b3 55 79 3d 7f 18 fa bc
       0.10764498 -0.019402243 0.060872745 -0.030529259
000340 80 e6 57 3d 05 bc 3f 3d f8 74 e1 bc 59 96 7a bd
       0.052710056 0.04681017 -0.027521595 -0.06117854
000350 4f 9a 3d 3d 26 b8 5a bb 5d 8f 14 bd 86 89 cd b9
       0.04628974 -0.0033373921 -0.036269534 -0.0003920311
000360 22 57 07 3d 93 85 8f bc 9b 1d 43 bc a3 c6 93 bd
       0.03304208 -0.017519748 -0.011908914 -0.07215621
000370 f5 0e a3 3d 8a 2a 96 bc 43 90 b4 bd 74 57 e4 3a
       0.07961837 -0.018330831 -0.08816578 0.0017421083
000380 92 f5 5d bd a7 c6 89 3c 48 38 0d bc 29 7a e6 bc
       -0.054189272 0.016818358 -0.0086193755 -0.028134422
000390 0a 4a e4 3c 12 70 13 3c a8 eb 7d 3d d4 20 3a 3d
       0.027867336 0.008998888 0.061992317 0.045441464
0003a0 73 a2 69 3d b3 da 8c bd 64 f0 7b bd 34 ad cb bd
       0.05703969 -0.06877651 -0.06150855 -0.09945145
0003b0 18 5d 1d 3d 2b 8f 5b bd 8e 7b 00 be 9c c0 6d 3d
       0.03841886 -0.053603332 -0.12547132 0.058045015
0003c0 c9 b7 40 bc a8 54 7a 3c d2 45 dd bc 29 d6 05 3d
       -0.011762568 0.015278973 -0.027010832 0.032674942
0003d0 df 8d f1 3d 51 b2 15 3c aa a8 87 3d 03 3b 02 3c
       0.11794638 0.009136752 0.06623967 0.00794864
0003e0 58 f6 f1 bc 35 d4 f1 3d ee 75 ba bd 82 c5 6d ba
       -0.029536411 0.118080534 -0.091045246 -0.00090702635
0003f0 0a e7 50 bd a1 c8 e0 bc f3 b7 07 bb 75 87 96 bc
       -0.051001586 -0.027439417 -0.0020709008 -0.018375138

network_body.linear_encoder.seq_layers.2.bias f4 [256]
000000 ce 5d ac bc 70 9e 1c bc ab 2d 2c 3b f4 3f 9a bb
       -0.021040823 -0.009559259 0.0026272337 -0.004707331
000010 e5 38 54 bc dd 79 22 bc d7 25 94 bc 4d 71 e5 bc
       -0.012953018 -0.00991675 -0.01808445 -0.028008128
000020 a4 0c 01 ba a4 7d 2b bb 05 f0 3e 3b 2c 47 c4 bb
       -0.0004922843 -0.0026167417 0.0029134762 -0.0059899297
000030 f0 ef ee bb 05 bb 59 bc 6f d2 23 bb 1b 1c ad bc
       -0.0072917864 -0.013289218 -0.0024997254 -0.021131566
000040 94 47 ca bb b3 65 40 bc 97 84 fe 3a 0b a6 f1 bb
       -0.0061730836 -0.011742997 0.0019418177 -0.00737453
000050 a4 72 06 bb 47 08 81 bc bf df dc 3b 5d f0 3b 3b
       -0.0020515108 -0.015751017 0.00674054 0.0028677203
000060 3a 8d 16 b9 e3 8e bd bb e0 3b ba bb 03 80 df 3b
       -0.00014357726 -0.0057848557 -0.005683407 0.00682068
000070 1f e0 4c bc 79 ff 85 bc 14 fb 28 bc a2 c9 4a bc
       -0.0125046065 -0.01635717 -0.010313768 -0.012377175
000080 07 43 0b 3c 7a 05 d8 bb 52 e8 12 bc 91 eb 08 bc
       0.008499867 -0.0065924497 -0.008966522 -0.008356945
000090 36 27 f3 bc c7 73 b9 bc b6 d8 6a bc e7 7b 59 bb
       -0.029681783 -0.022638215 -0.0143338945 -0.0033185424
0000a0 f3 1d 2f bc a0 33 82 bb f4 04 b6 39 3f 4a 99 bc
       -0.010688293 -0.0039734393 0.00034717435 -0.018712161
0000b0 b8 f2 ac 3a da fd 8e 3b 9d ee 2b bb af 74 f1 3b
       0.0013194894 0.0043637576 -0.0026234754 0.007368646
0000c0 d6 32 ba 3b 78 69 77 bc 92 fe 09 bc 13 c9 c5 bc
       0.0056823296 -0.015100829 -0.008422511 -0.024143731
0000d0 fc c5 24 3b 7c b1 ae bc 51 db 42 ba 44 3d 91 bc
       0.0025142422 -0.021324866 -0.00074331934 -0.017729409
0000e0 3f 31 8e 3a 69 98 e3 bb eb f4 77 3c 88 c8 d8 bc
       0.0010848417 -0.006945659 0.015134077 -0.026462808
0000f0 c7 43 4e bc d8 f0 2e bc 6e 78 bd 3a 7e 0f bc b9
       -0.012589402 -0.010677539 0.0014455447 -0.00035869697
000100 8f d8 39 bc 03 67 d9 bc 29 35 1d bc b3 fc 51 bc
       -0.0113431355 -0.026538378 -0.009595194 -0.012816596
000110 e8 91 88 bb 76 fa eb 3b 41 61 72 bc 21 57 68 bc
       -0.004167784 0.007201488 -0.014793695 -0.014180929
000120 b7 36 37 bb 27 30 98 3c c5 02 d1 3b 38 3d 37 bb
       -0.0027956197 0.018577648 0.006378504 -0.0027960073
000130 1e f0 3b bc a4 39 01 bb 7f 1e b2 3b 6b e0 86 bb
       -0.011470823 -0.0019718194 0.0054357643 -0.004116108
000140 b3 d3 72 bb 8e 77 e7 b9 36 26 7e 3c e9 97 99 bc
       -0.0037052452 -0.0004414883 0.01551204 -0.018749194
000150 bf 20 80 bc 42 d3 3c bc 8a 1a 9e bc c1 a5 80 bc
       -0.015640615 -0.011524977 -0.019299764 -0.015704038
000160 e6 8b 8c bb 86 14 1b bc 25 b4 b9 bc 61 4e 90 bc
       -0.004289138 -0.009465342 -0.022668907 -0.017615499
000170 47 64 94 bb f0 c3 1b bc 22 d3 ac bc 3f 43 22 bb
       -0.0045285556 -0.009507164 -0.02109677 -0.002475932
000180 12 f5 b4 bb 56 12 9d 3b 7c 92 01 3b 9a 52 46 bc
       -0.0055223787 0.0047934456 0.001977115 -0.012104655
000190 32 20 fd 3b 88 5b bb bc f0 1c bb bc 31 78 4b bc
       0.0077247852 -0.022870794 -0.022840947 -0.012418793
0001a0 49 d7 43 3b 9a c3 28 3c 9c ae ab ba 68 3e eb bb
       0.0029882959 0.010300541 -0.0013098302 -0.0071790703
0001b0 f2 80 a5 3a fa 8d 62 bc f0 9b 09 bc 3d 2c 2f 3b
       0.001262693 -0.013827795 -0.008398995 0.002672925
0001c0 84 9a 69 bc 42 21 ae ba ec 27 3f 3c 61 e7 d2 bb
       -0.014258031 -0.0013285058 0.011667233 -0.006436274
0001d0 39 6c 0a bc e1 21 b9 bb 53 7c 86 bc d4 9a f4 bb
       -0.008448654 -0.0056497906 -0.016416704 -0.007464746
0001e0 a8 b6 38 3b f8 05 ef bb f8 1d 7d bc 99 0f 43 bc
       0.0028185043 -0.0072944127 -0.01544904 -0.011905574
0001f0 1d e4 7d 3b 8e 4b 69 bc 28 59 f5 bb 30 e2 0e bc
       0.0038740702 -0.014239205 -0.007487435 -0.0087209195
000200 e1 8d 60 bc 8b f2 aa bc cd c4 47 bc 7a ba f7 3b
       -0.013705702 -0.020867607 -0.012192917 0.0075600715
000210 d2 2c 7b bc e4 44 54 ba d3 a9 65 bc bc a8 82 bb
       -0.01533051 -0.00080974237 -0.01401754 -0.0039874
000220 72 0a 80 bc 03 d0 25 bc f3 19 3c 3b 65 b0 3a bc
       -0.01562998 -0.010120395 0.002870199 -0.011394595
000230 90 36 ed 3a 81 1f 81 bc 75 84 a1 3b da 94 af 3b
       0.0018097926 -0.015762093 0.00492912 0.0053583207
000240 dc e2 9d bc 9b ae 1c bc 4d ea 30 bc 05 89 fc 3b
       -0.019273214 -0.009563114 -0.010798049 0.0077067637
000250 b7 52 5e 3b d9 ab 1b bc a3 7a c5 3b 91 a1 24 bc
       0.0033923814 -0.009501421 0.0060265823 -0.010048286
000260 e2 2f 09 bc 0b bd a1 3b 3f 5a fa bb ae 2d 18 3c
       -0.008373233 0.0049358658 -0.0076401527 0.009288235
000270 0c 0b 97 bc 5b 4f 36 bc 7c 77 03 3c f6 cd 92 bc
       -0.018437885 -0.011127318 0.008024093 -0.017920475
000280 b7 6f b6 bc 3b 31 73 bb 61 98 05 3a d3 55 7f bc
       -0.022270067 -0.00371082 0.00050962536 -0.015584427
000290 e1 97 55 bb f4 a6 41 bb 71 a9 ca bb cf 33 12 bc
       -0.0032591748 -0.0029548975 -0.00618475 -0.008923485
0002a0 a4 56 90 3b 15 0d 18 bc 2e fa 4c bb 0e 3f 0d bb
       0.0044048596 -0.009280463 -0.0031277048 -0.0021552476
0002b0 63 f5 31 bb 33 f7 63 bc 3c 21 9d bc 3f 34 e7 3a
       -0.0027154319 -0.013913917 -0.019180886 0.0017639472
0002c0 82 f5 18 bc f2 cf ad bc 90 23 a7 bc c5 9e ce bc
       -0.009335877 -0.02121732 -0.0204027 -0.025222192
0002d0 6d ea f5 3b ea 64 44 bc bb aa ca bb fc f8 1c 3c
       0.0075047524 -0.01198695 -0.0061849034 0.009580847
0002e0 7b ba be b9 07 61 5e 3b 8f c5 b0 bc 66 01 c7 bb
       -0.00036378563 0.0033932345 -0.021578578 -0.0060731648
0002f0 e3 5e cb bb 10 32 83 ba 1c 5d a6 b9 0c c1 a3 bb
       -0.0062063797 -0.0010009427 -0.0003173136 -0.004997378
000300 62 77 dc bb e6 33 b6 ba e2 47 2d 3b b7 21 2d bc
       -0.0067280987 -0.0013900965 0.002644055 -0.01056712
000310 2e 76 ad bc 1b 18 dd 3b 3a e7 1d bc e1 21 c0 bb
       -0.021174517 0.0067472584 -0.009637648 -0.0058634137
000320 ce 76 e6 bb 7f 6b 97 bc f2 7f 14 bc 9f 12 8e bc
       -0.0070332056 -0.018483875 -0.009063708 -0.017342864
000330 3f d6 55 bc f8 5d 26 3b e5 f6 d2 3a 16 72 a1 bc
       -0.0130515685 0.00253856 0.0016095309 -0.01970772
000340 5b 45 12 bd 9b 04 75 3b 73 80 1f bc 2a ba 2f bc
       -0.035710674 0.0037386778 -0.0097352145 -0.010725537
000350 c3 b7 33 bc 54 c4 40 bc 7e 51 ae bc 33 15 00 bc
       -0.010969105 -0.011765558 -0.021279093 -0.007817554
000360 1e 84 b8 3a f9 d6 3a 3a 4d b9 82 bc 31 f3 e3 b9
       0.001407746 0.00071273703 -0.015957499 -0.00043478006
000370 c0 be 53 bc 9a c3 ce 38 ea db a7 bc 77 00 44 bc
       -0.012923896 9.859279e-05 -0.020490605 -0.011963001
000380 1f 39 a3 bc a5 9e 98 3a c9 41 a1 bc 7e c2 6a 3c
       -0.019924698 0.001164396 -0.01968469 0.014328597
000390 ba 02 1a bc cf 9d bd bb 47 e4 c5 bc d1 0c 23 bc
       -0.009400064 -0.0057866345 -0.024156703 -0.009951786
0003a0 6a 30 a3 bc 20 5f 64 bc f0 ae 77 bb 63 78 62 bc
       -0.019920547 -0.013938695 -0.003779348 -0.013822648
0003b0 d6 af 84 3a dc 40 ba 3b c2 4e f5 bb 71 c6 5e 3a
       0.0010123204 0.0056840014 -0.0074861953 0.0008498198
0003c0 95 65 ef 3a e1 b7 16 3c 43 1f 06 bd 82 96 df bb
       0.0018264527 0.009199114 -0.032744657 -0.006823362
0003d0 07 82 52 bc bc d4 71 bc 31 2e 94 bc ab 56 2d bc
       -0.012848384 -0.0147601925 -0.018088432 -0.010579745
0003e0 d9 bb 49 bc a4 fb 1e 3b 3d b9 eb bb ec 63 f7 bb
       -0.012312853 0.0024258876 -0.007193713 -0.0075497534
0003f0 dd 9a e6 bb b2 7b 89 bc 84 61 26 3c 06 81 04 bc
       -0.007037504 -0.016782615 0.0101550855 -0.008087402

network_body.linear_encoder.seq_layers.2.weight f4 [256, 256]
000000 e3 2a 01 be 0f 90 1b bd be 1b 4d 3d 1e a8 6b bd
       -0.12614016 -0.03797918 0.050075285 -0.057533376
000010 db 77 9f 3d 13 b3 35 3d 3c 47 14 bd 37 5b 2f 3d
       0.077865325 0.04436023 -0.036200747 0.0428116
000020 e5 26 ee bd e3 e3 86 bd 54 34 97 3b 4b 50 38 3d
       -0.11628512 -0.06586435 0.0046143923 0.04499845
000030 60 f9 f5 3d e3 99 f5 bd 6e 5b 25 3d c1 32 63 bd
       0.12010455 -0.11992242 0.040370397 -0.055468325
000040 ff e5 cf 3c df 10 bf 3c ef 6e c6 3d 2a 96 84 bd
       0.025378225 0.023323474 0.09689128 -0.06473954
000050 a0 40 a3 3d c8 5b 81 bb 00 34 d6 bc 13 fa b1 bd
       0.079713106 -0.0039477088 -0.026147842 -0.08690276
000060 c1 f5 56 3d 87 11 4a bc fe 61 57 bd a7 5c 0b 3d
       0.052480463 -0.01233328 -0.052583687 0.034023907
000070 ca 66 57 3d 90 bc 43 bd 77 0e 0a be 31 2b 43 3b
       0.05258826 -0.04778725 -0.1348208 0.0029780383
000080 59 a7 15 bc ab fc ac 3c 38 95 8e 3d e8 f7 56 3d
       -0.009134137 0.021116575 0.06962055 0.052482516
000090 42 30 11 3d eb 61 97 bd eb 31 5b bd ea 23 45 3d
       0.035446413 -0.07391723 -0.053514402 0.048129953
0000a0 26 4e df bc 09 5e a9 bc 5c fd d9 bd d2 66 51 3d
       -0.027258944 -0.020674722 -0.106440276 0.051123448
0000b0 7c 29 68 bd 74 ba 45 bd 0a 23 ef bd cd 49 b6 3d
       -0.056680188 -0.04827352 -0.11676605 0.08900795
0000c0 a0 1f f5 bd 37 ee 0a 3d b0 0b ad bd ef a5 1b bd
       -0.119689226 0.033918586 -0.08449495 -0.038000043
0000d0 e6 ce a4 3c 4c 7f 5a 3d ab 0a 3a be 77 06 1e 3d
       0.020118188 0.053344056 -0.18168132 0.038580384
0000e0 cf f3 cb bd d0 79 95 bd ec 3a f7 bc 91 7f 61 3b
       -0.09958612 -0.072986245 -0.030179463 0.003440831
0000f0 3c 1d d8 bc 21 18 5c 3d ee 7c 6d 3d 23 94 74 bd
       -0.026381128 0.05373395 0.05798047 -0.059711587
000100 7d 32 5b 3d 2e 20 2f bd e5 d8 4d bd 87 16 3d be
       0.053514946 -0.0427553 -0.050255675 -0.18465625
000110 d4 b0 20 3d b2 d8 e5 3c 21 b8 e6 bb 2d c9 b8 bd
       0.039231136 0.02805743 -0.007040993 -0.09022746
000120 dd 69 f4 bd de fa 7c bc 4a 4b 8a 3d 65 f2 82 bc
       -0.11934254 -0.015440671 0.067526415 -0.015984723
000130 6c bd 0e be 7e 1d 94 3c 0c 4d 9f bd 6a 40 b4 3a
       -0.13939446 0.01808047 -0.077783674 0.0013752107
000140 a9 de 4d bd a5 bd 51 3c af cc 99 3c 09 92 b2 3c
       -0.050261173 0.012801562 0.018774359 0.02179815
000150 43 f2 e1 bd b8 a4 19 3c 6a 13 33 3d f6 56 fb 3d
       -0.11032536 0.009377651 0.043719687 0.12272446
000160 3f 48 cc ba c1 ac a5 bc 5e 50 5f bc 8c 97 d9 bc
       -0.0015585496 -0.020223977 -0.013630001 -0.026561521
000170 5a f8 71 bd bc b6 0d bd f0 26 9d 3b 65 f5 1f be
       -0.059074737 -0.034598097 0.0047959015 -0.15620954
000180 f2 38 b8 3d b5 23 97 bd c8 4d 00 be 2f 66 e5 ba
       0.089952365 -0.073798575 -0.12529671 -0.0017501767
000190 ff 78 ff bd 26 da 5f bc 1a 14 63 3d de 40 f0 3c
       -0.1247425 -0.0136628505 0.055439092 0.029327806
0001a0 c9 e2 72 bd e6 c2 93 bd 82 37 a4 bd 20 e7 3c bd
       -0.05929831 -0.07214908 -0.080184 -0.046118855
0001b0 fe f7 ac bd 40 3e ed 3d 69 dd 8d bd 77 0b f4 bc
       -0.08445738 0.11584139 -0.06926996 -0.029790623
0001c0 4c f5 00 bc a5 17 15 3d 15 27 e1 3c 68 ef 76 bd
       -0.007870983 0.036399502 0.027484456 -0.06028691
0001d0 7e c9 39 3c cf 72 c2 bb 72 af dd 3b 01 23 e5 3c
       0.011339543 -0.0059340964 0.0067652995 0.027970793
0001e0 75 49 28 bd 2c ec f9 3d b4 ec 23 3c 4f a8 ad 3c
       -0.04108568 0.12203249 0.010005165 0.02119842
0001f0 f9 53 93 bc e7 a8 72 3d be bb ad bc 82 74 41 3d
       -0.017984377 0.05924311 -0.021207687 0.04723025
000200 80 34 53 3c 41 b4 77 bd 29 17 2b bc 74 39 12 3d
       0.012890935 -0.060474638 -0.0104425335 0.035699323
000210 7a 7a 8a 3d 57 9d aa 3a 37 97 ca bd cf 26 14 bc
       0.06761642 0.0013016862 -0.09892123 -0.009042456
000220 37 60 09 bd 7d 28 08 3e 37 65 4f 3d ec b9 56 3b
       -0.033539023 0.13296695 0.050633635 0.0032764627
000230 77 16 16 bd cc f8 b5 bc 54 7e 99 3d 46 91 0a 3d
       -0.036642518 -0.022213362 0.07494798 0.03382995
000240 bd c7 03 bd 45 97 8b 3d 43 6b 1e 3d 64 cf 59 bb
       -0.032172907 0.06815962 0.03867651 -0.0033235187
000250 a1 eb 27 3d e8 0f ae 3d 3b 8b 7b 3d 02 2a 0d 3d
       0.040996198 0.084991276 0.061412077 0.03446389
000260 16 17 ec bc cf f5 42 bd 70 0f 9b 3d fb a1 64 3d
       -0.028819602 -0.047597703 0.07571304 0.05581854
000270 96 a2 68 3d b8 ab 35 bd 4f ab 78 3d 43 7e 67 bd
       0.05679568 -0.044353217 0.060710248 -0.056516897
000280 33 d8 1c 3e 85 c6 0a 3e 6d 49 07 3d 39 07 94 3c
       0.15316848 0.13552292 0.03302901 0.01806985
000290 7f fd be bc 1f df 13 bc ce 00 5b bd 6f 2e ec 3c
       -0.023314236 -0.009025364 -0.053467564 0.028830735
0002a0 40 bc 81 3d 0d 2c f9 bc ca 90 3d be 3c dd 45 bd
       0.06334734 -0.030416513 -0.18512264 -0.04830669
0002b0 43 63 96 bd cd 3e 7b bc 54 71 a8 bb 2d 19 f0 bd
       -0.073431514 -0.015334797 -0.005140463 -0.11723552
0002c0 9c b6 cb 3c ec 42 79 3d ed 26 08 bd 11 d3 b9 bc
       0.024867348 0.060854837 -0.033240248 -0.022683652
0002d0 62 81 11 be 2a 59 41 3b b5 9b f3 3d fa ce 97 3c
       -0.14209512 0.0029502609 0.11894933 0.018531311
0002e0 cf 21 14 bd 35 7f 81 3c 8c c3 8d bc aa ed 72 bd
       -0.036165055 0.015807727 -0.017305158 -0.059308685
0002f0 7f a9 1a be 87 86 ec bc de 53 2d 3e 67 39 8c bc
       -0.1510372 -0.028872741 0.16926524 -0.017117215
000300 07 1e bf bc da 43 8b bd f1 b3 88 bc f1 ab 84 bd
       -0.023329748 -0.06800051 -0.016687365 -0.06478108
000310 33 77 fb 3c cc 98 d2 bd 3a c8 30 3d cd f5 85 bc
       0.030696487 -0.1028305 0.0431597 -0.016352559
000320 c3 f4 e4 bc 26 e7 71 bc 92 99 d5 3c 43 f5 df bd
       -0.027948743 -0.014764583 0.026074205 -0.10935452
000330 8a 1c 91 3a ab b7 92 bd 33 37 09 3e 49 40 8c bc
       0.0011071127 -0.07163938 0.13399963 -0.017120497
000340 df be fa 3c b5 df 91 bb 9b 92 ae 3d b3 57 90 3d
       0.030608593 -0.004451717 0.085240565 0.07047977
000350 5f 18 3b 3d 42 bd 50 3d 35 db e1 bb de 2e 7a 3d
       0.04567754 0.05096174 -0.0068925866 0.061079852
000360 18 de 2d 3c 55 eb 91 3c 74 51 51 3d 91 96 08 bd
       0.010612033 0.01781241 0.05110307 -0.033346716
000370 4d 43 6f bb 78 1e ae 3c 66 8b 0b bd 2e 17 9d 3d
       -0.003650862 0.021254763 -0.034068488 0.07670437
000380 e6 c1 4d bc a5 60 63 bd 48 f6 3c 3e 69 e1 5f 3d
       -0.012558436 -0.05551209 0.18453324 0.054658327
000390 72 c0 b0 3d 30 1c 97 bc 5f e1 0c bd 8e 42 02 3e
       0.08630456 -0.018446058 -0.034394618 0.12720701
0003a0 f4 05 23 3d 8c aa 92 3d 5c 0a fa bd 49 e8 ab bd
       0.0398006 0.071614355 -0.12209007 -0.08393914
0003b0 59 2f d1 ba fd 29 c3 bc 3b 9d c4 3d f5 a2 a6 bc
       -0.0015959545 -0.023823733 0.09600302 -0.020341376
0003c0 34 97 9f 3c 3b 6a d6 bb 3d 55 2b 3d bf 66 b9 3c
       0.019481279 -0.0065434254 0.041829336 0.022632001
0003d0 2a 7a b3 bd 10 8d 77 bc a4 2c 9d 3d 2b 1b 5f 3d
       -0.08763535 -0.0151093155 0.0767453 0.05446927
0003e0 5a 40 51 3d e2 56 43 bd 76 29 0d bc 1a fa 8a bd
       0.05108676 -0.04769028 -0.008615842 -0.06785984
0003f0 60 ee b9 bd 3a 14 05 be 0f cc 21 bc 60 f1 3c bd
       -0.090786695 -0.12995997 -0.0098753115 -0.04612863
