config/results/Entry_reward04/PathFollowing/PathFollowing-1471739.onnx (onnx, 695646 bytes, 7 tensors)

action_model._continuous_distribution.log_sigma f4 [1, 3]
0	0x3c5e058f	0.01355113
1	0xbc062720	-0.008188039
2	0x3b95019a	0.00454731

action_model._continuous_distribution.mu.bias f4 [3]
0	0xbb0e6215	-0.0021725942
1	0xba9eac74	-0.0012105838
2	0xbb0fa219	-0.0021916686

action_model._continuous_distribution.mu.weight f4 [3, 256]
0	0x3c056640	0.008142054
1	0x3b78d6f5	0.0037969921
2	0x3b48addd	0.0030621209
3	0x3bfa35f8	0.007635828
4	0xbc0f575c	-0.008748855
5	0xbc227c62	-0.0099173505
6	0x3b238207	0.0024949329
7	0x3c5736fd	0.013135669
8	0xbba9b658	-0.005179208
9	0x39cd7616	0.00039188628
10	0xbc22e2ce	-0.00994177
11	0xbb8b807e	-0.004257261
12	0xbc1e8559	-0.009675347
13	0x3a0d6a28	0.00053945417
14	0x3961a2b4	0.00021518284
15	0x3bcbbb48	0.006217394
16	0xbb1bc868	-0.0023770574
17	0x3c37a6cb	0.0112092
18	0xbb8360d8	-0.0040093474
19	0xbbfe876d	-0.007767609
20	0x3cab9d5e	0.020949062
21	0x3cbf6a60	0.023366153
22	0x3c51a954	0.012796719
23	0x38e0e12f	0.00010723096
24	0xbb9fbb8e	-0.004874653
25	0xbbc018ff	-0.0058623548
26	0xbc89d43e	-0.016824838
27	0x3aa7f514	0.0012814128
28	0x3c1bcdff	0.0095095625
29	0xbbd1f900	-0.006407857
30	0xbbba02c1	-0.005676598
31	0xbb837c3f	-0.004012614
32	0x3c624157	0.013809524
33	0x3c2aa053	0.010414201
34	0xb996b86e	-0.0002874764
35	0x3c55400d	0.013015759
36	0x39c51a68	0.00037594442
37	0xbb83c9d0	-0.0040218607
38	0x3bb83993	0.0056220978
39	0xbb68f222	-0.0035544713
40	0x3b606321	0.0034238773
41	0x3ce6f725	0.02819402
42	0xbc766d13	-0.015040654
43	0x3c45b3d6	0.012066802
44	0xbb434f98	-0.002980208
45	0xbbf09983	-0.007342519
46	0x39d9146d	0.00041404684
47	0x3c816d9d	0.015799338
48	0xbbc7d147	-0.006097946
49	0x3b283332	0.002566528
50	0x3ac4c8fb	0.001501351
51	0x3c1a1715	0.009404917
52	0x3cb03c72	0.021513198
53	0x3c35ba21	0.01109174
54	0xbb3a65af	-0.0028441956
55	0x3c1bd3fa	0.009510988
56	0xbb9a3340	-0.0047058165
57	0x3c8075fe	0.015681263
58	0x3b68d5ad	0.0035527751
59	0x3c63c396	0.013901612
60	0xbbaaa65e	-0.005207821
61	0x3d01fc8e	0.031734996
62	0x3ba63b9a	0.005073023
63	0xb9ce4fc4	-0.00039350812
64	0xbbfa1c7f	-0.0076327915
65	0x3c925a14	0.017865218
66	0xbc05bebf	-0.008163153
67	0xbbafeb12	-0.0053685987
68	0xbc9504fd	-0.018190855
69	0x3c08da6d	0.008352858
70	0x3c63c085	0.013900881
71	0x3d39e5c3	0.045385133
72	0x3bfd12da	0.0077231945
73	0x3a155357	0.00056963175
74	0x3d10cb4c	0.03535013
75	0x3cb92c12	0.022604022
76	0xbabe9894	-0.0014541321
77	0xbbcad4ee	-0.006189934
78	0x3a731a1f	0.00092736067
79	0xbb965a75	-0.00458842
80	0xbc304099	-0.010757589
81	0x3c4e94af	0.012608691
82	0xbb2c717e	-0.0026312764
83	0x3c8de577	0.017321331
84	0xbb422a44	-0.0029627243
85	0x3bdda7c8	0.006764386
86	0x3cbe0867	0.023197366
87	0xbc16c16f	-0.009201392
88	0x3c342bcd	0.010996771
89	0xbb8bf800	-0.0042715073
90	0x3c4e9536	0.012608817
91	0x3bb22ecf	0.005437709
92	0x3b038d6b	0.0020073305
93	0x3c4e3c3a	0.012587601
94	0xbb55b8d1	-0.003261138
95	0x3c797ee6	0.015228009
96	0xbb49ec77	-0.003081111
97	0xbb4ca60d	-0.0031226904
98	0x3c9060d1	0.01762429
99	0xbb8a9eda	-0.0042303624
100	0x38c95057	9.599391e-05
101	0xbbcaf759	-0.006194037
102	0xbc90e549	-0.017687457
103	0x3c14cb82	0.009081723
104	0x3c726b94	0.014796156
105	0x3aca9a1b	0.0015457304
106	0xbc539214	-0.012913246
107	0x3be0c5cb	0.0068595163
108	0x3be3c2f4	0.0069507305
109	0x3bec56cf	0.007212497
110	0xbb393d00	-0.0028265119
111	0xbafa8f5f	-0.0019116214
112	0x39411656	0.00018414235
113	0xbc34621e	-0.011009721
114	0xbc29c8e2	-0.010362836
115	0x3c0eb34b	0.008709739
116	0x3ba2a5f6	0.0049636317
117	0x3c160dd5	0.009158571
118	0x39961720	0.0002862746
119	0x3c3be53a	0.011468226
120	0x3c3828b2	0.011240171
121	0x3c3fc38a	0.011704335
122	0x3ccd58fb	0.025066843
123	0x3be70631	0.0070502986
124	0x393a2219	0.00017751045
125	0x3bb67314	0.0055679176
126	0x3b349ecb	0.0027560468
127	0xbbf768e5	-0.007550346
128	0x3b2afd01	0.0026090743
129	0xbb880b9a	-0.0041517736
130	0xbb851462	-0.0040612677
131	0xbc7f4146	-0.015579527
132	0x3bfe3343	0.0077575757
133	0xbb120b7e	-0.0022284682
134	0x3c147b62	0.00906262
135	0x3c03e090	0.008049145
136	0x3b7ce24a	0.0038587027
137	0x3c178c83	0.009249809
138	0x38cfab5a	9.902446e-05
139	0x3991d3e8	0.00027814438
140	0x3a8b1257	0.0010610324
141	0xbb840ce3	-0.0040298565
142	0xbc77ecf5	-0.015132179
143	0xbcbb38ce	-0.022854235
144	0xbc486ad3	-0.0122325
145	0xbb2df7c6	-0.002654539
146	0xbc0f28cf	-0.008737757
147	0x3a1d46e0	0.0005999636
148	0x3c94a2d1	0.018144043
149	0xbc87a810	-0.01655963
150	0xbaa08263	-0.001224589
151	0xbb26f478	-0.0025475305
152	0xbbe6b444	-0.0070405323
153	0x3c3cdd4f	0.011527373
154	0x3a2333d9	0.00062256824
155	0x3c60b47a	0.013714904
156	0x3c8454ed	0.016153777
157	0x3c05e6f4	0.008172739
158	0x3c1998db	0.0093748225
159	0x3cce0482	0.025148634
160	0x3c49fcb8	0.012328319
161	0x39d3ec78	0.0004042124
162	0xbc3e87a0	-0.011629015
163	0x3ab644ca	0.0013905999
164	0x3c0838a1	0.008314283
165	0x3afb709b	0.0019183339
166	0xbb0bf0fc	-0.0021353355
167	0x3c70a177	0.014686934
168	0xbb3decb0	-0.0028980188
169	0xbb773297	-0.0037719363
170	0x3c611323	0.013737473
171	0xbbd3e01a	-0.006465924
172	0x3b71ffd4	0.0036926167
173	0xbc56a54a	-0.013100931
174	0x3bad578e	0.0052899783
175	0x3c21f07f	0.009883999
176	0x3b886f8a	0.004163687
177	0x3bbaadcf	0.005696989
178	0xbb8a21be	-0.004215448
179	0xbc26f8c9	-0.010191151
180	0xbc727cbb	-0.014800246
181	0xbc47d8d1	-0.012197689
182	0x3c056d52	0.00814374
183	0x3b6e3c61	0.0036351907
184	0x3c29e654	0.010369856
185	0x3d012ad5	0.03153499
186	0x3b26b092	0.0025434834
187	0x3c9b3c20	0.018949568
188	0xbb732b75	-0.003710476
189	0x3b8d42c9	0.00431094
190	0x3c1e1144	0.009647671
191	0xbc66d24b	-0.014088224
192	0xbc48513e	-0.012226401
193	0xbb550437	-0.0032503733
194	0xbc700787	-0.014650232
195	0xbd0a3666	-0.033743285
196	0xbcbba7d8	-0.022907183
197	0xbaa5e455	-0.0012656549
198	0xbc7c917a	-0.015415544
199	0x3c144c51	0.009051398
200	0xbc39a8fa	-0.011331791
201	0x3c7c2afd	0.015391109
202	0xbb87ccfa	-0.004144308
203	0x3c4c2456	0.012459835
204	0x3b54b89b	0.0032458666
205	0xba714b45	-0.00092046364
206	0xb92cf6dc	-0.0001649516
207	0x3bcd939e	0.006273701
208	0x3bf8615a	0.0075799646
209	0xbb83745d	-0.0040116743
210	0x3cd14589	0.025545852
211	0x3b22b60e	0.0024827751
212	0x3bbe350a	0.0058046626
213	0xbc17c20d	-0.009262574
214	0xbbae5ddd	-0.005321248
215	0x3b61a46a	0.0034430274
216	0xbae4511c	-0.0017419192
217	0x3cb3f43e	0.02196705
218	0x3c0542b9	0.008133584
219	0x3cb72650	0.022357136
220	0x3c15cae2	0.009142609
221	0xbcca483e	-0.02469265
222	0xbb869f3f	-0.004108339
223	0x3c154991	0.009111778
224	0x3c451cfa	0.012030834
225	0x3b1130fd	0.0022154443
226	0xbad890ba	-0.0016522624
227	0x3a801ee1	0.0009774828
228	0x3b529f9f	0.0032138599
229	0x3a8e8378	0.0010872921
230	0xbc8553e4	-0.016275354
231	0xbbf3772e	-0.007429979
232	0x3b632d26	0.0034664362
233	0x3c3208d6	0.010866364
234	0x3c887860	0.016658962
235	0x3b9af128	0.004728455
236	0xbb37862f	-0.0028003564
237	0x3c80db40	0.015729547
238	0x3972ccb7	0.0002315518
239	0x3bb6cfe6	0.0055789826
240	0x3c4ddc53	0.012564736
241	0xbbfe89ea	-0.0077679055
242	0x3c6300cc	0.01385517
243	0xbba53d1c	-0.005042685
244	0x3b49d374	0.0030796202
245	0xbb878562	-0.0041357735
246	0x3c8d7604	0.017268188
247	0x3b88e890	0.0041781142
248	0xba9dc76b	-0.0012037581
249	0x3bba5883	0.005686821
250	0x3c1069b2	0.008814262
251	0xbc7e80d7	-0.0155336475
252	0xba57cf4c	-0.0008232489
253	0xbc3cd648	-0.011525698
254	0x3c95f545	0.01830543
255	0x3c165d9b	0.009177591

network_body.linear_encoder.seq_layers.0.bias f4 [256]
0	0xb9ccc8c6	-0.000390595
1	0xbb0612fb	-0.002045809
2	0xbc1e54d3	-0.009663778
3	0xbbe82f4b	-0.007085716
4	0xbb0618ac	-0.0020461483
5	0xbc0a840d	-0.008454335
6	0xb9f0634f	-0.00045850358
7	0xbc4daa17	-0.01255276
8	0xbb537955	-0.0032268364
9	0xbbf9c327	-0.007622141
10	0xbba6fcf3	-0.005096072
11	0x3acd03ec	0.0015641428
12	0xbc1ca6d3	-0.009561258
13	0xbb1019a5	-0.0021987942
14	0xba1e5f42	-0.0006041416
15	0xbb1a6cb4	-0.0023563327
16	0xbb0cb1da	-0.0021468312
17	0xba2aec19	-0.00065201666
18	0xbb03d599	-0.0020116328
19	0xbba74db8	-0.0051057003
20	0x39f2a5ca	0.0004628136
21	0xbb4dd10c	-0.003140512
22	0x3ab3a98c	0.0013707145
23	0xb9ca362c	-0.00038568804
24	0xbb833a40	-0.0040047467
25	0xba8d22c5	-0.0010767808
26	0xbc14491f	-0.009050637
27	0xbb5f754d	-0.0034097016
28	0x3ac895ae	0.0015303397
29	0xbb6d3b2c	-0.00361986
30	0xb9855825	-0.0002543341
31	0xb96897f3	-0.0002218185
32	0xbb145387	-0.0022632794
33	0xbbca3324	-0.006170647
34	0xbc477ae8	-0.012175299
35	0xbc3aed92	-0.01140918
36	0xbc37139e	-0.011174111
37	0xbc1c9573	-0.009557116
38	0xbbf0f2c6	-0.0073531596
39	0xb9deeebe	-0.00042521016
40	0x3a86046d	0.0010224708
41	0x3a497cf0	0.00076861586
42	0xbbe7c25c	-0.00707273
43	0xbad5a1ac	-0.0016298792
44	0x3be643a5	0.007027107
45	0xb9dd2a7c	-0.00042184058
46	0x3af4a585	0.0018665051
47	0x3b332aa7	0.0027338655
48	0xba7f4f45	-0.000973929
49	0xb9b5fe58	-0.0003471251
50	0xb9e20c2a	-0.00043115142
51	0xbb55b5d5	-0.00326096
52	0xbc19df57	-0.009391627
53	0xbc1f174d	-0.009710145
54	0xb88b4809	-6.641454e-05
55	0x3bc6c39c	0.006065799
56	0xbad7c40d	-0.0016461626
57	0xbb940fdf	-0.0045184935
58	0xbc486666	-0.012231445
59	0xbba30b96	-0.0049757464
60	0x3b5b3bcc	0.003345239
61	0x3a7eff7b	0.00097274006
62	0xb9803bbd	-0.0002445857
63	0xbbe51e77	-0.006992157
64	0xbbd7cd7c	-0.006585775
65	0x3b8c78f6	0.0042868806
66	0xbad2c33d	-0.0016079914
67	0xb9bd7575	-0.00036136401
68	0xbb20c9a5	-0.0024534252
69	0xb910a8be	-0.00013795772
70	0x3b864ef1	0.004098766
71	0xbaf7cc6c	-0.0018905527
72	0xbb18c2da	-0.00233095
73	0x3998a312	0.00029113196
74	0xbc1f2732	-0.009713935
75	0x3b381fbf	0.0028095094
76	0xbc128d17	-0.008944771
77	0xbc18f1de	-0.009335009
78	0xbb8f3d81	-0.0043713455
79	0xbc935f10	-0.017989665
80	0xbbdd784d	-0.0067587257
81	0xbb2021eb	-0.002443428
82	0xbb974eec	-0.0046175625
83	0xbc304481	-0.01075852
84	0xbbaec416	-0.005333434
85	0xbb04367c	-0.0020174077
86	0xbb8c5740	-0.004282862
87	0xbbdfd2ae	-0.006830535
88	0xbbb85ec6	-0.0056265322
89	0xbbf5163e	-0.007479458
90	0xba17eb46	-0.00057952513
91	0xbc080d8f	-0.008304014
92	0x3b7ef8d8	0.0038905647
93	0xbbe8c287	-0.0071032676
94	0xbb80c214	-0.003929386
95	0xbc590492	-0.013245719
96	0xbb814f19	-0.0039461968
97	0xbc25086a	-0.010072807
98	0x3a157db4	0.000570263
99	0xbbdd7a1f	-0.0067589427
100	0x38d75fad	0.0001026982
101	0xbb53ac12	-0.0032298607
102	0xbb377410	-0.0027992763
103	0xbb8be188	-0.004268829
104	0x399fc0a9	0.00030470386
105	0xbb4ca74f	-0.0031227653
106	0xba4a877d	-0.0007725878
107	0xbb0b0dba	-0.0021217898
108	0xbc13dbbb	-0.009024556
109	0xbc1cac17	-0.009562514
110	0xbc03c449	-0.0080424035
111	0xbc15b806	-0.009138113
112	0x395eccf4	0.00021247921
113	0x3bbfee8e	0.0058572954
114	0xbc272109	-0.010200747
115	0x3817e81e	3.621738e-05
116	0xbc123bf1	-0.008925424
117	0xbabc7f3c	-0.001438118
118	0xbb948db5	-0.0045334944
119	0xbabba453	-0.001431594
120	0xbbb74306	-0.0055927066
121	0xbb603ee2	-0.0034217169
122	0xbbb174e2	-0.005415545
123	0xbb7f616e	-0.0038967985
124	0xb821ea4d	-3.86036e-05
125	0xba904297	-0.0011006173
126	0x3b9920f1	0.0046731164
127	0xbc138df0	-0.0090060085
128	0xbb2e9f5e	-0.0026645283
129	0xbb8d65d0	-0.0043151155
130	0xba3b12a8	-0.0007136264
131	0xbc50453f	-0.012711822
132	0x37ccbb9c	2.4406057e-05
133	0xbc08ba88	-0.008345254
134	0xbc39f085	-0.011348848
135	0x3b804997	0.0039150226
136	0xbc292155	-0.010322888
137	0xba4ca2f0	-0.0007806262
138	0xbaa45a5b	-0.0012539135
139	0x39e982ac	0.0004453858
140	0xbb870559	-0.0041205105
141	0x3ac381de	0.0014916023
142	0xbbbd9222	-0.0057852427
143	0xbbc25d7c	-0.0059315544
144	0x3b110e4e	0.002213377
145	0x39b5103e	0.00034535112
146	0xbc075018	-0.008258842
147	0xba6cc473	-0.0009031959
148	0xbb294475	-0.0025828157
149	0xba906d46	-0.0011018894
150	0xbbda18b0	-0.006655775
151	0xbbfe0950	-0.007752575
152	0xbb494bb3	-0.0030715286
153	0x3b22664b	0.002478021
154	0xbc13e7d3	-0.009027439
155	0xbb5b88d8	-0.0033498313
156	0xbbcf3fdd	-0.006324752
157	0xbb825c83	-0.0039783134
158	0xbc0007ec	-0.007814389
159	0xbba4ff30	-0.0050353035
160	0xbb42a9f8	-0.002970336
161	0xbc24606c	-0.010032754
162	0x3ac1c4ec	0.0014783419
163	0xbb66a1f7	-0.0035191753
164	0xbb43ee6b	-0.0029896747
165	0xbb00bdda	-0.001964441
166	0x3a88b006	0.0010428436
167	0xb931bb22	-0.00016949748
168	0xbc0e8f32	-0.008701133
169	0xbbb0bc0a	-0.0053935098
170	0xba56c33c	-0.00081925443
171	0xbb2a276c	-0.0025963439
172	0xbaff2270	-0.0019465219
173	0xbb782406	-0.0037863269
174	0xbbdc5755	-0.006724278
175	0x3b10848a	0.0022051656
176	0xba2a1c10	-0.0006489167
177	0xbc138156	-0.009003004
178	0xba99fa7e	-0.0011747626
179	0xbab0e4a0	-0.001349587
180	0xbb176089	-0.002309831
181	0xbafe3255	-0.0019393662
182	0xbb939639	-0.004503992
183	0xbb221075	-0.0024729047
184	0xbbc1d3ca	-0.00591514
185	0xbbac527c	-0.0052588563
186	0xbb54655a	-0.0032409043
187	0xbbece7f3	-0.007229799
188	0xbab5e555	-0.001387755
189	0xba864290	-0.0010243226
190	0xbabab03e	-0.0014243198
191	0xbb83065b	-0.0039985604
192	0xbbe69261	-0.0070364927
193	0xbc6b0daf	-0.014346524
194	0x3b2f017e	0.002670377
195	0xbab42b39	-0.0013745792
196	0xba9e0030	-0.0012054499
197	0xbc0b022f	-0.008484407
198	0xbb7276b8	-0.0036997031
199	0xbb644711	-0.0034832398
200	0xbbbc970a	-0.00575531
201	0x39a467c8	0.0003135784
202	0x3a863b5a	0.0010241077
203	0xbbb01f0f	-0.005374796
204	0x3a7ad992	0.00095691637
205	0xbab61e32	-0.0013894497
206	0xbbb6fac0	-0.005584091
207	0xb983481e	-0.0002504
208	0xbaaca95c	-0.0013173032
209	0xbbaf2d49	-0.0053459746
210	0xbc0e0a49	-0.008669444
211	0xb9b8b0f5	-0.00035227058
212	0xba873828	-0.0010316418
213	0xba6cc747	-0.000903238
214	0xbc0a5447	-0.008442945
215	0xbc1b1c17	-0.009467146
216	0xbbb995b8	-0.0056636
217	0xbb249431	-0.0025112743
218	0x3bf12146	0.007358703
219	0xbb157873	-0.002280739
220	0xbbb74694	-0.0055931304
221	0xbbf1c2b3	-0.0073779463
222	0x3a9b4311	0.0011845549
223	0xbbec5942	-0.007212789
224	0xbb87d5e3	-0.0041453703
225	0xbb653fe1	-0.0034980702
226	0xbb93315f	-0.0044919695
227	0x397c6d24	0.00024073251
228	0xbb7124c5	-0.0036795598
229	0x39e32f7d	0.00043332195
230	0xba808034	-0.0009803833
231	0x38d62dbb	0.00010212833
232	0xbb39d9d2	-0.002835859
233	0xbbd0463a	-0.006356028
234	0xbb0f47cd	-0.0021862865
235	0xbb8800e0	-0.004150495
236	0xbb0b7d6d	-0.0021284476
237	0xbbe8833c	-0.0070957225
238	0xba0ba85a	-0.00053275155
239	0xbc028ab7	-0.0079676425
240	0x3b9767c6	0.004620525
241	0xbbb7329c	-0.00559075
242	0xbb0077c4	-0.0019602636
243	0xbb99cce2	-0.0046936134
244	0xbbb93c32	-0.005652928
245	0xbc2b9208	-0.010471828
246	0x3b7d376b	0.0038637768
247	0x3b3b16b9	0.002854748
248	0xbc0403ac	-0.008057516
249	0xbb37ece8	-0.002806479
250	0xbaf442bc	-0.0018635611
251	0xbb0877e7	-0.002082342
252	0xbc4ae9a0	-0.012384802
253	0xbb28d6b5	-0.002576274
254	0x3b14546a	0.0022633323
255	0xbbdb112a	-0.0066853957

network_body.linear_encoder.seq_layers.0.weight f4 [256, 416]
0	0x3d1dfede	0.03857314
1	0x3b0b378c	0.0021242825
2	0xbd12f9dd	-0.03588282
3	0x3a4a8702	0.0007725806
4	0x3c2142a9	0.009842553
5	0x3bc4a836	0.0060014976
6	0xbcf2dce0	-0.029646337
7	0x3c1aa666	0.009439087
8	0x3d14af9d	0.03630029
9	0x3b0ac13d	0.0021172308
10	0x3d2c461e	0.042059056
11	0xbd8082ef	-0.062749736
12	0x3d96b847	0.07359367
13	0xbd6b6efa	-0.057478882
14	0xbd525562	-0.05135096
15	0xbd5da658	-0.054113716
16	0x3c3fb7c1	0.011701525
17	0x3d6f635a	0.05844436
18	0xbbf810e1	-0.0075703715
19	0xbd1fcbfb	-0.03901289
20	0x3d4a1ca8	0.049343735
21	0xbc9f97d4	-0.019481577
22	0x3ce44b03	0.0278678
23	0xbc5ba298	-0.013405465
24	0xbd051887	-0.032494094
25	0xb963c9b7	-0.00021723552
26	0xbc2bf35f	-0.010495036
27	0xbc9ad70c	-0.01890137
28	0x3d29c68c	0.041449115
29	0x3d2a54a5	0.04158463
30	0x3cace845	0.021106848
31	0x3c53d3be	0.012928901
32	0x3d092216	0.033479773
33	0x3add5412	0.0016886017
34	0xbc949426	-0.018137049
35	0x3b8f8362	0.0043796757
36	0xbcfcbb22	-0.03085095
37	0x3d76b8ad	0.060234714
38	0x3b1bd6b3	0.0023779094
39	0xbd470134	-0.04858513
40	0x3d10c202	0.03534127
41	0xbddac7b4	-0.106826216
42	0xbd2d2e6c	-0.0422806
43	0x3d7c19ea	0.06154815
44	0xbcc88704	-0.024478443
45	0x3ba01d64	0.004886316
46	0xbd0ddeb9	-0.034636233
47	0xbc91e741	-0.017810466
48	0x3c852181	0.016251327
49	0x3b9ff156	0.0048810644
50	0x3d86c223	0.065799974
51	0xbd2b5553	-0.04182942
52	0xbc1e2a1f	-0.009653597
53	0xbc8e275f	-0.017352758
54	0xbdf99e9d	-0.12188456
55	0xbdbf6a02	-0.09346391
56	0xbc137550	-0.009000137
57	0xbd1bb022	-0.03800977
58	0xbd9beca0	-0.07613492
59	0x3c7089aa	0.014681259
60	0xbd114b7f	-0.03547239
61	0xbd544a9c	-0.051828966
62	0x3c1a992d	0.009435934
63	0x3d36ce2f	0.044630226
64	0xbcc6bb4c	-0.024259232
65	0x3db647ea	0.08900435
66	0x3d021be5	0.031764884
67	0xbc414bd6	-0.011797866
68	0x3d43ac02	0.04777146
69	0xbcb5622b	-0.022141537
70	0xbda20675	-0.07911388
71	0x3cc14641	0.02359307
72	0xb9f8f90b	-0.00047487798
73	0xbd08f2b7	-0.033434596
74	0xbd7b5ecd	-0.061369706
75	0xbddb2762	-0.10700871
76	0xbb7ee5f9	-0.0038894399
77	0x3b8c1df6	0.0042760326
78	0xbdadb5ad	-0.084819175
79	0xbc90c217	-0.017670674
80	0x3cfda146	0.03096069
81	0x3d8fa7b1	0.070144065
82	0x3bd7d18a	0.0065862583
83	0xbc5e7d65	-0.013579701
84	0x3c5c202f	0.013435408
85	0xbc5d0499	-0.013489866
86	0xbd6854cb	-0.05672149
87	0x3d05b29a	0.03264103
88	0x3d94e2cc	0.072698206
89	0xbcc88402	-0.024477009
90	0xbcee6372	-0.029100154
91	0x3bedbefd	0.0072554336
92	0xbd6d98a6	-0.058006905
93	0x3c931f9a	0.017959405
94	0xbd8d0f77	-0.06887715
95	0xbda1087a	-0.07862945
96	0xbcdea96b	-0.027180394
97	0xbd2346bc	-0.03986238
98	0xbc06aa9e	-0.008219389
99	0x3d1211e0	0.03566158
100	0xbd2df4c5	-0.04246976
101	0x3dad2f1c	0.08456251
102	0x3db518c2	0.08842613
103	0xbd04f868	-0.03246346
104	0xb9adffef	-0.00033187817
105	0x3c78ecb0	0.015193149
106	0x3cf23f32	0.02957115
107	0x3a7bf912	0.00096120045
108	0x3be14de8	0.006875742
109	0x3d2871ef	0.04112428
110	0x3d1eec7b	0.038799744
111	0xbd3f4e32	-0.046705432
112	0xbd04892b	-0.032357376
113	0x3db9abfb	0.09066006
114	0x3d8c6dac	0.06856856
115	0xbd856a4a	-0.06514414
116	0x3cf4b098	0.029869363
117	0xbc825ef8	-0.015914425
118	0xbd12b89c	-0.03582059
119	0x3cc77b69	0.024350839
120	0xbc84692a	-0.016163427
121	0x3d346ae7	0.044047263
122	0xbc9d252c	-0.019182764
123	0xbc23df59	-0.010001981
124	0xbcb558ca	-0.022137064
125	0x3cf6798f	0.03008726
126	0xbda5ba71	-0.080922015
127	0xbc626aa7	-0.013819373
128	0x3d84616b	0.064638935
129	0xbbf095f7	-0.007342096
130	0xbba2783a	-0.00495818
131	0xbd74220f	-0.059602793
132	0xbd83ca01	-0.064350136
133	0xbb224a08	-0.0024763364
134	0x3cc47a78	0.023984179
135	0x3d49d41b	0.049274545
136	0xbccc2b12	-0.024922881
137	0x3cee9eaf	0.0291284
138	0xbd7971b3	-0.060899448
139	0x3cbe7869	0.023250775
140	0xbdae9cbb	-0.08525988
141	0xbcdd28c9	-0.026996987
142	0x3d5c20d2	0.053742237
143	0x3ce7a8f2	0.028278802
144	0xbd2fee47	-0.04295185
145	0xbb3c9ac0	-0.0028778762
146	0x3cbdb1bd	0.023156041
147	0xbcda7716	-0.026668113
148	0xbcf7c9b3	-0.030247545
149	0xbceeb047	-0.02913679
150	0x3d07b590	0.033132136
151	0xbe0de160	-0.13855505
152	0xbc314782	-0.010820271
153	0x3d1444d8	0.036198467
154	0x3b2c8aca	0.0026327842
155	0x3c96fa58	0.01842992
156	0xbcd7d895	-0.026348392
157	0xba3606d0	-0.0006943764
158	0xbcfa80d0	-0.030579
159	0xbbc6dbfd	-0.006068705
160	0x3d03abc5	0.032146234
161	0xbd1f63df	-0.038913604
162	0x3cb5a60a	0.0221739
163	0xbd1f855b	-0.038945537
164	0x3d375fb2	0.044768997
165	0x3d855b77	0.06511586
166	0x3d128c74	0.035778478
167	0x3b761941	0.0037551674
168	0xbd54d25f	-0.051958438
169	0x3d0120df	0.03152549
170	0xbd27c92a	-0.04096333
171	0x3cfd3212	0.030907664
172	0x3cf82a77	0.030293686
173	0xbb9824b9	-0.0046430496
174	0xbd9e1103	-0.077180885
175	0xbc75e5f3	-0.015008437
176	0xbc5ee995	-0.013605495
177	0xbc2ab8f7	-0.010420076
178	0xbd6396f9	-0.0555639
179	0x3ce9124b	0.028451106
180	0x3d215d09	0.039395366
181	0xbdb9327b	-0.090428315
182	0x3cba535e	0.02274483
183	0x3d00c99a	0.031442262
184	0xbd3c73a3	-0.046008717
185	0x3dcfa4b6	0.10138838
186	0xbd578dec	-0.05262558
187	0x3cf2d035	0.029640296
188	0xbdc14360	-0.09436679
189	0xbcb167c3	-0.021655923
190	0xbd2b16cd	-0.04176979
191	0x3b955ad9	0.004557949
192	0xbda73ff7	-0.08166497
193	0xbd88f269	-0.06686861
194	0x3ad2b1d3	0.0016074724
195	0xbcf837d6	-0.030300062
196	0xbdde84a5	-0.10865144
197	0x3da2e09d	0.07952998
198	0xbd9a6d8d	-0.075404264
199	0xbe0d6563	-0.13808207
200	0x3aa90c84	0.0012897407
201	0xbdccb160	-0.09994769
202	0x3c1282d7	0.008942327
203	0x3de22618	0.11042422
204	0xbda31576	-0.07963078
205	0x3d006328	0.031344563
206	0xbc0b382a	-0.008497277
207	0x3da47444	0.080299884
208	0xbc44a2fd	-0.01200175
209	0x3b950f51	0.004548945
210	0xbc95ddd9	-0.018294262
211	0xba90d2e0	-0.0011049174
212	0x3cdd2b68	0.026998237
213	0x3c86b454	0.016443409
214	0x3cdb1a12	0.02674583
215	0xbd875def	-0.06609713
216	0x3d547b35	0.051875312
217	0x3c9f5fca	0.019454855
218	0x3c07a96c	0.008280139
219	0x3c6e4af1	0.014544235
220	0xbd715353	-0.058917355
221	0xbd381265	-0.044939417
222	0xbcc6d345	-0.024270663
223	0x39d2cb44	0.00040205766
224	0xbd1f8305	-0.03894331
225	0x3db13eed	0.0865458
226	0x3d9df1f7	0.07712167
227	0xbc6afb8c	-0.0143422
228	0xbd3e6047	-0.046478536
229	0x3db5f1cc	0.0888401
230	0x3c8d1c61	0.017225446
231	0x3d26d9af	0.040734943
232	0x3c1e3ecf	0.009658529
233	0x3d32036e	0.043460302
234	0xbc03ad54	-0.00803693
235	0x3db14bdb	0.086570464
236	0xbd10a82c	-0.03531663
237	0x3cc3df7c	0.023910277
238	0xbd55f193	-0.052232336
239	0x3dd4977e	0.10380457
240	0x3cdda7ad	0.027057493
241	0x3d9efab1	0.07762659
242	0x3c9deb01	0.019277098
243	0x3d30d398	0.04317054
244	0x3c13b6d1	0.009015755
245	0x3d369984	0.044579998
246	0xbd82974d	-0.063765146
247	0x3cec7225	0.028863022
248	0xbd30c904	-0.043160453
249	0x3d749853	0.05971558
250	0xba40bc18	-0.0007352247
251	0xbc6a50ea	-0.014301518
252	0x3dc3aec4	0.09554818
253	0xbd8350ab	-0.064118706
254	0xbd88980d	-0.066696264
255	0xbc9919be	-0.018689033

network_body.linear_encoder.seq_layers.2.bias f4 [256]
0	0xbb8a34c8	-0.004217718
1	0xbba58aec	-0.005051961
2	0xbc019066	-0.007907962
3	0xbb097362	-0.0020973315
4	0xbb8a5171	-0.0042211344
5	0xbb8b9958	-0.0042602234
6	0xbb7ab53e	-0.0038255001
7	0xbb822b82	-0.0039724717
8	0xbc92fccd	-0.01794281
9	0xbc154b8e	-0.009112252
10	0xbac653cf	-0.0015131178
11	0xb998fe58	-0.000291812
12	0xbb57c760	-0.0032925233
13	0xbc1a77c9	-0.009427973
14	0xbaef8876	-0.0018274921
15	0xbbaed977	-0.0053359824
16	0xbadc6e0c	-0.0016817464
17	0xbc0e858e	-0.008698834
18	0xbb5535cc	-0.0032533286
19	0xbbc81df7	-0.0061070877
20	0xbb938cf1	-0.0045028855
21	0x3c5e2a2e	0.013559861
22	0xbb736dda	-0.0037144334
23	0x39fa84cc	0.00047782657
24	0xbbb8aed9	-0.005636078
25	0xbc2ce129	-0.010551729
26	0xbad1b17e	-0.0015998331
27	0xbbf0f156	-0.0073529882
28	0xbac6e475	-0.0015174287
29	0x3a36481e	0.00069534953
30	0xba1202c9	-0.0005569873
31	0xbb8ccde7	-0.0042970064
32	0x39eed98f	0.0004555699
33	0x3b911fb6	0.004428829
34	0xbc0657cd	-0.008199644
35	0xbbc0ed36	-0.0058876527
36	0xb91fd7c9	-0.00015243808
37	0xba59bc6e	-0.0008305971
38	0xbc1e89a5	-0.009676372
39	0x39e57757	0.000437672
40	0xbbb0ced6	-0.0053957505
41	0x39b0a876	0.0003369485
42	0xbb1a7f05	-0.0023574245
43	0x3b935d7a	0.0044972273
44	0xbb739c43	-0.0037171997
45	0xbb9775e3	-0.0046222075
46	0xbc3a86b9	-0.011384659
47	0xbaec0d3d	-0.0018009316
48	0xbb7eac67	-0.0038860084
49	0xbbaeac5a	-0.0053306045
50	0xbb4f7e9e	-0.0031661163
51	0xbc0f48f1	-0.008745418
52	0xbb854fd9	-0.0040683565
53	0x3a87ef44	0.0010370989
54	0xba0cd453	-0.0005372215
55	0x3bb35a09	0.0054733795
56	0xbb0158a2	-0.0019736667
57	0xbb284a69	-0.0025679118
58	0xbafba794	-0.0019199722
59	0xbb80caf9	-0.003930446
60	0xbbf4744c	-0.0074601527
61	0x3ad3392f	0.0016115064
62	0xbb2488ff	-0.002510607
63	0xbb3f6c55	-0.0029208858
64	0xbbc77f2e	-0.006088159
65	0x3ba53f77	0.005042966
66	0xbb81c5f3	-0.003960365
67	0x3b13485f	0.0022473556
68	0xbbe82490	-0.0070844367
69	0xbb60bf89	-0.0034293851
70	0x3b37e437	0.002805961
71	0x3bdfcd6f	0.0068299095
72	0xba879027	-0.0010342643
73	0xbbd6f295	-0.0065596798
74	0x3b82a2fc	0.0039867144
75	0xb7948cbb	-1.7708508e-05
76	0xbc2530d8	-0.010082446
77	0xbb4b38b4	-0.003100914
78	0xbbe1c2ce	-0.0068896776
79	0xbbe0544b	-0.006845986
80	0xbaad8f7f	-0.0013241618
81	0xbb3deae8	-0.0028979126
82	0xbc156be1	-0.009119959
83	0xba19b94e	-0.00058640994
84	0xbb4942d4	-0.0030709999
85	0xbbf2c6c0	-0.0074089468
86	0xbba15770	-0.0049237534
87	0xbc00f049	-0.007869788
88	0x3b377469	0.002799297
89	0xbb0415e2	-0.0020154645
90	0xbbf3cc2a	-0.0074401097
91	0x3bd97f09	0.006637458
92	0xbc46d074	-0.01213466
93	0xbbcc4838	-0.006234195
94	0xbba974e2	-0.005171404
95	0x39d83c20	0.00041243527
96	0xbb7e02af	-0.0038758924
97	0xbc0dc767	-0.008653498
98	0xbbde9451	-0.006792583
99	0xbb9fabef	-0.004872791
100	0xbc100696	-0.008790633
101	0xbbe55d19	-0.0069996235
102	0x3aead861	0.0017917269
103	0xbb5b4737	-0.0033459195
104	0xb82846c4	-4.0120227e-05
105	0xbbae6ba8	-0.005322892
106	0xbb4782d5	-0.0030442972
107	0xbaea3206	-0.0017867691
108	0xbb923142	-0.0044614384
109	0xbc2738bd	-0.010206399
110	0xb86917fc	-5.5573866e-05
111	0xbbfa099e	-0.007630541
112	0xbbe096e9	-0.0068539274
113	0xba60ff41	-0.00085829577
114	0xbac20059	-0.0014801129
115	0xbb8b1c82	-0.0042453418
116	0xbc4d6a42	-0.012537541
117	0xbc070fe7	-0.0082435375
118	0xbc0e3ce1	-0.008681507
119	0xbbd6eeb2	-0.0065592164
120	0xbb073677	-0.0020631829
121	0xbc27e53d	-0.010247526
122	0x3bfe55dd	0.0077617005
123	0xbb95793d	-0.004561572
124	0xbc1746f7	-0.009233228
125	0xbab91fc6	-0.0014123849
126	0xbc10b3c9	-0.008831927
127	0xbb7b16cb	-0.0038313146
128	0xba99f2e8	-0.0011745365
129	0xbadcd5b3	-0.0016848355
130	0xbb84b2dc	-0.004049642
131	0x3a35346f	0.0006912415
132	0xbb67043e	-0.0035250331
133	0xbab41560	-0.001373928
134	0xbbbf0886	-0.0058298735
135	0xbbac1471	-0.0052514602
136	0xbba7c794	-0.005120227
137	0x3b5f285c	0.0034051156
138	0xbb17e727	-0.002317855
139	0xbb5634b3	-0.003268522
140	0xba8a7466	-0.0010563254
141	0xbb515a30	-0.0031944625
142	0xbbbbae0e	-0.005727536
143	0xbc148642	-0.009065213
144	0xbbfe475c	-0.0077599715
145	0xbb4a3ac8	-0.003085779
146	0xbad4f15b	-0.0016246246
147	0xbc24d38a	-0.0100602005
148	0xbb0f9806	-0.0021910681
149	0xba58183a	-0.0008243356
150	0xbbe6f68c	-0.0070484336
151	0xbb590ea9	-0.003312031
152	0xbadf30be	-0.0017028076
153	0xbbe49028	-0.0069751926
154	0xba8004b1	-0.0009767023
155	0xbb4d67b2	-0.0031342325
156	0xbbaede80	-0.0053365827
157	0xbb8c2e49	-0.0042779786
158	0xbaa270f7	-0.0012393285
159	0x3ade55bd	0.0016962808
160	0x385a8136	5.2095587e-05
161	0xbb88c52b	-0.004173895
162	0xba5d8c00	-0.00084513426
163	0x3a0949f9	0.0005237158
164	0xbb7520bc	-0.0037403544
165	0xbb7273e5	-0.0036995348
166	0xbb7859d7	-0.0037895346
167	0xbb88909e	-0.0041676303
168	0xbb608d9e	-0.0034264098
169	0x3a0bd000	0.00053334236
170	0x3a9fb33c	0.0012184153
171	0xbbebd0af	-0.007196508
172	0xbc0b2709	-0.008493193
173	0xbb5bf4b3	-0.00335626
174	0xbbe045e9	-0.0068442714
175	0xbb33622f	-0.0027371754
176	0xbabe7522	-0.0014530758
177	0xbbac16db	-0.005251748
178	0xbbfed211	-0.0077765067
179	0xbb2e2068	-0.0026569609
180	0x3b2a0217	0.0025941187
181	0xbb98bc30	-0.0046611056
182	0xbbbe84f7	-0.0058141905
183	0xbb2ad7bb	-0.0026068527
184	0xbbc9499d	-0.0061428086
185	0xbac6624d	-0.0015135497
186	0xbba45a34	-0.005015636
187	0xbb73b82b	-0.003718863
188	0xbbcdb7f2	-0.0062780315
189	0xbc250a45	-0.010073249
190	0xbb92fcdc	-0.0044857096
191	0xbb94fbf4	-0.0045466367
192	0x3ad7e54d	0.0016471535
193	0x3a6b87b3	0.00089847593
194	0xbae5d805	-0.0017535692
195	0x3adc185b	0.0016791926
196	0xbc316fea	-0.010829905
197	0xbabba03a	-0.0014314719
198	0xbb6fadef	-0.0036572178
199	0xbbd5b3bf	-0.0065216715
200	0x3acd1b12	0.0015648326
201	0xbb0ad856	-0.0021186075
202	0xbb866890	-0.0041018203
203	0xbbb4f4e5	-0.0055223578
204	0xbbfa7b27	-0.0076440754
205	0xbbe52d09	-0.006993894
206	0xbca0d634	-0.01963339
207	0xba4e299c	-0.00078644766
208	0xbb32c891	-0.0027280191
209	0xbc311a57	-0.010809503
210	0xbb1abe75	-0.0023612056
211	0xbb01cf80	-0.0019807518
212	0xbbb4755f	-0.005507156
213	0xba289546	-0.0006430935
214	0xbbb3c893	-0.005486557
215	0xbba3a76b	-0.004994323
216	0xbba18d80	-0.004930198
217	0xbb360c6b	-0.0027778398
218	0xba000dca	-0.0004884867
219	0x3a8ab35c	0.0010582018
220	0xbc2a3624	-0.010388885
221	0x3b40aacd	0.002939868
222	0xbbf0de11	-0.007350691
223	0xbac0f323	-0.0014720898
224	0xbad04d10	-0.0015892107
225	0xbc25f98b	-0.010130296
226	0xbb90c983	-0.0044185533
227	0xbbcd1e17	-0.0062596905
228	0xbb98669e	-0.004650905
229	0xbb5182fa	-0.0031968937
230	0xbb2594a0	-0.002526559
231	0xba684adb	-0.0008861252
232	0xbb96062f	-0.004578374
233	0xbb8149f9	-0.003945586
234	0xbc04ecde	-0.008113114
235	0xbc0394db	-0.008031095
236	0xbbaddce1	-0.005305872
237	0xbbb01c7c	-0.0053744894
238	0x3b5d5aaa	0.0033775964
239	0xbc1e5d8b	-0.009665857
240	0xbb3ff5ae	-0.0029290724
241	0x3b13c37d	0.002254694
242	0xbaefc4d3	-0.0018292911
243	0xba6d710e	-0.0009057679
244	0xbb71e69c	-0.0036911136
245	0x39a820b6	0.0003206783
246	0xbb0742da	-0.0020639212
247	0xb95eb09b	-0.0002123736
248	0xbba85bbe	-0.0051378896
249	0xbbe3d591	-0.0069529493
250	0xbb8eda15	-0.0043594935
251	0xba379a0c	-0.0007003851
252	0xbbdce983	-0.006741704
253	0x3afd1de5	0.0019311277
254	0x3b1dc214	0.0024071978
255	0xbbc87994	-0.006118009

network_body.linear_encoder.seq_layers.2.weight f4 [256, 256]
0	0x3c03d121	0.008045466
1	0x3ddd5e37	0.10808986
2	0x3d9769dc	0.07393238
3	0xbd65b9bb	-0.05608533
4	0x3bc7cb19	0.006097209
5	0xbdefd7cd	-0.117110826
6	0x3da1ec7f	0.07906436
7	0xbd75c21d	-0.059999574
8	0xbcbf70c0	-0.023369193
9	0xbc43ece2	-0.011958333
10	0x3c1b4428	0.009476699
11	0x3ce8479f	0.028354464
12	0xbc9db5e2	-0.019251768
13	0x3ca031a9	0.01955493
14	0xbb8cea73	-0.0043004095
15	0xbb1424b5	-0.0022604887
16	0xbd9a12ba	-0.07523103
17	0x3c057b7e	0.008147119
18	0xbcd75b0a	-0.026288528
19	0xbd0d5aa8	-0.034510285
20	0x3d79c92a	0.06098286
21	0x3cef5d42	0.029219273
22	0x3ab2aaec	0.0013631261
23	0x3d21f347	0.039538648
24	0x3d26f882	0.04076434
25	0x3d89fda5	0.06737832
26	0x3bcde972	0.0062839324
27	0x3d7e517d	0.062089432
28	0xbcf60560	-0.03003186
29	0xbbd6bb76	-0.006553109
30	0x3c8e6aee	0.017384972
31	0x3d94eb16	0.072714016
32	0xbb198ba4	-0.002342918
33	0x3cc9e956	0.024647396
34	0x3d7eb000	0.062179565
35	0x3cf09de2	0.02937216
36	0xbd975f8b	-0.0739127
37	0xbdd6529e	-0.10464977
38	0xbb95b40b	-0.004568582
39	0xbce89a8c	-0.028394006
40	0xbe37500f	-0.17901634
41	0x3c0d7229	0.008633175
42	0x3bd16a2b	0.00639083
43	0xbd3eff04	-0.04662992
44	0x3dac8625	0.084240235
45	0x3d7d1e4f	0.061796483
46	0x3d1c79d5	0.038202126
47	0x3d7d8fca	0.061904706
48	0xbccda424	-0.025102682
49	0x3d9f0d2c	0.07766184
50	0xbd66a134	-0.05630608
51	0xbb94e716	-0.004544149
52	0xbcb1894a	-0.02167191
53	0x3c31ae2c	0.0108447485
54	0x3d6e6618	0.058202833
55	0x3c80e874	0.015735842
56	0x3ddf0f06	0.10891537
57	0xbd316544	-0.043309465
58	0x3c32a5f5	0.010903825
59	0x3ccb6716	0.024829429
60	0xbd743ae7	-0.059626486
61	0xbdc0bad8	-0.094106376
62	0xbe056a99	-0.13028945
63	0xbd1cb832	-0.0382616
64	0xbc4b3e37	-0.01240497
65	0x3d8cd6b6	0.0687689
66	0xbc27dd3f	-0.01024562
67	0x3cb9fd74	0.022703864
68	0x3cc110b8	0.023567542
69	0x3cfaa66f	0.03059694
70	0xbe1f4514	-0.15553695
71	0x3da14fd8	0.07876557
72	0x3cb969bc	0.022633426
73	0x3d164961	0.036691073
74	0x3cc62351	0.024186762
75	0x3dccbf90	0.09997475
76	0x3d6d1b35	0.057887275
77	0xbd2c1882	-0.04201556
78	0x3da08ad8	0.07838982
79	0x3b0e208d	0.0021686882
80	0xbd1a39e3	-0.03765286
81	0xbbfffbaf	-0.0078119854
82	0xbe026360	-0.12733221
83	0xbd8b15c5	-0.067912616
84	0xbdb079ce	-0.086169824
85	0x3babe684	0.0052459855
86	0xbd08f7e7	-0.033439543
87	0x3dba1b3b	0.09087225
88	0x3cd90c83	0.026495224
89	0xbde16c80	-0.11007023
90	0x3d274aad	0.0408427
91	0x3d05b9f6	0.03264805
92	0xbd2b7cb8	-0.041866988
93	0x3c8ea50a	0.017412681
94	0xbcc36252	-0.023850594
95	0xbcc1ee67	-0.02367325
96	0xbca3b047	-0.019981517
97	0x3d50c2b1	0.050966922
98	0xbd08d5d1	-0.033407036
99	0x3c479f43	0.012183967
100	0x3ca1e7f4	0.019763924
101	0x3d0c55dc	0.03426157
102	0x3ce9b090	0.028526574
103	0x3bd92a31	0.006627344
104	0xbcabd13e	-0.020973798
105	0xbbace75d	-0.005276604
106	0x3d1e7d2f	0.038693603
107	0xbde5fb3d	-0.112295605
108	0x3db200e6	0.086915776
109	0x3d89ccbd	0.06728504
110	0x3da08712	0.078382626
111	0xbd06c9aa	-0.032907166
112	0x3cbecf1e	0.02329212
113	0xbc300944	-0.010744397
114	0x3d629fa4	0.055328026
115	0x3d3d27f8	0.046180695
116	0x3d3fee12	0.0468579
117	0x3d900fea	0.07034285
118	0xbd3049fe	-0.043039314
119	0xbbea6ee6	-0.0071543334
120	0x3c0ba3e7	0.008522964
121	0xbdef197c	-0.11674783
122	0xbb956d42	-0.0045601437
123	0x3c6e1fee	0.01453398
124	0x3cfbbf8a	0.030730981
125	0x3b1a75f3	0.0023568838
126	0xbdeef54d	-0.11667881
127	0xbcfd01e3	-0.030884689
128	0xbbb98842	-0.005661995
129	0xbd8448d0	-0.064592004
130	0xbc94dd3e	-0.018171903
131	0x3d80164f	0.06254255
132	0x3c17ca1a	0.009264493
133	0x3d44ed79	0.048078034
134	0xbdc39f10	-0.09551823
135	0x3e01365f	0.12618397
136	0xbd98cd5e	-0.07461046
137	0x3994a3fd	0.0002835094
138	0x3a559dc9	0.0008148817
139	0xba899c41	-0.0010498838
140	0xbd7007e5	-0.05860128
141	0xbd8ac059	-0.06774969
142	0x3d59f742	0.05321432
143	0xbcc0ec43	-0.023550158
144	0x3e199035	0.14996417
145	0xbe0bebb2	-0.1366413
146	0x3d4c870c	0.04993348
147	0xbcf4664a	-0.029833931
148	0x3d4db29a	0.050219156
149	0xbd99e9bb	-0.07515284
150	0x3ca6823e	0.020325776
151	0x3c541450	0.012944296
152	0x3dde9799	0.10868759
153	0xbc1e78a6	-0.0096723195
154	0x3d244b38	0.040110797
155	0x3c51cb00	0.012804747
156	0x3d995e2e	0.074886665
157	0x3d622d0e	0.05521875
158	0xbd837c28	-0.06420165
159	0xbc9b242b	-0.018938145
160	0x3de05be6	0.10955028
161	0xbd934cc1	-0.07192374
162	0xbc678833	-0.0141315935
163	0x3d948db7	0.072535925
164	0xbd457cde	-0.048214786
165	0xbd4ff003	-0.050766002
166	0xbd2ea4aa	-0.042637505
167	0xbd0d207b	-0.034454804
168	0xbde453df	-0.1114881
169	0x3cc3847d	0.023866886
170	0x3d66014b	0.056153577
171	0x3ca92f9d	0.020652587
172	0xbd604429	-0.054752503
173	0x3d1bd8bb	0.038048487
174	0xbe1da716	-0.1539577
175	0xbd4ee63c	-0.050512537
176	0xbc5a310a	-0.013317356
177	0x3e153439	0.14570703
178	0xbcf80239	-0.030274497
179	0x3d1ffa5e	0.039057128
180	0xbcf05e9e	-0.029341992
181	0x3e43794c	0.1908924
182	0xbd3bb98d	-0.045831252
183	0xbd1055e9	-0.03523818
184	0x3da6523b	0.08121153
185	0xbde15393	-0.11002269
186	0x3da40c75	0.080101885
187	0xbba62b43	-0.005071075
188	0xbdfb7a59	-0.12279195
189	0xbcc6b095	-0.024254123
190	0xbd5578c3	-0.05211712
191	0xbda878aa	-0.0822614
192	0x3c203071	0.009777174
193	0x3e4dbfe0	0.20092726
194	0xbc034279	-0.008011454
195	0xbd15ff0b	-0.03662018
196	0x3cd43f4a	0.025909085
197	0x3dcbb1f1	0.09946049
198	0xbde8c947	-0.113665156
199	0x3ddbe291	0.107365735
200	0xbdae8f9b	-0.08523484
201	0xbdd4d4aa	-0.10392125
202	0xbcdd8e4d	-0.027045393
203	0xbb805923	-0.003916876
204	0x3d7e406a	0.06207315
205	0xbddd3475	-0.10801021
206	0xbc8db1e2	-0.017296735
207	0xbd22b23f	-0.03972077
208	0xbb79c7d3	-0.003811349
209	0xbd8a9fd7	-0.06768768
210	0xbc860a83	-0.016362434
211	0xbc464fc4	-0.012103979
212	0xbca534d5	-0.020166794
213	0x3cb8e2d1	0.022569092
214	0xbca27e86	-0.019835722
215	0x3cd7fdd2	0.026366148
216	0x3dc02c74	0.09383479
217	0x3d2929f4	0.041299775
218	0x3d79215d	0.060822833
219	0x3d576f66	0.052596472
220	0xbd873d5f	-0.066035025
221	0xbc283f4b	-0.0102689965
222	0x3d05a3ce	0.03262692
223	0x3cca1d44	0.024672158
224	0xbdb3ff2f	-0.08788907
225	0x3caefc62	0.02136058
226	0xbc4d7874	-0.012540925
227	0x3b3f7b81	0.0029217901
228	0xbd8245b2	-0.063609496
229	0xbdee11f1	-0.11624516
230	0x3daecb1c	0.08534834
231	0x3d2f85ca	0.0428522
232	0xbd3c1be4	-0.045925036
233	0xbcee116b	-0.02906104
234	0xbddbdc65	-0.10735396
235	0xbcede5f1	-0.029040309
236	0x3d0a3442	0.033741243
237	0xbda9ff7b	-0.08300682
238	0x3ca04b11	0.019567044
239	0xbcd9c430	-0.026582807
240	0x3c73444e	0.014847828
241	0xbd35c7f9	-0.044380162
242	0xbbb9d148	-0.0056707
243	0x3dac8bb9	0.084250875
244	0xbd6176e1	-0.055045012
245	0xbd26c5e6	-0.040716074
246	0x3d5238e2	0.05132378
247	0x3c5ced0c	0.013484251
248	0x3d466c2b	0.048443
249	0xbc081634	-0.008306075
250	0xbbff34e6	-0.0077882884
251	0xbdcf957f	-0.10135936
252	0xbc014c15	-0.0078916745
253	0xbc3c541d	-0.011494664
254	0x3a2ed809	0.0006669765
255	0xbd7435eb	-0.059621733
