config/results/Entry_reward04/PathFollowing/PathFollowing-499930.onnx (onnx, 695646 bytes, 7 tensors)

action_model._continuous_distribution.log_sigma f4 [1, 3]
0	0x3bd19af5	0.006396646
1	0xbc9bfcac	-0.019041382
2	0xbbd90455	-0.006622831

action_model._continuous_distribution.mu.bias f4 [3]
0	0xba9ef80e	-0.0012128369
1	0xbaa587a0	-0.001262892
2	0x3ae5acdc	0.001752283

action_model._continuous_distribution.mu.weight f4 [3, 256]
0	0xbb32a93a	-0.0027261511
1	0x3b3ccb3b	0.0028807658
2	0xbba743a8	-0.005104501
3	0x3ba7171e	0.0050991913
4	0xbbceb623	-0.0063083335
5	0xbb94cb58	-0.004540842
6	0x3a922504	0.0011149948
7	0x3c549db1	0.01297705
8	0xbbc4c778	-0.006005224
9	0xbb1404c1	-0.0022585841
10	0xbc345fb9	-0.01100915
11	0x3a859e5b	0.0010194288
12	0xbbfb5839	-0.007670429
13	0xbb1cce59	-0.0023926704
14	0xbb2ba4e1	-0.0026190805
15	0x3ba12d91	0.004918762
16	0xbac0a37d	-0.0014697161
17	0x3c777594	0.015103716
18	0xbb379ac3	-0.002801583
19	0xbbd5ae88	-0.00652105
20	0x3cb2abe2	0.021810476
21	0x3bf140ef	0.007362477
22	0x3c0fc0d2	0.008773999
23	0xbae55625	-0.0017496987
24	0xbc0e4393	-0.008683103
25	0xbb4d048e	-0.0031283232
26	0xbc2b8832	-0.010469483
27	0xbb92be7a	-0.004478273
28	0x3ad6bf3c	0.0016383897
29	0xbb8bffca	-0.004272436
30	0xbbf27f09	-0.0074003977
31	0xbc49835d	-0.012299386
32	0x3c29137c	0.010319587
33	0x3b857e46	0.004073891
34	0xbb4d30f1	-0.003130969
35	0x3c5f7a1d	0.013639954
36	0xbb54e619	-0.0032485782
37	0xbb64ba27	-0.0034900995
38	0x3aa3d799	0.0012500166
39	0xbbbc7279	-0.005750951
40	0x3b8c1b90	0.0042757466
41	0x3cbb1312	0.022836242
42	0xbc917349	-0.017755168
43	0x3be946d1	0.0071190377
44	0xbb955baf	-0.0045580487
45	0xbc08adc2	-0.008342208
46	0xbc4bf0d2	-0.012447553
47	0x3c22bf24	0.009933267
48	0xbb64e5d7	-0.0034927034
49	0x3a9dd139	0.0012040503
50	0xbb9c6b4f	-0.0047735344
51	0x3c2a3737	0.010389141
52	0x3cba9b10	0.022779018
53	0x3c09aa05	0.008402352
54	0xbc7eaebd	-0.015544591
55	0x3bd9d1db	0.006647331
56	0x3b99ca14	0.004693279
57	0x3ca8f158	0.020622894
58	0xbc32131e	-0.010868816
59	0x3c81e09b	0.01585417
60	0xbb44bdd2	-0.0030020368
61	0x3cacbd72	0.021086428
62	0x3bf45504	0.0074564237
63	0xba64ff3a	-0.00087355415
64	0xbb819bc4	-0.0039553363
65	0x3bef126b	0.0072958968
66	0xbc3108a1	-0.01080528
67	0xbbff1beb	-0.0077853105
68	0xbc6c366d	-0.014417273
69	0x3bc3d8c0	0.0059767663
70	0x3c200e22	0.0097689945
71	0x3d13c82c	0.03607957
72	0xbbca6f03	-0.0061777844
73	0x3b996151	0.0046807905
74	0x3d05921d	0.032610048
75	0x3c82f56a	0.015986163
76	0xbbc37ec4	-0.0059660394
77	0xbba4c138	-0.0050279163
78	0xbbcf1844	-0.0063200314
79	0xbb0ccd81	-0.0021484795
80	0xbc052c96	-0.008128306
81	0x3c2e3df7	0.010634891
82	0xbc323a48	-0.010878153
83	0x3c1f99de	0.009741275
84	0xbbf805ec	-0.0075690653
85	0x3c0dad30	0.008647248
86	0x3ca8d675	0.020610074
87	0xbc8de59b	-0.017321398
88	0x3b8e5d4f	0.0043446193
89	0xbbab69a1	-0.005231098
90	0x3c60add5	0.01371332
91	0x3bfef84e	0.007781065
92	0x3bd1a123	0.006397383
93	0x3b9c7a8f	0.0047753523
94	0xbb591205	-0.0033122313
95	0x3c391839	0.011297279
96	0xbc03656c	-0.008019786
97	0xb956cb8b	-0.00020484456
98	0x3c797a0a	0.01522685
99	0xbb461b12	-0.0030228538
100	0xbb41cb1b	-0.0029570523
101	0xbc02f5ca	-0.007993171
102	0xbc9469ad	-0.018116796
103	0x3bfd0ffc	0.0077228528
104	0x3aca0095	0.001541155
105	0x3a302418	0.00067192456
106	0xbc81c8e7	-0.015842868
107	0x3bde4976	0.0067836596
108	0x3c10a93e	0.008829413
109	0x3b8cd034	0.0042972807
110	0xbc23c096	-0.0099946465
111	0xbbc0ed0d	-0.0058876337
112	0xba9ebf20	-0.0012111403
113	0xbc6411bc	-0.013920244
114	0xbc50f375	-0.012753357
115	0x3bf5ef82	0.007505358
116	0x3a817e52	0.0009879565
117	0x3bb858ea	0.0056258338
118	0xb9c347a2	-0.0003724667
119	0xbb2a17b7	-0.0025954077
120	0x3a1a8883	0.00058949756
121	0x392b1b88	0.00016318087
122	0x3c9f5f41	0.0194546
123	0x39a72228	0.0003187817
124	0x3b995264	0.004679011
125	0x3bd958be	0.0066328933
126	0xbbfe2883	-0.007756294
127	0xbc6ce52c	-0.014458936
128	0x3b6438ac	0.0034823818
129	0xbb9fd513	-0.0048776953
130	0xbbaed03f	-0.0053348835
131	0xbc896f12	-0.016776595
132	0x3c1cd4b7	0.0095722
133	0x3b629cd9	0.0034578352
134	0x3beb3452	0.007177868
135	0x3bd2b219	0.0064299223
136	0x3bb19b8f	0.0054201554
137	0x3b585558	0.0033009853
138	0x3b1aa885	0.002359898
139	0xbae75fea	-0.0017652486
140	0xbb5cdc9e	-0.0033700834
141	0xbbd92a34	-0.0066273455
142	0xbccca4d7	-0.024980946
143	0xbcb48f98	-0.022041127
144	0xbca178b4	-0.019710876
145	0xba52ca9c	-0.00080410554
146	0xbb0aef9f	-0.0021199954
147	0x3b3c4bb5	0.0028731648
148	0x3c842794	0.016132154
149	0xbc924d64	-0.017859168
150	0xbb4971e9	-0.0030738062
151	0xbc125cc1	-0.008933247
152	0xbc2e5598	-0.010640524
153	0x3ba0973d	0.0049008415
154	0xbb1d5850	-0.0024008937
155	0x3ad3bdc3	0.0016154576
156	0x3c0dda4b	0.008658002
157	0x3c10d1c8	0.008839078
158	0x3bd3da34	0.006465221
159	0x3c907b30	0.017636865
160	0x3b79121c	0.0038005179
161	0x3aace067	0.0013189436
162	0xbb6facbe	-0.0036571468
163	0x3b9c26f0	0.004765384
164	0x3c52141d	0.012822178
165	0xbbbcdb7f	-0.0057634707
166	0xbc121f09	-0.008918532
167	0x3bf5f1ef	0.0075056474
168	0xbbaeb909	-0.0053321165
169	0xbc43eeeb	-0.011958818
170	0x3bd94436	0.006630446
171	0xbbe7decc	-0.00707612
172	0x3c0d12a6	0.008610403
173	0xbcbe98a1	-0.023266139
174	0x3bc2de37	0.0059469
175	0x3bf3c27e	0.0074389568
176	0x3b28716f	0.0025702377
177	0x3b70395d	0.0036655285
178	0xbc07e92e	-0.00829534
179	0xbc49a442	-0.0123072285
180	0xbb2218da	-0.002473405
181	0xbc7d5b2c	-0.015463632
182	0x3bd2ac88	0.0064292587
183	0xbb2172aa	-0.0024634995
184	0x3c07e16b	0.00829349
185	0x3ccf11b5	0.025276998
186	0x3b22c287	0.0024835186
187	0x3c62e3e9	0.013848283
188	0xbc057d60	-0.0081475675
189	0x3b8d2a27	0.0043080035
190	0x3bbb0f0d	0.0057085813
191	0xbc88227a	-0.016618002
192	0xbc43f677	-0.011960617
193	0xbb98b5f7	-0.004660364
194	0xbc679f74	-0.014137138
195	0xbceea400	-0.029130936
196	0xbcc7bb6d	-0.024381364
197	0xbbb3f0c1	-0.0054913466
198	0xbcb8b1d5	-0.022545734
199	0x3aecd32d	0.0018068306
200	0xbc353ef2	-0.011062371
201	0x3c2821d3	0.010261971
202	0xbc04630a	-0.008080253
203	0x3bcdcedc	0.006280763
204	0x3bb8d090	0.005640097
205	0xbc5c190f	-0.013433709
206	0xbb99118d	-0.0046712817
207	0x3aacb39a	0.0013176084
208	0x3bf83c8f	0.0075755785
209	0xbbd4d5e5	-0.006495225
210	0x3ca50ed2	0.020148668
211	0x3b3c8696	0.0028766743
212	0x3ba950a3	0.0051670833
213	0xbc5e3d8e	-0.0135644805
214	0xba048032	-0.0005054503
215	0xbae42a0b	-0.0017407549
216	0xbc22bed2	-0.00993319
217	0x3c814104	0.015778072
218	0x3bc545e0	0.0060202926
219	0x3c84c5c2	0.01620758
220	0xba15c45a	-0.00057131576
221	0xbcd2d2f6	-0.02573536
222	0xbb7c40f8	-0.0038490873
223	0x3b7e4e0a	0.003880384
224	0x3c0f8f1b	0.008762146
225	0xbb9361e5	-0.004497754
226	0x3a1ac177	0.00059034623
227	0xb96e5682	-0.00022729675
228	0xb90049dd	-0.00012234547
229	0xbbd686ea	-0.0065468447
230	0xbc4f6794	-0.012658972
231	0xbc088aef	-0.008333906
232	0x3b984823	0.0046472712
233	0x3b94d492	0.004541942
234	0x3c8859a4	0.016644306
235	0xbbc3c458	-0.0059743337
236	0xbaf2d7eb	-0.0018527483
237	0x3c1a419a	0.009415055
238	0xbaac175d	-0.0013129521
239	0x3b81db6c	0.0039629247
240	0x3c48fe45	0.012267654
241	0xbc11c5a5	-0.00889722
242	0x3c233297	0.009960792
243	0xbbbdc6be	-0.005791514
244	0x3ac6efaa	0.0015177627
245	0xbc3bf8c6	-0.011472886
246	0x3bc94fba	0.0061435373
247	0x3bc90b69	0.0061353934
248	0xbb05d182	-0.0020419066
249	0x3ae87fe0	0.0017738305
250	0x3c167c95	0.009184976
251	0xbca59177	-0.020210965
252	0x39f26d5e	0.00046239322
253	0xbb4ec301	-0.0031549337
254	0x3bb89245	0.005632671
255	0xba47de1a	-0.0007624343

network_body.linear_encoder.seq_layers.0.bias f4 [256]
0	0x3a483ce9	0.0007638471
1	0x3a46fed1	0.0007591071
2	0xbba8ba51	-0.005149164
3	0xbb5c5315	-0.0033618857
4	0xba6a046e	-0.00089270517
5	0xbb7fe296	-0.0039044968
6	0xbb4c5bba	-0.0031182603
7	0xbb67e5bb	-0.0035384733
8	0xba45c1be	-0.00075438234
9	0xbbaba60b	-0.0052382997
10	0xbacba2ec	-0.0015536225
11	0x3a39a15d	0.0007081235
12	0xbb8df1d0	-0.004331805
13	0xbabd1bf9	-0.0014427892
14	0xbacbd4c4	-0.001555108
15	0xbb12b36b	-0.0022384773
16	0xbb0de072	-0.0021648672
17	0xba864f5d	-0.0010247041
18	0xbb7e63b0	-0.0038816743
19	0xbb1a5473	-0.002354887
20	0x39a38055	0.00031185398
21	0xbb3932a5	-0.0028258946
22	0xbb0e3e93	-0.0021704778
23	0xbab6ef09	-0.0013956736
24	0xbad1ab17	-0.0015996423
25	0x39000c6a	0.00012211656
26	0xba986983	-0.0011628125
27	0xbaec94b8	-0.0018049693
28	0xbab2bc67	-0.001363647
29	0xba5db94b	-0.0008458092
30	0xbaa8f69f	-0.0012890882
31	0x3ae67c1c	0.0017584595
32	0x39a9c5f1	0.0003238167
33	0xbb50820f	-0.0031815802
34	0xbb1bafaf	-0.0023755839
35	0xbb855dfa	-0.004070041
36	0xbb93052a	-0.0044866996
37	0xbaf41321	-0.0018621424
38	0xbb19fedb	-0.0023497853
39	0xbb5ce2d8	-0.0033704545
40	0xba72dd6b	-0.0009264561
41	0x3b822cbb	0.0039726174
42	0xbb3a1abc	-0.0028397283
43	0xbabb512e	-0.0014291161
44	0x3b827e3b	0.003982333
45	0xbafb9df6	-0.0019196856
46	0x3acda201	0.001568854
47	0xba1724fa	-0.0005765703
48	0x3a7ea715	0.0009714228
49	0xbb37ef31	-0.0028066153
50	0xbb5c0c55	-0.0033576686
51	0xba9bc6fe	-0.0011884866
52	0xbc0cedbf	-0.008601605
53	0xbb67fa50	-0.0035397
54	0xb9f24ec3	-0.0004621652
55	0x3b87a7d8	0.0041398816
56	0xbb45f718	-0.0030207094
57	0xbb32d5dd	-0.0027288117
58	0xbc0b5b86	-0.008505708
59	0xbad4ef61	-0.0016245657
60	0xbaa0f6b0	-0.001228055
61	0x3b247c83	0.0025098629
62	0x3a784587	0.00094708096
63	0xbb664074	-0.0035133632
64	0xb98f8127	-0.0002737131
65	0x3a31756a	0.000676951
66	0xbb3dcd26	-0.002896139
67	0xbafa944d	-0.0019117683
68	0xb973c98c	-0.00023249368
69	0xbae9edf6	-0.0017847407
70	0xb9b9d452	-0.0003544414
71	0xbb2b6339	-0.002615167
72	0xbb7d0bd6	-0.003861179
73	0xbae99368	-0.001782042
74	0xbbc5f935	-0.0060416707
75	0xba8a65be	-0.0010558886
76	0xbbb17191	-0.0054151495
77	0xbb69fd07	-0.0035703795
78	0xb9fb04df	-0.0004787808
79	0xbbed43f5	-0.007240767
80	0xbb29dfc4	-0.0025920728
81	0xbb8a4c72	-0.004220539
82	0xbb2f6e42	-0.00267686
83	0xbbd49aa9	-0.0064881635
84	0xba94dd8a	-0.0011357528
85	0x3abf8429	0.001461153
86	0xbb229272	-0.0024806526
87	0x36c60374	5.901262e-06
88	0xbb18756d	-0.002326335
89	0x3ae16079	0.0017194889
90	0xbb06bef4	-0.0020560594
91	0xbbb80709	-0.005616073
92	0x3b42347c	0.0029633334
93	0xbb815abb	-0.0039475835
94	0xb9ce0beb	-0.0003930026
95	0xbc07454a	-0.008256266
96	0xbb173fa5	-0.0023078707
97	0xba4752a7	-0.0007603564
98	0xbb7edbd0	-0.0038888343
99	0xbb0dda04	-0.002164484
100	0xb9033e2e	-0.00012516297
101	0xbaeb305c	-0.0017943489
102	0xbb5eb79d	-0.0033983954
103	0xbb18ea66	-0.0023333072
104	0xbad28590	-0.0016061533
105	0xba8d842f	-0.001079684
106	0xba6eba9c	-0.00091067865
107	0xbb231ad2	-0.0024887812
108	0xbb679644	-0.0035337368
109	0xbb88e990	-0.0041782334
110	0xbaee915d	-0.0018201281
111	0x3a8961e5	0.0010481445
112	0xbb2ed3b7	-0.0026676485
113	0x3b0044db	0.001957229
114	0xbb500f8f	-0.0031747555
115	0xbb39b077	-0.002833394
116	0xbb87ad9d	-0.0041405694
117	0xb7e02224	-2.6718779e-05
118	0xba94f9f3	-0.0011365995
119	0x3a78d890	0.00094927195
120	0xbb6ec138	-0.0036431085
121	0x3a68e4d7	0.00088841975
122	0xba635c7f	-0.0008673146
123	0xbb50080c	-0.0031743078
124	0x3a444aaa	0.00074879325
125	0xbb49e52d	-0.0030806765
126	0x3b4db7c6	0.0031390055
127	0xbb59a894	-0.0033212053
128	0xbb179835	-0.0023131494
129	0xbb2bae13	-0.0026196286
130	0x38bc48a5	8.97807e-05
131	0xbbd5cfb0	-0.0065250024
132	0xbacfd4eb	-0.0015856301
133	0xba197d16	-0.0005855126
134	0xbc1210ca	-0.008915136
135	0x3b33053a	0.0027316348
136	0xbbfd3330	-0.0077270493
137	0xbb45ab09	-0.003016176
138	0xbac8329e	-0.0015273874
139	0x3b150235	0.0022736911
140	0xbb870b6d	-0.004121235
141	0xb9c57d38	-0.00037668063
142	0xbb8e2b3c	-0.00433865
143	0xbbf07058	-0.007337611
144	0x384e3bed	4.9170038e-05
145	0x3aabd101	0.0013108553
146	0xbaaaf6d9	-0.0013043537
147	0xba4d3784	-0.0007828402
148	0x39a9df4d	0.00032400564
149	0x39eda777	0.00045328934
150	0xb9fceedb	-0.00048243147
151	0xbb86eaf0	-0.004117362
152	0xbb6c19db	-0.0036026153
153	0x3b6f5220	0.0036517456
154	0xbb9fcd49	-0.004876767
155	0xbb30dbbf	-0.0026986448
156	0xb8ddf027	-0.00010582833
157	0xbaef54c6	-0.0018259517
158	0xbb03a571	-0.0020087624
159	0xbabbc5fb	-0.001432597
160	0xb9fad2ca	-0.00047840766
161	0xbbcf2e1c	-0.0063226353
162	0xba987832	-0.0011632501
163	0xbb171149	-0.0023051074
164	0xbb383eec	-0.0028113676
165	0xba5c1ca8	-0.0008396604
166	0xba827a1e	-0.0009954607
167	0x3a46c50d	0.00075824634
168	0xbbb256cb	-0.0054424754
169	0xb9987d0c	-0.00029084866
170	0x3aa1110d	0.0012288407
171	0xba06c7ca	-0.0005141465
172	0xbae60965	-0.0017550407
173	0xba695d2b	-0.0008902128
174	0xb958db76	-0.00020681121
175	0xba65ca26	-0.0008765779
176	0xbb4d149a	-0.0031292797
177	0xbb877bea	-0.0041346448
178	0xbb159ee3	-0.00228303
179	0xbab19156	-0.0013547342
180	0xbbeca304	-0.0072215814
181	0x39b1a218	0.0003388084
182	0xbb83497d	-0.004006563
183	0x39da17ae	0.00041597843
184	0xbafbbba7	-0.0019205705
185	0xbb8aa7af	-0.004231415
186	0xbb3172de	-0.0027076523
187	0xbb9244f4	-0.0044637863
188	0xbaf624c4	-0.0018779268
189	0xba826936	-0.0009949568
190	0xbb0976c7	-0.0020975338
191	0xba81d675	-0.0009905832
192	0xbb54e460	-0.0032484755
193	0xbbd24545	-0.006416949
194	0x387afe35	5.9841394e-05
195	0xbad986a6	-0.0016595914
196	0xbb4380db	-0.0029831443
197	0xbb65ddbc	-0.003507479
198	0xbb922e45	-0.004461082
199	0xbac79b50	-0.0015228782
200	0xbb84cd8f	-0.004052825
201	0x3aed4795	0.0018102998
202	0x3a1ca13d	0.0005974954
203	0xbbd8e65c	-0.006619258
204	0x38f55b7e	0.00011699552
205	0xba6f5997	-0.00091304764
206	0xb9e0ad8d	-0.00042853915
207	0xbaa7dd16	-0.0012806978
208	0xba65bff8	-0.00087642623
209	0xb973be6d	-0.00023245225
210	0xbb89947f	-0.0041986103
211	0xbaebfb5d	-0.0018003989
212	0xb9e6c200	-0.0004401356
213	0x3a880868	0.0010378482
214	0xbb31c1f0	-0.0027123652
215	0xbb0b934a	-0.0021297508
216	0xbb8316bf	-0.0040005143
217	0xbb64d399	-0.003491616
218	0xb9d82387	-0.000412252
219	0xbb51ada7	-0.0031994374
220	0xbb4756a2	-0.0030416627
221	0xbb192df7	-0.0023373344
222	0xb98cd608	-0.00026862347
223	0xbb178d96	-0.0023125163
224	0xbab3a4b0	-0.0013705697
225	0xba9d1a7e	-0.0011986045
226	0x393104b1	0.00016881783
227	0xbb7d43b4	-0.003864509
228	0x3a4f4e67	0.0007908106
229	0x39073c5e	0.00012897092
230	0xbb087f3b	-0.0020827788
231	0xbb29a0d1	-0.0025883208
232	0xba4a0ba3	-0.00077074225
233	0xbbaeb7c6	-0.005331966
234	0xbb1de9d4	-0.0024095671
235	0xbb79660a	-0.0038055205
236	0xba6e0139	-0.00090791617
237	0xbba3ebd3	-0.0050024777
238	0xbb7fdc20	-0.0039041117
239	0xbb48096f	-0.00305232
240	0x3a5ee2f9	0.00085024495
241	0xbb21ac7b	-0.0024669457
242	0xba76abf6	-0.00094097794
243	0xbad973af	-0.0016590263
244	0x3a34dbcc	0.00068992074
245	0xbb9b413e	-0.004738002
246	0x3ad491af	0.0016217734
247	0x3ac5e999	0.0015099525
248	0xbbb8f88f	-0.005644865
249	0xba0b084a	-0.00053036644
250	0xbb3f9144	-0.0029230872
251	0x39608a74	0.00021413882
252	0xbbd92a34	-0.0066273455
253	0x3aa02d49	0.0012220527
254	0x3a35013d	0.00069047866
255	0xbb8772eb	-0.0041335723

network_body.linear_encoder.seq_layers.0.weight f4 [256, 416]
0	0x3d1f4752	0.038886376
1	0x3b29c246	0.002590315
2	0xbd12fdb1	-0.03588647
3	0x3aa3d933	0.0012500643
4	0x3c24cfbe	0.010059295
5	0x3bd55552	0.006510415
6	0xbcf894b0	-0.030344337
7	0x3c2358fc	0.009969946
8	0x3d141c14	0.03615959
9	0x3b251cc2	0.0025194143
10	0x3d2b51ad	0.04182594
11	0xbd7e913b	-0.06215022
12	0x3d990e63	0.07473447
13	0xbd6a0f35	-0.05714341
14	0xbd52d68c	-0.05147414
15	0xbd5ac288	-0.053408176
16	0x3c4b0c8c	0.012393128
17	0x3d70c7e2	0.058784373
18	0xbbd77ec2	-0.00657639
19	0xbd1c0265	-0.03808822
20	0x3d44a975	0.04801317
21	0xbc9c2c08	-0.019063964
22	0x3ce914fc	0.028452389
23	0xbc4accb9	-0.012377911
24	0xbd0ac532	-0.033879466
25	0x39cd19e6	0.00039119943
26	0xbc29711a	-0.010341907
27	0xbc91be63	-0.017790979
28	0x3d23748e	0.039906077
29	0x3d2ddfa2	0.0424496
30	0x3cada0b1	0.021194788
31	0x3c687708	0.0141885355
32	0x3d109d11	0.03530604
33	0x3b4bb3eb	0.0031082581
34	0xbc97bba7	-0.018522097
35	0x3bc18a59	0.005906385
36	0xbce10319	-0.027467297
37	0x3d7e716e	0.062119894
38	0x3b2684ed	0.002540882
39	0xbd4025b5	-0.04691096
40	0x3d20c4e4	0.03925027
41	0xbdd61dfd	-0.104549386
42	0xbd2b1274	-0.041765645
43	0x3d817e86	0.063229606
44	0xbca7de77	-0.020491822
45	0x3bef19cd	0.007296777
46	0xbd063bbd	-0.032771815
47	0xbc83d542	-0.0160929
48	0x3cb2e409	0.021837251
49	0x3bf17e89	0.0073698205
50	0x3d894280	0.06702137
51	0xbd23edc2	-0.040021665
52	0xbbd927f7	-0.0066270786
53	0xbc736f7d	-0.014858124
54	0xbdf7eacf	-0.12105333
55	0xbdbbf073	-0.091767214
56	0xbb9d97cc	-0.0048093554
57	0xbd11536e	-0.035479955
58	0xbd99b21b	-0.07504674
59	0x3c87654a	0.01652779
60	0xbceeeb7f	-0.029165028
61	0xbd494075	-0.049133737
62	0x3c2695ca	0.010167548
63	0x3d3df398	0.046374887
64	0xbc8496c8	-0.01618518
65	0x3dbce83b	0.09223982
66	0x3d13922c	0.036028072
67	0xbc1e6928	-0.009668626
68	0x3d672435	0.056431014
69	0xbc96d0d9	-0.018410133
70	0xbd925324	-0.07144764
71	0x3cd7a134	0.026321985
72	0x3c042f47	0.008067912
73	0xbcf05123	-0.029335564
74	0xbd6003f4	-0.05469127
75	0xbdd50b15	-0.10402504
76	0x3ba24185	0.004951658
77	0x3c0f163e	0.00873333
78	0xbda3df00	-0.08001518
79	0xbc725a88	-0.014792092
80	0x3d23d038	0.039993495
81	0x3d990d65	0.07473258
82	0x3c6a50b4	0.014301468
83	0xbc2e73b6	-0.010647705
84	0x3ca7b4de	0.020471986
85	0xbc1096ba	-0.0088249985
86	0xbd43f610	-0.047842085
87	0x3d1271ff	0.035753246
88	0x3dab369e	0.08360027
89	0xbca1f76e	-0.019771304
90	0xbc91ade3	-0.017783111
91	0x3c2efb14	0.010679979
92	0xbd417021	-0.047226075
93	0x3cba0056	0.022705238
94	0xbd69c62c	-0.057073757
95	0xbd999fc9	-0.0750118
96	0xbc817f06	-0.01580764
97	0xbd1077fe	-0.035270683
98	0x3b7dffe1	0.0038757252
99	0x3d21ed29	0.039532814
100	0xbcf8d429	-0.030374603
101	0x3db51cb5	0.08843366
102	0x3db564c6	0.08857112
103	0xbd02ff59	-0.0319818
104	0xba495f96	-0.0007681785
105	0x3c809f38	0.015700921
106	0x3cf900b8	0.03039585
107	0x3ac6eaf3	0.0015176221
108	0x3bd35db8	0.006450381
109	0x3d2abfbe	0.041686766
110	0x3d1e72dd	0.03868376
111	0xbd3d703e	-0.04624962
112	0xbd06605f	-0.03280675
113	0x3dbb13ee	0.09134661
114	0x3d8f931e	0.07010482
115	0xbd84c8bd	-0.064836
116	0x3cf66c29	0.030080872
117	0xbc77fec3	-0.0151364235
118	0xbd0d8d12	-0.034558363
119	0x3cca356e	0.02468368
120	0xbc7e759e	-0.015530972
121	0x3d386dc5	0.04502656
122	0xbca845c5	-0.020541081
123	0xbc1d3a85	-0.009596472
124	0xbcb21334	-0.021737672
125	0x3cfe96e0	0.031077802
126	0xbda7e7f2	-0.08198537
127	0xbc56e1b1	-0.013115332
128	0x3d849859	0.064743705
129	0xbbcae48f	-0.006191797
130	0xbbb3d40b	-0.005487924
131	0xbd705114	-0.058671072
132	0xbd834f3c	-0.06411597
133	0xba9b426e	-0.0011845359
134	0x3cd7decb	0.026351353
135	0x3d4ff67b	0.05077217
136	0xbccd34ba	-0.025049556
137	0x3cfb471a	0.030673552
138	0xbd6c87d6	-0.05774673
139	0x3ccdf417	0.025140805
140	0xbdafdee4	-0.08587435
141	0xbccf387a	-0.025295485
142	0x3d6bec02	0.05759812
143	0x3cf9984e	0.030468132
144	0xbd2d4bad	-0.0423085
145	0xba96ccab	-0.0011505088
146	0x3cde8590	0.027163297
147	0xbcc61870	-0.024181575
148	0xbce8a487	-0.028398765
149	0xbce04153	-0.027374899
150	0x3d1edd8f	0.038785513
151	0xbe0b4a7e	-0.13602635
152	0xbc245593	-0.010030168
153	0x3d1bad1b	0.038006883
154	0x3bc639c1	0.0060493653
155	0x3cab7601	0.020930292
156	0xbcd226b0	-0.025653213
157	0x3a81e111	0.0009908994
158	0xbcdac15a	-0.026703525
159	0xbb675361	-0.00352975
160	0x3d07404d	0.033020306
161	0xbd1823ed	-0.037143636
162	0x3ce96bb4	0.02849374
163	0xbd14200c	-0.036163375
164	0x3d3d1fae	0.04617279
165	0x3d89013e	0.0668969
166	0x3d344e28	0.044019848
167	0x3be6ea30	0.0070469603
168	0xbd441052	-0.047867127
169	0x3d09ebd0	0.033672154
170	0xbd076e00	-0.03306389
171	0x3d0e6892	0.034767695
172	0x3d191303	0.037371647
173	0xbaef6fdf	-0.0018267593
174	0xbd8c2c1f	-0.06844353
175	0xbc308598	-0.010774039
176	0xbbf7ef5c	-0.0075663757
177	0xbbf299dc	-0.0074035954
178	0xbd3d68dc	-0.04624258
179	0x3d072ae1	0.032999877
180	0x3d34842c	0.04407136
181	0xbdb32d04	-0.087488204
182	0x3d04079c	0.03223382
183	0x3d140334	0.036135867
184	0xbd1f0939	-0.038827155
185	0x3dd5e3c6	0.10443835
186	0xbd3a0ebd	-0.04542421
187	0x3d0cf42c	0.034412548
188	0xbdabf186	-0.08395676
189	0xbc975fb0	-0.018478245
190	0xbd022901	-0.031777386
191	0x3c1978bc	0.009367164
192	0xbd8e645e	-0.06952737
193	0xbd81c6bc	-0.06336734
194	0x3c476095	0.012169023
195	0xbcd1a2d5	-0.02559034
196	0xbdc64986	-0.09681992
197	0x3daa6432	0.08319892
198	0xbd81be67	-0.063351445
199	0xbe089d8f	-0.13341354
200	0x3c68be40	0.014205515
201	0xbdc4ba95	-0.096059
202	0x3cb30fab	0.021858057
203	0x3dea1ce5	0.114312924
204	0xbda288c4	-0.07936242
205	0x3d021cc4	0.031765714
206	0xbc0b869a	-0.008515978
207	0x3da56fb5	0.08077947
208	0xbc3c719e	-0.011501698
209	0x3ba64a93	0.005074808
210	0xbc9a9314	-0.01886896
211	0xba28fa34	-0.00064459746
212	0x3cdde48b	0.027086517
213	0x3c8a2a5e	0.016865905
214	0x3cdee018	0.027206466
215	0xbd85f037	-0.06539958
216	0x3d590771	0.052985612
217	0x3ca1862b	0.019717297
218	0x3c109b9b	0.008826162
219	0x3c7afbfe	0.015318869
220	0xbd6e3fa3	-0.058166157
221	0xbd3701b8	-0.044679374
222	0xbcc0f145	-0.023552546
223	0x3aad0c65	0.0013202546
224	0xbd21f3e4	-0.039539233
225	0x3db2005c	0.08691475
226	0x3d9df59e	0.077128634
227	0xbc5b9119	-0.013401293
228	0xbd40a533	-0.047032546
229	0x3db743cf	0.0894848
230	0x3c8ef4d1	0.017450722
231	0x3d2b77b5	0.04186221
232	0x3c127ad2	0.008940415
233	0x3d3586eb	0.04431812
234	0xbc06c63f	-0.0082259765
235	0x3db3e569	0.08783991
236	0xbd086b9b	-0.033305746
237	0x3ccfce7b	0.025367012
238	0xbd548594	-0.051885203
239	0x3dd7a7da	0.10530062
240	0x3d009eae	0.03140133
241	0x3da2e917	0.079546146
242	0x3c9bda5c	0.01902502
243	0x3d37784a	0.04479245
244	0x3c4eb199	0.012615585
245	0x3d3ec4e5	0.046574492
246	0xbd813110	-0.06308186
247	0x3cfa5415	0.030557672
248	0xbd1f84bf	-0.038944956
249	0x3d7e6f05	0.062117595
250	0x3a88b816	0.0010430838
251	0xbc4e921f	-0.01260808
252	0x3dce7021	0.10079981
253	0xbd7c7dc9	-0.061643396
254	0xbd889a04	-0.06670001
255	0xbc8af302	-0.016961578

network_body.linear_encoder.seq_layers.2.bias f4 [256]
0	0xbb7d3c46	-0.0038640662
1	0xbb27fd15	-0.0025633026
2	0x39df8b1c	0.0004263752
3	0x397a0a8e	0.0002384579
4	0x39853315	0.00025405796
5	0xba627dfc	-0.0008639989
6	0xbb3fbb87	-0.0029256062
7	0xbb2c19bf	-0.0026260463
8	0xbc34d1c7	-0.011036343
9	0xbb3acf3e	-0.0028504874
10	0xba4db0a5	-0.00078464515
11	0x3ae87c08	0.001773716
12	0xbab5de81	-0.0013875515
13	0xbb475a7b	-0.003041892
14	0xbb332b2c	-0.0027338965
15	0x39b56c7a	0.00034603832
16	0x3a9913d8	0.0011678888
17	0xbabc91fe	-0.0014386771
18	0xbad97689	-0.0016591112
19	0xbb047a3e	-0.0020214464
20	0xbb266f3f	-0.0025395898
21	0x3c284add	0.010271755
22	0xbb94fdea	-0.0045468705
23	0xbb6a8917	-0.0035787278
24	0xbaf1d220	-0.0018449463
25	0xbaf573c8	-0.0018726522
26	0xb9ed6007	-0.00045275709
27	0x3a9ea618	0.0012103943
28	0xbac6700d	-0.0015139595
29	0xb9b7edf3	-0.00035081766
30	0xbac23e68	-0.0014819624
31	0xbb04a271	-0.0020238424
32	0xba1ca4b5	-0.0005975471
33	0xba04a3f9	-0.0005059834
34	0xbb203088	-0.002444299
35	0xbb1953ac	-0.002339582
36	0xbabe041c	-0.0014497074
37	0xbb3dbf74	-0.0028953226
38	0xba9b992d	-0.0011871211
39	0x3b0c8ee2	0.002144747
40	0xbb3f449f	-0.0029185188
41	0x3a900dcf	0.0010990443
42	0xbb580260	-0.00329604
43	0x39197446	0.00014634532
44	0xbba1c885	-0.004937234
45	0xbb17d0ae	-0.0023165154
46	0x39887e52	0.00026034057
47	0xbb8756e1	-0.00413023
48	0xbafd2444	-0.0019313176
49	0xbb00ba65	-0.001964235
50	0xb9addd52	-0.00033162028
51	0xbaf03bea	-0.0018328403
52	0xbb2233e7	-0.0024750174
53	0xba9447ff	-0.001131296
54	0xbb65f955	-0.003509124
55	0xbb4257f7	-0.0029654482
56	0xb97a17c5	-0.00023850713
57	0x3a1d9a6f	0.0006012087
58	0xbb6ebb1e	-0.0036427449
59	0xbb7b5535	-0.0038350348
60	0xbbbb7102	-0.0057202587
61	0xb72206d0	-9.657539e-06
62	0xbabeee51	-0.0014566873
63	0xba59bba4	-0.00083058537
64	0xbacd8430	-0.0015679654
65	0xbad80fc6	-0.0016484193
66	0xba1593dd	-0.0005705932
67	0x39f08871	0.00045878024
68	0xb9d2d50b	-0.0004021305
69	0xbb5e7608	-0.0033944864
70	0xbb71899c	-0.0036855703
71	0xb94dd01f	-0.00019627855
72	0xbb4bb50d	-0.0031083256
73	0xba77cd6d	-0.0009452913
74	0x3a8076ae	0.0009800994
75	0x3b6cc213	0.003612642
76	0xbb3319eb	-0.002732868
77	0xbb4f816e	-0.003166284
78	0xbb395550	-0.002827961
79	0xbb8e5f2d	-0.004344842
80	0xba8c2fc2	-0.0010695385
81	0xbb7960a7	-0.0038051994
82	0x39969091	0.0002871794
83	0x3afd3cbe	0.0019320471
84	0xbadc00d7	-0.0016784918
85	0xbb673759	-0.0035280793
86	0xbb8f1fec	-0.004367819
87	0xbacbf187	-0.0015559652
88	0x3a26c421	0.0006361623
89	0xbb753488	-0.0037415344
90	0xbb8eceb7	-0.0043581384
91	0xba706b71	-0.00091712835
92	0xbb7e7101	-0.003882468
93	0xbbc7a4ed	-0.0060926587
94	0xbae411eb	-0.001740036
95	0x3afc4cae	0.0019248927
96	0xba86859a	-0.0010263205
97	0xbbe27fd0	-0.006912209
98	0xbb60859c	-0.0034259325
99	0xbb5cfdd9	-0.003372064
100	0x38f83eb7	0.00011837243
101	0xbb2df927	-0.0026546211
102	0xb9832feb	-0.0002502197
103	0x3aaf6729	0.0013382185
104	0xbad5901d	-0.001629356
105	0xbb4d78b2	-0.0031352458
106	0xbb750f1c	-0.003739304
107	0xbac63ed5	-0.0015124927
108	0xba759f36	-0.00093697326
109	0xbbb882eb	-0.005630841
110	0xba809e22	-0.0009812752
111	0xba96fb03	-0.0011518899
112	0xba7ef8de	-0.0009726415
113	0x39fe1e5c	0.00048469275
114	0x39af88d7	0.00033480555
115	0x383aec95	4.456619e-05
116	0xbbfcc97f	-0.00771445
117	0xbb40fa60	-0.002944611
118	0xbb84f4a5	-0.004057484
119	0xbb8b9459	-0.004259628
120	0xb98ee18a	-0.0002725239
121	0xbb5ab122	-0.003336974
122	0xbb796361	-0.003805362
123	0xbb85a9e4	-0.0040790904
124	0xbb71afa6	-0.0036878376
125	0xbb3fc9ff	-0.0029264686
126	0xbb4ef6aa	-0.0031580129
127	0xbb2b9334	-0.002618027
128	0xbb48aa27	-0.0030618997
129	0xb91fd824	-0.0001524394
130	0xbaa8d0ba	-0.0012879588
131	0xba988225	-0.0011635466
132	0xbb73b025	-0.0037183848
133	0xbb028de1	-0.0019920992
134	0xbb78201d	-0.0037860938
135	0xbb8951bd	-0.004190652
136	0xbb6b73a7	-0.0035927088
137	0xbaa90a1e	-0.0012896692
138	0xba8277b1	-0.0009953884
139	0xba26a082	-0.0006356315
140	0xbb15400d	-0.0022773773
141	0xbb82ab36	-0.003987695
142	0xbb150e9f	-0.002274431
143	0xbb35969e	-0.0027708183
144	0xbadcc624	-0.0016843718
145	0xbb21c546	-0.0024684235
146	0xbac0602a	-0.0014677097
147	0xbb37d868	-0.0028052572
148	0xb9f43e2d	-0.0004658563
149	0xbab29859	-0.0013625725
150	0xbb37a03b	-0.0028019089
151	0xbaa415f0	-0.0012518745
152	0x3ab9c688	0.0014173547
153	0xbaea4635	-0.0017873707
154	0xbb4a699e	-0.0030885707
155	0x3a889bd5	0.0010422418
156	0xbb4cf0cd	-0.0031271458
157	0x3ad8242d	0.0016490273
158	0xbafaed90	-0.0019144285
159	0x395a821a	0.00020838567
160	0x3ba9b313	0.005178818
161	0x385864c7	5.159227e-05
162	0x39d9857d	0.00041488922
163	0xbb5b361f	-0.0033449007
164	0xbaaceed3	-0.0013193734
165	0x38cd3cf5	9.786516e-05
166	0xbb0e80f0	-0.0021744333
167	0xbb8ed592	-0.0043589557
168	0xbb973c20	-0.0046153218
169	0xbadd0756	-0.0016863148
170	0x3b4a51c4	0.003087149
171	0xbac36ecd	-0.001491034
172	0xbb219bdb	-0.0024659547
173	0xb941d074	-0.00018483569
174	0xbbaa4483	-0.0051961555
175	0xb94cff0a	-0.00019549966
176	0xbb579bda	-0.0032899291
177	0xbb0d3896	-0.002154862
178	0xba0c9b1f	-0.0005363691
179	0xb9c856c5	-0.0003821162
180	0xbb889a54	-0.004168788
181	0xbb1b9d25	-0.0023744788
182	0xbb2cddb8	-0.0026377272
183	0x39e7dd6c	0.00044224726
184	0xbb7887ac	-0.0037922664
185	0xbb13a806	-0.002253057
186	0xba699a57	-0.0008911243
187	0xbb590459	-0.0033114164
188	0xba74712e	-0.00093247264
189	0xbbb06a6d	-0.0053837807
190	0x3ad3a87c	0.0016148235
191	0xba58f78d	-0.0008276634
192	0x3a8ae4d5	0.0010596762
193	0xba5b658d	-0.0008369319
194	0xbb478ea7	-0.0030450018
195	0xb99c82ef	-0.00029852192
196	0xbbcc6073	-0.0062370836
197	0x3a777d64	0.0009440987
198	0xbb219795	-0.0024657
199	0xba28072e	-0.0006409761
200	0x3ad6f637	0.0016400282
201	0xb9ced12e	-0.00039447233
202	0xbb686ff9	-0.0035467132
203	0xbac1df52	-0.0014791286
204	0xbb0b4da2	-0.002125599
205	0xbb58292b	-0.0032983522
206	0xbc11aa78	-0.008890741
207	0xbb9f7e8c	-0.0048673805
208	0xbb2a87a1	-0.0026020783
209	0xbb4c999a	-0.0031219483
210	0xb9a12b49	-0.00030740563
211	0xbb173650	-0.0023073144
212	0xbb700467	-0.0036623718
213	0xba4a99b3	-0.00077285914
214	0xb9d33317	-0.0004028312
215	0xbb92e0d7	-0.0044823694
216	0xba8292ea	-0.0009961997
217	0xbb8be948	-0.0042697527
218	0xbb247f14	-0.0025100159
219	0xbabbba8c	-0.0014322563
220	0xba486a7d	-0.00076452625
221	0x3a71b0e0	0.0009219777
222	0xbacde7fc	-0.0015709396
223	0xbb586383	-0.0033018298
224	0xbaad3005	-0.0013213163
225	0xbb6fb6b8	-0.0036577415
226	0xb9d263db	-0.0004012872
227	0xbbce3825	-0.006293314
228	0xb98a0b14	-0.00026329665
229	0xbb509602	-0.0031827693
230	0xbadc1161	-0.0016789847
231	0xb9734f96	-0.00023203934
232	0xbb92c3ee	-0.004478923
233	0xba9ca61b	-0.0011951359
234	0xbaafb4d4	-0.0013405331
235	0xbb99c9f2	-0.004693263
236	0xbba7bdea	-0.005119075
237	0xbb86aa0d	-0.004109627
238	0xba9d9ee2	-0.00120255
239	0xbb45960e	-0.0030149254
240	0x3ad04bf1	0.0015891773
241	0x3bc4a793	0.0060014217
242	0xbb95d1bd	-0.004572122
243	0xb9f03961	-0.00045819118
244	0xba5d4c09	-0.0008441811
245	0x3a952775	0.0011379557
246	0xbb288816	-0.002571588
247	0xbb5e5c76	-0.0033929623
248	0xbaa04637	-0.0012227957
249	0xba873247	-0.0010314666
250	0xb9681873	-0.00022134352
251	0xbacb5b81	-0.0015514941
252	0xbb922919	-0.0044604656
253	0xbbaa6133	-0.0051995753
254	0xbb0e4274	-0.002170709
255	0xbb9ba1c3	-0.004749508

network_body.linear_encoder.seq_layers.2.weight f4 [256, 256]
0	0x3c21acce	0.00986786
1	0x3de2fb00	0.11083031
2	0x3d985a1d	0.07439063
3	0xbd65ca8c	-0.056101367
4	0x3c25e300	0.010124922
5	0xbde21e20	-0.11040902
6	0x3db2dfd8	0.08734101
7	0xbd7f5fba	-0.06234715
8	0xbcb27bf2	-0.021787617
9	0xbc2b5b0f	-0.010458722
10	0x3c1c6d72	0.009547578
11	0x3d032aa1	0.032023076
12	0xbcab4819	-0.020908402
13	0x3c92eb51	0.017934473
14	0xbb9c9cbb	-0.004779426
15	0x3bef2f91	0.0072993715
16	0xbd9da403	-0.076972984
17	0x3c94394d	0.01809373
18	0xbcb0de47	-0.021590365
19	0xbd0a8500	-0.033818245
20	0x3d80b6ce	0.06284867
21	0x3cd296b9	0.025706636
22	0x39c813b2	0.00038161647
23	0x3d1dde05	0.038541812
24	0x3d26235a	0.040561058
25	0x3d8be350	0.06830466
26	0x3bfe28c1	0.007756323
27	0x3d7997fb	0.060935955
28	0xbcfaddfb	-0.030623427
29	0xbbe6d50a	-0.007044439
30	0x3ccce2e8	0.025010541
31	0x3d98b132	0.07455672
32	0xbab14567	-0.0013524712
33	0x3cde9fa2	0.027175728
34	0x3d8849fa	0.06654735
35	0x3d263c59	0.040584896
36	0xbd964be1	-0.073386915
37	0xbdce585a	-0.100754455
38	0xbb3a7bbf	-0.0028455106
39	0xbcdb997c	-0.026806585
40	0xbe2ed234	-0.17072374
41	0x3c3a92bb	0.011387522
42	0x3c1205fb	0.008912559
43	0xbd3a2c64	-0.04545249
44	0x3daa21c6	0.08307223
45	0x3d878343	0.06616833
46	0x3d0e6b75	0.034770448
47	0x3d86e84a	0.065872744
48	0xbcc0d1d9	-0.023537563
49	0x3dbbe085	0.09173683
50	0xbd6aa5f0	-0.057287157
51	0xbacce9ba	-0.0015633621
52	0xbc81f776	-0.015865069
53	0x3c49aa08	0.012308605
54	0x3d6f4554	0.058415726
55	0x3cee840a	0.029115696
56	0x3ddf658c	0.109080404
57	0xbd2a734e	-0.04161387
58	0x3c3e2b93	0.011607069
59	0x3ccc1dbf	0.024916528
60	0xbd5baca3	-0.053631436
61	0xbdb96fd0	-0.0905453
62	0xbe00ce01	-0.12578584
63	0xbd1637ac	-0.036674187
64	0xbc509feb	-0.01273344
65	0x3d8c9d7a	0.06865974
66	0xbb169440	-0.0022976547
67	0x3ca8da1b	0.020611813
68	0x3cc440cb	0.023956677
69	0x3d0d19ee	0.034448557
70	0xbe220094	-0.15820533
71	0x3da8030d	0.08203707
72	0x3ca7fc0f	0.020505933
73	0x3d3eb112	0.046555586
74	0x3cedbf8a	0.029021997
75	0x3dcafc3d	0.09911392
76	0x3d6b82e0	0.05749786
77	0xbd255c91	-0.04037148
78	0x3da566eb	0.08076271
79	0x3b8bc0df	0.0042649354
80	0xbd148857	-0.036262836
81	0xbc6f4fa4	-0.01460639
82	0xbe00bd1b	-0.12572138
83	0xbd877efb	-0.066160165
84	0xbdaf0da0	-0.08547521
85	0x3bbc134b	0.0057396046
86	0xbd058ecb	-0.03260688
87	0x3db9dd45	0.09075407
88	0x3cd36a19	0.025807427
89	0xbdd7ec6c	-0.10543141
90	0x3d24b31a	0.040209867
91	0x3cffd14a	0.031227726
92	0xbd2b87f4	-0.041877702
93	0x3ca536eb	0.020167788
94	0xbcd0b270	-0.02547571
95	0xbcd1d4cb	-0.025614163
96	0xbca85b38	-0.020551309
97	0x3d5899b8	0.052880973
98	0xbcb226f4	-0.02174709
99	0x3c656829	0.0140018845
100	0x3caf7da5	0.021422217
101	0x3d15cf0f	0.03657442
102	0x3cf90614	0.030398406
103	0x3c051261	0.008122058
104	0xbc9a50b8	-0.018837318
105	0x3804ed17	3.169206e-05
106	0x3d303bd6	0.043025814
107	0xbdd921d6	-0.10602157
108	0x3db3726f	0.08762061
109	0x3d8bd8dc	0.06828472
110	0x3dacd460	0.08438945
111	0xbcfedb64	-0.031110473
112	0x3c4ddd9b	0.012565042
113	0xbbe5c888	-0.0070124306
114	0x3d689369	0.056781206
115	0x3d490408	0.04907611
116	0x3d41c02d	0.047302414
117	0x3d8dbfd1	0.06921352
118	0xbd163938	-0.03667566
119	0xbba3fa10	-0.005004175
120	0x3c2f6b9c	0.010706808
121	0xbdecc1bb	-0.11560389
122	0x39816d29	0.00024686128
123	0x3c92856d	0.017885888
124	0x3d2404b7	0.04004356
125	0x3b4d6185	0.0031338644
126	0xbde75a73	-0.11296549
127	0xbcd45785	-0.025920639
128	0xbb512cd1	-0.0031917582
129	0xbd8694f8	-0.06571382
130	0xbc8904c7	-0.01672591
131	0x3d82dac4	0.063893825
132	0x3c875ca7	0.016523672
133	0x3d4be74d	0.049781132
134	0xbdc1a4c9	-0.094552584
135	0x3e062ea0	0.13103724
136	0xbd975816	-0.07389848
137	0x3be3f49f	0.0069566513
138	0xba9f7e59	-0.0012168392
139	0xbb0240d2	-0.0019875062
140	0xbd6c0d08	-0.057629615
141	0xbd89f180	-0.067355156
142	0x3d68c2f8	0.05682656
143	0xbcbe60cf	-0.023239521
144	0x3e1db78a	0.15402046
145	0xbe001410	-0.12507653
146	0x3d46f73b	0.04857562
147	0xbcff49c1	-0.031163098
148	0x3d512772	0.05106301
149	0xbd87b4e2	-0.066262975
150	0x3cb07f74	0.02154515
151	0x3c4ab029	0.012371101
152	0x3de5cf65	0.11221198
153	0xbc20e7b9	-0.009820872
154	0x3d286b57	0.041117992
155	0x3c6e9be4	0.014563534
156	0x3d9e2c2a	0.077232674
157	0x3d6a8ba3	0.057262074
158	0xbd86fc2f	-0.06591069
159	0xbc6744a8	-0.01411549
160	0x3de72888	0.112870276
161	0xbd8ea7c7	-0.06965595
162	0xbc4b4f89	-0.012409099
163	0x3d9bc0e2	0.07605149
164	0xbd1336e0	-0.035941005
165	0xbd4166f5	-0.047217328
166	0xbd1aa244	-0.037752405
167	0xbce738df	-0.02822536
168	0xbde2764f	-0.11057722
169	0x3cea2796	0.02858333
170	0x3d68e137	0.056855407
171	0x3ccb82a9	0.024842577
172	0xbd5564f6	-0.052098237
173	0x3d2518d4	0.04030688
174	0xbe1b877b	-0.151884
175	0xbd4f515d	-0.050614703
176	0xbbc8f927	-0.006133217
177	0x3e16b732	0.14718321
178	0xbcbba631	-0.022906395
179	0x3d403d6c	0.046933576
180	0xbce7df23	-0.028304642
181	0x3e452051	0.19250609
182	0xbd3e92e6	-0.046526812
183	0xbcd076fe	-0.025447365
184	0x3da2740f	0.07932293
185	0xbddb6b58	-0.107138336
186	0x3db32350	0.0874697
187	0xba5c692c	-0.0008408006
188	0xbdf7063f	-0.12061738
189	0xbca45ccb	-0.020063778
190	0xbd3bd2f4	-0.045855477
191	0xbda13ac6	-0.07872538
192	0x3c2e5ed6	0.010642728
193	0x3e503224	0.20331627
194	0xbc12cba7	-0.008959687
195	0xbd07b485	-0.03313114
196	0x3ccd9c97	0.025099082
197	0x3dd85046	0.10562186
198	0xbded8b7d	-0.11598871
199	0x3de1109e	0.109894976
200	0xbd931b47	-0.07182937
201	0xbdcf15e4	-0.10111597
202	0xbcd8214f	-0.02638307
203	0xbb9f3980	-0.0048591495
204	0x3d869d00	0.06572914
205	0xbdda0530	-0.10645521
206	0xbc6e2d1f	-0.014537125
207	0xbcd303c0	-0.025758624
208	0xba8ed911	-0.0010898431
209	0xbd858f1a	-0.06521435
210	0xbc5e0aae	-0.013552351
211	0xbba15a55	-0.0049240985
212	0xbc8dd442	-0.017313126
213	0x3cc53eff	0.02407789
214	0xbc8bb583	-0.017054325
215	0x3cf9f7c6	0.030513655
216	0x3dbfaacc	0.09358749
217	0x3d32a81f	0.043617364
218	0x3d7cc78c	0.06171374
219	0x3d7017ac	0.058616325
220	0xbd7eb9f9	-0.062189076
221	0xbc23afe6	-0.009990668
222	0x3d2b98b3	0.041893672
223	0x3cdf3473	0.02724669
224	0xbdb066ea	-0.08613379
225	0x3ce60f0b	0.028083345
226	0xbc3d2e9e	-0.011546759
227	0x3be9d12b	0.0071355305
228	0xbd797c3c	-0.060909495
229	0xbdf679d9	-0.12034959
230	0x3db51dd1	0.08843578
231	0x3d23c64b	0.03998403
232	0xbd23efc0	-0.040023565
233	0xbcdcf365	-0.026971528
234	0xbdd22610	-0.10261166
235	0xbc8fb9b8	-0.017544612
236	0x3d35fc6a	0.044430174
237	0xbd91ade3	-0.071132444
238	0x3cb33b76	0.02187894
239	0xbcb1e7f8	-0.021717057
240	0x3cb7ed8c	0.022452138
241	0xbd2b0658	-0.041754097
242	0xbbbdc3e9	-0.0057911766
243	0x3dbbf2af	0.091771476
244	0xbd3b5c1c	-0.04574214
245	0xbd1c0861	-0.03809393
246	0x3d4931b0	0.04911965
247	0x3c4f959e	0.012669949
248	0x3d37d6d9	0.04488263
249	0xbbe951d0	-0.0071203485
250	0xbb1e158b	-0.0024121727
251	0xbdcacd18	-0.099024
252	0xbba05c44	-0.0048938114
253	0xbc30e51b	-0.0107968105
254	0x3c376f2c	0.011195939
255	0xbd66c471	-0.056339685
