config/results/Entry_reward01/PathFollowing/PathFollowing-7499935.onnx (onnx, 695646 bytes, 7 tensors)

action_model._continuous_distribution.log_sigma f4 [1, 3]
0.010813163 -0.046750553 0.11120846
00000000: b129 313c 827d 3fbd 43c1 e33d

action_model._continuous_distribution.mu.bias f4 [3]
-0.028993119 0.003999402 -0.014357364
00000000: fa82 edbc 6a0d 833b 263b 6bbc

action_model._continuous_distribution.mu.weight f4 [3, 256]
-0.004895008 -0.037187114 0.024128357 0.042573225 0.007765082 -0.004348689 -0.0068386053 0.01686059
-0.04286249 0.011086544 0.0064474107 0.031464513 -0.031013304 0.021579925 0.017600987 -0.002845334
-0.06280883 0.06585891 0.0029400545 -0.01244625 -0.009466749 -0.033453602 -0.021666748 0.024229007
0.026782632 0.04499329 0.07540035 -0.016012304 0.0400185 -0.01318249 0.0025004195 -0.0324315
0.038646527 -0.047358233 -0.04650665 0.02405463 0.05328469 0.01828976 -0.025694057 0.027711691
0.01134423 0.046902712 -0.013418572 0.026685072 -0.021221554 -0.011467869 0.028565027 -0.0051108855
-0.034697246 -0.060658883 0.021774115 -0.006657256 0.04018896 0.03361996 -0.0028697394 -0.032997824
0.036495734 0.03326453 -0.009793968 0.012808393 -0.019952083 -0.014879912 0.03281678 -0.043612055
0.04335716 -0.029847218 0.018072797 0.060966793 0.040074 0.0009100041 0.06324103 0.05472432
-0.024805425 -0.0549469 -0.026706308 -0.03718574 0.033947308 0.0006827185 -0.024163352 -0.0056036515
0.011693611 -0.004800336 -0.01767341 -0.04040187 0.019514697 0.05461098 -0.016152304 -0.004272745
0.02670591 -0.002436198 0.008371001 0.012429332 0.046719562 -0.017941453 -0.036543727 -0.02968848
-0.017820712 -0.0096805645 -0.020112026 0.010425063 0.0159478 0.052813467 -0.018112889 -0.053017132
0.04071535 -0.009446454 0.041791685 -0.032311894 0.012438712 0.033258345 -0.0007429184 -0.0036225691
0.009855824 -0.0020134053 0.022685638 -0.058718484 -0.043868754 -0.0056307414 0.0672615 0.0023498782
-0.011274123 0.004013737 0.0265503 0.052340474 0.05742618 0.02073006 0.063376985 -0.00477944
0.015992422 -0.031347685 0.027131474 -0.040789258 0.0044212374 0.057503797 -0.0046162894 -0.025784666
-0.018731486 0.04458537 0.013152291 -0.0090641305 0.033870008 -0.0028142545 -0.0062204152 -0.059516814
0.07877347 -0.04977978 -0.012336703 -0.030420695 -0.019226616 0.06815496 0.051355314 -0.023452682
-0.009859755 0.049531132 0.029385524 0.009543392 0.022647621 0.015111889 -0.05166037 -0.00093280606
0.0013105596 0.0036204518 -0.027070137 0.031191908 -0.030390767 -0.027312111 -0.017917022 0.014020653
0.010427087 0.0031632355 -0.02393749 -0.009484186 -0.0072368267 -0.007738403 0.0056561236 -0.014526031
-0.038151547 0.01908172 -0.016679883 0.014526994 0.009069636 0.04052014 0.024828536 -0.036599126
0.004141678 0.00075755327 0.059741843 -0.006639453 -0.0016748431 0.009120077 -0.020190218 0.01032284
-0.009148735 -0.008394412 0.06354344 -0.012052121 -0.019465176 0.027048975 -0.032740742 -0.014356253
-0.05414136 0.05008041 -0.00763255 0.046150323 -0.020614583 0.033467755 0.012409061 0.053447563
0.006375874 0.06409295 0.03331969 -0.0063365917 0.019872522 -0.007961256 0.04638824 0.03065039
-0.04372927 0.025391512 0.041818503 -0.0016076192 0.01919551 -0.01689667 -0.0058888327 0.05090151
0.038018797 0.014232011 0.022758808 0.038718954 0.030302942 0.026431223 0.03603397 0.030208731
0.033892494 -0.003743795 -0.03884656 -0.03540638 0.06264632 0.019520517 -0.0055465596 0.04771287
0.025242107 -0.03306865 0.019412577 0.049141955 -0.025038082 -0.04568184 0.028264442 0.022632755
0.044701457 0.044879343 0.05786321 -0.0014757847 -0.041092042 0.05325017 0.023269922 0.06340867
00000000: 4e66 a0bb 8451 18bd d5a8 c53c 4361 2e3d
00000010: 3b72 fe3b 737f 8ebb 6116 e0bb 381f 8a3c
00000020: 9490 2fbd 56a4 353c cd44 d33b efe0 003d
00000030: 9d0f febc 62c8 b03c f22f 903c c878 3abb
00000040: eaa1 80bd 09e1 863d eead 403b 5beb 4bbc
00000050: 6c1a 1bbc a506 09bd 777e b1bc e97b c63c
00000060: 4067 db3c e24a 383d 806b 9a3d 3c2c 83bc
00000070: 70ea 233d 5ffb 57bc 14de 233b e4d6 04bd
00000080: d24b 1e3d b5fa 41bd c27d 3ebd 370e c53c
00000090: 0c41 5a3d 68d4 953c 587c d2bc a103 e33c
000000a0: 26dd 393c 0f1d 403d 92d9 5bbc a79a da3c
000000b0: d3d8 adbc bbe3 3bbc 3401 ea3c 3779 a7bb
000000c0: b31e 0ebd 7375 78bd a15f b23c 1c25 dabb
000000d0: 2e9d 243d 15b5 093d 3d12 3cbb ba28 07bd
000000e0: 8d7c 153d 6340 083d e176 20bc 4bda 513c
000000f0: 8d72 a3bc e0ca 73bc e36a 063d 8ea2 32bd
00000100: 4797 313d 2782 f4bc 670d 943c 51b8 793d
00000110: a224 243d 578d 6e3a 8384 813d 9c26 603d
00000120: bf34 cbbc 0010 61bd 30c7 dabc 1350 18bd
00000130: 550c 0b3d 77f8 323a 39f2 c5bc d69e b7bb
00000140: 8f96 3f3c 234c 9dbb d4c7 90bc 6e7c 25bd
00000150: 49dd 9f3c c3af 5f3d d651 84bc 6202 8cbb
00000160: 5ac6 da3c 9fa8 1fbb 8626 093c 66a4 4b3c
00000170: 035d 3f3d f4f9 92bc e0ae 15bd 4135 f3bc
00000180: befc 91bc 3b9b 1ebc fac1 a4bc e2cd 2a3c
00000190: f6a4 823c ef52 583d 7b61 94bc 7e28 59bd
000001a0: 24c5 263d 4dc5 1abc c22d 2b3d 7a59 04bd
000001b0: bdcb 4b3c e739 083d 69c0 42ba a068 6dbb
000001c0: 527a 213c 56f3 03bb 3bd7 b93c cb82 70bd
000001d0: b9af 33bd 1582 b8bb 66c0 893d 6a00 1a3b
000001e0: 19b7 38bc ab85 833b 0480 d93c f762 563d
000001f0: b737 6b3d 16d2 a93c cbcb 813d d99c 9cbb
00000200: 8a02 833c 6e66 00bd d342 de3c a312 27bd
00000210: 07e0 903b 1a89 6b3d 3e44 97bb 5d3a d3bc
00000220: c672 99bc 269f 363d b57c 573c b881 14bc
00000230: 47bb 0a3d 5b6f 38bb a0d4 cbbb e7c7 73bd
00000240: fc53 a13d e2e5 4bbd e21f 4abc d234 f9bc
00000250: 2381 9dbc d494 8b3d f359 523d d71f c0bc
00000260: cf8a 21bc 28e1 4a3d e9b9 f03c e35b 1c3c
00000270: 8187 b93c db97 773c d399 53bd 8e87 74ba
00000280: 15c7 ab3a 1a45 6d3b 31c2 ddbc 2c86 ff3c
00000290: 0ff6 f8bc a6bd dfbc b8c6 92bc e2b6 653c
000002a0: 5fd6 2a3c 494e 4f3b 8e18 c4bc 8f63 1bbc
000002b0: e722 edbb 6e92 fdbb 0157 b93b 97fe 6dbc
000002c0: cc44 1cbd 4451 9c3c 40a4 88bc a102 6e3c
000002d0: d098 143c 72f8 253d 3765 cb3c f7e8 15bd
000002e0: eab6 873b 8a96 463a ddb3 743d c58f d9bb
000002f0: 6986 dbba 606c 153c f565 a5bc 2121 293c
00000300: 93e4 15bc b788 09bc 1023 823d 4276 45bc
00000310: 6f75 9fbc d095 dd3c 281b 06bd 7d36 6bbc
00000320: 55c3 5dbd 1e21 4d3d 781a fabb 1f08 3d3d
00000330: eadf a8bc 7c15 093d 604f 4b3c d5eb 5a3d
00000340: b5ec d03b 2a43 833d 3a7a 083d 2fa3 cfbb
00000350: b3cb a23c ee6f 02bc 9801 3e3d 8716 fb3c
00000360: 771d 33bd dc01 d03c e149 2b3d c0b6 d2ba
00000370: e73f 9d3c e36a 8abc 1cf7 c0bb 1a7e 503d
00000380: 99b9 1b3d 612d 693c ae70 ba3c c497 1e3d
00000390: e03d f83c 4b86 d83c 5b98 133d 4d78 f73c
000003a0: dbd2 0a3d 755a 75bb 921d 1fbd 4806 11bd
000003b0: b74c 803d 7ee9 9f3c eabf b5bb 926e 433d
000003c0: 89c8 ce3c fe72 07bd 2007 9f3c 1349 493d
000003d0: aa1c cdbc e21c 3bbd d58a e73c 5468 b93c
000003e0: e018 373d 67d3 373d f901 6d3d 1e6f c1ba
000003f0: 2150 28bd da1c 5a3d 90a0 be3c 68dc 813d

network_body.linear_encoder.seq_layers.0.bias f4 [256]
-0.01784803 0.0019045586 0.0041759904 -0.010724233 0.0015341338 -0.0115634715 -0.0053599263 -0.008037656
0.0033716504 -0.0009162165 0.0072466265 -0.015251186 -0.022538492 0.008616138 0.005287658 0.0008455295
-0.002042965 0.0050380253 -0.003606172 -0.004488283 -0.0088954605 0.0052389125 -0.019357005 0.005894919
-0.0018680724 -0.0024317182 -0.0010958316 0.003757608 0.007461228 -0.0008964323 0.00301327 0.0023258885
-0.0052553234 -0.002695708 0.00107949 -0.0011462831 0.0052016876 0.0018949389 0.0025242849 -0.007817992
0.0027595519 -0.00776808 -0.02679792 0.011845563 -0.032693826 0.004062841 -0.0011101919 -0.0221881
-0.025146121 0.0026996408 0.0069666393 0.002343637 0.0030554582 -0.0019751813 -0.020439096 0.004770884
0.0005997509 0.00019270107 0.00014000005 0.003649354 0.0011269586 -0.017781258 -0.01865174 0.0049114837
-0.0009470049 -0.0029672962 -0.012025623 -0.00016456377 0.008859713 0.006233369 -0.03770297 -0.002925942
7.867535e-05 -0.009915884 0.003903925 -0.004524622 -0.0023310368 -0.0075635565 -0.029113017 -0.006282201
-0.025432333 0.0039762603 0.004600141 -0.004243722 0.0045018205 0.0001790901 0.0070972536 -0.007272409
0.004115963 -0.020729914 0.007375708 -0.0043411385 -0.011480145 0.0019830954 -0.01994402 0.0022308715
-0.013868849 -0.012165592 -0.003554439 0.009669577 0.006281968 0.0029758809 0.0014456314 -0.014121892
-0.00970047 -0.0021723486 -0.005389302 0.00026914844 0.0052813613 -0.0029282707 -0.0048577082 -0.0049221828
-0.002293286 0.006790584 0.011277722 -0.008928031 -0.003708069 0.00686714 -0.023502422 -0.00030138358
-0.004129715 0.006130023 -0.010444319 -0.000887375 0.0004740128 0.0020913957 0.002557909 -0.0020733536
-0.0030297674 0.002300986 -0.006284705 -0.00078745536 0.0008339452 0.002837711 0.006306676 0.0021029955
-0.0052516586 0.0063212668 -7.094686e-05 0.0019212221 -0.002287957 -0.000694693 -0.0007939837 -0.01817064
-0.014290649 0.0012230405 0.005410774 -0.014262384 -0.0011907478 -0.0004675012 -0.026213756 0.008033587
-0.007235765 0.007867965 -0.0049064006 -0.015436046 0.00049152796 -0.00040540093 -0.001121721 0.0051737735
0.0008883135 -0.009411302 0.0058710435 -0.0033387463 -0.0062537114 0.0037484325 0.0037127181 0.00041291336
-0.045298435 -0.02094682 -0.025084335 -0.014697708 0.0004350949 -0.035979193 0.003035047 0.010099257
0.008453213 0.0064032697 -0.018604832 -0.0054685916 0.005504409 0.0045528384 0.0010857448 -0.025193729
0.004741011 -0.01700395 -0.013162446 0.008320875 -0.016012587 -0.0058107157 0.0046588583 0.0009786305
0.0040722685 -0.013590078 -0.0042465236 -0.005396782 0.005241235 -0.012251991 0.0006660222 -0.008766789
-0.0060219453 0.005899976 0.0011856154 -0.0030236274 0.0036083176 -0.016226506 -0.01896876 -0.0029988203
-0.013873891 -0.006913634 -0.009740846 -0.0019113275 -0.0020845297 -0.027482675 0.0014183542 0.0010359451
-0.0033430383 -0.024831712 0.0022517308 -0.043727256 -0.006336709 0.004155101 -0.0026007562 -0.038771413
-0.003073 -0.0005205381 -0.020705028 -0.003300625 0.0015071705 -0.03843927 0.003994305 -0.0054335506
0.008842439 0.001580197 0.0027249143 0.0014812698 -0.024013652 -0.006646613 -0.00531107 -0.0032642214
-0.014168571 0.0024517402 -0.01038497 -0.0023586228 0.0014320799 -0.0024380565 -0.010273111 -0.011054388
0.005830039 -0.014638955 0.008298295 -0.0035508752 -0.0034233674 -0.014264211 -0.0028554266 -0.032653093
00000000: 0836 92bc 62a2 f93a bfd6 883b b2b4 2fbc
00000010: fd14 c93a b774 3dbc 52a2 afbb 5fb0 03bc
00000020: e8f6 5c3b 402e 70ba 1c75 ed3b 1ce0 79bc
00000030: a5a2 b8bc b42a 0d3c 1744 ad3b 86a6 5d3a
00000040: 44e3 05bb 0516 a53b 8755 6cbb 7212 93bb
00000050: 44be 11bc 2fab ab3b 9592 9ebc 2a2a c13b
00000060: 1cda f4ba 765d 1fbb 02a2 8fba 3342 763b
00000070: 517d f43b 8efe 6aba 487a 453b ef6d 183b
00000080: d934 acbb 7aaa 30bb ac7d 8d3a e13e 96ba
00000090: eb72 aa3b 995f f83a 796e 253b 0917 00bc
000000a0: 99d9 343b 618b febb 5087 dbbc e413 423c
000000b0: f6e9 05bd 9521 853b dc83 91ba d1c3 b5bc
000000c0: 3dff cdbc 75ec 303b 6848 e43b b497 193b
000000d0: 153e 483b 0b72 01bb e46f a7bc 1355 9c3b
000000e0: 9a38 1d3a cd0f 4a39 facc 1239 002a 6f3b
000000f0: 75b6 933a 00aa 91bc 89cb 98bc 83f0 a03b
00000100: 6c40 78ba f876 42bb 1e07 45bc c08e 2cb9
00000110: 5428 113c 4a41 cc3b 6e6e 1abd 29c1 3fbb
00000120: 82fe a438 3b76 22bc fed8 7f3b 4843 94bb
00000130: 4fc4 18bb b6d7 f7bb 6c7e eebc ecda cdbb
00000140: 7857 d0bc 4a4b 823b c8bc 963b ec0e 8bbb
00000150: 0284 933b 22ca 3b39 1490 e83b 634d eebb
00000160: 33df 863b c8d1 a9bc ecaf f13b 1c40 8ebb
00000170: 3817 3cbc d2f6 013b a461 a3bc d033 123b
00000180: 2b3a 63bc 3152 47bc 97f1 68bb 256d 1e3c
00000190: f8d8 cd3b ff06 433b 577b bd3a 825f 67bc
000001a0: b8ee 1ebc f65d 0ebb be98 b0bb 7e1c 8d39
000001b0: 450f ad3b 3be8 3fbb 692d 9fbb 434a a1bb
000001c0: f44a 16bb 8c83 de3b 32c6 383c e046 12bc
000001d0: 1303 73bb bf05 e13b 2788 c0bc 0503 9eb9
000001e0: 8f52 87bb 5cde c83b a61e 2bbc ba9e 68ba
000001f0: ec84 f839 cc0f 093b 98a2 273b 1ae1 07bb
00000200: 108f 46bb 24cc 163b edef cdbb 3c6d 4eba
00000210: 1d9d 5a3a e4f8 393b 3ca8 ce3b 69d2 093b
00000220: 1b16 acbb a122 cf3b 4ec9 94b8 84d1 fb3a
00000230: 8cf1 15bb 0f1c 36ba 5823 50ba 98da 94bc
00000240: 5423 6abc 6e4e a03a dd4c b13b c6ac 69bc
00000250: de12 9cba f31a f5b9 3bbe d6bc 4e9f 033c
00000260: ff19 edbb a3e8 003c dfc5 a0bb 78e7 7cbc
00000270: e2d9 003a fe8b d4b9 b606 93ba c288 a93b
00000280: b6dd 683a dd31 1abc e261 c03b dece 5abb
00000290: efeb ccbb 43a8 753b 1351 733b 4b7c d839
000002a0: da8a 39bd aa98 abbc aa7d cdbc a8ce 70bc
000002b0: 731d e439 eb5e 13bd a4e7 463b 5b77 253c
000002c0: 587f 0a3c 85d2 d13b 2969 98bc df31 b3bb
000002d0: 545e b43b fa2f 953b 8d4f 8e3a 1463 cebc
000002e0: 7c5a 9b3b de4b 8bbc 4da7 57bc 4754 083c
000002f0: d42c 83bc d167 bebb 56a9 983b 6445 803a
00000300: aa70 853b eba8 5ebc 6c26 8bbb 7dd7 b0bb
00000310: aabe ab3b 93bc 48bc fe97 2e3a 94a2 0fbc
00000320: bd53 c5bb 9654 c13b a766 9b3a 0d28 46bb
00000330: 8679 6c3b 73ed 84bc 5f64 9bbc db87 44bb
00000340: 514f 63bc c48b e2bb 1298 1fbc 8285 faba
00000350: 9b9c 08bb 5923 e1bc 12e8 b93a 8dc8 873a
00000360: e016 5bbb e06b cbbc c691 133b 5a1b 33bd
00000370: 2ba4 cfbb 8327 883b 7371 2abb c6ce 1ebd
00000380: 6364 49bb b874 08ba 979d a9bc 4c4f 58bb
00000390: 408c c53a 7f72 1dbd a9e2 823b ed0b b2bb
000003a0: e1df 103c 9d1e cf3a 7a94 323b 2b27 c23a
000003b0: 47b8 c4bc d5cb d9bb 7c08 aebb 8cec 55bb
000003c0: 4b23 68bc 60ad 203b b925 2abc 2093 1abb
000003d0: a1b4 bb3a cdc7 1fbb 8d50 28bc 771d 35bc
000003e0: e909 bf3b 3ad8 6fbc 92f5 073c cdb5 68bb
000003f0: 935a 60bb 70b4 69bc 1c22 3bbb 40bf 05bd

network_body.linear_encoder.seq_layers.0.weight f4 [256, 416]
-0.08856003 -0.02695549 -0.032615654 -0.00077012903 0.011188229 0.03313458 -0.113888726 -0.0116349785
-0.08196938 -0.021767778 0.0053080637 0.046237305 0.032938372 -0.031259317 -0.031989787 -0.027307319
-0.042058963 0.008108359 0.018059101 -0.038801543 0.023212487 0.053869743 -0.040787812 -0.06842257
-0.0071171313 -0.02289199 0.10431061 -0.013534717 0.028341174 -0.057015046 0.00787976 0.026044888
-0.0036429383 -0.04579868 0.047200125 -0.041205525 -0.058906283 -0.055459727 0.08180198 0.059992116
-0.0022893525 -0.017688252 0.06336917 0.004619202 -0.009265361 0.02835293 -0.026640315 0.05950495
-0.05400593 0.12593228 -0.048109204 0.04864563 -0.05652618 -0.0068261013 0.049307227 0.04044487
0.026136909 -0.10076713 0.010321088 0.004080461 -0.03001739 0.0081703765 -0.05317893 0.009514613
-0.0009832295 0.031506997 -0.09361908 -0.021988789 -0.051512063 0.07019478 -0.022753304 -0.012537328
0.0079890415 0.05357906 0.02048148 0.048033595 0.07791667 0.05196862 0.0033602586 0.048146438
-0.06418714 -0.03254436 -0.004922285 0.02196289 -0.0023939142 0.028507823 0.056241356 0.051768363
-0.010778912 -0.097440846 -0.057912543 0.035972122 0.02580211 -0.014088005 -0.056095406 0.016941939
-0.016765263 -0.043053918 0.010321886 -0.06901946 -0.0065000635 -0.055287637 -0.0132061085 0.017905323
0.016651262 0.009278851 0.0021653306 0.036843263 -0.019925155 0.097781144 -0.03238387 0.059690103
0.03166144 -0.040949613 0.041978955 -0.043869898 -0.03044368 -0.00034767875 0.011368716 -0.019865667
-0.002391991 -0.008727611 -0.015230453 -0.011932652 -0.020253401 0.01380894 0.053900793 0.059781324
-0.04288001 -0.017325427 -0.0034040913 -0.03456379 0.026228694 -0.038493376 -0.006287706 0.0566306
-0.02278671 0.010675019 0.039246783 -0.015906379 -0.020618767 -0.042138655 0.09754395 0.009797582
-0.079859 -0.075215794 -0.022585364 0.03122366 0.04217103 -0.009830158 0.009144032 -0.01998691
0.08250597 0.07196477 -0.015021466 -0.053739533 0.008672258 0.089333 -0.002841697 0.07431697
-0.06972651 -0.07132446 0.039493244 0.03838327 -0.018847592 0.011162781 -0.046397142 -0.013885671
0.05546799 -0.01707976 0.03731305 -0.06008345 -0.020531934 -0.028686078 -0.004197626 0.05906074
0.012931464 -0.0611309 -0.0006632307 0.004295823 -0.068370305 0.036602993 0.046459373 0.008314799
-0.049266778 -0.029576417 -0.010896885 0.039204538 -0.15773432 0.034065437 -0.03955326 -0.020046521
-0.008020099 0.014611173 -0.053616296 -0.032681566 -0.1105124 0.08101578 0.018661218 -0.08120296
-0.05699893 0.011629482 -0.08545033 -0.002425498 -0.055465795 -0.0066801487 0.013184768 -0.040590663
0.0446841 -0.007931459 -0.024420764 0.034715537 0.021634009 0.08214201 -0.017703192 -0.017326111
0.0546838 -0.069077946 0.0805676 -0.025830239 -0.040653493 0.07310546 0.04550502 0.044699587
0.019240899 -0.017394729 0.052309547 -0.001464027 -0.010571834 0.079808086 -0.014936837 0.070206776
0.06751155 -0.060258903 0.046782214 0.0067248573 -0.04490527 0.004925642 -0.005197517 -0.03650534
0.02383894 0.031054523 -0.046806406 0.032119833 -0.012694072 -0.023865532 0.038740974 0.05209752
-0.065388806 -0.06742407 0.09999268 -0.07852388 0.02151953 -0.07666618 -0.040164858 -0.02184048
00000000: f65e b5bd c2d1 dcbc fe97 05bd 7ce2 49ba
00000010: d54e 373c 20b8 073d 7e3e e9bd a3a0 3ebc
00000020: 90df a7bd 5752 b2bc 44ef ad3b 5463 3d3d
00000030: 63ea 063d c509 00bd b907 03bd 99b3 dfbc
00000040: 0546 2cbd ecd8 043c aef0 933c 5eee 1ebd
00000050: 1d28 be3c 85a6 5c3d 1f11 27bd 2221 8cbd
00000060: d336 e9bb fc87 bbbc cda0 d53d b8c0 5dbc
00000070: c02b e83c 9c88 69bd 1c1a 013c 175c d53c
00000080: 5dbe 6ebb 6697 3bbd eb54 413d 20c7 28bd
00000090: b747 71bd bd29 63bd cc87 a73d 4bba 753d
000000a0: f608 16bb f4e6 90bc b2c7 813d ad5c 973b
000000b0: becd 17bc 6744 e83c ca3c dabc 76bb 733d
000000c0: 5235 5dbd 64f4 003e 280e 45bd a440 473d
000000d0: ff87 67bd 7dad dfbb 60f6 493d 85a9 253d
000000e0: 121d d63c ff5e cebd c819 293c 63b5 853b
000000f0: 08e7 f5bc 0bdd 053c 26d2 59bd 2ee3 1b3c
00000100: b5df 80ba 7b0d 013d 5cbb bfbd d521 b4bc
00000110: 50fe 52bd 48c2 8f3d 2365 babc 5d69 4dbc
00000120: 78e4 023c b775 5b3d c7c8 a73c e0be 443d
00000130: c692 9f3d 0cdd 543d c937 5c3b 3335 453d
00000140: 8c74 83bd 3c4d 05bd 1f4b a1bb 85eb b33c
00000150: 37e3 1cbb 3d89 e93c 565d 663d 100b 543d
00000160: 099a 30bc 118f c7bd b435 6dbd 8157 133d
00000170: f25e d33c 60d1 66bc 4cc4 65bd d2c9 8a3c
00000180: 4e57 89bc 4e59 30bd 211d 293c 135a 8dbd
00000190: 7cfe d4bb 4a75 62bd 6f5e 58bc 2fae 923c
000001a0: 3a68 883c 5206 183c 38e8 0d3b f6e8 163d
000001b0: 143a a3bc 7b41 c83d f3a4 04bd 9c7d 743d
000001c0: 6daf 013d c8ba 27bd 20f2 2b3d ecb0 33bd
000001d0: 0665 f9bc a748 b6b9 da43 3a3c 53bd a2bc
000001e0: f3c2 1cbb 41fe 0ebc 2689 79bc 2c81 43bc
000001f0: 76ea a5bc e43e 623c 14c7 5c3d 43dd 743d
00000200: f3a2 2fbd 0eee 8dbc 2d17 5fbb c392 0dbd
00000210: 8fdd d63c 3bab 1dbd 1a09 cebb 7df5 673d
00000220: 32ab babc 46e6 2e3c 3cc1 203d 184e 82bc
00000230: b0e8 a8bc 9599 2cbd 1fc5 c73d 0a86 203c
00000240: 1e8d a3bd bd0a 9abd f104 b9bc c3c8 ff3c
00000250: 88bb 2c3d ac0e 21bc dad0 153c 97bb a3bc
00000260: e4f8 a83d 4462 933d 981c 76bc fc1d 5cbd
00000270: 1616 0e3c 38f4 b63d c43b 3abb 7f33 983d
00000280: c6cc 8ebd 8f12 92bd abc3 213d c737 1d3d
00000290: 4466 9abc 19e4 363c ee0a 3ebd ba80 63bc
000002a0: 6732 633d daea 8bbc 92d5 183d 101a 76bd
000002b0: 9632 a8bc 11ff eabc 3d8c 89bb ade9 713d
000002c0: 7ede 533c 6564 7abd a9dc 2dba fac3 8c3b
000002d0: bb05 8cbd 05ed 153d 2f4c 3e3d cb3a 083c
000002e0: f6cb 49bd 3e4a f2bc d988 32bc f094 203d
000002f0: 1b85 21be 3388 0b3d 9902 22bd 9a38 a4bc
00000300: bc66 03bc b463 6f3c c39c 5bbd 1bdd 05bd
00000310: 5354 e2bd 9aeb a53d 69df 983c bd4d a6bd
00000320: b677 69bd 9589 3e3c 9500 afbd 1bf5 1ebb
00000330: 1a30 63bd 26e5 dabb ed04 583c 6542 26bd
00000340: ad06 373d f3f2 01bc 0e0e c8bc e131 0e3d
00000350: ce39 b13c 123a a83d 4906 91bc 7def 8dbc
00000360: 1ffc 5f3d bd78 8dbd a000 a53d f099 d3bc
00000370: 4784 26bd 51b8 953d 7963 3a3d ea16 373d
00000380: 179f 9d3c 647f 8ebc 8942 563d 98e4 bfba
00000390: 7c35 2dbc 6c72 a33d a3b9 74bc 92c8 8f3d
000003a0: 7f43 8a3d 0ad2 76bd b59e 3f3d 315c dc3b
000003b0: 97ee 37bd 4867 a13b ef4f aabb a086 15bd
000003c0: e149 c33c 0e66 fe3c 13b8 3fbd 1690 033d
000003d0: ccfa 4fbc a681 c3bc dbae 1e3d 3664 553d
000003e0: 91ea 85bd a115 8abd f6c8 cc3d 21d1 a0bd
000003f0: ba49 b03c 2803 9dbd e883 24bd ceea b2bc

network_body.linear_encoder.seq_layers.2.bias f4 [256]
-0.0017847489 0.0013043279 0.0016403787 -0.004436641 0.00024163589 -0.00026712328 -0.0048151817 -0.029982766
0.0035478051 -0.008454954 0.014737278 -0.01895598 0.015246843 -0.002569789 -0.029660096 -0.01305154
0.014636578 0.0006006654 -0.009415713 0.0077007744 0.0103795435 0.010584794 -0.0039542783 -0.023946248
0.0049209967 0.0018979947 -0.024589548 0.0038881917 -0.020972075 1.2027136e-05 -0.006659219 -0.001260775
-0.008377496 0.012957271 0.014221127 -0.018836444 -0.0027303314 -0.016618859 -0.00045626977 -0.023637941
-0.00012699656 0.015608196 -0.0016329915 -0.028410565 -0.005217595 -0.0009875965 -0.008950467 -0.0022228248
0.0122228535 0.01792226 0.0013913234 0.015717888 0.006909538 -0.012465494 0.012061806 0.00667676
-0.023072762 -0.011018013 0.0060965708 -0.006080951 0.0073033297 -0.0004697571 -0.010252227 -0.0133053
-0.0038640965 0.01128086 -0.0024110854 -0.0017859372 -0.00075431855 -0.0072709597 -0.0038552228 0.010102192
0.0046184813 0.026476042 -0.0013907327 -0.0045851516 -0.024197126 0.0032912684 0.00092169346 -0.0054418813
-0.005415872 -0.0051308596 0.014609115 0.0038043265 -0.012754797 -0.0053047 0.0006562853 0.00853864
0.003067167 -0.009757607 -0.022749914 -0.007960479 -0.016585777 -0.002570264 0.023039218 -0.003150168
0.004355334 0.0056733135 0.005622347 -0.031826697 2.4533501e-05 -0.020453092 0.01483657 0.003873678
-0.02774374 0.019361079 -0.0016736707 0.010636443 -0.023306997 -0.006223381 -0.00825714 0.001527615
0.0021723066 -0.0006554202 -0.008174886 0.020394413 -0.0071406807 0.0030076646 -0.0107295895 -0.012608848
-0.010569153 -0.011246303 -0.01042719 -0.02091715 -0.0032510108 -0.0063810362 -0.016813787 0.0012761916
0.019922124 0.017322993 -0.016560614 0.010208375 -0.012514304 -0.023781143 0.010621932 0.015755476
0.0041797473 -0.00799652 0.00039693367 0.0011851044 -0.024267664 0.018073332 -0.00622186 0.025556818
0.0022789703 0.017962499 0.013636801 -0.001984575 0.0010570602 -0.002228936 -0.008111143 0.00789068
0.006666976 -0.0137241585 -0.017046912 0.005063558 -0.01934047 -0.010905977 0.0075020706 -0.001243394
0.008056301 -0.0036612642 0.0010936969 -0.011300291 0.011400782 0.006689348 0.020397153 -0.012500916
0.015189982 -0.0009966317 0.006247789 -0.010821416 -0.016944021 -0.0003696872 0.010273883 -0.009183874
0.007558595 -0.014863045 0.003116971 -0.014880425 0.009930294 -0.0063045206 -0.021162672 0.020809285
-0.00092571817 -0.0037434911 0.0069826716 -0.016533257 -0.007836546 5.6775327e-05 0.0027477616 0.004407567
0.0143134575 -0.0071145217 -0.0013757889 -0.002923667 -0.0047745584 -0.04518496 0.0155176725 0.006097138
0.023693675 -0.0037756904 -0.0051600835 -0.024625177 0.01892498 -0.0008615362 -0.0023542682 -0.0025071257
-0.0030678122 0.0012199972 -0.009970438 0.003216992 0.0046363794 0.010310027 -0.022301257 -0.01256531
0.012926805 -0.00029339833 -0.015781352 -0.0084023075 -0.008817444 0.006667243 -0.005173225 -0.001486971
-0.026071465 0.0030317216 -0.026278641 -0.0171507 -0.012011673 -0.009658157 -0.015013413 0.0015483177
-0.025637826 0.02131424 0.0072274175 0.008857101 -0.0001780539 -0.0152588375 0.0097889975 -0.023530371
-0.0008403324 -0.0071930853 -0.027596729 -0.0020037706 0.0037136597 0.021341493 0.0022335572 0.0018488033
-0.01303473 -0.020172302 -0.0028308223 0.012378438 0.0048938394 -0.002574569 -0.011450449 0.0039642346
00000000: 3cee e9ba fbf5 aa3a fa01 d73a 3e61 91bb
00000010: a45f 7d39 ae0c 8cb9 acc8 9dbb 6b9e f5bc
00000020: 4b82 683b a686 0abc a074 713c 9249 9bbc
00000030: e5cd 793c e869 28bb bbf9 f2bc 20d6 55bc
00000040: 42ce 6f3c f975 1d3a 5d44 1abc c756 fc3b
00000050: f60e 2a3c d86b 2d3c e492 81bb ec2a c4bc
00000060: 5040 a13b 22c6 f83a 0570 c9bc 08d1 7e3b
00000070: a1cd abbc 28c8 4937 9435 dabb 9740 a5ba
00000080: c441 09bc bc4a 543c bbff 683c e34e 9abc
00000090: 5cef 32bb 4624 88bc 7e37 efb9 5ba4 c1bc
000000a0: 612a 05b9 85b9 7f3c 1a0a d6ba 46bd e8bc
000000b0: 5cf8 aabb 3d72 81ba fba4 12bc d0ac 11bb
000000c0: 5d42 483c b4d1 923c 115d b63a cdc2 803c
000000d0: 6869 e23b 123c 4cbc e29e 453c b9c8 da3b
000000e0: 1703 bdbc e584 34bc bec5 c73b b742 c7bb
000000f0: c550 ef3b bb49 f6b9 f5f8 27bc 79fe 59bc
00000100: c83c 7dbb 5bd3 383c 4d03 1ebb 1c16 eaba
00000110: 76bd 45ba 3b41 eebb e8a7 7cbb aa83 253c
00000120: a156 973b 49e4 d83c 3f49 b6ba 0a3f 96bb
00000130: 0d39 c6bc 52b2 573b cd9d 713a cf51 b2bb
00000140: a177 b1bb c520 a8bb 125b 6f3c 0252 793b
00000150: 7ff9 50bc 0dd3 adbb 900a 2c3a a7e5 0b3c
00000160: 8602 493b 5fde 1fbc 075e babc ab6c 02bc
00000170: e5de 87bc e071 28bb bebc bc3c 0d73 4ebb
00000180: 31b7 8e3b 34e7 b93b aa3b b83b b65c 02bd
00000190: 4bcd cd37 3e8d a7bc 1615 733c 88dd 7d3b
000001a0: d746 e3bc 209b 9e3c 125f dbba 7a44 2e3c
000001b0: 51ee bebc 81ed cbbb f548 07bc 413a c83a
000001c0: 425d 0e3b 81d0 2bba f5ef 05bc 2f12 a73c
000001d0: 5ffc e9bb 3d1c 453b 29cb 2fbc 5795 4ebc
000001e0: 3e2a 2dbc 6a42 38bc ced6 2abc 715a abbc
000001f0: e90e 55bb 0318 d1bb 11bd 89bc e245 a73a
00000200: b933 a33c f3e8 8d3c 20aa 87bc 0741 273c
00000210: cc08 4dbc acd0 c2bc 9d07 2e3c a111 813c
00000220: 43f6 883b d603 03bc 891b d039 8155 9b3a
00000230: fbcc c6bc 860e 943c bfe0 cbbb 885c d13c
00000240: c75a 153b 1726 933c e46c 5f3c a50f 02bb
00000250: 0e8d 8a3a 5713 12bb 99e4 04bc e947 013c
00000260: a676 da3b 4bdb 60bc f7a5 8bbc 34ec a53b
00000270: e86f 9ebc fcae 32bc eed3 f53b 61f9 a2ba
00000280: 93fe 033c d2f1 6fbb 615a 8f3a db24 39bc
00000290: 58ca 3a3c 5132 db3b ee17 a73c a4d0 4cbc
000002a0: 67df 783c 69a1 82ba 41ba cc3b 4f4c 31bc
000002b0: 30ce 8abc 93d2 c1b9 ca53 283c f677 16bc
000002c0: 17ae f73b 2184 73bc 1946 4c3b 07cd 73bc
000002d0: acb2 223c 2796 cebb 575d adbc 3c78 aa3c
000002e0: e5ab 72ba 5c55 75bb e5ce e43b c170 87bc
000002f0: db64 00bc 0b22 6e38 ca13 343b 5a6d 903b
00000300: fe82 6a3c ef20 e9bb d153 b4ba fe9a 3fbb
00000310: e673 9cbb dd13 39bd d63d 7e3c 80ca c73b
00000320: 3d19 c23c 9371 77bb eb15 a9bb bdba c9bc
00000330: 8f08 9b3c b7d8 61ba 114a 1abb 974e 24bb
00000340: 590d 49bb 50e8 9f3a 0c5b 23bc 2bd4 523b
00000350: c5ec 973b 63eb 283c 20b1 b6bc bbde 4dbc
00000360: f3ca 533c 42d3 99b9 e547 81bc d5a9 09bc
00000370: 0a77 10bc e378 da3b 2884 a9bb 78e6 c2ba
00000380: d393 d5bc d9af 463b 4e46 d7bc a07f 8cbc
00000390: 9ccc 44bc 3f3d 1ebc d1fa 75bc ecf0 ca3a
000003a0: 6b06 d2bc 339b ae3c f9d3 ec3b 601d 113c
000003b0: fbb3 3ab9 3400 7abc 0862 203c c4c2 c0bc
000003c0: c149 5cba f9b3 ebbb 8912 e2bc b151 03bb
000003d0: df60 733b 5bd4 ae3c df60 123b 8b53 f23a
000003e0: 9f8f 55bc 6240 a5bc 5185 39bb efce 4a3c
000003f0: 805c a03b 1aba 28bb aa9a 3bbc 69e6 813b

network_body.linear_encoder.seq_layers.2.weight f4 [256, 256]
-0.0791281 -0.0066461707 -0.06264906 -0.04605456 0.030373255 0.00054011605 0.04334131 -0.106652275
0.043891277 -0.05327058 -0.023543553 -0.0490426 -0.020780038 0.05146046 -0.08363624 -0.103359036
0.044376727 0.05684099 0.021585535 0.05643698 -0.08085456 0.022581981 -0.026530508 0.016016677
0.030784776 -0.05264221 0.01587479 0.01888732 0.055046022 -0.026960906 0.06656466 0.024681231
0.055083603 -0.09733083 -0.018014567 -0.03376231 -0.15127222 -0.039118983 0.05476633 -0.059456658
0.1424205 0.08042404 -0.027329203 0.0086192945 0.03929841 -0.06343741 0.018002274 -0.028111968
0.11765277 0.016775139 0.020140514 0.021827256 0.04975679 0.063023806 0.0332223 0.009319914
-0.017853893 0.008263914 -0.052389227 -0.052481007 -0.05481522 -0.06758492 0.022603335 0.06068704
-0.079392 0.05923746 0.007978009 0.004561886 -0.10262549 0.0051355283 0.02510553 0.102351725
-0.045459166 0.008953118 0.01869412 -0.020612262 -0.044001676 -0.105014354 0.008988138 -0.0023357705
-0.033719163 0.027901495 -0.010011569 0.0039338134 -0.041096654 -0.019610908 -0.0463826 -0.11413575
0.114242814 -0.022431344 0.06850433 0.058048606 -0.1320482 0.010566454 -0.06634064 -0.09195446
-0.04690904 -0.094213866 0.090950005 0.067922235 -0.017772837 -0.003961799 -0.14107701 0.057127483
-0.06325557 0.02213856 -0.046239987 -0.005771083 0.005967855 0.07514589 -0.062342912 -0.09119778
-0.05638498 0.014547564 -0.0019785836 0.026069093 0.004129696 0.013506296 -0.0028284916 -0.09677809
-0.070346065 -0.022842795 -0.01279583 0.10109026 -0.018574527 0.07318382 -0.023560628 -0.11956077
-0.0902097 -0.017828537 -0.05232862 -0.06029636 -0.008282603 0.047065116 0.056316808 0.054872807
0.052816104 0.0024351745 -0.01988408 0.0447245 -0.010534572 0.041826166 -0.042597976 -0.11443258
-0.08875779 -0.008283614 0.041997965 0.062607214 -0.069584295 -0.1474896 -0.08287014 -0.033050675
0.046587937 -0.07207187 -0.035079576 0.0409719 0.003009183 0.0569248 -0.020412268 -0.060719598
0.054226037 -0.01597905 0.013659776 0.001381124 -0.029791027 0.043826923 -0.023922311 -0.09797589
0.07416266 -0.06202014 0.041318968 -0.010676856 0.058495443 -0.009373489 0.06538314 0.047710355
0.077169426 0.0053872825 -0.024741434 -0.08311362 0.059019953 0.10993156 -0.04189979 0.0322987
0.035907082 -0.020682685 -0.06406634 0.03903757 -0.06214072 -0.13408324 -0.0714852 0.05603745
-0.030071013 -0.013950749 0.024128664 -0.066176236 0.013397374 0.047118694 0.060105342 0.011648841
0.08271813 -0.023631962 -0.015872184 0.053410925 0.07409135 -0.023384431 0.05950561 -0.14580522
0.024053348 -0.11782662 -0.1495311 0.06876856 -0.07536513 0.07852011 -0.030120512 -0.10495567
-0.027561951 -0.058480866 0.10006 0.19629699 0.04177365 -0.041085567 -0.07218228 -0.12595719
-0.030131912 0.06924929 -0.029615562 -0.076935835 -0.1465019 -0.05331838 -0.049253073 -0.030213147
0.056486152 -0.058962498 0.11827947 -0.008874703 0.0079868 -0.0047688163 -0.017506149 0.06317223
-0.00426976 -0.08087482 0.056827065 0.07574516 -0.112382226 0.15317823 0.04226835 -0.0143995825
0.041742228 -0.016207715 0.0051917704 0.051033948 -0.04553973 -0.09181769 -0.07836206 -0.0017715021
00000000: ea0d a2bd 1fc8 d9bb 264e 80bd b5a3 3cbd
00000010: 55d1 f83c 9396 0d3a a886 313d 826c dabd
00000020: 57c7 333d 4032 5abd 69de c0bc e5e0 48bd
00000030: e63a aabc 34c8 523d 7a49 abbd e7ad d3bd
00000040: 5fc4 353d 19d2 683d 26d4 b03c 762a 673d
00000050: 1397 a5bd d9fd b83c 8256 d9bc 6835 833c
00000060: 5b30 fc3c 5c9f 57bd d90b 823c 95b9 9a3c
00000070: f077 613d 1edd dcbc 0d53 883d 4b30 ca3c
00000080: 589f 613d 6355 c7bd 4993 93bc 594a 0abd
00000090: 1be7 1abe 3a3b 20bd a952 603d d388 73bd
000000a0: aed6 113e 5cb5 a43d 7ee1 dfbc f137 0d3c
000000b0: 5ff7 203d 79eb 81bd 8179 933c 124b e6bc
000000c0: eff3 f03d 046c 893c b8fd a43c 13cf b23c
000000d0: c7cd 4b3d a012 813d 1b14 083d 8db2 183c
000000e0: 5442 92bc 5e65 073c 1696 56bd 53f6 56bd
000000f0: ed85 60bd f669 8abd a12a b93c f992 783d
00000100: 4698 a2bd fba2 723d 32b6 023c e07b 953b
00000110: 502d d2bd ef47 a83b 1daa cd3c c89d d13d
00000120: 6433 3abd 19b0 123c 6924 993c 0cdb a8bc
00000130: 1a3b 34bd c411 d7bd fc42 133c ba13 19bb
00000140: 1b1d 0abd ad91 e43c 9007 24bc 38e7 803b
00000150: f754 28bd 0ea7 a0bc aefb 3dbd 01c0 e9bd
00000160: 23f8 e93d f0c1 b7bc 004c 8c3d 60c4 6d3d
00000170: a537 07be ec1e 2d3c 9add 87bd 9f52 bcbd
00000180: b223 40bd 33f3 c0bd ff43 ba3d d01a 8b3d
00000190: 5798 91bc fbd1 81bb 7e76 10be 82fe 693d
000001a0: 238c 81bd ed5b b53c 2466 3dbd 5a1b bdbb
000001b0: ff8d c33b 17e6 993d 485b 7fbd e7c5 babd
000001c0: f0f3 66bd e858 6e3c 20ab 01bb da8e d53c
000001d0: 6752 873b 8349 5d3c 375e 39bb 9733 c6bd
000001e0: 9911 90bd d020 bbbc 9aa5 51bc 6908 cf3d
000001f0: 9b29 98bc 66e1 953d 3802 c1bc 47dc f4bd
00000200: ddbf b8bd 270d 92bc 8956 56bd 51f9 76bd
00000210: c1b3 07bc 5ac7 403d 74ac 663d 4fc2 603d
00000220: b355 583d 7397 1f3b f0e3 a2bc 0a31 373d
00000230: 3399 2cbc ea51 2b3d 377b 2ebd a15b eabd
00000240: a5c6 b5bd ffb7 07bc 0f06 2c3d 3638 803d
00000250: 3682 8ebd 8407 17be d2b7 a9bd 2560 07bd
00000260: fed2 3e3d 6b9a 93bd 9aaf 0fbd 27d2 273d
00000270: b735 453b fb29 693d a137 a7bc 1db5 78bd
00000280: 1f1c 5e3d 7fe6 82bc 41cd 5f3c d506 b53a
00000290: 500c f4bc dc83 333d b9f8 c3bc 95a7 c8bd
000002a0: 98e2 973d d508 7ebd 143e 293d fbed 2ebc
000002b0: eb98 6f3d 4393 19bc 99e7 853d ef6b 433d
000002c0: 010b 9e3d cd87 b03b 8cae cabc 7937 aabd
000002d0: e8be 713d cc23 e13d 1d9f 2bbd a44b 043d
000002e0: 4e13 133d bc6e a9bc 3735 83bd dce5 1f3d
000002f0: 4587 7ebd 1e4d 09be d566 92bd 8687 653d
00000300: 7c57 f6bc af91 64bc 7aa9 c53c 6887 87bd
00000310: a980 5b3c 88ff 403d 0531 763d c8da 3e3c
00000320: 1f68 a93d d197 c1bc 6206 82bc 6ac5 5a3d
00000330: 35bd 973d b590 bfbc 28bc 733d f74d 15be
00000340: 870b c53c 154f f1bd ae1e 19be 88d6 8c3d
00000350: 0959 9abd 27cf a03d 4bbf f6bc 00f3 d6bd
00000360: 9ac9 e1bc a289 6fbd 42ec cc3d 1402 493e
00000370: d91a 2b3d 5749 28bd 4ed4 93bd ecfa 00be
00000380: 33d7 f6bc 92d2 8d3d 569c f2bc 8990 9dbd
00000390: 9804 16be 6064 5abd 97bd 49bd 9081 f7bc
000003a0: 065e 673d a982 71bd 823c f23d 3467 11bc
000003b0: 11db 023c bb43 9cbb 0e69 8fbc 7160 813d
000003c0: 58e9 8bbb b3a1 a5bd 7fc3 683d 4720 9b3d
000003d0: a728 e6bd c1da 1c3e 9421 2d3d 3aec 6bbc
000003e0: e6f9 2a3d 0bc6 84bc ba1f aa3b f908 513d
000003f0: de87 3abd ea0a bcbd 4a7c a0bd bf31 e8ba
