config/results/Entry_reward01/PathFollowing/PathFollowing-7999873.onnx (onnx, 695646 bytes, 7 tensors)

action_model._continuous_distribution.log_sigma f4 [1, 3]
000000 53 88 95 bb 5e 64 61 bd 0c 30 df 3d
       -0.0045633703 -0.05502736 0.10897836

action_model._continuous_distribution.mu.bias f4 [3]
000000 12 d8 01 bd 5a f1 83 3b ad 42 6d bc
       -0.0317002 0.004026574 -0.014481229

action_model._continuous_distribution.mu.weight f4 [3, 256]
000000 c7 a6 08 bc bb 46 27 bd b5 de f4 3c fd d6 50 3d
       -0.008340544 -0.04083894 0.029891351 0.05098628
000010 ef dc f2 3b b9 78 26 3b 27 1b 80 bc ee 27 a3 3c
       0.0074115912 0.0025401546 -0.015637947 0.0199165
000020 48 e1 55 bd d1 e9 8c 3c 3c b2 db 3b d8 48 39 3d
       -0.052216798 0.017201336 0.006704597 0.045235485
000030 dd d9 0e bd d4 4d ec 3c 81 86 96 3c af 00 be bb
       -0.03487574 0.028845705 0.018374683 -0.0057984213
000040 93 eb 86 bd 59 9b 92 3d 7c 93 14 bb b2 86 f1 bb
       -0.06587901 0.071585365 -0.0022670915 -0.0073707933
000050 ed cc 2d bc 33 5e 24 bd 28 17 00 bd 9b ba 04 3d
       -0.01060794 -0.040128898 -0.031272084 0.032404523
000060 60 c5 dc 3c ac c3 60 3d 4b 18 aa 3d 55 cc 96 bc
       0.026949584 0.054874107 0.08305415 -0.01840798
000070 fc a0 36 3d cb 5d 9b bc 70 6f 52 3b 87 1e 31 bd
       0.04458712 -0.018965622 0.003210988 -0.043242004
000080 63 cf 37 3d e3 71 5d bd 15 04 53 bd 50 cc 06 3d
       0.044875514 -0.05406369 -0.051517565 0.03290969
000090 ae 7d 6e 3d 06 fd a5 3c aa 4d f5 bc 82 50 09 3d
       0.058225326 0.020262253 -0.02994426 0.033524044
0000a0 a3 3a 94 3c cc 0e 46 3d 3e 51 0e bc 13 48 ed 3c
       0.018094366 0.048353955 -0.008686362 0.028965032
0000b0 85 ee d8 bc a9 35 90 bc 29 26 02 3d de 0e ff bb
       -0.026480922 -0.017603712 0.031774674 -0.0077837547
0000c0 7d 4e 23 bd c9 7b 85 bd 60 35 e7 3c e5 04 98 bb
       -0.039869774 -0.06517751 0.028223693 -0.0046392553
0000d0 be 54 29 3d 4f e6 23 3d ab 62 b1 ba 97 98 0f bd
       0.041340582 0.04001456 -0.0013533434 -0.03505763
0000e0 e8 b6 4b 3d ba 68 18 3d a0 0b 7b bc 49 68 62 3c
       0.04973498 0.03720925 -0.015322596 0.013818809
0000f0 7a 52 b5 bc bb 94 ba bc e1 aa 3b 3d cf 09 43 bd
       -0.022134054 -0.022775998 0.04581726 -0.047616776
000100 57 97 64 3d 0f 94 02 bd 17 b4 a5 3c 92 5c 84 3d
       0.05580839 -0.03187948 0.020227475 0.06462969
000110 71 c2 3f 3d 9b 65 77 3a 99 ac 8c 3d 68 ac 84 3d
       0.046816293 0.00094374426 0.06868858 0.064781964
000120 79 0d f6 bc a6 95 7e bd 28 1b f4 bc a5 bb 41 bd
       -0.030035721 -0.062154435 -0.029798105 -0.047298092
000130 b5 fa 19 3d d3 73 20 3b 45 68 cd bc 9a 63 80 bb
       0.03759261 0.00244831 -0.025074134 -0.0039181234
000140 12 fa 70 3c fa 0f 7d bb 3f e7 9d bc ab c9 37 bd
       0.014708059 -0.003861426 -0.019275306 -0.04487006
000150 03 2e be 3c 83 b6 69 3d a8 85 ad bc 9c b5 0b bc
       0.0232153 0.057058822 -0.021181896 -0.008527186
000160 00 1c c3 3c 7d f1 25 bb 35 de 31 3c b9 45 32 3c
       0.023817062 -0.002532094 0.010856201 0.010880881
000170 9d cc 60 3d 29 1d b6 bc 82 90 19 bd 2c af 0c bd
       0.054882634 -0.022230702 -0.03749133 -0.034346744
000180 98 36 a9 bc 07 c8 3e bc 24 2f d0 bc ea 06 62 3c
       -0.020655915 -0.01164437 -0.025413103 0.013795594
000190 16 11 30 3c c6 ff 80 3d 15 e6 9a bc 87 0d 6f bd
       0.010746261 0.06298785 -0.01890854 -0.05836251
0001a0 48 13 34 3d fd 52 2d bc 02 91 5a 3d 7e cd 1f bd
       0.0439637 -0.010578868 0.053360946 -0.039014332
0001b0 1d f4 59 3c b4 e7 21 3d dd 03 70 bb 9f 54 c6 ba
       0.01330283 0.03952761 -0.0036623396 -0.001513142
0001c0 3d 80 2e 3c 05 ec 07 bb b5 80 f0 3c c0 d9 86 bd
       0.010650692 -0.0020740044 0.029358247 -0.06584501
0001d0 68 80 43 bd 39 b3 b1 bb 51 9e 8f 3d 8f ab 46 3b
       -0.04772988 -0.0054229763 0.07012618 0.003031466
0001e0 d0 3d c0 bc b9 f4 11 3c 98 13 e6 3c af 44 69 3d
       -0.023466974 0.008908444 0.028085515 0.056950267
0001f0 0b 49 8a 3d 73 c7 9a 3c 75 0a 9b 3d 3d 02 2d bc
       0.06752213 0.018893933 0.07570354 -0.010559616
000200 ce 91 ad 3c e7 15 05 bd 59 50 0c 3d ce 25 4b bd
       0.02118769 -0.03249159 0.034256313 -0.0495966
000210 0f dd d9 3b b3 64 87 3d 28 e8 51 3a 3d 43 dc bc
       0.0066486667 0.06611004 0.0008007311 -0.02688753
000220 73 9e e5 bc 59 95 55 3d 2f c3 62 3c 22 67 82 bc
       -0.028029656 0.052144382 0.013840481 -0.015918318
000230 d2 2e 3d 3d a7 c0 71 bb 74 1c b3 bb 65 10 81 bd
       0.04618723 -0.0036888511 -0.0054660384 -0.06301955
000240 fb 31 aa 3d 24 00 56 bd 17 0f 81 bc f9 64 23 bd
       0.08310314 -0.052246228 -0.015754266 -0.039891217
000250 d3 d3 ba bc 5a a9 a5 3d 39 e0 54 3d d9 9d d7 bc
       -0.022806084 0.08088942 0.051971648 -0.026320385
000260 05 ef 79 bc 70 44 5d 3d 03 a6 30 3d df 0e 56 3c
       -0.015254741 0.054020345 0.04312707 0.013065069
000270 42 a5 cf 3c 26 f1 95 3c da fb 61 bd f0 25 86 3b
       0.025347356 0.018303465 -0.055171825 0.004093878
000280 7e 9c 67 3b 94 75 3d 3b c4 f8 12 bd bd 93 23 3d
       0.003534108 0.0028909193 -0.035881773 0.039935816
000290 d3 22 0f bd 62 da df bc 26 a6 a4 bc f7 0b 65 3c
       -0.03494532 -0.027325813 -0.020098757 0.013979903
0002a0 d4 68 2f 3c 75 e8 ad 3b 5e f6 07 bd b5 74 58 bc
       0.010706145 0.005307252 -0.03319394 -0.013211419
0002b0 7c 90 47 bc 58 44 3e bc 74 e0 28 3c 27 10 92 bc
       -0.012180444 -0.011612974 0.01030742 -0.017829968
0002c0 df a8 47 bd 6c 79 9c 3c ab 7b aa bc fa 73 70 3c
       -0.048745032 0.019100867 -0.020810923 0.0146760885
0002d0 fc ec 5a 3c 71 7f 4f 3d 86 a9 fb 3c 33 33 31 bd
       0.013362166 0.050658647 0.030720484 -0.043261718
0002e0 32 fc 42 3a 13 a7 91 3a ff 70 85 3d eb ba 34 bc
       0.0007438093 0.0011112414 0.06515693 -0.011030893
0002f0 78 6a 25 bb 8b 02 32 3c d0 05 e2 bc 97 b8 55 3c
       -0.0025240462 0.010864864 -0.027590662 0.013044498
000300 1d 1d 46 bc b2 87 35 bc e0 4f 86 3d 79 16 5d bc
       -0.012091902 -0.011079716 0.06558204 -0.013494127
000310 62 90 b4 bc 18 be f3 3c c1 3b 08 bd d9 2d 7f bc
       -0.022041503 0.02975373 -0.03326011 -0.015574896
000320 f4 9c 72 bd 63 ea 72 3d 17 b8 0b bc bf b4 42 3d
       -0.059231713 0.05930556 -0.008527777 0.047535654
000330 b7 bc d9 bc c1 b2 24 3d 40 31 a9 3c 40 07 7c 3d
       -0.026579244 0.040209536 0.020653367 0.06153035
000340 7d a7 9f 37 99 51 87 3d 72 63 ff 3c 74 54 8d bb
       1.903227e-05 0.066073604 0.031175349 -0.004313046
000350 52 fb b5 3c c6 19 9f bb d8 46 78 3d 0c c5 0c 3d
       0.022214565 -0.0048553674 0.060614437 0.034367606
000360 5e 05 52 bd b2 c3 ea 3c 44 3e 50 3d 6b 47 db ba
       -0.05127465 0.028657768 0.05084063 -0.0016729658
000370 41 24 d3 3c 44 da 83 bc ad b1 cb ba 6d ae 64 3d
       0.025774123 -0.016095288 -0.0015540622 0.055830408
000380 02 85 20 3d 53 25 15 3c cb 82 05 3d 02 19 27 3d
       0.039189346 0.009103137 0.032595437 0.040795334
000390 7b 2f 19 3d b4 0e ff 3c 97 0c 1e 3d a6 2d 14 3d
       0.037398797 0.03113494 0.038586225 0.036176346
0003a0 46 a2 1f 3d aa aa b5 bb a9 7a 1a bd 6e 5a 24 bd
       0.038973115 -0.0055440264 -0.037714634 -0.040125303
0003b0 36 ec 85 3d da a6 d6 3c 07 ec bb bb cf fb 4a 3d
       0.06539194 0.026202608 -0.0057349238 0.04955655
0003c0 09 a7 00 3d 18 4f fa bc 58 a3 dd 3c 72 e2 5a 3d
       0.031409297 -0.030555293 0.027055427 0.05343861
0003d0 d1 4c 00 bd 28 ce 6b bd 95 87 1b 3d be e4 d9 3c
       -0.031323258 -0.057569653 0.037971098 0.02659833
0003e0 d6 ca 49 3d 19 80 52 3d b6 75 81 3d cb 50 b7 ba
       0.049265705 0.051391695 0.0632128 -0.001398587
0003f0 60 10 28 bd b6 b3 76 3d 97 2d 04 3d 54 d7 84 3d
       -0.04103124 0.06022998 0.03227004 0.06486383

network_body.linear_encoder.seq_layers.0.bias f4 [256]
000000 cf 8e 85 bc 99 6c a3 3b 1e b3 6c 3b 44 cf d5 bb
       -0.016303448 0.004987311 0.0036117504 -0.006524952
000010 fe 51 17 3a fb 87 37 bc 35 d0 af bb 1d 97 02 bc
       0.00057724107 -0.011201854 -0.0053653964 -0.0079705985
000020 a6 e3 79 3b 28 88 37 3a b5 40 0b 3c fa 52 96 bc
       0.0038130074 0.0007001185 0.008499314 -0.018350113
000030 b7 e1 ab bc 85 c5 07 3c b2 d4 80 3b 94 b9 02 3b
       -0.020981653 0.008286838 0.0039316053 0.001994704
000040 48 b6 e1 ba f2 b8 a3 3b 29 39 f8 3a e7 82 26 bb
       -0.0017220462 0.0049964124 0.0018937933 -0.0025407614
000050 f7 27 37 bc fd 19 90 3b ea 05 9d bc 2f f8 bd 3b
       -0.011178962 0.0043976293 -0.01916786 0.005797408
000060 4f 3d a8 ba 73 fe 16 39 c4 b2 21 3b d1 ea 6b 3b
       -0.0012835654 0.00014399904 0.0024673203 0.0035998116
000070 43 2f f2 3b 97 19 64 3b d2 ec dc 3a c0 8f 6b 3a
       0.007390888 0.0034805292 0.0016855246 0.0008985959
000080 6d 77 a8 bb 65 77 b8 bb 9f 2a f0 3a 15 aa 68 ba
       -0.00514119 -0.0056294673 0.0018323249 -0.0008875442
000090 21 4f cb 3b 7a fa 3b 3b f7 7f a3 3a 1c cd d2 bb
       0.0062045013 0.0028683231 0.001247405 -0.0064331423
0000a0 e1 05 61 3b 9d 50 24 bc 65 a5 ce bc 07 40 59 3c
       0.003433578 -0.010028985 -0.02522535 0.013259894
0000b0 42 6a 0d bd 7c db 90 3b 29 84 b0 ba 48 a3 95 bc
       -0.034525163 0.004420696 -0.0013467121 -0.018266335
0000c0 71 0e d4 bc 77 58 60 3a 9c 69 e9 3b ce d0 8f 3b
       -0.025885792 0.0008558104 0.0071231853 0.004388905
0000d0 91 e5 df 3a 29 fb 57 bb 24 9e b6 bc 0f a8 87 3b
       0.0017081966 -0.00329561 -0.022292204 0.004139907
0000e0 f3 91 d4 3a 33 68 37 3a bc b6 e2 b9 a7 77 7e 3b
       0.0016217813 0.0006996423 -0.00043242227 0.0038828643
0000f0 30 e2 f0 3a f0 7f 88 bc 00 a5 91 bc df a5 d5 3b
       0.0018377956 -0.016662568 -0.017778873 0.0065200175
000100 3b 85 1c bb 29 82 20 39 e8 98 4e bc 71 2c 0a ba
       -0.0023883122 0.00015307277 -0.012609698 -0.00052709045
000110 30 a1 15 3c 66 6a e7 3b 26 f8 27 bd 7f dc d2 ba
       0.009132668 0.007062244 -0.041008137 -0.0016087441
000120 5e f6 c1 3a 62 cc 32 bc 25 4a 9b 3a 1a 0f da bb
       0.0014798155 -0.0109129865 0.0011847658 -0.0066546323
000130 4c 11 19 bb fc e0 b4 bb c8 17 09 bd 5c c6 9f bb
       -0.0023356257 -0.0055199843 -0.033469945 -0.004875941
000140 54 9a d7 bc 6e 3e b6 3b da 34 bd 3b 9e 67 60 bb
       -0.026318707 0.0055616414 0.0057741227 -0.0034241448
000150 ef 9a 3c 3b 41 f8 8b 3a b7 e5 db 3b 3b f4 15 bc
       0.002877887 0.0010678844 0.0067107338 -0.009152467
000160 8d b9 62 3b d4 10 76 bc 38 e1 91 3b 72 93 a8 bb
       0.003459546 -0.015018661 0.004451897 -0.00514453
000170 16 43 3f bc 13 ad 14 3b 4d 30 a2 bc 86 0a 74 b8
       -0.011673709 0.0022686168 -0.019798422 -5.8183934e-05
000180 79 06 5a bc 1c 8c 73 bc 9e 3d 76 bb 24 8c 0e 3c
       -0.013307207 -0.014864948 -0.0037573348 0.008700404
000190 6e f7 c7 3b e4 73 91 3b 3c 52 6a 3a 73 66 89 bc
       0.006102494 0.004438864 0.00089386455 -0.016772484
0001a0 04 d8 27 bc 40 2a 9f ba 40 15 b7 bb 24 92 ae 39
       -0.010244373 -0.0012143329 -0.00558725 0.0003329675
0001b0 47 64 a3 3b f9 bb 4e bb 48 7c 82 bb 9f 4c 8e bb
       0.004986319 -0.0031545146 -0.0039821006 -0.00434263
0001c0 fd 4c 12 bb d9 2a 0a 3c 57 9e 2f 3c 40 65 ad bb
       -0.002232372 0.008433067 0.0107189035 -0.005291611
0001d0 37 7b 57 bb 53 36 10 3c b9 26 c2 bc 45 c0 19 3b
       -0.0032879838 0.008802014 -0.023700105 0.002346055
0001e0 4b 1e 34 bb 68 c6 cf 3b f6 71 33 bc 6c 29 71 3b
       -0.0027483876 0.0063407905 -0.010952463 0.003679837
0001f0 e7 90 20 b9 4c b5 a4 3b 7f 3c c4 3a 5c 8c 1e 39
       -0.0001531277 0.005026495 0.0014971643 0.00015120342
000200 84 73 38 bb 05 cb 37 3b 40 85 f0 bb 35 e1 d3 38
       -0.0028145025 0.0028044593 -0.0073401034 0.00010103212
000210 1e ba 3c 3a f2 40 ca 3b c6 4c e5 3b 00 f0 1e 3b
       0.00071993645 0.006172293 0.0069976775 0.0024251938
000220 4a ed 8c bb 08 21 f2 3b 24 bb 09 ba 06 da 09 3a
       -0.004300748 0.0073891915 -0.00052540214 0.0005258623
000230 4e 17 6d ba 2d f1 9a 3a da 9c 00 3b 0c 62 9f bc
       -0.0009044305 0.0011821144 0.001962474 -0.019455932
000240 83 c0 33 bc 34 c0 27 3a f3 ed 98 3b 43 95 07 bc
       -0.010971191 0.0006399185 0.0046670376 -0.008275333
000250 60 59 4c bb d3 30 fc ba 7f b0 e7 bc 63 4f d5 3b
       -0.0031181201 -0.0019240625 -0.028282402 0.006509708
000260 f1 28 ff bb 39 c2 13 3c db ed e4 bb f1 84 82 bc
       -0.007786863 0.009018474 -0.0069863624 -0.015932532
000270 0e 56 11 3b 8a e1 6d ba ed 65 b8 3a 9f 53 b9 3b
       0.0022176537 -0.00090744405 0.0014068462 0.0056557204
000280 7c fb b8 b8 63 86 e9 bb 48 36 b0 3b 03 4a 2d bb
       -8.820646e-05 -0.007126616 0.0053775646 -0.002644182
000290 41 91 bb bb 38 d5 2a 3b 86 5b 2b 3b e7 aa b8 b9
       -0.0057241027 0.002606703 0.0026147082 -0.00035222547
0002a0 be 11 3d bd 95 58 a1 bc 97 33 cc bc 55 cd 75 bc
       -0.0461595 -0.01969556 -0.024926944 -0.015002568
0002b0 4c 2a d4 3a 01 c6 1d bd 81 cf c1 3b f8 25 34 3c
       0.0016186922 -0.03851891 0.005914629 0.010995381
0002c0 da bf 16 3c a1 95 d9 3b 35 d6 93 bc 2e 75 c8 bb
       0.009201014 0.0066401516 -0.018046478 -0.0061174845
0002d0 c5 82 42 3b 60 cb 98 3b e0 80 35 3b e3 c4 ce bc
       0.0029679995 0.004662916 0.0027695224 -0.025240367
0002e0 8e 9b 6a 3b 6f 42 8d bc fb ac 3e bc 3c 10 10 3c
       0.0035798284 -0.017243592 -0.011637921 0.008792933
0002f0 23 f5 a4 bc da d9 d2 bb 74 70 34 3b 28 78 a8 3a
       -0.020136422 -0.0064346613 0.0027532848 0.0012853192
000300 8c 47 92 3b 4c 3a 70 bc 4a 6e 8a bb 09 60 9b bb
       0.0044640955 -0.014662337 -0.0042245733 -0.004741673
000310 94 d8 b0 3b ae c6 42 bc 20 77 10 3a ae b9 b9 bb
       0.005396912 -0.011888189 0.0005510915 -0.0056678867
000320 d4 f1 f1 bb 37 b0 ed 3b 3a 3a 81 3a 50 a7 6c ba
       -0.0073835645 0.0072536725 0.0009859272 -0.0009027617
000330 26 58 d1 3b f9 b5 81 bc f1 89 a5 bc d1 ff 87 3a
       0.006388682 -0.015833842 -0.020207377 0.0010375922
000340 75 a8 43 bc 3d 1b f0 bb 2a 62 1c bc 12 97 48 bb
       -0.011942019 -0.007327466 -0.0095448885 -0.0030607623
000350 c0 02 c4 ba ca c6 c7 bc ca 86 38 3b 6a 82 18 3b
       -0.0014954433 -0.024386782 0.0028156512 0.0023271092
000360 cc 03 73 bb 6e 20 f5 bc 6f 26 f7 3a be f9 40 bd
       -0.003708112 -0.02992269 0.0018856059 -0.047113173
000370 53 32 c9 bb 9b fb 16 3b 40 f9 75 ba 69 8c 2b bd
       -0.0061400323 0.0023038152 -0.00093831494 -0.041881952
000380 6d 9a 72 bb ba b1 77 ba 2f c0 bf bc 65 44 cf bb
       -0.0037018314 -0.00094487856 -0.02340707 -0.006325292
000390 28 4b bd 3a 80 41 17 bd db 7e 56 3b c4 3f c5 bb
       0.0014441954 -0.0369277 0.003272942 -0.0060195643
0003a0 5a d9 27 3c 18 6d 13 3b fe 2b 14 3a 70 ba 89 3b
       0.010244692 0.0022495445 0.00056523073 0.0042031333
0003b0 a3 ee d3 bc b5 8f 1d bc 56 3a b8 bb 53 28 c6 ba
       -0.025870627 -0.009616782 -0.0056221886 -0.0015118219
0003c0 3e 2f 40 bc ad 11 8b 3b 1f b3 03 bc 59 cb 10 ba
       -0.011730013 0.0042440505 -0.008038311 -0.0005523465
0003d0 71 f8 f9 3a 18 a2 11 bb fb d9 39 bc 26 c2 2a bc
       0.0019071234 -0.002222186 -0.0113434745 -0.010422265
0003e0 d4 76 d7 3b e1 1c 6f bc d2 b9 13 3c 5c 91 db ba
       0.0065754447 -0.014594288 0.009016471 -0.0016751694
0003f0 a2 74 8c ba 51 28 80 bc c6 72 44 ba e7 da 00 bd
       -0.0010715912 -0.015644224 -0.0007493909 -0.03145876

network_body.linear_encoder.seq_layers.0.weight f4 [256, 416]
000000 d5 cb bb bd e6 d1 e4 bc ef 9c 22 bd 97 0d 15 bb
       -0.09169737 -0.027932119 -0.039700445 -0.0022743696
000010 1d c7 26 3c be 91 05 3d 67 f2 ec bd 8c db 4d bc
       0.010179308 0.032609694 -0.11569672 -0.012564551
000020 1f de aa bd e7 9e b4 bc 98 90 13 3c 72 d4 3d 3d
       -0.083431475 -0.022048427 0.009006642 0.04634518
000030 5b 44 02 3d b6 41 01 bd 3a 24 ed bc be 27 da bc
       0.03180347 -0.031556807 -0.028947938 -0.026630279
000040 4a 3c 31 bd b0 67 fb 3b a3 f5 a2 3c 93 93 1d bd
       -0.043270387 0.0076722726 0.01989252 -0.038470816
000050 3c 34 b2 3c 27 be 59 3d 5f 5c 21 bd d1 62 8c bd
       0.021753423 0.05315986 -0.039394733 -0.06854785
000060 33 ec 04 bc 26 cd c0 bc 8c 90 d7 3d 07 e5 60 bc
       -0.008112955 -0.023535322 0.10525617 -0.013726479
000070 ff 3c e9 3c ed 15 6a bd 8c f0 11 3c 3f 95 d4 3c
       0.028471468 -0.057149816 0.0089074485 0.025950072
000080 59 37 47 bb ef c7 3b bd 52 f4 42 3d 1a e0 28 bd
       -0.003039798 -0.04584497 0.047596283 -0.041229345
000090 3d 0e 6e bd 40 3f 63 bd 8c de a6 3d 5f 46 76 3d
       -0.058119047 -0.05548024 0.08147916 0.060125705
0000a0 71 f1 41 ba 65 6e 90 bc 3d 4b 74 3d b0 aa 9d 3b
       -0.00073983433 -0.017630765 0.059642065 0.0048116073
0000b0 61 b1 0b bc 7b d1 e8 3c 6f 62 f7 bc 50 7e 74 3d
       -0.008526177 0.0284202 -0.030198304 0.059690773
0000c0 d6 b5 5b bd 02 e1 00 3e 47 34 4a bd 03 4f 47 3d
       -0.05364021 0.12585834 -0.04936626 0.048659336
0000d0 29 2f 65 bd 5d 53 e6 bb 9f ef 44 3d 40 8f 25 3d
       -0.05595318 -0.0070289806 0.048080083 0.040419817
0000e0 a3 ec d2 3c 21 0b cf bd 5e 63 1c 3c 41 e2 80 3b
       0.025747603 -0.101095445 0.009545175 0.0039332216
0000f0 ad 0b f7 bc 19 20 00 3c 9f 86 58 bd d4 c1 1f 3c
       -0.030156935 0.007820153 -0.05286276 0.009750802
000100 e2 75 99 ba e2 d5 fe 3c 98 c9 c0 bd ef 72 b3 bc
       -0.0011708105 0.031107847 -0.09413451 -0.02190539
000110 13 2f 57 bd 39 d8 8e 3d 67 aa b6 bc eb bb 49 bc
       -0.052535128 0.06974835 -0.022298051 -0.01231287
000120 ab a5 e0 3b 99 af 59 3d d7 05 9f 3c a7 b0 42 3d
       0.0068556867 0.05314598 0.019411964 0.04753175
000130 2f a7 9d 3d a1 1a 53 3d 94 da 3a 3a ad 60 42 3d
       0.07697903 0.051539067 0.00071279076 0.04745548
000140 6a 4f 86 bd f4 f2 06 bd 93 09 dc bb ab 2a ad 3c
       -0.06558116 -0.032946542 -0.0067150085 0.02113851
000150 1b 93 75 bb 72 89 e5 3c ef fa 61 3d 30 35 51 3d
       -0.0037471715 0.02801964 0.05517095 0.051076114
000160 53 8f 52 bc 24 a8 c8 bd a4 03 74 bd 38 b6 0f 3d
       -0.012851554 -0.09797695 -0.059573784 0.035085887
000170 f0 d2 c7 3c af 0d 70 bc 89 e5 6b bd 80 ee 83 3c
       0.024392575 -0.0146517 -0.05759195 0.016104937
000180 90 78 9a bc 9e 3d 33 bd 52 4a 03 3c 78 28 8f bd
       -0.018856317 -0.043759935 0.008013325 -0.06990141
000190 0c 52 10 bc 36 12 66 bd c0 f2 82 bc 8a 51 97 3c
       -0.008808624 -0.05616971 -0.015984893 0.018471498
0001a0 c2 6f 28 3c 99 a6 16 3c dc a9 df 3a 7e 63 1b 3d
       0.010280551 0.009194993 0.0017064172 0.03793668
0001b0 3b d3 af bc 82 bc c9 3d 5f 9e 06 bd b6 33 79 3d
       -0.021463027 0.09850408 -0.03286588 0.06084033
0001c0 e9 73 11 3d 2e a5 21 bd 6a ae 29 3d 32 b7 2f bd
       0.03551093 -0.03946417 0.0414261 -0.042899318
0001d0 d4 a3 d3 bc 50 5e f4 3a eb 75 27 3c 8c c9 9b bc
       -0.025834955 0.001864383 0.010220985 -0.019017003
0001e0 b7 ed e3 3a e5 ae da bb e8 87 79 bc a9 2c 36 bc
       0.001738957 -0.006673681 -0.0152301565 -0.011119046
0001f0 42 5b 95 bc 16 73 78 3c d8 5d 62 3d c6 2a 79 3d
       -0.018231992 0.015164157 0.055265278 0.060831808
000200 b9 1f 31 bd 28 85 82 bc b1 10 ad ba 8d c2 07 bd
       -0.043243144 -0.015932634 -0.0013203827 -0.033144522
000210 09 18 ed 3c 71 8c 16 bd b1 82 8b bb 31 b0 6d 3d
       0.028942125 -0.03675503 -0.004257523 0.058029357
000220 d0 d8 a6 bc 94 96 51 3c 83 03 2d 3d c6 40 6e bc
       -0.020367056 0.012792248 0.042239677 -0.01454181
000230 49 93 97 bc 99 68 24 bd bb ea cd 3d 32 63 35 3c
       -0.018502848 -0.040138815 0.10054537 0.011071013
000240 ee 01 9e bd 1c fa 95 bd 24 43 a4 bc d2 b6 04 3d
       -0.07715212 -0.07323095 -0.020051546 0.032400914
000250 d3 77 3a 3d f1 30 02 bc 8a c3 33 3c f3 1f 9a bc
       0.04552443 -0.007946239 0.010971913 -0.018814063
000260 4b 53 af 3d 76 b5 97 3d 86 64 43 bc 5b fa 56 bd
       0.08560809 0.07407658 -0.011925822 -0.05248485
000270 96 11 3a 3c 33 5c bb 3d 43 a6 54 ba f0 70 9a 3d
       0.011356732 0.09148445 -0.0008111933 0.07541072
000280 02 f6 89 bd 8c c2 8d bd 42 ed 2a 3d e3 6f 21 3d
       -0.067363754 -0.069218725 0.041730173 0.039413344
000290 e4 91 85 bc f8 7c 57 3c 69 fa 3a bd d6 fb 52 bc
       -0.016304918 0.013152353 -0.045648966 -0.012877425
0002a0 e7 43 73 3d a4 96 7b bc 67 88 1b 3d f3 ae 71 bd
       0.05939093 -0.01535574 0.03797188 -0.059004735
0002b0 d4 23 9d bc a8 b7 dd bc d3 e5 5f bb e5 b6 76 3d
       -0.019182123 -0.027065113 -0.0034164086 0.060233016
0002c0 53 9e 3f 3c 87 d2 76 bd 4c 27 0e 39 11 6e af 3b
       0.011695462 -0.06025937 0.00013556815 0.005353697
0002d0 45 86 8c bd 7c 30 1a 3d 2b 65 40 3d 76 23 1a 3c
       -0.068615474 0.037643895 0.04697148 0.009407869
0002e0 eb 89 47 bd c4 00 ea bc d8 8f 29 bc 8d d3 24 3d
       -0.048715513 -0.028564818 -0.010349236 0.040240813
0002f0 56 33 21 be 25 39 10 3d 14 05 1f bd b1 d2 9b bc
       -0.1574224 0.035210747 -0.038823202 -0.019021364
000300 87 ed 08 bc 99 bb 7d 3c 28 a9 5e bd a8 cc 01 bd
       -0.008357412 0.015486621 -0.05436054 -0.031689316
000310 c0 a7 e2 bd 92 bb a7 3d e5 b4 91 3c 5f 4f a4 bd
       -0.11067152 0.08190073 0.017786453 -0.08022951
000320 bd 5a 6a bd 46 53 4e 3c 0b 72 af bd e2 9b bf ba
       -0.05721544 0.012593096 -0.08566674 -0.00146186
000330 cc 28 4a bd b1 12 1d 3a 1c 7c 69 3c 7a 2f 0c bd
       -0.049355313 0.000599186 0.014250781 -0.034224965
000340 1f fd 56 3d 34 9a e2 b9 19 6f 8f bc df c5 2d 3d
       0.05248749 -0.0004322097 -0.01750903 0.042425033
000350 f7 f5 e9 3c 03 63 b7 3d 6a bb f4 bb d0 f4 16 bc
       0.028559668 0.08954432 -0.0074686306 -0.009213641
000360 ff 4f 7b 3d fc 42 7e bd ca ea ba 3d f4 b8 8f bc
       0.061355587 -0.0620756 0.09126814 -0.017544247
000370 0c e0 0c bd 11 39 a4 3d 4a 11 62 3d 6c 52 5a 3d
       -0.034393355 0.08018697 0.05519227 0.05330126
000380 3b 38 de 3c 9d 11 1e bc 1d 91 71 3d 4b 46 ca 3b
       0.027126422 -0.009647754 0.05897628 0.0061729304
000390 41 e1 ea b9 d5 91 b4 3d 9f b8 e9 bb 9b cc 9f 3d
       -0.00044799785 0.08816878 -0.0071326043 0.07802697
0003a0 41 68 9b 3d c1 32 56 bd ec 83 60 3d b6 67 6d 3c
       0.07588244 -0.052294496 0.05481331 0.014490059
0003b0 60 40 1d bd c9 a0 45 3c f2 2d 4f 3b 87 d7 e8 bc
       -0.03839147 0.01206226 0.003161308 -0.028423084
0003c0 da 57 02 3d eb 96 1b 3d 6a eb 19 bd b2 7a 24 3d
       0.031822063 0.037985723 -0.037578024 0.040156074
0003d0 74 93 95 bb cf c1 88 bc 89 40 3c 3d 20 09 76 3d
       -0.004564697 -0.016693978 0.045959983 0.060067296
0003e0 24 85 67 bd 58 16 76 bd d7 42 db 3d 30 11 90 bd
       -0.056523457 -0.060079902 0.10706108 -0.07034528
0003f0 cc 3f fa 3c 94 1a 8e bd 92 d8 03 bd ce 05 64 bc
       0.030547999 -0.06938663 -0.03218896 -0.0139174

network_body.linear_encoder.seq_layers.2.bias f4 [256]
000000 1b bd 4b bb a3 b4 99 3a 34 58 6b 3b b1 c9 b5 bb
       -0.0031088057 0.0011726808 0.0035910727 -0.005547725
000010 a6 ab 05 3b 18 42 b0 3a 9f 9d 80 bb 61 e1 fe bc
       0.00203965 0.0013447432 -0.00392504 -0.031113328
000020 3b 2c 1c 3c b9 9a b8 bb c6 2d 64 3c 03 e5 8b bc
       0.00953203 -0.0056336788 0.013926929 -0.017076975
000030 87 82 8e 3c 5f db 7e bb 6c ea 07 bd 6b 8a 66 bc
       0.017396225 -0.003888808 -0.033182546 -0.014071087
000040 fc 35 84 3c 8f 91 55 3a 22 57 23 bc cd 16 21 3c
       0.016139023 0.0008146995 -0.009969505 0.009832096
000050 4e db 2d 3c 1f 0b 50 3c 21 ef 5f b9 09 d4 d8 bc
       0.010611368 0.012697964 -0.0002135602 -0.026468294
000060 7b 43 d8 3b 5a db 15 3c 40 e8 b2 bc b8 92 92 3b
       0.006599841 0.009146536 -0.021839261 0.0044730566
000070 13 78 ae bc e3 7c 02 3b ab 04 e9 bb dd a8 9c 3a
       -0.02129749 0.0019910864 -0.007111152 0.0011952181
000080 7f 51 d4 ba 33 54 70 3c 6a 5b 66 3c 65 13 94 bc
       -0.0016198604 0.014668512 0.014059881 -0.018075654
000090 3d 1f 69 bb ee e8 82 bc 64 0d 9b 3a d3 33 c5 bc
       -0.0035571598 -0.01598021 0.0011829552 -0.024072563
0000a0 8c 27 1a bb bc 78 6e 3c ac 3f b7 ba dd 78 e8 bc
       -0.0023522107 0.0145551525 -0.0013980768 -0.028377945
0000b0 79 f4 18 bb 54 ba e8 ba cf b8 43 bc c6 64 a0 bb
       -0.0023339076 -0.0017755725 -0.011945917 -0.0048948256
0000c0 08 95 77 3c a6 56 a7 3c 6f 34 2b ba 86 93 82 3c
       0.015111215 0.02042706 -0.00065309455 0.015939485
0000d0 50 c0 0b 3c 6e 94 0d bc 89 6f 57 3c 36 79 28 3c
       0.008529738 -0.008641345 0.013149151 0.010282805
0000e0 42 b1 bf bc 66 36 36 bc e0 73 e6 3b 12 84 0f bc
       -0.023399953 -0.011121368 0.0070328563 -0.008759515
0000f0 38 c6 04 3c 86 1e 0a 3b bb e1 14 bc cf 53 59 bc
       0.0081039 0.0021075322 -0.009087021 -0.01326461
000100 72 48 22 bb 79 00 57 3c 93 2e 49 bb 68 39 5c bb
       -0.002476242 0.013122671 -0.0030697926 -0.0033603553
000110 2f 84 10 bb 26 0e 0b bc 61 2a 50 bb f7 e5 55 3c
       -0.0022051444 -0.00848726 -0.003176354 0.013055316
000120 74 f0 cc 3b 7e 48 f7 3c 45 b7 a9 3a b1 26 f3 ba
       0.00625425 0.030185934 0.0012948295 -0.001855096
000130 d8 90 c0 bc 7b d0 86 3b 6e a6 b0 3a 08 c3 3b bb
       -0.023506567 0.0041142083 0.0013477334 -0.0028650183
000140 bd e6 06 bc bf a1 8c bb 88 27 6f 3c 7b fd df 3b
       -0.008233723 -0.0042917426 0.014596827 0.006835637
000150 e5 65 6b bc eb a4 d8 bb 0c 79 d1 39 41 b0 1b 3c
       -0.014367555 -0.0066114566 0.00039953773 0.009502471
000160 81 77 d2 3a 1a a9 41 bc 66 d9 ec bc 36 d4 28 bc
       0.0016057343 -0.011820102 -0.028912257 -0.010304501
000170 01 bd 4b bc 5b f2 83 ba 48 33 c1 3c 70 c1 62 bb
       -0.012435199 -0.0010066734 0.023584023 -0.003460016
000180 bb 1e be 3b 93 5c d2 3b a5 9d f3 3b 91 92 0f bd
       0.005802003 0.006419727 0.007434564 -0.035051886
000190 9d b2 60 3a e8 cf 85 bc c0 90 71 3c 06 6c f6 3b
       0.00085715373 -0.016334489 0.014743984 0.0075202016
0001a0 d0 16 fd bc d7 80 c1 3c 2b 4e 83 3a 47 59 6b 3c
       -0.030894667 0.023621006 0.0010017803 0.014364547
0001b0 39 19 c4 bc a2 62 fd bb 60 52 e2 bb 4a 8c b1 3a
       -0.023937808 -0.007732705 -0.0069067925 0.0013545838
0001c0 fb a1 65 3a ba f1 c7 ba 9c 4b e0 bb 06 93 aa 3c
       0.0008759794 -0.0015254535 -0.006844951 0.02082206
0001d0 5f 21 cc bb 6b f0 24 3a b3 0c 39 bc fa 62 5b bc
       -0.006229564 0.00062919286 -0.011294532 -0.013390297
0001e0 3d 73 d5 bb 49 f6 01 bc 28 68 3e bc 22 ef 94 bc
       -0.0065139816 -0.007932254 -0.0116215125 -0.018180434
0001f0 1c 4c 94 bb c1 9a d0 bb 04 84 93 bc 82 55 40 3b
       -0.0045256745 -0.0063661044 -0.018007286 0.0029347842
000200 95 a2 b0 3c 60 74 ab 3c 18 74 8c bc 77 5b 3c 3c
       0.0215619 0.020929515 -0.017145202 0.011496416
000210 12 b8 1a bc 31 cd aa bc 9b 08 01 3c 6d 7f 8b 3c
       -0.0094433 -0.020849796 0.007875587 0.017028535
000220 c8 22 cd 3b 53 a1 c9 bb 9c 23 b1 bb b2 a0 c0 3a
       0.0062602498 -0.0061532645 -0.0054058563 0.0014696328
000230 cb 66 c1 bc f7 a6 7c 3c 7e 75 c0 bb 62 ea d0 3c
       -0.023608586 0.015420667 -0.005873381 0.025502387
000240 c0 98 09 3b 5c c0 bf 3c a7 97 80 3c 7b 91 3c 3a
       0.0020995587 0.023407154 0.015697313 0.0007193309
000250 e1 cb 43 3b 83 d5 8c ba c6 a3 1b bc 42 56 0a 3c
       0.002987616 -0.0010744784 -0.009499496 0.008443417
000260 96 58 f9 3b 47 fd 6d bc 12 88 77 bc 8f d4 a5 3b
       0.007609437 -0.014525718 -0.015108125 0.0050607393
000270 9b df b1 bc ff 03 44 bc 11 2f 44 3c 8b 22 6b b9
       -0.021713069 -0.011963843 0.011974112 -0.00022424215
000280 63 6b 1c 3c b4 8a 54 3a 0a 9d 6c 3b 36 54 36 bc
       0.009547087 0.00081078266 0.0036104345 -0.011128476
000290 41 71 29 3c 16 99 27 3c 21 08 b7 3c 4c 39 3a bc
       0.010341943 0.01022937 0.022342743 -0.0113662
0002a0 5a f5 77 3c e2 b4 3f bb ac f5 02 3c 52 d3 17 bc
       0.01513418 -0.0029252102 0.007993143 -0.009266691
0002b0 4d 97 82 bc 27 d3 e4 3a 70 e4 26 3c cd 3a 84 bb
       -0.015941286 0.0017457948 0.0101863 -0.00403533
0002c0 5e 21 08 3c 27 9b 84 bc 3e 55 5c 3b 15 93 9e bc
       0.008308737 -0.016187264 0.0033620144 -0.019357244
0002d0 ac 1e 04 3c e8 46 fb bb 28 29 9f bc ca 73 a9 3c
       0.008063953 -0.007668365 -0.019428805 0.020685095
0002e0 a0 ea df b9 40 4e 53 39 fa af d9 3b 72 28 8b bc
       -0.00042708684 0.00020151678 0.0066432925 -0.01698706
0002f0 24 1b d9 bb a1 de 94 bb 27 51 49 3b 26 ea 1d ba
       -0.00662555 -0.004543141 0.0030718537 -0.00060239655
000300 05 a3 6c 3c ee 3e 84 bb 7e 4f 9b ba 8d 76 7b bb
       0.014443164 -0.004035822 -0.0011849252 -0.0038370222
000310 f7 af bd bb 9d 44 3d bd a1 60 a2 3c e0 6d df 3b
       -0.005788799 -0.046208013 0.019821467 0.006818518
000320 f1 cd ba 3c 52 e0 33 bb c8 08 8e bb 43 05 cf bc
       0.022803279 -0.0027446938 -0.004334543 -0.025271064
000330 4a 0b a2 3c 91 83 42 bb 9a 48 91 ba 80 34 09 3b
       0.019780774 -0.002968047 -0.0011084259 0.0020935833
000340 ed 89 b2 bb 4c a8 0a 3b 11 4f 4b bc f0 fa 87 3b
       -0.005448571 0.0021157442 -0.012408988 0.004149787
000350 79 2d 84 3b 74 7f 6a 3c 7c 40 97 bc 5e df 3e bc
       0.004033741 0.014312614 -0.018463366 -0.011649935
000360 e7 c4 6d 3c 0f a6 f7 ba 4d c1 3a bc 39 01 c8 bb
       0.014512277 -0.0018894094 -0.011398626 -0.0061036614
000370 ed 3b 4b bc bd fb ec 3b 2f 2e a1 bb 40 f4 91 39
       -0.012404424 0.007232158 -0.0049188356 0.00027838536
000380 74 d4 b1 bc 34 89 09 3b a4 67 cc bc ad 8f 9d bc
       -0.02170775 0.002098632 -0.024951763 -0.019233549
000390 03 5d 64 bc fc 1a 23 bc 55 b7 92 bc c0 65 f7 3a
       -0.013938191 -0.009955164 -0.017909685 0.0018874928
0003a0 3b f3 bc bc 0b b9 ad 3c 9a 9f f7 3b 70 3b 4b 3c
       -0.0230652 0.0212064 0.007556868 0.012404308
0003b0 56 19 b0 3a 85 88 8f bc 57 8c 51 3c 5a 87 af bc
       0.0013435285 -0.017521152 0.012789807 -0.021426845
0003c0 96 13 fc ba 15 e6 aa bb 4d 4c e6 bc 42 c2 99 39
       -0.0019231911 -0.005215416 -0.028112555 0.00029327167
0003d0 35 eb ec 3b 68 72 cc 3c 4f 63 a5 3b 2f cb f0 3a
       0.0072301873 0.024956897 0.005047239 0.00183711
0003e0 04 c0 61 bc 13 3a 95 bc 4c 00 3f bb 51 f2 36 3c
       -0.01377869 -0.018216169 -0.0029144464 0.011166171
0003f0 e4 2b 0b 3c 13 1f bb ba dd e4 5f bc 69 34 74 3b
       0.008494351 -0.0014276229 -0.013665405 0.0037262684

network_body.linear_encoder.seq_layers.2.weight f4 [256, 256]
000000 c0 54 ae bd 68 06 fb bb 0f e6 75 bd 7a 63 3e bd
       -0.085122585 -0.007660676 -0.060033854 -0.046481587
000010 3a 71 f0 3c c9 15 17 3b 09 f5 30 3d 19 ce d7 bd
       0.029350866 0.0023053756 0.043202434 -0.10537357
000020 04 c6 3b 3d e2 1e 43 bd fb b0 b1 bc 93 0b 3e bd
       0.04584314 -0.047636874 -0.021690836 -0.046397757
000030 98 02 a5 bc 9d 2b 48 3d 44 58 af bd e7 36 e0 bd
       -0.020142838 0.048869718 -0.08561757 -0.10947972
000040 1e c4 3c 3d ed ac 74 3d 4e 70 b1 3c f0 28 72 3d
       0.04608547 0.059735227 0.021659996 0.059121072
000050 e4 0c 9c bd 27 06 87 3c 61 2e c5 bc e6 76 56 3c
       -0.07619646 0.016482426 -0.024069967 0.013089871
000060 f3 34 f9 3c a8 b4 5e bd 70 e0 8d 3c b4 d9 9d 3c
       0.030420756 -0.054371506 0.017318934 0.019268848
000070 d4 ac 57 3d 6f 2c f5 bc c3 f9 86 3d e0 d3 bf 3c
       0.052655056 -0.029928414 0.06590607 0.02341646
000080 97 ed 3c 3d ca 9b be bd ed 0e aa bc bd 80 11 bd
       0.04612502 -0.09307058 -0.02075907 -0.035523165
000090 82 18 18 be c1 90 14 bd 9a 99 6e 3d b7 f2 7e bd
       -0.14853099 -0.03627086 0.058251955 -0.06224319
0000a0 9b 52 11 3e 10 ae a0 3d ac 87 cd bc 4c 4e 22 3c
       0.14191668 0.078457 -0.025089107 0.009906363
0000b0 39 d3 2d 3d 13 3e 8d bd cf 2e 77 3c d4 a3 ca bc
       0.042437766 -0.06896605 0.015086844 -0.024736322
0000c0 3c 87 f0 3d 1e ea 86 3c ba 4d cb 3c 6f 95 bb 3c
       0.11744544 0.016469058 0.024817336 0.022898404
0000d0 7c 5d 4a 3d 8c ab 74 3d cb 9a 14 3d 31 a4 bf 3b
       0.04940556 0.059733912 0.036280435 0.0058484306
0000e0 1d a9 95 bc a6 3b d0 3b 4c 9e 5f bd 65 0a 66 bd
       -0.018269116 0.006354767 -0.054594323 -0.056162257
0000f0 65 6a 63 bd 36 44 86 bd f5 f8 ca 3c ce 3c 77 3d
       -0.055521388 -0.06555979 0.024776915 0.060360722
000100 b3 89 a5 bd ab a4 5d 3d f6 e3 f0 3b 26 e8 99 3b
       -0.08082905 0.054112118 0.007351394 0.0046968637
000110 88 32 d3 bd ce 77 c6 3b 68 13 e4 3c 7e 58 cf 3d
       -0.103123724 0.0060567623 0.027841285 0.101243004
000120 e7 ef 43 bd 5a cb 62 3b 03 81 74 3c 84 f4 b1 bc
       -0.04783621 0.003460607 0.014923337 -0.02172304
000130 34 58 57 bd ec 70 e0 bd 35 01 42 3c 15 14 c0 3a
       -0.05257435 -0.10959038 0.011841108 0.0014654422
000140 04 d0 fa bc ef e4 d9 3c 41 67 35 bc 03 93 0e 3b
       -0.030616768 0.026598422 -0.011071981 0.0021755106
000150 e5 b5 1d bd 2a 4a ba bc 04 5a 30 bd 51 89 ed bd
       -0.038503546 -0.022740442 -0.043054596 -0.11598457
000160 e5 70 ea 3d 28 ab b4 bc 96 a0 8b 3d 23 11 71 3d
       0.11447314 -0.02205427 0.06817739 0.058854233
000170 6a 8d 0e be c7 c0 26 3c 02 44 83 bd 23 86 b9 bd
       -0.13921133 0.010177798 -0.06409456 -0.09058788
000180 a2 53 37 bd d1 64 c0 bd f6 46 b8 3d 2b 71 94 3d
       -0.044757493 -0.09394229 0.0899791 0.072481476
000190 3c 0d 75 bc a7 32 0b bc ea 42 0f be a3 1e 6e 3d
       -0.014956769 -0.008495963 -0.1399037 0.058134686
0001a0 dd 03 78 bd 8b 44 48 3c ec d0 2b bd c1 47 1e bc
       -0.06055056 0.012223373 -0.04194729 -0.009660662
0001b0 45 c4 7e 3b 33 02 99 3d e9 6d 89 bd b8 16 c2 bd
       0.003887431 0.074711226 -0.06710417 -0.094769895
0001c0 8e 8e 7c bd 5a aa 21 3c 52 6f 80 bb 8d a7 b9 3c
       -0.06165939 0.009867275 -0.0039195204 0.022662902
0001d0 a9 8e 53 3b b7 b3 30 3c 0b c6 be 3a d7 59 c5 bd
       0.0032281077 0.010785035 0.0014554871 -0.09636276
0001e0 0a a9 89 bd 4b a7 ca bc 07 5b 63 bc 36 73 d6 3d
       -0.06721695 -0.024737975 -0.013876683 0.104711935
0001f0 bc c8 91 bc 73 72 9c 3d 67 7a fc bc 92 07 00 be
       -0.017795913 0.07639017 -0.030820085 -0.12502888
000200 f7 f4 bd bd d0 2f 96 bc ce c6 57 bd 60 a1 66 bd
       -0.09275239 -0.018333346 -0.05267983 -0.056306243
000210 cc 1c ad bb cb 5a 44 3d 21 20 5a 3d db 7b 51 3d
       -0.005282974 0.04793815 0.053253297 0.05114351
000220 57 bd 5f 3d f8 72 80 3a de bd a8 bc 8e 88 38 3d
       0.054623928 0.0009799888 -0.020598348 0.045052104
000230 99 2c 68 bc d0 58 1f 3d f0 e4 21 bd a0 9f e4 bd
       -0.014170789 0.038903058 -0.039524972 -0.111632586
000240 b9 b1 b4 bd c4 4d f2 bb 21 22 2d 3d 53 67 85 3d
       -0.088229604 -0.0073945243 0.042268876 0.06513848
000250 77 fc 8f bd 30 19 1b be 33 42 a6 bd 89 1a 13 bd
       -0.07030576 -0.15146327 -0.08118095 -0.035913978
000260 96 8a 39 3d 75 38 93 bd 79 8b 27 bd 3c 53 3a 3d
       0.04529818 -0.07188503 -0.040904496 0.045489535
000270 25 3c d0 3b 55 2c 71 3d 51 a3 83 bc 4e e7 77 bd
       0.006354826 0.05888017 -0.016069086 -0.060523324
000280 d7 50 5b 3d 24 18 61 bc 44 0f 6d 3c d2 e7 26 37
       0.05354389 -0.013738666 0.014468972 9.948346e-06
000290 db de ef bc 5c 9f 28 3d 74 66 eb bc 45 28 c4 bd
       -0.02928107 0.041167602 -0.028735377 -0.09577993
0002a0 e2 de 9c 3d e0 b8 6f bd 35 a8 32 3d 41 89 dd bb
       0.07659699 -0.05852592 0.043617446 -0.0067607467
0002b0 9f ae 59 3d ba 99 eb bb 01 27 7d 3d 6c c5 43 3d
       0.053145047 -0.0071899565 0.061804775 0.047795698
0002c0 f4 fe a1 3d 63 81 2b 3c cf ae b5 bc c9 26 a2 bd
       0.079099566 0.01046786 -0.022178082 -0.07917554
0002d0 9f 75 64 3d 1f 1e e1 3d e6 4b 27 bd 1c a6 0f 3d
       0.055776235 0.10992073 -0.040843867 0.035070524
0002e0 ad 70 1b 3d f2 72 99 bc 60 16 7b bd 85 10 1e 3d
       0.037949253 -0.018731568 -0.061300635 0.038589973
0002f0 7b a1 72 bd bb bc 07 be e4 16 8f bd 1f fa 5b 3d
       -0.05923603 -0.13255589 -0.06986788 0.05370533
000300 53 51 f1 bc c8 51 22 bc 6f 34 a4 3c a8 75 91 bd
       -0.029457724 -0.0099071935 0.020044534 -0.07102519
000310 3f db 63 3c 12 09 4c 3d cb c7 7a 3d d5 d4 50 3c
       0.013907253 0.049813338 0.061225694 0.012746056
000320 16 07 a4 3d df b3 c9 bc 1f 09 af bc 27 35 50 3d
       0.08009164 -0.024621902 -0.021366654 0.05083194
000330 12 82 91 3d 66 d2 a7 bc 01 2d 7d 3d c8 32 1b be
       0.07104887 -0.020486068 0.061810497 -0.1515609
000340 7e f9 a6 3c 2b 14 eb bd 81 26 18 be cd e3 90 3d
       0.020382639 -0.11478456 -0.14858438 0.070746996
000350 9c 15 9d bd 2f 8d a6 3d e0 58 f7 bc ae 38 ce bd
       -0.07670137 0.081323974 -0.030193746 -0.100694045
000360 ec 27 f4 bc 5b 5f 63 bd 0f aa c4 3d 10 87 4c 3e
       -0.029804192 -0.05551086 0.096027486 0.19973397
000370 88 7c 16 3d cc cf 2b bd 91 12 9b bd 13 eb fd bd
       0.036739856 -0.041946217 -0.07571901 -0.123983525
000380 63 1b 04 bd 3c d2 86 3d ce 8b dc bc 51 f2 9d bd
       -0.03225268 0.06583068 -0.026922133 -0.07712234
000390 1e 16 13 be 5e d6 4f bd 2b e4 46 bd 34 9d f1 bc
       -0.14363906 -0.050741546 -0.04855744 -0.029493906
0003a0 25 77 66 3d a1 64 82 bd 31 2b f0 3d a0 67 64 bc
       0.05626597 -0.0636685 0.11726988 -0.013940722
0003b0 d1 68 11 3c ab 68 7d bb 04 ff b3 bc 10 f0 84 3d
       0.008875088 -0.0038667123 -0.021972187 0.06491101
0003c0 72 3e 17 bc 16 a7 a0 bd 27 6e 69 3d 25 69 91 3d
       -0.009231197 -0.07844369 0.056989815 0.07100133
0003d0 6c e0 ef bd 27 f3 18 3e e8 d7 11 3d d2 7e 40 bc
       -0.11712727 0.14936505 0.035606295 -0.011748986
0003e0 de ad 29 3d ec df 6b bc 24 67 ae 3b 1d 29 5e 3d
       0.04142558 -0.014396649 0.005322354 0.054238427
0003f0 6f 64 29 bd 83 f6 b7 bd a6 63 9d bd 59 3e 90 3a
       -0.041355547 -0.08982565 -0.07685022 0.0011004909
